saved_CEBRA_models/nitschke_20090812_20090819_20090910/CEBRA_models/temperature_0.0009666666666666668_time_offsets_1_dataset1.pt (torch, 531429 bytes, 31 tensors)

net.0.weight f4 [32, 191, 2]
-0.011488481 -0.019685505 0.0052551082 -0.009185243 0.042546723 0.0138734 0.03853332 0.07019411
-0.010130715 0.012617493 -0.04498397 0.012672442 0.046965048 -0.0046407827 0.030355133 0.02477259
0.00757311 -0.026732069 0.058499027 -0.010849116 -0.059890095 -0.019829283 -0.023842601 -0.03949506
0.013366037 -0.057798546 0.020202091 -0.018374944 -0.0070821675 -0.013116948 -0.00999056 -0.03333396
-0.113560356 -0.030319368 -0.0030191082 -0.041987505 0.007543628 -0.057319533 0.006741782 -0.018992972
0.026930053 -0.048993256 -0.034266297 -0.0067534023 -0.018071067 0.005340453 -0.041959323 -0.014838614
-0.072004944 0.01581202 -0.004685356 -0.05045734 0.0010466563 0.021522816 -0.011028574 -0.005097403
0.034624822 0.002028328 -0.07460236 -0.04116097 0.009676223 -0.036558267 0.042891886 0.00547737
0.014508519 -0.07240354 0.012282839 0.009399245 -0.032348726 -0.018288163 -0.078161664 0.0147944745
-0.013282582 0.00025779274 -0.02168599 0.0052242232 -0.015152308 -0.0003544621 -0.0018013823 -0.03809736
-0.058150183 -0.02640805 -0.0408495 -0.05215337 0.053533364 0.075676434 -0.059073973 0.020767758
0.024842586 -0.013714914 -0.0047262646 -0.049582805 0.05428908 -0.030323995 0.012830545 0.05562415
-0.10422984 -0.06582572 0.028479796 0.0528317 0.021723002 0.06491315 0.05363216 0.014865192
-0.010094617 -0.066267364 -0.020813858 0.025133811 -0.031676304 0.043358773 0.02442208 0.007828134
-0.017340599 0.020006035 0.02502416 -0.053521257 0.044026613 -0.057834864 0.020526998 0.021273844
0.030511564 -0.02079359 0.00080345885 0.08457133 0.0514344 0.009398364 -0.044136792 -0.0661538
0.016563198 0.025778785 0.062121786 0.0053374777 -0.038361114 -0.0028709844 -0.035774723 -0.034276657
0.055727255 0.06146332 0.021313976 -0.029118787 0.0022131992 0.056483485 0.03508548 0.022935394
-0.03093697 0.0010089371 -0.03387072 0.027954837 0.056259293 0.0041728728 0.025668073 0.048152823
-0.029960144 -0.012009574 0.074003465 0.049422458 0.039892934 0.041690145 -0.051562432 0.02207346
0.026731187 -0.0023209965 0.030277962 0.0054235943 0.004574707 -0.025712453 0.008978583 -0.042068914
0.017413389 0.02972929 0.033766005 -0.010502402 -0.007513083 -0.013960817 0.018617097 -0.04971733
0.034770373 0.057193574 -0.020642895 0.0061129886 -0.037434824 -0.0683568 0.06705782 -0.014304172
-0.0042103124 0.028714482 -0.059763372 -0.029444402 0.049982753 -0.029725466 0.0027867283 -0.0071374727
-0.0069542867 -0.007988015 0.024379672 0.086359635 -0.015282938 0.0020089229 -0.062407583 -0.04750649
0.015168152 0.0034488519 0.017493753 0.03667216 -0.04448783 -0.03551971 0.0624195 0.023992028
-0.032515585 -0.029643072 0.029411513 0.021679841 -0.025981518 -0.028331874 0.011733157 -0.0016367959
0.025691459 0.01252451 0.02949273 -0.043924816 0.06550289 -0.052144747 -0.013708767 -0.039709628
0.045760605 -0.083419874 -0.011428242 -0.041845784 0.0074680084 0.046934664 0.044928834 0.02095872
0.004735809 0.003302294 -0.03016264 0.027931126 0.015483974 -0.0061285323 0.057240985 -0.011250515
0.0146120805 0.018987134 -0.01769847 0.0033676445 -0.00069597835 0.0144508 0.026217455 -0.06950581
0.048379645 -0.027512792 0.040655196 -0.016690357 -0.0151052745 -0.04448835 -0.033006 0.028675545
00000000: 2f3a 3cbc 7f43 a1bc 0b33 ac3b b47d 16bc
00000010: 7945 2e3d 424d 633c 1dd5 1d3d eec1 8f3d
00000020: 4cfb 25bc 9ab9 4e3c 1c41 38bd 13a0 4f3c
00000030: 6c5e 403d b511 98bb 54ab f83c e3ef ca3c
00000040: da27 f83b 36fd dabc ad9c 6f3d 7ec0 31bc
00000050: 514f 75bd 0571 a2bc 8f51 c3bc 92c5 21bd
00000060: 39fd 5a3c 2bbe 6cbd db7e a53c 0d87 96bc
00000070: 8711 e8bb 78e8 56bc 72af 23bc 3189 08bd
00000080: 5592 e8bd 5360 f8bc 3bdc 45bb 17fb 2bbd
00000090: 8a30 f73b e3c7 6abd 2bea dc3b 2697 9bbc
000000a0: 6a9c dc3c 27ad 48bd d15a 0cbd a54b ddbb
000000b0: c609 94bc f7fe ae3b 8add 2bbd a81d 73bc
000000c0: 5477 93bd 3688 813c 9d87 99bb 5bac 4ebd
000000d0: f52f 893a 9e50 b03c 31b1 34bc 1e08 a7bb
000000e0: c2d2 0d3d b2ed 043b 1fc9 98bd 6898 28bd
000000f0: 0589 1e3c 1fbe 15bd 67af 2f3d 837b b33b
00000100: 24b5 6d3c 4f48 94bd f63d 493c 4aff 193c
00000110: 1980 04bd 0fd1 95bc 3913 a0bd 8664 723c
00000120: 309f 59bc 5b28 8739 d1a6 b1bc f62f ab3b
00000130: 6341 78bc 19d7 b9b9 5c1c ecba fa0b 1cbd
00000140: e32e 6ebd b255 d8bc ce51 27bd c69e 55bd
00000150: cd45 5b3d 3ffc 9a3d 8df7 71bd 2521 aa3c
00000160: ae82 cb3c 85b4 60bc c8de 9abb 5717 4bbd
00000170: 3a5e 5e3d 076a f8bc 3537 523c 26d6 633d
00000180: 7476 d5bd a3cf 86bd 764e e93c 0d66 583d
00000190: 70f4 b13c 30f1 843d 65ad 5b3d 228d 733c
000001a0: e463 25bc 2fb7 87bd d381 aabc 6ce5 cd3c
000001b0: 03bf 01bd f898 313d d010 c83c 9341 003c
000001c0: df0d 8ebc b2e3 a33c 78ff cc3c 1b39 5bbd
000001d0: 4055 343d 40e4 6cbd 3c28 a83c 7c46 ae3c
000001e0: 63f3 f93c 5257 aabc 369f 523a bc33 ad3d
000001f0: e1ac 523d 99fb 193c c8c8 34bd a57b 87bd
00000200: 8baf 873c 082e d33c 6a73 7e3d 02e6 ae3b
00000210: 8b20 1dbd 2027 3cbb 8488 12bd ae65 0cbd
00000220: 4342 643d f6c0 7b3d a69a ae3c 868a eebc
00000230: 520b 113b 3a5b 673d cbb5 0f3d 02e3 bb3c
00000240: 876f fdbc 503e 843a 06bc 0abd 8b01 e53c
00000250: 2570 663d 98bc 883b da45 d23c e53b 453d
00000260: fa6e f5bc cec3 44bc 218f 973d 346f 4a3d
00000270: c666 233d 49c3 2a3d 2133 53bd 67d3 b43c
00000280: 5dfb da3c dc1b 18bb 7d09 f83c 68b8 b13b
00000290: 6ce7 953b eca2 d2bc e81a 133c 7450 2cbd
000002a0: 86a6 8e3c d78a f33c 394e 0a3d 4412 2cbc
000002b0: 4f30 f6bb e9bb 64bc e282 983c 66a4 4bbd
000002c0: 616b 0e3d cf43 6a3d 4a1b a9bc 774f c83b
000002d0: 4255 19bd a6fe 8bbd 9c55 893d 0c5c 6abc
000002e0: a9f6 89bb a23a eb3c 70ca 74bd 6335 f1bc
000002f0: b7ba 4c3d d282 f3bc 8ba1 363b 76e1 e9bb
00000300: c9e0 e3bb 2ae0 02bc e1b7 c73c 52dd b03d
00000310: 4a65 7abc 22a8 033b 189f 7fbd 2a96 42bd
00000320: d783 783c 2206 623b 0f4f 8f3c 8c35 163d
00000330: df38 36bd 1e7d 11bd 97ab 7f3d ee8a c43c
00000340: 102f 05bd 07d6 f2bc 6af0 f03c ec99 b13c
00000350: 31d7 d4bc 3f18 e8bc 6d3c 403c c289 d6ba
00000360: e576 d23c 9a33 4d3c bd9a f13c 82ea 33bd
00000370: 6126 863d bb95 55bd bc9a 60bc 90a6 22bd
00000380: 796f 3b3d 0ad8 aabd 853d 3bbc 7c66 2bbd
00000390: 32b6 f43b 903e 403d 4c07 383d 9fb1 ab3c
000003a0: d82e 9b3b 4d6b 583b a417 f7bc d1cf e43c
000003b0: 7eb0 7d3c dbd1 c8bb 8675 6a3d 1454 38bc
000003c0: 8267 6f3c e88a 9b3c 62fc 90bc b3b3 5c3b
000003d0: 5172 36ba 0cc3 6c3c fdc5 d63c 1059 8ebd
000003e0: bc29 463d 8262 e1bc 1086 263d 37ba 88bc
000003f0: 1d7c 77bc 6b39 36bd 4d31 07bd fae8 ea3c

net.0.bias f4 [32]
-0.013605082 -0.020758493 0.0038244922 -0.031432625 0.018248823 0.031928822 0.028370235 0.03469412
0.016964622 -0.0031140416 -0.014662665 0.025811967 -0.07322587 0.015761808 -0.01985225 0.03434345
-0.03487741 0.03378901 0.015842296 0.055312652 0.016591573 -0.011101223 0.046070017 -0.05602699
-0.008212043 0.029761445 -0.012579367 -0.022090323 -0.0403059 -0.023943275 -0.002459682 -0.004260345
00000000: dae7 5ebc b70d aabc 55a4 7a3b 7fbf 00bd
00000010: 8e7e 953c ccc7 023d b268 e83c 6c1b 0e3d
00000020: 64f9 8a3c f314 4cbb ad3b 70bc 9e73 d33c
00000030: 72f7 95bd e81e 813c 30a1 a2bc b8ab 0c3d
00000040: 9ddb 0ebd 5866 0a3d b4c7 813c 858f 623d
00000050: 0deb 873c e7e1 35bc eab3 3c3d 8f7c 65bd
00000060: ce8b 06bc 46ce f33c b019 4ebc c4f6 b4bc
00000070: cd17 25bd b024 c4bc 9e32 21bb 5d9a 8bbb

net.2.module.0.weight f4 [32, 32, 3]
-0.08191854 -0.042874835 0.043785743 -0.053661253 0.0644663 -0.086878814 0.038417358 0.0045546056
0.02374122 -0.061292607 -0.022481013 0.077733055 0.19865066 -0.05631799 -0.07504176 0.16531458
0.016827706 0.03782726 0.02307326 0.04552846 -0.097734466 0.030522972 0.007903721 -0.048209332
0.09993959 -0.10232223 0.03538665 0.08427265 -0.08487202 -0.036795866 -0.1091468 -0.02282973
-0.053887103 0.00022204443 0.00026776287 0.06609682 0.027760295 -0.09263903 -0.0027422858 0.035432238
0.0031085995 -0.0032384722 0.03931492 0.13001388 0.02147209 0.0015955262 -0.0030356112 -0.07405759
0.04629704 -0.111279994 -0.038707696 -0.09368593 0.02327605 -0.02693307 0.0060532624 -0.040988807
0.013707975 0.016062394 -0.05066321 0.06977153 0.010257134 0.055546306 0.11734329 0.10062676
0.05149097 0.040494908 0.120428115 0.039742086 -0.0845464 -0.06519116 -0.08863591 -0.1556713
-0.08079731 0.028550439 0.0013126021 0.0940452 0.056460924 -0.0044352417 0.03844957 0.06744215
0.013843025 -0.044314977 -0.02278445 -0.06728341 -0.08181273 0.14391588 0.12817095 0.027991176
-0.072553635 0.07650467 -0.08767146 0.05177635 0.033824272 -0.065227345 0.026429567 0.07310392
0.005123247 -0.05506606 -0.04689449 0.00344969 -0.045259163 0.048982266 0.00048359678 0.09708708
-0.045010414 0.04340553 0.044422813 -0.040165033 -0.12564313 0.05194257 -0.0044305515 -0.069749676
0.09193084 0.0068433443 0.1028084 0.095101915 0.010837014 -0.033862658 -0.0045343935 -0.01540806
-0.10268363 0.06801014 0.02609319 0.08551319 0.070591874 -0.057503607 -0.024441734 0.07091747
0.080566026 -0.018473431 0.02772987 0.100437105 -0.13545337 -0.109910816 0.014594737 -0.08893977
-0.01882592 -0.07327809 0.027836792 -0.063896455 0.04487534 0.041551877 0.022890015 -0.08237468
-0.12241153 -0.05937958 -0.05818409 -0.03791937 0.0874744 -0.10407599 0.06233169 -0.08658598
0.038184915 -0.13132097 0.016529303 -0.026137799 -0.06653898 0.054558776 0.007085823 -0.15670203
0.057791293 0.047358286 0.0069815395 0.01904344 0.045483377 -0.007471514 -0.05858175 -0.06519568
0.0779217 -0.08775766 -0.045041278 -0.1070249 -0.05435968 0.020651657 0.013961775 0.08982632
-0.056380145 0.019614032 -0.06955473 0.106120646 -0.09099869 -0.010472594 0.13575962 -0.114292294
0.07599667 0.0990918 -0.06815589 -0.0016327942 -0.024459088 0.102594934 0.038349994 -0.04350588
0.038615927 -0.067519225 -0.011583776 -0.034504827 0.113240235 0.11270603 0.06568767 -0.057538357
0.030161805 0.007805494 0.037117057 -0.00015178548 0.037156593 -0.046564214 0.015254105 -0.15487769
0.034805857 0.11830713 -0.0032214175 0.0005899458 0.0857783 0.05790076 -0.049130954 0.11026324
0.06399648 0.09299632 0.07026398 -0.09785681 0.11032912 0.014644155 -0.07039964 0.0479638
-0.0010248227 -0.030686181 0.018228162 -0.12150859 0.10109425 -0.03835413 0.114960015 0.0017006176
0.061212298 0.04515074 0.13031358 -0.017904032 0.014067875 0.114043444 0.027567944 -0.039701406
0.08768932 0.079448715 0.122672796 0.13644962 0.06682591 -0.08180854 -0.062009104 -0.060217317
0.04602305 0.11378819 -0.10865293 -0.13083883 -0.08407444 -0.014117836 -0.012411715 0.03725516
00000000: e8c4 a7bd 869d 2fbd ae58 333d e7cb 5bbd
00000010: e806 843d 85ed b1bd 855b 1d3d cd3e 953b
00000020: f27c c23c f50d 7bbd 1a2a b8bc 8232 9f3d
00000030: 146b 4b3e b1ad 66bd 7faf 99bd 3a48 293e
00000040: 42da 893c c2f0 1a3d 2204 bd3c 0d7c 3a3d
00000050: 0229 c8bd 500b fa3c 9c7e 013c 2677 45bd
00000060: 21ad cc3d 518e d1bd 98f1 103d 2497 ac3d
00000070: 62d1 adbd 43b7 16bd 5c88 dfbd 6a05 bbbc
00000080: b9b8 5cbd 99d4 6839 8662 8c39 c55d 873d
00000090: 8f69 e33c 88b9 bdbd ecb7 33bb 6521 113d
000000a0: a5b9 4b3b 8c3c 54bb ae08 213d 5c22 053e
000000b0: 3de6 af3c fa20 d13a 1bf1 46bb 81ab 97bd
000000c0: f7a1 3d3d c4e6 e3bd f68b 1ebd 69de bfbd
000000d0: 6aad be3c bea2 dcbc 725a c63b e1e3 27bd
000000e0: 6a97 603c 4895 833c 3a84 4fbd 60e4 8e3d
000000f0: 8a0d 283c 8684 633d ae51 f03d 6715 ce3d
00000100: 32e8 523d fddd 253d 04a3 f63d 99c8 223d
00000110: aa26 adbd f182 85bd be86 b5bd 4c68 1fbe
00000120: 0f79 a5bd 9ce2 e93c 9e0b ac3a c59a c03d
00000130: 9243 673d 8155 91bb 4c7d 1d3d 1c1f 8a3d
00000140: dbcd 623c 9f83 35bd 74a6 babc e2cb 89bd
00000150: 6f8d a7bd af5e 133e 3f3f 033e c04d e53c
00000160: 0097 94bd 7bae 9c3d 188d b3bd 7013 543d
00000170: 528b 0a3d ea95 85bd d282 d83c 82b7 953d
00000180: e9e0 a73b f38c 61bd 7014 40bd 3214 623b
00000190: ac61 39bd a1a1 483d 438b fd39 97d5 c63d
000001a0: d75c 38bd ffc9 313d b2f4 353d 1784 24bd
000001b0: 98a8 00be bbc1 543d 292e 91bb ebd8 8ebd
000001c0: 3c46 bc3d 223e e03b 368d d23d cbc4 c23d
000001d0: bb8d 313c 92b3 0abd 4095 94bb 1672 7cbc
000001e0: cc4b d2bd e648 8b3d 63c1 d53c 8a21 af3d
000001f0: 7992 903d e788 6bbd 083a c8bc 2e3d 913d
00000200: cdff a43d 9855 97bc c129 e33c f8b1 cd3d
00000210: 4ab4 0abe ec18 e1bd c41e 6f3c 0e26 b6bd
00000220: d138 9abc d312 96bd fc09 e43c 25dc 82bd
00000230: 34cf 373d 4d32 2a3d d783 bb3c 0eb4 a8bd
00000240: e5b2 fabd 0138 73bd 7152 6ebd 5751 1bbd
00000250: c725 b33d cb25 d5bd 844f 7f3d fe53 b1bd
00000260: c967 1c3d 0179 06be 7668 873c f01e d6bc
00000270: 9745 88bd 0679 5f3d 3130 e83b 7f76 20be
00000280: 90b6 6c3d c3fa 413d 66c5 e43b fd00 9c3c
00000290: c74c 3a3d 9ad3 f4bb 6bf3 6fbd 5085 85bd
000002a0: 6a95 9f3d 4aba b3bd 347d 38bd df2f dbbd
000002b0: 41a8 5ebd aa2d a93c eebf 643c ddf6 b73d
000002c0: deee 66bd 9bad a03c b672 8ebd c855 d93d
000002d0: 855d babd 3e95 2bbc 9204 0b3e 1412 eabd
000002e0: 24a4 9b3d a4f0 ca3d 5195 8bbd 7b03 d6ba
000002f0: 6d5e c8bc 4b1d d23d e214 1d3d 3933 32bd
00000300: bc2b 1e3d 8547 8abd e1c9 3dbc ef54 0dbd
00000310: 7fea e73d 6bd2 e63d 4287 863d 57ad 6bbd
00000320: e415 f73c 3bc5 ff3b 0e08 183d 9b28 1fb9
00000330: 8331 183d 1eba 3ebd 5bec 793c 4298 1ebe
00000340: 9690 0e3d 024b f23d 6b1e 53bb 98a6 1a3a
00000350: 89ac af3d 5929 6d3d 8a3d 49bd b2d1 e13d
00000360: 9610 833d db74 be3d 90e6 8f3d 2769 c8bd
00000370: 3cf4 e13d 0aee 6f3c b02d 90bd b175 443d
00000380: 5853 86ba 9661 fbbc 3a53 953c 7fd9 f8bd
00000390: 810a cf3d 3819 1dbd 2870 eb3d 42e7 de3a
000003a0: bfb9 7a3d fbef 383d ec70 053e 7aab 92bc
000003b0: f27c 663c 9c8f e93d 2bd6 e13c f19d 22bd
000003c0: 7596 b33d 02b6 a23d e03b fb3d 73b9 0b3e
000003d0: 06dc 883d 3c8b a7bd 42fd 7dbd 6fa6 76bd
000003e0: aa82 3c3d c809 e93d 6d85 debd 9dfa 05be
000003f0: 382f acbd 7f4e 67bc 825a 4bbc de98 183d

net.2.module.0.bias f4 [32]
0.0144045055 0.041059278 0.08916678 -0.08109493 0.09217362 0.08956876 -0.06700979 0.08655656
-0.031531114 -0.041356333 -0.045736857 0.023253763 0.07142199 -0.050370652 -0.06343492 0.05624569
0.052538875 -0.08440761 -0.054802738 -0.016828569 0.040779226 0.0020418398 0.019206138 -0.008260092
-0.008491565 -0.030638164 0.05321551 0.008545318 -0.08117782 -0.08604008 -0.0019159815 -0.0045251427
00000000: e000 6c3c c62d 283d 139d b63d 1915 a6bd
00000010: 86c5 bc3d d36f b73d 6e3c 89bd 9144 b13d
00000020: c526 01bd 4265 29bd 9256 3bbd ad7e be3c
00000030: b145 923d 7551 4ebd 2bea 81bd e161 663d
00000040: 0133 573d e6dd acbd d678 60bd 11dc 89bc
00000050: 1e08 273d 63d0 053b 3156 9d3c 5655 07bc
00000060: 3420 0bbc e3fc fabc 82f8 593d a901 0c3c
00000070: 8f40 a6bd c835 b0bd ac21 fbba a647 94bb

net.3.module.0.weight f4 [32, 32, 3]
0.016974287 -0.059613243 -0.035226543 -0.048290614 0.040332537 -0.0894767 -0.06960259 -0.053374477
0.031728383 -0.024438921 -0.05982019 0.020320054 0.10062084 0.053933058 -0.0129532395 0.09020036
0.03453268 -0.092654824 -0.08821999 -0.06651141 0.01605566 0.07746317 -0.06870309 -0.096921705
0.058128025 0.052838605 0.04579413 0.13539486 0.033560906 -0.062121216 -0.07013356 0.079520255
-0.06169558 -0.0151833 -0.08265955 -0.080134414 -0.12691912 -0.04114562 -0.049356304 0.0439951
0.01697408 0.023251064 -0.058295097 0.07073008 0.07939956 -0.056230776 0.029474964 -0.05707487
-0.013274762 -0.08823715 -0.030006602 0.053275775 0.01693088 -0.091789454 0.09688061 -0.014361132
0.05029388 0.030939307 0.06473465 -0.06644903 0.13013184 -0.00084656046 0.03610958 -0.020028802
0.02143288 -0.06909202 -0.014629556 0.061521 0.015709093 -0.03524506 0.00028911428 -0.10481857
0.04682266 0.0016940403 -0.08541378 0.061658844 0.10914947 -0.00561156 0.08335302 -0.06947286
-0.09602846 0.026005732 -0.06430475 -0.073051706 -0.041314762 -0.053481326 -0.09420964 -0.06472073
-0.118218556 0.005986352 0.03358586 0.08669695 0.02872042 0.04004664 -0.0077708457 -0.0126484735
-0.13726291 0.11837473 0.14162697 0.007720761 0.06967367 0.029482642 -0.037364945 0.017307227
-0.06405654 0.026740624 0.07469775 -0.03071167 -0.06480477 0.024627624 0.077392764 -0.16169257
0.030816363 -0.03709595 -0.07861442 0.0936176 0.022297047 -0.05731529 -0.020330328 0.07990941
-0.111452505 -0.039386444 0.047668327 -0.060258877 0.017093189 -0.016151022 -0.055151496 0.07788743
-0.060783785 -0.038091555 -0.04127882 -0.08019349 0.021814272 0.019477766 0.04134436 0.026670823
0.098070376 0.07642442 -0.083652295 -0.08279682 -0.0058448357 0.07756737 0.016961915 -0.0065995166
-0.058939345 0.07628955 -0.01968998 0.03776533 0.12268543 0.06274319 0.11876172 0.015004893
-0.027803844 0.037914537 -0.06612368 0.067692064 0.05048717 0.03417771 0.017906735 0.002406266
0.04645282 0.055384573 0.016669858 0.029391227 0.018465826 -0.040966377 -0.06569646 -0.010300819
-0.013405562 -0.015545202 0.06502989 -0.07461057 0.1319795 -0.013133687 0.054364495 -0.020969424
-0.07189767 -0.08576569 0.02107192 -0.071824916 -0.048460692 0.019644627 0.04487939 0.030516973
0.04896376 0.050160665 0.032231018 -0.035527818 -0.0132828625 0.07688538 0.016464273 -0.037376095
0.015585213 0.039828394 -0.0445704 0.037421655 -0.06899649 0.035116877 -0.010969365 -0.0029041022
0.07417838 0.030074669 0.08156311 0.08758008 -0.006747393 -0.022491163 0.018040838 0.06829974
0.045382548 0.032750115 0.124466956 -0.05838344 -0.04855997 -0.108866654 0.06537472 0.13553417
-0.041188322 0.116642386 0.07657248 -0.08934802 0.08347339 0.07512643 -0.031673994 -0.08324958
0.01576204 -0.13590072 -0.032871593 0.009764127 -0.0431753 -0.0074893013 0.0712922 -0.03185828
0.06802631 0.0690461 -0.056190867 -0.013918522 -0.06595529 -0.01727872 0.04250144 0.043194607
-0.025788821 0.055341974 -0.071987234 0.08427415 -0.021954406 0.046195187 -0.09102877 0.086589165
-0.08101712 0.010658145 -0.008272352 -0.12873456 -0.056298442 -0.09464829 -0.060662594 0.030794134
00000000: a90d 8b3c 042d 74bd b549 10bd 61cc 45bd
00000010: bb33 253d 8f3f b7bd cd8b 8ebd 329f 5abd
00000020: 9ff5 013d 2234 c8bc 0406 75bd 3e76 a63c
00000030: 4d12 ce3d e9e8 5c3d d339 54bc f7ba b83d
00000040: 2472 0d3d d0c1 bdbd afac b4bd 2237 88bd
00000050: 2987 833c 03a5 9e3d 35b4 8cbd e37e c6bd
00000060: a717 6e3d 4b6d 583d a092 3b3d f3a4 0a3e
00000070: 2977 093d d172 7ebd 2fa2 8fbd 84db a23d
00000080: 81b4 7cbd 60c3 78bc 6949 a9bd 831d a4bd
00000090: 16f7 01be 4f88 28bd d629 4abd 3534 343d
000000a0: 3a0d 8b3c 0479 be3c d7c6 6ebd efda 903d
000000b0: 3d9c a23d 3e52 66bd 7b75 f13c 57c7 69bd
000000c0: 637e 59bc aeb5 b4bd 68d0 f5bc b337 5a3d
000000d0: a1b2 8a3c 1cfc bbbd 5769 c63d f44a 6bbc
000000e0: f500 4e3d 6e74 fd3c 9a93 843d 6e16 88bd
000000f0: 4841 053e b6eb 5dba a4e7 133d 7113 a4bc
00000100: 0294 af3c 1e80 8dbd ceb0 6fbc 72fd 7b3d
00000110: 5bb0 803c 205d 10bd 4394 9739 1eab d6bd
00000120: 1ec9 3f3d 8f0a de3a 6bed aebd fc8d 7c3d
00000130: c289 df3d 2de1 b7bb fdb4 aa3d c947 8ebd
00000140: 92aa c4bd f909 d53c 35b2 83bd 229c 95bd
00000150: ab39 29bd 3c0f 5bbd fcf0 c0bd 4d8c 84bd
00000160: 921c f2bd 2929 c43b 5491 093d 2c8e b13d
00000170: 1647 eb3c f207 243d 94a2 febb 8b3b 4fbc
00000180: a68e 0cbe 736e f23d a906 113e 70fe fc3b
00000190: 12b1 8e3d 9585 f13c fc0b 19bd e3c7 8d3c
000001a0: 1330 83bd 270f db3c 22fb 983d 0a97 fbbc
000001b0: 5db8 84bd dfbf c93c 1980 9e3d bd92 25be
000001c0: 9972 fc3c ecf1 17bd 9900 a1bd 96ba bf3d
000001d0: 4ca8 b63c 70c3 6abd ca8b a6bc 8ba7 a33d
000001e0: 3641 e4bd ae53 21bd dd3f 433d 03d2 76bd
000001f0: 0407 8c3c 264f 84bc 89e6 61bd 7283 9f3d
00000200: 6bf8 78bd e405 1cbd fb13 29bd 7c3c a4bd
00000210: d8b3 b23c d68f 9f3c b458 293d c57c da3c
00000220: 1fd9 c83d 6884 9c3d e551 abbd 6191 a9bd
00000230: 0986 bfbb a4db 9e3d b7f3 8a3c c240 d8bb
00000240: 626a 71bd b23d 9c3d e24c a1bc d2af 1a3d
00000250: 8042 fb3d 807f 803d 5839 f33d 15d7 753c
00000260: e3c4 e3bc 464c 1b3d da6b 87bd 23a2 8a3d
00000270: a3cb 4e3d edfd 0b3d 25b1 923c 72b2 1d3b
00000280: 5045 3e3d efda 623d 3a8f 883c dfc5 f03c
00000290: a545 973c 5ccc 27bd de8b 86bd c4c4 28bc
000002a0: 01a3 5bbc 4eb1 7ebc 642e 853d 6dcd 98bd
000002b0: a225 073e ad2e 57bc 4ead 5e3d 12c8 abbc
000002c0: 163f 93bd eca5 afbd 059f ac3c f118 93bd
000002d0: b87e 46bd c5ed a03c 74d3 373d bbfe f93c
000002e0: 398e 483d 4575 4d3d ac04 043d 9e85 11bd
000002f0: 5da0 59bc 1576 9d3d 15e0 863c ad17 19bd
00000300: 1f59 7f3c 1923 233d 748f 36bd 7347 193d
00000310: 084e 8dbd b7d6 0f3d dab8 33bc c052 3ebb
00000320: d6ea 973d 275f f63c 8f0a a73d 2f5d b33d
00000330: 3c19 ddbb 633f b8bc 61ca 933c bce0 8b3d
00000340: 0de3 393d fc24 063d 88e8 fe3d 7923 6fbd
00000350: d2e6 46bd 7bf5 debd 2ee3 853d 78c9 0a3e
00000360: 16b5 28bd 34e2 ee3d 08d2 9c3d 18fc b6bd
00000370: 19f4 aa3d e3db 993d 97bc 01bd c17e aabd
00000380: 651f 813c 8f29 0bbe 5da4 06bd b8f9 1f3c
00000390: 95d8 30bd d068 f5bb a501 923d d47d 02bd
000003a0: 6151 8b3d 0b68 8d3d 6528 66bd 830a 64bc
000003b0: 9113 87bd 1a8c 8dbc fd15 2e3d d4ec 303d
000003c0: 1443 d3bc 44ae 623d 0b6e 93bd ed97 ac3d
000003d0: bad9 b3bc 2a37 3d3d 4b6d babd a955 b13d
000003e0: 4eec a5bd 809f 2e3c c288 07bc fed2 03be
000003f0: 3299 66bd f6d6 c1bd 5779 78bd fb43 fc3c

net.3.module.0.bias f4 [32]
0.07462667 -0.06530703 -0.05127779 0.08822746 -0.0029788474 -0.079602584 0.07580706 -0.027672105
-0.07918195 -0.08274811 0.1135163 0.059391867 0.083099626 -0.066323355 0.060175084 0.031300306
-0.0034576282 -0.02658252 0.018306494 0.10260301 -0.07367145 -0.088278666 0.02468098 -0.015065927
-0.07129342 -0.101972416 0.039245702 0.07573257 0.015402342 -0.0709081 0.022562131 0.04895684
00000000: ded5 983d b1bf 85bd a908 52bd 99b0 b43d
00000010: c438 43bb ae06 a3bd bb40 9b3d 9cb0 e2bc
00000020: 252a a2bd d777 a9bd 3c7b e83d e344 733d
00000030: 2330 aa3d 8ad4 87bd 267a 763d c034 003d
00000040: 6099 62bb 96c3 d9bc 80f7 953c 8721 d23d
00000050: 0fe1 96bd 72cb b4bd c42f ca3c 14d7 76bc
00000060: 4902 92bd ead6 d0bd 1ac0 203d ad19 9b3d
00000070: 1b5a 7c3c 4438 91bd 38d4 b83c f886 483d

net.4.module.0.weight f4 [32, 32, 3]
-0.087061405 0.10539443 0.07500426 0.009863066 -0.1359625 0.021314023 -0.020068668 -0.043413788
-0.0056864033 0.09234813 -0.006295436 0.0810768 -0.010880707 -0.048031863 -0.10494279 0.15901251
0.069144554 0.10769339 -0.057832126 -0.0072735157 0.08638836 0.02860784 0.009544187 -0.07591735
-0.00752752 -0.049984995 -0.07140841 -0.046724368 -0.029188363 -0.05213095 -0.055429958 -0.025569528
-0.13458322 -0.09263472 0.03576608 0.015759053 -0.059063207 -0.1523326 0.0489575 -0.08387009
-0.12910236 -0.06864942 -0.015664954 0.117284946 0.0071129166 -0.09794401 -0.007862024 -0.024391316
-0.090221785 -0.11121675 0.004360524 -0.069373354 -0.052684713 0.05463727 0.054798126 -0.008653449
-0.04969288 -0.035804365 0.07874106 0.080380134 0.055053607 0.115116276 0.079704314 -0.029623926
-0.0014174202 0.029944867 0.062118735 0.12082155 0.108035296 0.018151894 0.035528813 -0.01932489
-0.08040221 0.056292053 -0.08829338 0.0071842787 -0.0024686812 -0.049354073 -0.07848282 0.048589945
0.07093392 -0.04660197 -0.0138066355 0.07241443 0.04953186 0.036016878 -0.064714 -0.079168096
-0.0975897 0.0165473 0.020093795 -0.07063756 0.01127666 -0.06624016 0.04889695 -0.071748234
-0.03819709 0.10373781 0.061031517 0.022106467 0.07911386 -0.04250123 -0.07735606 0.07220269
0.031011516 -0.06554921 -0.03396166 0.012174142 0.017964916 -0.00302911 -0.029990455 -0.1620893
0.09141417 -0.024386723 0.062299855 -0.059832767 0.037436195 -0.050052054 -0.056242257 -0.02414398
-0.040600456 -0.04449709 -0.054984298 -0.10254855 0.047521643 -0.10110601 0.093802035 0.102652214
-0.037852485 0.05529112 -0.049979158 -0.012775747 0.008566853 -0.032492965 -0.1117899 0.0025143567
-0.06879862 0.010035116 -0.09543523 -0.09846459 -0.07573521 -0.05575979 -0.049463432 -0.10421049
0.057335827 0.07162489 -0.052009657 0.052290183 -0.016090134 -0.096157975 0.03974166 -0.089285806
0.06812184 -0.12823205 0.067084335 0.10858935 -0.052300908 0.13393451 0.12871681 -0.06613644
-0.018613389 -0.036628183 0.025225721 -0.02903746 -0.036764048 -0.022158427 -0.0023759052 -0.10088406
0.055896576 0.07994423 -0.045119498 -0.087507285 -0.06646406 -0.0030331532 -0.083890796 -0.015903309
0.05442722 0.017270645 -0.07354241 0.093777254 -0.07600479 -0.023525726 0.013960629 0.06712959
0.08993096 0.053972963 -0.11733622 0.022440957 0.07601738 -0.04104008 0.00015769128 -0.045559566
0.06807285 -0.093409866 0.004789372 0.029020932 0.113919504 -0.01983797 -0.017888386 -0.14522663
0.07907121 0.12665132 -0.023850912 -0.029111013 0.12377139 0.041627537 -0.22112264 -0.09490457
-0.011676199 0.07967949 -0.071089715 0.086459816 -0.13246843 -0.08708763 -0.069951996 0.02402396
-0.04000339 -0.017738288 -0.029369708 -0.026682977 0.08256705 -0.026982434 -0.041272733 -0.040619712
-0.0032604304 -0.052024756 0.070792936 0.109437406 0.11080186 -1.0180832e-05 0.09415917 0.08387504
-0.08945923 -0.0600438 0.00767962 -0.03456118 0.0700604 -0.048367552 -0.13715942 -0.036269132
-0.041353717 0.035008736 -0.038916204 0.008184205 -0.037645288 0.10054435 0.011393534 0.003710742
-0.059329156 0.009388648 0.0031391783 -0.009833755 -0.0516064 -0.020424899 0.012192724 -0.041281927
00000000: 404d b2bd 09d9 d73d d59b 993d b298 213c
00000010: c139 0bbe bf9a ae3c 0c67 a4bc a8d2 31bd
00000020: 0255 babb 0421 bd3d f249 cebb 980b a63d
00000030: fe44 32bc 0fbd 44bd 3fec d6bd 2dd4 223e
00000040: a99b 8d3d 5a8e dc3d 61e1 6cbd ac56 eebb
00000050: 61ec b03d fd5a ea3c 395f 1c3c 8e7a 9bbd
00000060: 6aa9 f6bb 11bd 4cbd 933e 92bd 0d62 3fbd
00000070: 6f1c efbc 4387 55bd 860a 63bd 3077 d1bc
00000080: 2fd0 09be 46b7 bdbd 747f 123d 2119 813c
00000090: 43ec 71bd 14fd 1bbe a987 483d 15c4 abbd
000000a0: 6933 04be 1198 8cbd ca53 80bc 1733 f03d
000000b0: 7813 e93b de96 c8bd b8cf 00bc 4cd0 c7bc
000000c0: 33c6 b8bd 9cc5 e3bd bae2 8e3b 9e13 8ebd
000000d0: edcb 57bd 54cb 5f3d 0074 603d 32c7 0dbc
000000e0: c38a 4bbd 99a7 12bd fe42 a13d 579e a43d
000000f0: e47f 613d 15c2 eb3d 043c a33d e0ad f2bc
00000100: bbc8 b9ba f04e f53c 3770 7e3d 4a71 f73d
00000110: 9c41 dd3d 48b3 943c a986 113d 3b4f 9ebc
00000120: eaa9 a4bd 7f92 663d 29d3 b4bd 196a eb3b
00000130: 99c9 21bb 7f27 4abd 9abb a0bd 4006 473d
00000140: ce45 913d b5e1 3ebd 3a35 62bc 044e 943d
00000150: ebe1 4a3d 6f86 133d c688 84bd e222 a2bd
00000160: 1cdd c7bd 348e 873c be9b a43c 6daa 90bd
00000170: bdc1 383c eca8 87bd 2b48 483d bdf0 92bd
00000180: 8d74 1cbd 7d74 d43d 2ffc 793d 9f18 b53c
00000190: 7306 a23d c515 2ebd db6c 9ebd 01df 933d
000001a0: dd0b fe3c aa3e 86bd 621b 0bbd 0d76 473c
000001b0: 292b 933c 0884 46bb 8bae f5bc bdfa 25be
000001c0: 5a37 bb3d aac6 c7bc 222e 7f3d 3413 75bd
000001d0: b256 193d 6203 4dbd 485e 66bd 99c9 c5bc
000001e0: aa4c 26bd 9542 36bd 3737 61bd f904 d2bd
000001f0: 0ea6 423d ab10 cfbd 481b c03d 533b d23d
00000200: 350b 1bbd f178 623d f2b6 4cbd 5e51 51bc
00000210: fc5b 0c3c 5817 05bd 1af2 e4bd e8c7 243b
00000220: 4ae6 8cbd 546a 243c 8c73 c3bd cea7 c9bd
00000230: 101b 9bbd 6164 64bd 2b9a 4abd 4f6c d5bd
00000240: f9d8 6a3d 12b0 923d 1408 55bd 3b2e 563d
00000250: 75cf 83bc 79ee c4bd 27c8 223d 7adb b6bd
00000260: 7783 8b3d 434f 03be 8363 893d 1864 de3d
00000270: 7a39 56bd 2126 093e 57ce 033e 8b72 87bd
00000280: 1b7b 98bc 6f07 16bd 2ca6 ce3c f8df edbc
00000290: e695 16bd 9785 b5bc 13b5 1bbb 4d9c cebd
000002a0: cff3 643d cdb9 a33d 39cf 38bd 0537 b3bd
000002b0: 4f1e 88bd dec7 46bb f0ce abbd a847 82bc
000002c0: 14ef 5e3d 2b7b 8d3c 679d 96bd 4a0e c03d
000002d0: 66a8 9bbd 06b9 c0bc 1fbb 643c 3d7b 893d
000002e0: b92d b83d c112 5d3d f94d f0bd 19d6 b73c
000002f0: 00af 9b3d a519 28bd ee59 2539 ab9c 3abd
00000300: c769 8b3d ac4d bfbd 2af0 9c3b 4ebd ed3c
00000310: a14e e93d 3d83 a2bc aa8a 92bc 4ab6 14be
00000320: 16f0 a13d e2b0 013e fd62 c3bc 387a eebc
00000330: db7b fd3d a381 2a3d f96d 62be 545d c2bd
00000340: 874d 3fbc 002f a33d 7c97 91bd d811 b13d
00000350: cea5 07be 005b b2bd fe42 8fbd e5cd c43c
00000360: 98da 23bd e34f 91bc be98 f0bc 4296 dabc
00000370: ea18 a93d 440a ddbc 990d 29bd db60 26bd
00000380: f2ac 55bb e917 55bd e3fb 903d b820 e03d
00000390: 16ec e23d 57ce 2ab7 86d6 c03d adc6 ab3d
000003a0: 6736 b7bd 7df0 75bd 52a5 fb3b 0690 0dbd
000003b0: d47b 8f3d 0e1d 46bd 8573 0cbe f18e 14bd
000003c0: 8462 29bd 5265 0f3d 9966 1fbd 0b17 063c
000003d0: f231 1abd 32ea cd3d f2ab 3a3c ec2f 733b
000003e0: 2103 73bd d8d2 193c acba 4d3b c21d 21bc
000003f0: 3c61 53bd 1e52 a7bc fec3 473c 3d17 29bd

net.4.module.0.bias f4 [32]
-0.07117062 -0.0019793431 0.023030655 -0.026994718 -0.049274504 0.10286674 0.012364373 -0.062241737
-0.064091675 0.0048277765 0.003938036 -0.04041693 -0.0392258 0.08951943 0.005130041 -0.06275198
-0.052085508 -0.037375197 0.057006855 -0.06569988 0.044923853 0.020248974 0.06464002 -0.05429264
0.03353539 -0.030632753 0.061355025 0.07978935 0.092914246 0.03179117 -0.07888079 0.01660049
00000000: e7c1 91bd deb7 01bb c9aa bc3c 0724 ddbc
00000010: 10d4 49bd ccab d23d f093 4a3c 31f1 7ebd
00000020: 7f42 83bd 5332 9e3b a40a 813b 398c 25bd
00000030: 3cab 20bd f755 b73d e719 a83b 1c84 80bd
00000040: 9d57 55bd bc16 19bd 0580 693d a98d 86bd
00000050: 1302 383d 2de1 a53c fd61 843d f661 5ebd
00000060: 685c 093d 8af1 fabc 684f 7b3d 9968 a33d
00000070: d349 be3d 7537 023d 408c a1bd c0fd 873c

net.5.weight f4 [48, 32, 3]
-0.122343466 -0.054341447 0.108273715 0.087977566 -0.098089404 0.072563194 -0.065796904 -0.10322614
0.010827751 -0.14186777 0.04347174 0.09516516 -0.09087495 -0.010991151 -0.10268487 0.04517322
0.0071787722 0.026949065 -0.017113699 0.022305345 -0.07403613 -0.057795018 0.05069836 -0.0802924
0.0130760865 0.03973624 -0.027173294 -0.029645825 0.006659302 0.08348836 -0.08247717 -0.012015299
0.0032253612 0.06034313 0.05551124 -0.023193667 -0.041493338 0.058605146 -0.053946707 0.055640806
0.026151672 0.031876557 -0.14162107 -0.090480626 0.015973989 -0.03337243 -0.07907564 -0.05367703
0.05990972 -0.024488848 -0.051168244 -0.031652376 -0.016992321 0.10085478 -0.13842103 0.06884049
-0.01822978 0.0031684595 -0.07715715 0.07470662 -0.07374233 -0.016551403 -0.05255453 -0.12401408
0.06247173 0.07263534 -0.011553017 -0.0396224 0.09329763 0.060344424 0.07360521 -0.08150089
0.050294306 -0.087422185 0.04564442 -0.06610423 -0.027643261 0.07571357 0.014767545 -0.038135678
0.088285044 -0.06470557 -0.091637515 0.09911979 0.08553537 -0.06518049 0.037218895 0.0018454873
0.07212926 0.075172454 -0.03101403 -0.03607935 -0.039755642 0.0719448 -0.094557814 0.079028964
-0.015102013 0.09608505 -0.07328065 0.026200466 0.09595848 0.017000666 0.042874124 0.0075644474
-0.037857007 -0.0644878 -0.009996806 -0.051635087 0.07509622 0.034880172 0.0093187755 -0.02836778
0.07344966 -0.08959108 0.116641104 -0.12599543 -0.012731932 0.06264029 -0.0352312 0.040010232
0.033585973 0.11497009 -0.033392202 0.13485856 0.0057192086 -0.0077267108 0.095037594 -0.08317097
0.09796864 0.11086205 0.07709447 0.010940429 -0.0616754 0.018576277 -0.01902847 -0.037708003
0.06885161 0.042959195 0.029395754 0.03821541 -0.020815998 -0.037484184 0.094842 -0.05626706
-0.07173169 0.08822234 -0.06471337 0.11718636 -0.121311046 0.056204025 0.039464574 -0.067172065
-0.13402958 -0.110943794 0.054841164 0.0733217 -0.08851389 -0.046900198 0.032316655 0.047256116
0.104309045 -0.018180685 -0.050556898 0.0061147986 0.0906579 0.023019752 0.011077535 -0.068963945
0.06907798 -0.11325706 0.06685823 0.06496881 -0.09213117 0.071430504 -0.05452215 -0.002884483
0.05307945 -0.089284904 -0.08483534 -0.045226246 0.04762733 0.039402276 -0.035673626 0.0060082125
0.074161656 -0.026872477 -0.0756925 0.009748414 0.075690165 -0.0051910146 -0.019293899 -0.004930207
0.18559003 -0.044812273 -0.06589434 0.06688643 -0.09898029 -0.08657311 -0.061213776 0.050597332
-0.009876924 -0.17437229 -0.014812343 -0.013206462 -0.0584714 -0.010404462 -0.0047453 0.052116662
-0.10552465 -0.008205171 0.008169577 -0.08808557 -0.081834465 0.020016182 -0.09696703 0.040253833
0.06646982 -0.110804796 0.08438783 -0.16384698 0.04376046 -0.08973208 -0.012836158 0.017563544
-0.06249856 0.031228768 0.06503721 -0.06202455 0.01889838 0.07933179 -0.104480594 0.0028545144
-0.019991346 0.024718445 -0.110777654 -0.00066344644 0.042636525 0.046127714 -0.024546979 0.10288663
-0.028597677 -0.040433023 -0.013736858 -0.05327747 -0.014438547 0.10631098 0.0035506669 -0.10644729
0.08545099 0.05071461 -0.08864058 0.11369241 0.043206826 -0.12289115 0.018424781 0.10892892
00000000: 368f fabd 2395 5ebd 9cbe dd3d 952d b43d
00000010: 19e3 c8bd 039c 943d 87c0 86bd 3a68 d3bd
00000020: e166 313c c945 11be 6c0f 323d f4e5 c23d
00000030: a51c babd 3b14 34bc 724c d2bd 8e07 393d
00000040: e83b eb3b 49c4 dc3c 0732 8cbc b3b9 b63c
00000050: 41a0 97bd 78ba 6cbd 15a9 4f3d 5870 a4bd
00000060: 153d 563c 78c2 223d 879a debc cddb f2bc
00000070: 4636 da3b f2fb aa3d cae9 a8bd d1db 44bc
00000080: 9560 533b 5c2a 773d c15f 633d a500 bebc
00000090: ebf4 29bd f30b 703d 39f7 5cbd 9de7 633d
000000a0: 083c d63c fe90 023d 1d05 11be e84d b9bd
000000b0: e2db 823c 87b1 08bd 69f2 a1bd 72dc 5bbd
000000c0: e563 753d d69c c8bc cb95 51bd eca5 01bd
000000d0: 7b33 8bbc f38c ce3d 3ebe 0dbe 3efc 8c3d
000000e0: 9f56 95bc eea5 4f3b 9104 9ebd c9ff 983d
000000f0: 3806 97bd cf96 87bc 6b43 57bd 18fb fdbd
00000100: 5be2 7f3d d6c1 943d de48 3dbc 194b 22bd
00000110: d412 bf3d b72b 773d 54be 963d f0e9 a6bd
00000120: 6701 4e3d 670a b3bd a5f5 3a3d a861 87bd
00000130: 1f74 e2bc b70f 9b3d 93f3 713c 2834 1cbd
00000140: cace b43d 5b84 84bd 73ac bbbd 51ff ca3d
00000150: 2b2d af3d 597d 85bd d772 183d 47e4 f13a
00000160: 81b8 933d 04f4 993d 2311 febc f1c7 13bd
00000170: d0d6 22bd cc57 933d 87a7 c1bd f0d9 a13d
00000180: 6f6e 77bc 3dc8 c43d 2a14 96bd 5ca2 d63c
00000190: e185 c43d fb44 8b3c c79c 2f3d 2fdf f73b
000001a0: f30f 1bbd 2e12 84bd a5c9 23bc 507f 53bd
000001b0: 0ccc 993d 83de 0e3d c7ad 183c 8c63 e8bc
000001c0: c66c 963d 877b b7bd 88e1 ee3d f204 01be
000001d0: 9899 50bc 8d49 803d 974e 10bd c5e1 233d
000001e0: 7291 093d 7075 eb3d 43c6 08bd 5d18 0a3e
000001f0: 3368 bb3b 5930 fdbb 12a3 c23d 8b55 aabd
00000200: c8a3 c83d a40b e33d b5e3 9d3d 7c3f 333c
00000210: 589f 7cbd 472d 983c 98e1 9bbc b573 1abd
00000220: 1302 8d3d fbf5 2f3d 5dcf f03c c387 1c3d
00000230: 5086 aabc 0489 19bd 863c c23d 4a78 66bd
00000240: 10e8 92bd eaad b43d 7188 84bd 67ff ef3d
00000250: ed71 f8bd 3136 663d 9ba5 213d 8291 89bd
00000260: 0d3f 09be 8036 e3bd 21a1 603d b029 963d
00000270: c546 b5bd 6c1a 40bd 785e 043d a18f 413d
00000280: fb9f d53d a9ef 94bc c014 4fbd a65e c83b
00000290: d9aa b93d eb93 bc3c 8d7e 353c f83c 8dbd
000002a0: c278 8d3d 51f3 e7bd f8ec 883d 5e0e 853d
000002b0: 44af bcbd 284a 923d 9e52 5fbd 9809 3dbb
000002c0: d669 593d 01db b6bd 27be adbd 283f 39bd
000002d0: e014 433d 4864 213d 821e 12bd 8ae0 c43b
000002e0: 11e2 973d ab23 dcbc ab04 9bbd d0b7 1f3c
000002f0: 7203 9b3d 6319 aabb 3d0e 9ebc 938d a1bb
00000300: 500b 3e3e 138d 37bd 9df3 86bd c1fb 883d
00000310: 2eb6 cabd 3e4d b1bd 4cbb 7abd 263f 4f3d
00000320: d2d2 21bc a68e 32be 78af 72bc eb5f 58bc
00000330: b57f 6fbd 7a77 2abc 767e 9bbb 4878 553d
00000340: 4f1d d8bd fb6e 06bc b1d9 053c 3566 b4bd
00000350: d498 a7bd faf8 a33c a696 c6bd 34e1 243d
00000360: 5421 883d a0ed e2bd 87d3 ac3d 81c7 27be
00000370: 2b3e 333d 74c5 b7bd c04e 52bc 6ce1 8f3c
00000380: 7dfe 7fbd 79d3 ff3c 3b32 853d 740d 7ebd
00000390: c7d0 9a3c b578 a23d ecf9 d5bd ce12 3b3b
000003a0: e4c4 a3bc 567e ca3c 65df e2bd 23eb 2dba
000003b0: a3a3 2e3d 6af0 3c3d bf16 c9bc 3ab6 d23d
000003c0: ad45 eabc 199d 25bd 8f10 61bc 7a39 5abd
000003d0: a88f 6cbc 92b9 d93d 4eb2 683b 0901 dabd
000003e0: ee00 af3d 1fba 4f3d 3189 b5bd 91d7 e83d
000003f0: a4f9 303d 5bae fbbd 91ef 963c 2016 df3d

net.5.bias f4 [48]
-0.08868089 -0.035176232 -0.027650092 0.0868907 -0.0005478424 -0.049496837 0.08489667 -0.0152932685
-0.05656697 0.06394165 0.05320943 -0.007235107 -0.06492945 0.071430236 0.0051001613 -0.036583416
-0.07076085 -0.051504787 -0.030667556 -0.043861363 0.06859516 -0.01520239 -0.029079098 -0.036977846
-0.051961865 0.062351737 -0.07614618 -0.053531602 -0.06112503 0.04473231 -0.008033244 0.09101828
-0.015780212 -0.061176933 0.025211439 -0.063625365 0.05570818 0.0648867 -0.048342016 -0.0786844
-0.04693575 -0.044880606 0.013007557 -0.021468628 -0.050674018 0.005071005 -0.06996229 -0.041941237
00000000: 549e b5bd f414 10bd 7282 e2bc c0f3 b13d
00000010: 159d 0fba 32bd 4abd 4ede ad3d 9e90 7abc
00000020: c4b2 67bd d7f3 823d 22f2 593d 7a14 edbb
00000030: bbf9 84bd 044a 923d 411f a73b 7ed8 15bd
00000040: 11eb 90bd aff6 52bd 873a fbbc f9a7 33bd
00000050: 9f7b 8c3d 7213 79bc 4a37 eebc 1576 17bd
00000060: f7d5 54bd 8964 7f3d 87f2 9bbd f443 5bbd
00000070: 3d5e 7abd 3a39 373d de9d 03bc cb67 ba3d
00000080: 8145 81bc aa94 7abd 3888 ce3c 044e 82bd
00000090: 432e 643d 51e3 843d 4702 46bd 4925 a1bd
000000a0: b33f 40bd bad4 37bd a61d 553c fade afbc
000000b0: 8f8f 4fbd ac2a a63b 6448 8fbd 93ca 2bbd

exp_avg f4 [32, 191, 2]
0.013111683 0.019819401 0.010586533 0.057078663 0.11419273 0.051990267 0.2216073 0.097043075
0.14565927 0.12912615 0.05343912 0.065817475 0.15036927 0.14226598 0.06370532 0.03425745
0.029939068 0.0013091909 0.16171989 0.11877333 -0.04114084 -0.012195529 0.21476167 0.18945527
0.111191794 0.14330825 0.03777078 0.14948432 -0.15361185 -0.14817771 0.004572986 -0.058160968
0.01888485 0.045747474 0.09671307 0.12654987 0.046410326 0.05970147 0.04651377 0.07030726
0.025385998 0.01228168 0.038290545 0.05595907 0.088593625 0.08136719 0.11201001 0.056921575
0.25553286 0.27607888 0.007721308 0.008105913 0.1511098 0.06070398 0.050993606 0.049953394
0.071979895 0.04848934 0.042273268 0.10724291 0.13159344 0.00087704964 0.05555194 0.019886382
0.08770851 0.15091303 -0.024831278 0.07576751 0.0869266 0.074759215 0.19583544 0.12106377
0.10735929 0.10259458 0.0868094 0.08862556 0.1569493 0.1980129 0.14356527 0.12254215
0.17433281 0.11566742 -0.030048305 -0.044774257 0.16244562 0.17732756 0.03843653 0.0585838
0.16873583 0.110092685 0.09430465 0.036898673 0.16177474 0.19834366 0.14177328 0.07690068
0.016127039 0.049511794 0.14157577 0.113668 -0.115276515 -0.2012866 0.16133375 0.12326925
0.08538453 0.02461252 0.14330514 0.063848145 0.058595534 0.0025747889 0.10710384 0.0532918
-0.050824326 0.0051475787 0.16080077 0.061544966 0.051869556 0.030398501 0.05628856 0.060113017
0.04661088 0.10559879 0.12438222 0.20704873 0.055342603 0.012525653 0.12243776 0.08981317
0.26038495 0.25108796 0.16653085 0.19758558 0.091712624 0.13313146 0.13413623 0.15106145
0.030013341 -0.042559694 0.16778204 0.1655792 0.075389005 0.031064058 0.025328819 0.052296776
0.05306847 0.097105116 0.12931494 0.092067696 0.13152 0.08611598 -0.028604455 -0.006123194
0.12035998 0.10471089 0.13171388 0.11936676 0.013046155 -0.106238 0.075989924 -0.083189525
0.09002338 0.13344973 0.167586 0.1174019 0.08905263 0.105236836 0.21713513 0.092032894
0.07739918 0.016900161 -0.06713445 0.04320477 -0.013039632 -0.12891881 0.030718056 0.038840298
0.1563082 0.053029373 0.13865958 0.12298591 -0.026920471 -0.09690261 -0.1430664 -0.22195841
0.07370286 0.059217706 0.14022867 0.1644252 0.17604898 0.06924765 0.12656401 0.17365663
0.15944678 0.1041403 -0.021027476 -0.10026948 0.21030234 0.13027966 0.07958058 0.12469896
-0.084061295 -0.121276505 0.339362 0.2621522 0.13774882 0.013374436 0.1004202 0.06402557
0.2113615 0.13738504 0.22168303 0.30198768 0.23086108 0.16807699 0.17044681 0.13123038
0.13326366 0.12043239 0.012639959 -0.061735947 0.07646142 0.062145907 0.1978622 0.2673617
0.007783454 0.091876075 0.16394572 0.15648618 0.1707857 0.07118692 -0.087384954 -0.06721834
0.08000616 0.053516824 0.25451544 0.19550511 0.10438457 -0.025450189 0.19639543 0.18615778
0.012781497 -0.067263305 0.036734924 0.08152909 0.15441763 0.11541314 -0.042305794 -0.025785314
0.037566822 -0.03248933 -0.03968558 -0.061728545 0.12841457 0.07640206 0.057923514 0.04561423
00000000: 62d2 563c 4c5c a23c 2373 2d3c 51cb 693d
00000010: e1dd e93d bff3 543d 06ed 623e 85be c63d
00000020: b427 153e a539 043e fbe2 5a3d 50cb 863d
00000030: 67fa 193e 2cae 113e ef77 823d 8a51 0c3d
00000040: c742 f53c 2899 ab3a e699 253e 6e3f f33d
00000050: 4c83 28bd c2cf 47bc 7cea 5b3e 9000 423e
00000060: 86b8 e33d 66bf 123e 89b5 1a3d 6b12 193e
00000070: 6d4c 1dbe e6bb 17be fdd8 953b 323a 6ebd
00000080: 67b4 9a3c b461 3b3d 8111 c63d 4a96 013e
00000090: c118 3e3d 8789 743d 3985 3e3d 41fd 8f3d
000000a0: 4cf6 cf3c 1939 493c 8cd6 1c3d 5635 653d
000000b0: 9370 b53d d7a3 a63d 8165 e53d 9926 693d
000000c0: 34d5 823e 365a 8d3e 0703 fd3b aace 043c
000000d0: 87bc 1a3e bda4 783d acde 503d ee9b 4c3d
000000e0: 326a 933d c29c 463d bc26 2d3d 2ca2 db3d
000000f0: 6ec0 063e cee9 653a 6e8a 633d c4e8 a23c
00000100: 85a0 b33d f288 1a3e f76a cbbc ff2b 9b3d
00000110: 9306 b23d 5c1b 993d 1689 483e 48f0 f73d
00000120: 30df db3d 1b1d d23d 20c9 b13d 5181 b53d
00000130: 51b7 203e e5c3 4a3e c602 133e 61f7 fa3d
00000140: 4d84 323e 0ae3 ec3d dd27 f6bc 3665 37bd
00000150: 2558 263e 5b95 353e 9f6f 1d3d 91f5 6f3d
00000160: 16c9 2c3e 4678 e13d cc22 c13d 1023 173d
00000170: 47a8 253e 9a1a 4b3e 042d 113e 1b7e 9d3d
00000180: da1c 843c e1cc 4a3d 3df9 103e c5ca e83d
00000190: 1816 ecbd 131e 4ebe ad34 253e 9774 fc3d
000001a0: 16de ae3d 32a0 c93c 95be 123e d1c2 823d
000001b0: df01 703d cabd 283b 4259 db3d 8148 5a3d
000001c0: 2b2d 50bd 05ad a83b f5a8 243e 9316 7c3d
000001d0: 2c75 543d 4706 f93c d58e 663d 1139 763d
000001e0: 0deb 3e3d 2e44 d83d 1bbc fe3d 9504 543e
000001f0: edae 623d 6538 4d3c a6c0 fa3d f8ef b73d
00000200: 2d51 853e 9a8e 803e 1087 2a3e e053 4a3e
00000210: d4d3 bb3d 9d53 083e 025b 093e daaf 1a3e
00000220: 8ade f53c 1353 2ebd 0ecf 2b3e 988d 293e
00000230: 8d65 9a3d 0d7a fe3c 627e cf3c 2535 563d
00000240: 535e 593d 0cdf c63d 236b 043e fd8d bc3d
00000250: 2ead 063e 935d b03d e453 eabc 13a5 c8bb
00000260: 4b7f f63d aa72 d63d 01e0 063e 8f76 f43d
00000270: 8abf 553c 4f93 d9bd 9ba0 9b3d 455f aabd
00000280: 2e5e b83d 0ca7 083e aa9b 2b3e 6870 f03d
00000290: 3a61 b63d 6986 d73d ac58 5e3e be7b bc3d
000002a0: 7683 9e3d 3572 8a3c c97d 89bd 7cf7 303d
000002b0: 2ea4 55bc 4b03 04be 6fa4 fb3c 0117 1f3d
000002c0: 420f 203e 5435 593d c7fc 0d3e 09e0 fb3d
000002d0: 5288 dcbc e074 c6bd 0080 12be 1149 63be
000002e0: 86f1 963d 448e 723d 1b98 0f3e 145f 283e
000002f0: 2f46 343e b6d1 8d3d ff99 013e 0bd3 313e
00000300: 0446 233e 8247 d53d d041 acbc 165a cdbd
00000310: 7f59 573e 0868 053e 25fb a23d 2b62 ff3d
00000320: 5428 acbd d15f f8bd dbc0 ad3e d038 863e
00000330: 070e 0d3e 7320 5b3c 1ba9 cd3d d71f 833d
00000340: 266f 583e aaae 0c3e e000 633e 219e 9a3e
00000350: d966 6c3e 601c 2c3e 9c89 2e3e 4261 063e
00000360: 4576 083e 42a5 f63d d517 4f3c d5de 7cbd
00000370: ce97 9c3d b58c 7e3d 639c 4a3e a2e3 883e
00000380: 580c ff3b 8629 bc3d 63e1 273e ea3d 203e
00000390: 72e2 2e3e 73ca 913d e2f6 b2bd c5a9 89bd
000003a0: 45da a33d 7534 5b3d d94f 823e 7e32 483e
000003b0: 94c7 d53d ea7c d0bc e21b 493e 25a0 3e3e
000003c0: 7c69 513c 58c1 89bd 5c77 163d b9f8 a63d
000003d0: a81f 1e3e b95d ec3d d748 2dbd b93b d3bc
000003e0: abdf 193d 8813 05bd 598d 22bd 12d7 7cbd
000003f0: 1c7f 033e af78 9c3d 3541 6d3d fdd5 3a3d

exp_avg_sq f4 [32, 191, 2]
0.0041514025 0.004297654 0.42356145 0.42467943 0.21725424 0.20216419 0.2479129 0.2525884
0.2311509 0.21799862 0.10953989 0.124055736 0.22456078 0.22168285 0.17225625 0.17464626
0.10161339 0.1031809 0.22360629 0.23133998 0.31112877 0.32415316 0.4165571 0.40245917
0.17473537 0.18788473 0.19193117 0.1912367 0.2890397 0.30276027 0.44913453 0.4258601
0.047274634 0.049414035 0.1595779 0.17012203 0.20388578 0.21323927 0.16685092 0.1622214
0.045499295 0.041773424 0.327525 0.30626595 0.15711872 0.15802023 0.13199373 0.15566073
0.36038232 0.3980282 0.14882304 0.16092083 0.15297046 0.14450489 0.31807092 0.33409968
0.29090843 0.27487117 0.12441917 0.13412184 0.17679437 0.2007864 0.49063444 0.43897685
0.17102897 0.17328155 0.21221836 0.20647164 0.09330117 0.09709162 0.30015022 0.2986368
0.19271062 0.2042157 0.1915376 0.18538351 0.23068553 0.22666395 0.19863063 0.2052043
0.21044205 0.2153784 0.18038242 0.17617126 0.26918316 0.26772848 0.1574173 0.1631978
0.3171098 0.29148623 0.18062954 0.17744932 0.48985884 0.4812907 0.38465646 0.37753493
0.12018516 0.12335697 0.20954667 0.2230659 0.40610194 0.4284552 0.20852648 0.19561005
0.47621435 0.4851547 0.13598415 0.14569606 0.16436985 0.18166456 0.21795857 0.22764696
0.22601865 0.23390569 0.31341812 0.29221588 0.38919035 0.37549472 0.3703485 0.39770508
0.256591 0.27749583 0.16322264 0.17514126 0.18972974 0.1822652 0.31809014 0.33265653
0.17931049 0.17867255 0.39227337 0.4252425 0.34873313 0.3334236 0.20374808 0.19935268
0.3553209 0.34955138 0.39992863 0.41974002 0.28478044 0.2703058 0.12787913 0.12149447
0.11213407 0.11372359 0.11520446 0.11575522 0.2706592 0.27281743 0.30633816 0.30064252
0.2681388 0.26123834 0.37389696 0.36601534 0.4307327 0.4634106 0.2679908 0.2629015
0.3272528 0.30072272 0.23326172 0.24428552 0.21778728 0.21297072 0.3650109 0.3714608
0.1281554 0.13735257 0.30341235 0.30414572 0.32286733 0.32918257 0.2579019 0.28628227
0.29549748 0.33497995 0.18294303 0.17624956 0.17512502 0.19160299 0.54111415 0.51312906
0.13227147 0.14366601 0.09386932 0.10319096 0.11560762 0.104117274 0.24266593 0.30655885
0.43103346 0.44543627 0.35838386 0.3617126 0.31109396 0.2957912 0.23894656 0.26385725
0.320457 0.28980225 0.43628785 0.4447329 0.35556206 0.37292543 0.48453107 0.46295983
0.31302193 0.32938612 0.28230685 0.2771636 0.39282462 0.40411395 0.50228167 0.48909765
0.3255285 0.33451408 0.3758273 0.32910734 0.20511205 0.20685281 0.29944846 0.2874285
0.51392686 0.41809958 0.48942363 0.45628777 0.23962954 0.2434682 0.51370066 0.44920585
0.37056136 0.36144194 0.57089376 0.56232005 0.35222447 0.33062232 0.2595826 0.25054193
0.50591433 0.44582987 0.45232278 0.4320582 0.29270747 0.28863683 0.5225784 0.41981524
0.16586536 0.16209845 0.2892534 0.23664473 0.34923953 0.3231773 0.16383953 0.17438114
00000000: 7d08 883b 56d3 8c3b 0cdd d83e 956f d93e
00000010: e577 5e3e 2104 4f3e e1dc 7d3e 4453 813e
00000020: d2b2 6c3e 083b 5f3e 7356 e03d ef10 fe3d
00000030: 43f3 653e d400 633e f163 303e 78d6 323e
00000040: ae1a d03d 8250 d33d 0cf9 643e 63e4 6c3e
00000050: 454c 9f3e 67f7 a53e f946 d53e 210f ce3e
00000060: d4ed 323e db64 403e 9b89 443e 8ed3 433e
00000070: 03fd 933e 6503 9b3e f6f4 e53e 560a da3e
00000080: 0ca3 413d 5f66 4a3d 6468 233e 7834 2e3e
00000090: 6fc7 503e 655b 5a3e f8da 2a3e 5e1d 263e
000000a0: 785d 3a3d 9c1a 2b3d 5bb1 a73e e4ce 9c3e
000000b0: bbe3 203e 0ed0 213e 5d29 073e 8765 1f3e
000000c0: 0884 b83e 5aca cb3e 1165 183e 6ec8 243e
000000d0: 4aa4 1c3e 17f9 133e 31da a23e 1d0f ab3e
000000e0: f3f1 943e eabb 8c3e 7acf fe3d 3c57 093e
000000f0: 9509 353e f39a 4d3e 7034 fb3e 93c1 e03e
00000100: 3822 2f3e b870 313e c54f 593e 4d6d 533e
00000110: af14 bf3d f9d7 c63d 4aad 993e ece6 983e
00000120: ef55 453e ec1d 513e 6f22 443e 2dd5 3d3e
00000130: d438 6c3e 981a 683e d465 4b3e 1321 523e
00000140: 1f7e 573e 288c 5c3e 2bb6 383e 3d66 343e
00000150: 60d2 893e b513 893e 0032 213e 531d 273e
00000160: 375c a23e af3d 953e f3f6 383e 46b5 353e
00000170: c7ce fa3e bc6b f63e b1f1 c43e 424c c13e
00000180: a323 f63d 94a2 fc3d 6793 563e 636b 643e
00000190: 98ec cf3e 7b5e db3e f787 553e 004e 483e
000001a0: 5ed2 f33e 3266 f83e 6e3f 0b3e 5931 153e
000001b0: 9250 283e 4606 3a3e 8830 5f3e 491c 693e
000001c0: 6f71 673e f984 6f3e 5778 a03e 529d 953e
000001d0: f543 c73e d840 c03e 529e bd3e 00a0 cb3e
000001e0: e55f 833e ef13 8e3e d623 273e 3b58 333e
000001f0: 8348 423e bba3 3a3e b6dc a23e f551 aa3e
00000200: 2b9d 373e f0f5 363e 0ed8 c83e 63b9 d93e
00000210: 268d b23e 80b6 aa3e 56a3 503e 1c23 4c3e
00000220: 9fec b53e 66f8 b23e 72c3 cc3e 2ae8 d63e
00000230: bece 913e 8665 8a3e bff2 023e 18d2 f83d
00000240: 8ca6 e53d eae7 e83d 51f0 eb3d 1311 ed3d
00000250: d893 8a3e baae 8b3e 5bd8 9c3e d1ed 993e
00000260: 7d49 893e 08c1 853e 6c6f bf3e 5d66 bb3e
00000270: ff88 dc3e 2744 ed3e 1736 893e 079b 863e
00000280: ae8d a73e 54f8 993e 29dc 6e3e fc25 7a3e
00000290: a103 5f3e ff14 5a3e b5e2 ba3e 1c30 be3e
000002a0: 2b3b 033e 27a6 0c3e dd58 9b3e fdb8 9b3e
000002b0: de4e a53e 9e8a a83e b80b 843e 9793 923e
000002c0: 724b 973e 7e82 ab3e 6b55 3b3e c47a 343e
000002d0: f953 333e 9333 443e 7586 0a3f 6d5c 033f
000002e0: 2c72 073e 2f1d 133e 8f3e c03d c855 d33d
000002f0: b0c3 ec3d 703b d53d 6b7d 783e 48f5 9c3e
00000300: 6bb0 dc3e 3910 e43e 177e b73e 6532 b93e
00000310: b547 9f3e f271 973e 68ae 743e 4c18 873e
00000320: f112 a43e f660 943e 1f61 df3e 08b4 e33e
00000330: 3b0c b63e 15f0 be3e 7514 f83e 1209 ed3e
00000340: 6944 a03e 4ca5 a83e 868a 903e 63e8 8d3e
00000350: 4f20 c93e 06e8 ce3e 8895 003f 026b fa3e
00000360: acab a63e 6e45 ab3e 706c c03e c280 a83e
00000370: e508 523e 39d1 533e 4f51 993e d429 933e
00000380: b690 033f 2611 d63e bc95 fa3e 8d9e e93e
00000390: 7261 753e ba4f 793e e381 033f 4ffe e53e
000003a0: 38ba bd3e eb0e b93e 1826 123f 35f4 0f3f
000003b0: c456 b43e 5447 a93e 03e8 843e 0847 803e
000003c0: 9a83 013f d043 e43e da96 e73e bb36 dd3e
000003d0: c1dd 953e 35c8 933e b3c7 053f 06f2 d63e
000003e0: 9cd8 293e 23fd 253e 0619 943e ff52 723e
000003f0: 86cf b23e 7f77 a53e 8dc5 273e f890 323e

exp_avg f4 [32]
0.23504429 -0.18753344 -0.121422715 0.38719198 -0.43762213 -0.52938426 -0.13148402 0.1383343
0.5820847 0.20148492 -0.038173277 0.80963814 0.40253663 0.4008455 0.114207596 0.068060145
-0.037864365 0.29967132 -0.25717896 0.5744344 0.16712873 -0.55963945 0.7290794 0.7182722
0.0041461615 0.30283025 0.48884177 -0.18326923 0.30203775 -0.5335055 0.17007682 -0.25352123
00000000: 73af 703e c408 40be 79ac f8bd 073e c63e
00000010: 0210 e0be ba85 07bf bfa3 06be 82a7 0d3e
00000020: 8103 153f 1052 4e3e 955b 1cbd 7244 4f3f
00000030: 4819 ce3e 9f3b cd3e ace5 e93d 1e63 8b3d
00000040: aa17 1bbd 856e 993e f6ac 83be 220e 133f
00000050: cb23 2b3e 8844 0fbf f3a4 3a3f b0e0 373f
00000060: 86dc 873b 910c 9b3e 7849 fa3e eeaa 3bbe
00000070: b1a4 9a3e d193 08bf 9e28 2e3e 89cd 81be

exp_avg_sq f4 [32]
3.8941185 4.5426893 2.4191906 7.1674385 4.427675 3.5267358 0.62765443 2.6790342
5.2828064 1.7933538 2.206909 4.9897304 1.947363 3.696344 1.438821 5.190703
4.416118 4.4276333 5.214825 1.4088897 2.0406137 5.229836 3.725498 4.889582
3.5128624 4.4537168 4.3659863 4.5166593 2.9364524 4.2567387 4.7533727 4.2806807
00000000: 3d39 7940 b65d 9140 05d4 1a40 a85b e540
00000010: 83af 8d40 0ab6 6140 f6ad 203f 4c75 2b40
00000020: c00c a940 9e8c e53f ff3d 0d40 dfab 9f40
00000030: 3143 f93f e690 6c40 492b b83f 3d1a a640
00000040: d750 8d40 2caf 8d40 d9df a640 7f56 b43f
00000050: 6a99 0240 d15a a740 8f6e 6e40 7577 9c40
00000060: bdd2 6040 d984 8e40 29b6 8b40 7988 9040
00000070: d6ee 3b40 3437 8840 a11b 9840 56fb 8840
