saved_CEBRA_models/nitschke_20090812_20090819_20090910/CEBRA_models/temperature_0.002266666666666667_time_offsets_2_dataset1.pt (torch, 531384 bytes, 31 tensors)

net.0.weight f4 [32, 191, 2]
00000000: 5287 ef3d 4335 f03d fd0e 4abd be77 063c
00000010: 0974 0fbd 04ad c43c 0560 c73c 4ede a33c
00000020: 2514 d6bc c1cc 763b f5ec cebc e0f9 833c
00000030: d761 a9bc fcb3 143d 248b 7abd 2514 ecbb
00000040: ccad ddbc 8144 44bc 3278 453c 7e9c bbbb
00000050: 2e1f f0bb 718d b5bc d5fa ce3c fcee 1d3d
00000060: 99f0 dcbc 2232 36bc 0ef7 8c3d b9f9 6d3d
00000070: c65b 123d f125 21bc 983d a0bc f253 f23d
00000080: 8118 1cba 368a 4a3c 8793 10bc 0a54 89bd
00000090: ec75 67bb f911 703c c79e 8d3c 87cc 42bd
000000a0: 69b3 d8bb f7b9 db3c 3f8c 3a3d 1820 053c
000000b0: 5123 d2bb fbc8 993a e1c2 85bd 8ef5 f23c
000000c0: 8f29 76bc 4336 09bb f3b6 cb3c 146c 85bd
000000d0: d8dd 1a3b 07da 433d 626b fbbc e301 6fbd
000000e0: 1266 fcbc 56dd 5bbd 8c3a 583d d05a 023d
000000f0: 534b f53b f96b 8d3d 9112 83bd e69c cdbb
00000100: 8830 08bd 76ea 563d 2c19 47bd 67f2 8c3d
00000110: 6fdc 9fbb 2cdd 5abd 686c 423b 13c1 1a3d
00000120: a73d 353c 1a5f 783c 3ef5 e53c 2d47 82bb
00000130: aa8c 83bd e81e 013c e51b 743c 64b2 993c
00000140: 6e74 063d 98ab 133d 45e6 84bd fb0a 9fbd
00000150: 039b 80bd d559 443d 3773 9dbc 1839 a4bc
00000160: 4bb3 be3c b919 343d c1f7 8dbc d226 a03b
00000170: 2e15 f8bb 8d03 0dbd f5f8 d83c 9083 8fbc
00000180: b75f fc3c 2468 873d 9986 c7bc 6618 8d3c
00000190: 9db2 81bd f086 d33c 8209 3e3d cadc e63c
000001a0: adc2 b33d 8d74 0ebc 3bf7 92bd 5f1f fa3b
000001b0: ca75 273d b05e e7bc 91f1 ec3b e6da 833b
000001c0: 5e65 623d 9739 43bd e227 1cbc 6410 e03b
000001d0: 8e8e 1f3d c408 83bd d1b2 4f3c 2295 d83d
000001e0: 8654 68bc 490f 19bc d7fe a6bc 241a 86bc
000001f0: 7a37 163c 5068 a13b 2503 aebc 925c 55bd
00000200: b2a1 f63c 7e23 87bc 5922 503b 16c6 653d
00000210: 0fd9 ee3c 9753 483d 8df5 993c 6740 543d
00000220: b9f8 51bc e0a9 95bc adf0 26bd 0072 e53b
00000230: dded a13b ca8a 26bd 7621 3cbd 9f6a 3e3d
00000240: 41ea e0bc 8679 6a3c 5210 d93b 99a0 a13c
00000250: bc17 f13a 609f 823d c8f5 1e3d ce07 6ebd
00000260: 77ea 943b d2d8 2fbc a650 f3bc babc 55ba
00000270: 83cd 0c3d 52e4 113d 17ac 5a3c 6cd6 91bc
00000280: b6b0 073d 8da8 883d d2c6 4ebc 000c dfba
00000290: 4839 283d fa8f 883d 4c44 e1bc 556d 0cbd
000002a0: ff51 07bd 0ff8 6c3c 4686 a8bc 552b ffbb
000002b0: 8186 a03c f714 023c 59a1 54bd 1da9 323d
000002c0: 3ff4 88bd f4b5 17bd e48f 78bd b7a9 f9bc
000002d0: a420 da3c 26c6 fb3c 26ce 2cbd 18d2 df3c
000002e0: 827a 18bd 1ef3 ab3d 7f41 03bd 6d5d 35bd
000002f0: 868f 1d3d 273d b2bd a5b2 d3bc 2f25 08bd
00000300: 3aca ecbc e092 3c3d 663c 2cbd 4a4c 00bd
00000310: ae92 e0bc 4464 b53b a7e9 523c 73ac 313d
00000320: b618 40bc b271 5bbc a4f5 ae3c e571 5fbd
00000330: 0352 69bc 6c4c 3d3d a23a 153d 0d1f 62bb
00000340: 3aba f03b 4cd8 0d3a 6220 85bc 79fc a8bc
00000350: 6c70 ce3c 4ab4 e53b e11c 193d 0b96 51bd
00000360: 3c55 0d3d 7336 dc3c 2f00 febc 0be4 ca3c
00000370: cc12 e3bb 6590 f2bc eb88 b8bc a97f dabc
00000380: 1fb5 8739 639c 80bd c8da 9a3c 3799 71bc
00000390: e561 6fbc cc16 5bbd 3804 093d a280 a43b
000003a0: f1e4 5abd d039 e2bc b15c 6dbc 585b 0cbd
000003b0: e9ca d5bb 26a6 b9bc 7094 953d cd48 b3bc
000003c0: 58e4 a4bc 1806 e2bb 6c3b a3bc 5528 323c
000003d0: c2f2 4eba be2a 89b9 d40d c4bb 8c1f 14bd
000003e0: a696 aabb b65d 113d 363b 373d e8c3 803d
000003f0: 082a 183d 1b97 3cbc 4d3c 1cbd e8fc 1fbc
0.11695732 0.11728909 -0.0493307 0.00820726 -0.03502277 0.024008282 0.024337778 0.020003464
-0.026132653 0.0037658664 -0.025259474 0.01611036 -0.020676536 0.03630446 -0.06116785 -0.00720455
-0.027060412 -0.011979223 0.012052583 -0.0057254424 -0.0073279357 -0.022162171 0.02526609 0.03855799
-0.026970195 -0.011120351 0.068830594 0.058099482 0.035732053 -0.009835706 -0.01956062 0.118324175
-0.0005954579 0.012362054 -0.008824236 -0.06705482 -0.003531809 0.0146527225 0.017287625 -0.047558334
-0.006613184 0.026822073 0.045543905 0.0081253275 -0.0064129014 0.001173287 -0.06531311 0.029658105
-0.015024557 -0.0020936884 0.02486751 -0.06514755 0.0023630764 0.04781535 -0.030690853 -0.05835141
-0.03081039 -0.05367788 0.05279021 0.031824887 0.007485786 0.0690536 -0.06400026 -0.0062748073
-0.033249408 0.052469693 -0.04860799 0.06882172 -0.0048785727 -0.053433582 0.0029666666 0.037781786
0.011062062 0.015159393 0.028071042 -0.00397577 -0.06423314 0.007880904 0.014899229 0.018761821
0.03282588 0.036052316 -0.06489233 -0.07765766 -0.06279566 0.047937233 -0.019219978 -0.020046756
0.023278853 0.043969844 -0.017330052 0.0048874402 -0.007570884 -0.034427214 0.0264859 -0.017518789
0.03080736 0.0661166 -0.024356173 0.017223548 -0.06332896 0.02582118 0.046395786 0.028181452
0.08777366 -0.00869478 -0.07176062 0.0076331343 0.040883817 -0.028243393 0.0072309454 0.0040238975
0.055272453 -0.047662344 -0.009530993 0.0068378914 0.03895431 -0.06398156 0.0126769105 0.1057532
-0.014180308 -0.009342023 -0.020385189 -0.016369887 0.0091685 0.004925765 -0.021241734 -0.052090235
0.0301064 -0.016496416 0.0031758754 0.056097113 0.029156236 0.048907842 0.018793846 0.05181923
-0.012815648 -0.01826948 -0.04075687 0.0070021152 0.0049416856 -0.040659703 -0.04593035 0.0464884
-0.027455451 0.0143112 0.00662426 0.0197299 0.0018393914 0.063780546 0.038808614 -0.058112912
0.004544552 -0.010732846 -0.029701542 -0.00081534276 0.03437568 0.035618134 0.0133466935 -0.01780244
0.03312751 0.066727735 -0.012620645 -0.0017017126 0.041070253 0.06668086 -0.027498387 -0.034283955
-0.033037182 0.014463439 -0.020571839 -0.007787148 0.019595386 0.007939569 -0.051911686 0.04361831
-0.06687211 -0.03703876 -0.0606841 -0.030476434 0.026626892 0.030734133 -0.042188786 0.02732186
-0.037226208 0.0839598 -0.032044884 -0.04427855 0.038466953 -0.0870307 -0.02584202 -0.033238586
-0.028905023 0.04603851 -0.042049788 -0.031322755 -0.027413692 0.0055356342 0.01287309 0.04337735
-0.011724642 -0.013393806 0.021357365 -0.054551978 -0.0142407445 0.04621546 0.03643287 -0.003450337
0.0073464187 0.0005410954 -0.016250793 -0.0206282 0.025200091 0.0070100175 0.037381057 -0.051168483
0.034505114 0.026881432 -0.031005947 0.024766942 -0.006929731 -0.029609868 -0.022526225 -0.026672201
0.00025884152 -0.062798284 0.018903151 -0.014746002 -0.014610742 -0.053488538 0.03345129 0.005020217
-0.05344099 -0.027615458 -0.014487431 -0.0342668 -0.006524433 -0.022662234 0.07303703 -0.0218853
-0.020128414 -0.006897699 -0.019925795 0.010873874 -0.000789445 -0.00026162522 -0.0059830938 -0.036162898
-0.005205947 0.03548976 0.044734202 0.06287366 0.03714946 -0.011510636 -0.038143445 -0.009764887

net.0.bias f4 [32]
00000000: 700c 163b bfb5 43bc 4954 763c 6a70 0c3c
00000010: fbc6 14bd a280 c13c 2fbe 83bd 3d1e 753d
00000020: 0be6 eb3b 98a1 43bd 59d2 70bd acb1 d53d
00000030: bdad 213d b39f 6e3c ce7a f0bc 376b 683c
00000040: 6b59 e8bb 040b 2dbd 38fb 2e3d 5c87 25bd
00000050: 69bf 6e3d c407 b0bc e228 363d 6cdc 62bc
00000060: 5329 043c e2f2 1dbd 2a7f 80bd 4d71 4338
00000070: 28c8 02bd 288b 6f3c dfb7 093d 3361 34bd
0.0022895597 -0.011945187 0.015034744 0.0085717235 -0.036322575 0.023620907 -0.06432759 0.05984329
0.007199054 -0.04776153 -0.058794353 0.10434279 0.03947233 0.014564442 -0.029355433 0.014185718
-0.0070907376 -0.042246833 0.04272005 -0.040412292 0.05828801 -0.021488078 0.044472583 -0.013846498
0.008066493 -0.03856171 -0.062742546 4.6597143e-05 -0.031929165 0.01462058 0.03362262 -0.04403801

net.2.module.0.weight f4 [32, 32, 3]
00000000: f19b febb 5640 aabc 7d7c 243e eff0 dc3c
00000010: f106 a7bd a1d0 d73d 3f69 9e3d 4fad a83c
00000020: b10d 2c3d 84ac 1e3d 1e57 22bd ff24 6b3c
00000030: fee0 fb3d d258 4abd d70f 583c 5d04 ff3c
00000040: bdeb 8bbc 82f3 1fbc eb2c 5c3c b4bd 9bbd
00000050: 6061 4d3d 481b 6abd eef9 36bd de4e f13d
00000060: 7114 d8bc 2d54 053c e8ff 3ebd 243f d43d
00000070: 8f99 9e3d 8996 b3bd b866 bfbd 9d4c 893d
00000080: 2786 943d 338e 06be 82c2 1cbd a707 103e
00000090: 26b8 983c 7e16 cbbd e875 1f3d d388 293d
000000a0: 4e31 99bd 0ad7 163e f94e cd3d 755c 063d
000000b0: ee81 1fbd fafd ef3d 55fa 4dbc a509 133d
000000c0: f24e 22be 497b 6fbd 32e3 403e 35d9 8e3d
000000d0: f52b 6bbd cb49 b8bd 0877 9d3d 33e1 44bd
000000e0: 5154 6abc ce6e d5bd 29fd 02be 4558 a43d
000000f0: f625 9dbd dd77 e33d d962 da3c 257e 03bd
00000100: e198 86bd 9dbd 083d 004c b73b dcca 963d
00000110: bdee 85bd 8e4f 6ebb 3369 063d d430 c3bc
00000120: 4488 893d 429d 293d 2d9c c23c f220 cd3d
00000130: 25f9 493c eff3 d43d a266 e9bb a4c2 2b3d
00000140: acae acbd db70 643d a8cf edbd b326 efbd
00000150: 23a0 dcbc 24a8 cd3d 9824 d2bd caca 6ebd
00000160: 099c a33d 305c 673d 1793 0abe 81d1 b83d
00000170: 278b 56bd 5d8f 963d 0b65 14be 0afd b23a
00000180: 85b2 a13d 340c b63c 8b97 3eb9 f21f 06be
00000190: 0e3f 71bd 09fe 7abd a612 073d dff0 fdbc
000001a0: 7b60 b8bc 4a4d 483d b000 923c f3d2 c8bd
000001b0: d149 01bd a54a 46be cf49 5cbe 880b fabc
000001c0: 5356 f6b9 0c78 b0bd ab09 663d 06c8 e3bb
000001d0: 009e bbbd d700 9dbd 005f e8bd 86b9 523d
000001e0: 27c7 6dbd 76a8 6f3d 91c1 2e3e 0b42 623d
000001f0: e61e f73d da0c c63d b53a 7a3d bbff 15bd
00000200: 0f68 c8bc b7ea 72bd 47c9 07bc 190d 88bd
00000210: d1c3 b13c 0912 e6bc d072 e03d eb14 b0bc
00000220: 284c 063e 3078 d33a b76d 03be 5af5 02be
00000230: 2afb e13c 3e8e e4bd 364d 28be f445 b33d
00000240: c888 9abd da29 653d aec8 683d 470d c43d
00000250: 4497 903b dc91 b33d fa1a 0bbd 880a 0a3c
00000260: 0415 c83c d432 28be 96cd 53bd 7cde 313e
00000270: d552 a9bc 9e6c 923d cf6c 9cbd 5c18 9d3d
00000280: 4c26 47bd 3318 0fbe c1f4 b23d cb1d 1fbd
00000290: adb0 813d 2d8f 423e 9f77 f63d 62bc 543e
000002a0: ee92 84bd ceb6 5b3d ec86 5ebd bc19 d7bd
000002b0: eef1 2abd 1265 c1bb 2eaa 7c3d 4b77 ad3d
000002c0: 449e 233e 46d5 913b 163c a8bd c4e9 e3bd
000002d0: d085 0e3e 658b 8dbd 13ac d7bc d2b0 89bd
000002e0: 385b b4bd b5e9 ef3d 398d 283e 9b52 1e3e
000002f0: 1585 883d d5a7 27bc 25dc 15bc b81e bd3d
00000300: 8015 6ebd 21e6 e0bd ec20 1c3d fb2d 9abd
00000310: 191f 98bd 0842 6fbc 9d28 dcbd d7c6 90bd
00000320: 7b14 93bd 72de d0bc 1622 123e 71ff 2b3d
00000330: 950c 3cbd 9cdb dabd 755d 2abd abb7 f4bc
00000340: 9150 1b3c 43d6 e4bd 0d56 5d3d 2da7 b63d
00000350: e80e e63c 1237 8b3d f3fe bb3d 401f c43c
00000360: e96c aa3d b01b 2b3d 9e0d 43bc c3db 00bd
00000370: a0f5 06be 75d9 e2bd d52d fcbd f97a 763d
00000380: 09e2 83bd 6059 bbbc f343 943d 3604 c53c
00000390: bb9a 213e af7d d13a 05a8 243e ba01 a03d
000003a0: 85de f1bd 2760 933d 02d8 3a3c cb9f ebbb
000003b0: c534 d83d 2636 5bbd 24de 033d 5b11 67bd
000003c0: b5a2 393e 639a b53d 4e3c 233e 26ae 2f3d
000003d0: a9da b1bb a41c 2b3d 610f a1bd 2a4e ddbc
000003e0: cfb3 b2bd 5610 f53d fa8c f1bc 2b87 763d
000003f0: b199 2f3d ff07 df3d f311 403d ee30 093d
-0.0077700545 -0.02078263 0.16063114 0.026970355 -0.08155621 0.1053784 0.07734918 0.020590452
0.042005245 0.038738742 -0.039633863 0.014352082 0.12298773 -0.049401112 0.01318737 0.03113001
-0.017080182 -0.009762647 0.013438444 -0.076045424 0.050141692 -0.057154924 -0.044671945 0.11782621
-0.026376935 0.008137745 -0.04663077 0.103636056 0.07744133 -0.08768947 -0.09345764 0.06704066
0.0725215 -0.13140182 -0.038271435 0.14065419 0.018642496 -0.099163994 0.038930804 0.04139025
-0.07480107 0.14730468 0.100248285 0.032803018 -0.03894227 0.11718364 -0.012571891 0.03589787
-0.15850428 -0.058467183 0.18836668 0.06975023 -0.057414968 -0.0899845 0.07688719 -0.04806633
-0.014302329 -0.10421525 -0.12791885 0.080246486 -0.07673256 0.111068465 0.026658462 -0.032102723
-0.06572128 0.033383954 0.0055937767 0.07362911 -0.06539676 -0.0036363336 0.03281517 -0.023826994
0.06715444 0.04140974 0.023756111 0.100160494 0.012327467 0.10398089 -0.0071228305 0.04193367
-0.084317535 0.05577169 -0.11611873 -0.11677303 -0.026931828 0.10041836 -0.10260886 -0.058298863
0.07988746 0.0564844 -0.13532673 0.09024335 -0.0523788 0.07351563 -0.1449167 0.0013655734
0.07895378 0.022222616 -0.00018176266 -0.13098124 -0.058898024 -0.061277423 0.03297677 -0.030998645
-0.022506943 0.048901834 0.017822593 -0.0980586 -0.031564537 -0.19364412 -0.2151253 -0.030523077
-0.00046985093 -0.08616647 0.056161564 -0.006951335 -0.091609955 -0.07666176 -0.11346245 0.05144646
-0.058051255 0.058510266 0.17066027 0.055238765 0.1206644 0.0967042 0.061091144 -0.036620837
-0.024463682 -0.059305873 -0.008287734 -0.06643123 0.021699818 -0.028084772 0.10959399 -0.02149435
0.13114989 0.0016133841 -0.12834822 -0.12788907 0.027585585 -0.11159943 -0.16435704 0.08753577
-0.0754562 0.055948116 0.056832008 0.09572845 0.0044125635 0.08768055 -0.033961274 0.008425362
0.024424084 -0.1642564 -0.051709734 0.17370027 -0.02066938 0.07149623 -0.07637941 0.07670662
-0.048620507 -0.13974075 0.08738089 -0.038846772 0.06332526 0.1899993 0.12034535 0.20774987
-0.06473337 0.053641133 -0.05432789 -0.10502955 -0.04173463 -0.005901941 0.061685733 0.08470019
0.15978342 0.004450473 -0.082145855 -0.11128572 0.13918233 -0.06911353 -0.026327169 -0.06723179
-0.08806461 0.11714498 0.16460122 0.15461199 0.066660084 -0.010232885 -0.009146725 0.09234375
-0.058125973 -0.109813936 0.038117334 -0.07528301 -0.074278064 -0.014603145 -0.10749934 -0.07069176
-0.07181641 -0.025496695 0.14270815 0.041991655 -0.045910437 -0.106864184 -0.041593034 -0.029872736
0.009479658 -0.1117368 0.054037143 0.08918605 0.02808328 0.06797613 0.09179487 0.023940682
0.08321554 0.04177445 -0.011905102 -0.03145958 -0.13179636 -0.11076633 -0.12313429 0.06017587
-0.06439597 -0.022869766 0.07239523 0.02404986 0.15781681 0.0015982891 0.1607972 0.07812829
-0.1181002 0.07196074 0.011404039 -0.0071906797 0.1055694 -0.053518437 0.03219427 -0.056413036
0.18128474 0.088673376 0.15940973 0.04289069 -0.0054276777 0.04177536 -0.078642614 -0.02701481
-0.08725702 0.119660065 -0.029486168 0.0601875 0.04287118 0.10890197 0.046892118 0.03349393

net.2.module.0.bias f4 [32]
00000000: 5885 96bd a6ac 43bd f515 973d 642c 61bd
00000010: d3b4 e9bc 795c 6ebd d8b7 e9bd 94bc b23d
00000020: 87fd 603d 3dd3 b6bd 0ee7 513c a59f b93b
00000030: f56b 02bd 3b6c a3bd 92b4 863d ee96 bd3c
00000040: 285c 50bd 6a95 a7bd 24d3 01bd 8f82 a03d
00000050: 7794 093c 9555 8dbb 98f0 a2bd 9f26 fdbc
00000060: c7c1 acbd 4624 463c 80e0 c03c 9dca 31bd
00000070: 565b 4e3d 3a8a c93d 0c81 723d bd0b c7bd
-0.07349652 -0.047772072 0.07377235 -0.054973975 -0.028528607 -0.058193658 -0.114120185 0.08727375
0.054929283 -0.08927009 0.012811435 0.005664783 -0.031841237 -0.07979628 0.0657741 0.023143258
-0.050869137 -0.08182795 -0.0316955 0.07837402 0.008397213 -0.0043131807 -0.07956046 -0.030902205
-0.084353976 0.012093609 0.02354455 -0.043406118 0.050380073 0.09840818 0.0592051 -0.09719036

net.3.module.0.weight f4 [32, 32, 3]
00000000: 2d4f 79bd f2ac 1dbd 2b8e 203e 79e0 47bc
00000010: 73d6 39bd b3be 77bd 51f4 b3bc f81b 33bd
00000020: 861f a43d 8b66 c93d a1c5 613d c97e 833d
00000030: 9d60 acbd 98ea ea3c 7427 18ba 80a1 813d
00000040: a617 c23c 8294 05bd dfb0 1b3d ed41 253d
00000050: 88c8 0e3e 70ac fb3d 90a1 47bd f971 3dbd
00000060: 2b79 d83d 8c01 c43c 1847 88bb fe39 983d
00000070: 0358 09bc be99 cc3d 2cef c73b b138 083b
00000080: e6cd a03d 794b 69bd 04a9 483c cdc7 c8bd
00000090: 572e bc3c c6ca 74bd 9559 003d c46f bb3d
000000a0: 87be a13b 48d4 0b3d efe7 453d 2316 f33d
000000b0: f3a2 f33c 17a6 a33d dcb1 fdbd 893f 18be
000000c0: 60cd 0fbe f325 8e3d 25b3 d83d 90f9 863d
000000d0: 6832 ae3a b0a4 10bd 3c8f eb3c eac8 b43d
000000e0: 9cfe 8fbd 1ec1 a7bd 34ca bcbd fa4f b6bc
000000f0: 9aa6 17be ec5f 83bd 0d09 74bd 1493 ac3d
00000100: b146 543d 72e2 9f3d 17fb 48bd 64b0 78bd
00000110: 3790 e7bd 7861 d53d 9cd1 eb3c 4942 c03d
00000120: f2aa e03d 6d09 2bbd 10b0 40bd 8ba7 89bc
00000130: 082f de3d 61a7 bbbc 1f14 8e3d 6907 83bd
00000140: 8b29 53bd a274 debc 77a6 08bd fd2e b53c
00000150: f476 023d f2a3 4fbd 6576 813d 9d12 f5bd
00000160: acf8 43bd 38f3 a13d aa73 18bd 6c7a 95bb
00000170: 87c9 f0bc d507 fc3d 6144 74bd 1d6b 10be
00000180: 9bcb a83d 06db 973c 5ecc c4bd 5922 1e3c
00000190: 34d0 e7bb a37d db3c 3e04 123d 40ff 8cbc
000001a0: df19 3b3d 242b ba3c b93f e13d 5457 60bc
000001b0: 4c62 bbbc 83d1 4bbd d42f cabd fb2d 323e
000001c0: 85ae 2e3c d11c 9b3c 39f8 c33d d23d c8bd
000001d0: 2eca cabc d5ad 6abd 0450 33bd e8e9 4f3e
000001e0: 7cfc 5f3c fe03 fa3c f7b7 103d c752 abbd
000001f0: 5c56 cb3d 7661 c53c 3e9e e73c 5c73 b9bc
00000200: 8f61 e9bd c97c 24bd 7e1c 983d 5f6b 45bd
00000210: f8e7 0dbe 5f3b 31bd b72d 1e3e ce52 b83d
00000220: 0c6f 8dbc e07f 32be 493e 85bd 40c6 82bd
00000230: fdeb 0bbe 8e86 f4bc 30e7 c1bd b12c cfbd
00000240: 73e9 49bd 2c62 9a3b b21e d73c ddbe e83b
00000250: ab7c 503d 59bf 643d b5ea 953d 9ce0 b6bc
00000260: 7c04 ce3d 76a3 7b3d 10f5 71bd 05c1 833d
00000270: 80d1 373e ea51 843d 0bf8 a33d 731b 893d
00000280: dc46 0d3d 8b60 42bb e29c a63d 1bad 61bc
00000290: 7d81 2f3d 50bf cdbc 6e7d af3d 76e0 00bd
000002a0: 1d7e 58bd 07f1 553d 0b19 9d3d f411 aa3d
000002b0: 31fe 673d 1e85 e2bd af67 633d 23a2 8bbd
000002c0: 63e4 a7bb 9188 8abc 37f4 a1bd ff1c eeb9
000002d0: 47a5 25bd 22ba cebc 89c4 e23d 28a6 0ebc
000002e0: 0254 483d 74c6 803d 56f4 f8bc ba57 eebc
000002f0: 976b fbbd 6920 d1bd 51eb ce3d 2c73 803d
00000300: efc5 b4bd 8809 28bd 9563 823d 018d e6bc
00000310: 1b29 aa3b e5e7 edbd 7a49 0dbd 946f c33d
00000320: 02cf 823c b9a5 4c3d 8f5e 973d a205 643d
00000330: bca6 513d 9e9c 903d 7709 893d baad 793d
00000340: ede9 35bd 2a2b b4bd b8ba 9d3d fa13 c03d
00000350: 8227 783d 2dea d83c 39ed 87bb 6b78 dbbd
00000360: 6083 e33d e5af c73d 3a1f 683d 60db e33c
00000370: bd70 58bc 2592 973b 2dd2 f3bd 7348 67bc
00000380: 0690 2fbd ee37 a63d 1750 37bd 71d6 d1bc
00000390: 41d0 693d 327a 06bc 8ba6 243d a732 093e
000003a0: 9d72 02bd 175a 4cbc 4181 f23d a919 293c
000003b0: 5b82 44bd a7ea 4fbe 6026 343d a5b0 503d
000003c0: defe aa3d 3fab 9abc d514 8a3d e7c3 82bd
000003d0: 4572 6d3d a0c1 17bc ca51 fcbc cb4f 9e3d
000003e0: 17a6 72bd 166d 09bc 194e 9cbc b658 4e3d
000003f0: 94d0 023d 5ba5 16bd 0d7d bcbd 1f37 acbd
-0.060866524 -0.03849501 0.15679233 -0.012199515 -0.04537053 -0.0604846 -0.021967085 -0.043727845
0.08013825 0.09834012 0.055120114 0.06420667 -0.08416865 0.028676316 -0.0005804219 0.06329632
0.023692917 -0.03261233 0.038010474 0.040346075 0.13943684 0.12288749 -0.048738062 -0.04625127
0.10569986 0.023926519 -0.0041588657 0.07432936 -0.0083828 0.099902615 0.0061015096 0.0020785744
0.07851772 -0.056956742 0.012247328 -0.09803734 0.022971315 -0.059763692 0.031335432 0.09152177
0.0049360427 0.034137994 0.048316892 0.118694566 0.029740786 0.079906635 -0.123874396 -0.14867987
-0.14043188 0.06940832 0.10581044 0.06590569 0.0013290169 -0.03531331 0.028754823 0.08827384
-0.07030985 -0.08191131 -0.09218255 -0.022254933 -0.14809647 -0.0641478 -0.059578944 0.084264904
0.05182523 0.07806863 -0.049067583 -0.060715094 -0.11306804 0.10418981 0.028786473 0.09387643
0.10970105 -0.041757036 -0.047042906 -0.016803524 0.10848814 -0.02290696 0.069374315 -0.06397898
-0.05155329 -0.027155224 -0.03336188 0.022117132 0.031851724 -0.05069346 0.0632141 -0.11966441
-0.047844574 0.079077184 -0.03721968 -0.004561713 -0.02939297 0.12306181 -0.059635524 -0.1410336
0.0824196 0.018537056 -0.096092924 0.009651744 -0.0070743803 0.026793307 0.035648577 -0.017211556
0.04567897 0.02272565 0.10998482 -0.013692696 -0.02287402 -0.049760353 -0.09872404 0.17400353
0.010661726 0.01893464 0.09568829 -0.09777416 -0.02475461 -0.057294685 -0.04377748 0.20304072
0.013671037 0.030519482 0.035331693 -0.08365398 0.09928581 0.024094325 0.028273698 -0.022638015
-0.11395561 -0.040158067 0.074273095 -0.0481981 -0.1385802 -0.04326951 0.15447126 0.09000169
-0.017264865 -0.17431593 -0.065060206 -0.063854694 -0.13664241 -0.029849317 -0.09467924 -0.10115946
-0.0492949 0.00471141 0.026259754 0.007102831 0.050900143 0.055846546 0.073201574 -0.022323899
0.10059449 0.061435185 -0.0590716 0.064333 0.17951012 0.06460936 0.08006295 0.06694689
0.034491405 -0.0029659595 0.08135392 -0.013774182 0.0428481 -0.025115639 0.08568846 -0.031464063
-0.052854646 0.052231815 0.07670792 0.083042055 0.0566389 -0.11060546 0.055518802 -0.068180345
-0.0051236614 -0.016910823 -0.079079084 -0.000454165 -0.040440824 -0.02523524 0.11072642 -0.008706607
0.04890824 0.06287852 -0.030389946 -0.029094566 -0.122763805 -0.1021126 0.10103477 0.06271967
-0.08826815 -0.041024715 0.0636665 -0.028143408 0.0051928884 -0.11616496 -0.0344939 0.09542766
0.01596785 0.049962733 0.073910825 0.055669434 0.0511844 0.07061122 0.066912584 0.060956694
-0.044412542 -0.087972954 0.077016294 0.0937881 0.060584553 0.026478851 -0.004148152 -0.10716327
0.11109042 0.09750346 0.056670405 0.027814567 -0.013210473 0.004625576 -0.11905322 -0.014116394
-0.04286196 0.081161365 -0.044754114 -0.025614949 0.057083372 -0.008207845 0.04019789 0.13398229
-0.031847585 -0.012472651 0.118410595 0.010321059 -0.04797588 -0.20304357 0.04398191 0.05094971
0.08349393 -0.018880485 0.06742255 -0.06385022 0.057970304 -0.009262472 -0.030800719 0.07730063
-0.059240427 -0.0083878245 -0.019080209 0.05037757 0.031937197 -0.03677879 -0.09203539 -0.08408951

net.3.module.0.bias f4 [32]
00000000: e80c 813d 50ba a5bd a4cd 9dbd 5101 15bd
00000010: 3731 b23d f72b e1bc 0ace f53c 8392 263d
00000020: c301 efbc ee48 903c dfd6 863d 65a5 98bd
00000030: 1779 bd3d 4ee2 a93d 1223 debc 06e2 753d
00000040: 42c8 223d dc4d 7bbc f781 03bc f4b6 cabd
00000050: f5b0 62bd cc8b abbc 6915 1ebc 6724 8a3d
00000060: dddc cabc 6c6e 843c 6e5c fdbc a974 e8bc
00000070: d51a 63bc 9f73 993d db7b 26bd f3ca b3bd
0.0630129 -0.08092177 -0.077052385 -0.03637821 0.08700793 -0.027486784 0.030005474 0.04066707
-0.029175645 0.0176129 0.06583952 -0.074534215 0.09251612 0.08295117 -0.027116332 0.060030006
0.039741762 -0.015338387 -0.0080265915 -0.09898177 -0.05534454 -0.020940684 -0.009648659 0.067452244
-0.024763519 0.016165935 -0.030927863 -0.02837594 -0.013861378 0.07492756 -0.04064546 -0.08778944

net.4.module.0.weight f4 [32, 32, 3]
00000000: 436d 31bd 0730 453d 5eba d53b 40d1 863c
00000010: 2cd5 e8bd cd51 99bd b91f 963d 92fa 023d
00000020: 5c29 283e 03ce 93bd 882e a0bd 6267 b43d
00000030: 14c5 e1bd dfd1 c8bd df78 a7bc dace 01be
00000040: d732 843d 78cd 9c3d bee0 a63c c4ee 80bc
00000050: fc1a 84bd 46ad a33d f844 373c a7d6 44bd
00000060: 11b3 c73d e63d 8b3d b5d5 d8bc 38c6 ddbc
00000070: fd21 6b3d 832a 05be 84d7 a4bd d75a c63d
00000080: 54d2 18bd 5955 c93d 657f 833c 6804 fd3a
00000090: b244 263e 222b 663d 4956 103d c452 bd3d
000000a0: 78d1 babd 06ee 713d 6c5b adbb 65c1 7f3c
000000b0: a8fd b8bd 32d7 e3bc 18ce 923d 7154 5b3d
000000c0: 3d6e c3bd 59b6 94bd 8bef b63c 81b5 803d
000000d0: 185e 9cbd eb83 b23d d5f2 8d3d 30d2 a4bd
000000e0: d817 33bd ba1c a6bd 9994 9b3d 7af8 4c3c
000000f0: 5ef1 10be 7a0b a5bc 4750 a33c d77f 0cbe
00000100: f959 85bc e410 cb3c b94a babd 879f 29bd
00000110: 92dc edbc 8849 873d 9d05 8f3c 0ec6 1abe
00000120: eaa6 393c be5c a13b 9251 56bd 838b 74bd
00000130: b6a4 cf3c 44d9 5a3c 7690 103d 1fed 95bc
00000140: e506 50bd 723d c0bd 2e5f 8b3d 2a9f a13d
00000150: fd69 7f3c 60b5 003e dc6f f23c 1793 83bc
00000160: 77ea 8cbd 4235 f83d 8d85 6f3d 802f 42bd
00000170: 242f 233d 2a91 803d 0566 173d a909 b83c
00000180: eb6b 1e3d bba6 f8bc fdf0 70bd c2b1 b63d
00000190: 5e7b b3bd 4f55 cfbd 85e9 833d d0a1 26bd
000001a0: 4824 a43a d279 94bc a241 813c c595 713d
000001b0: c34d 2abd 6fb8 0fbc 6d21 533d 42f8 a73b
000001c0: f741 07bd bd1f 18be e668 673c 69a7 5c3d
000001d0: bde9 c7bd b318 cbbd 4008 9fbd 31dd c63d
000001e0: 7e57 17be ac46 563d 2fa2 8c3d 8f8e 373d
000001f0: 47f8 76bc 84b8 2c3d 338c 96bc 9046 0ebe
00000200: 720b cabd f1d8 ce3d d3f3 b53d fbd9 e63c
00000210: 6cd8 03be ee73 a63d 5e07 0a3d 9c80 813b
00000220: b7a9 e7bc 5459 29be 33ba cbbd 7365 c1bd
00000230: a5be a5bd d47a eb3d 96d7 c43d 7436 a8bd
00000240: 1c18 febd 4ae9 4f3d d45b 56bc c4bd 27bd
00000250: f8c6 55bd b4dc 703d f0db 51bd 3074 21bd
00000260: 506f 56bd 01ae a13d 817e 883d 725e 873d
00000270: 6279 8c3d 4e00 8dbc 88ed 003c 090d 02bd
00000280: b66a 443c 20ac 8dbd ab66 bfbd 1c09 873d
00000290: 5f13 d1bb 7826 44bd a8fb 493d 15f1 da3d
000002a0: 2f39 c83d e5bb d8bc 1a2c 87bd 6ec6 573d
000002b0: 24a7 f83c 5314 8dbb b74a 823d f8e2 b1bd
000002c0: 81a9 5ebd d8de 27bc 8fde b63c 3434 c2bd
000002d0: 3dea 243d d923 853d bc3c 49bc cc46 85bd
000002e0: 48bd b23d 2ed0 e63d b817 c33d 6407 bb3d
000002f0: 4dd8 14bd c2b4 013c 213b 89bc 007c b43c
00000300: 016d f93d dff3 ea3d 1378 0bbe ce8b 5c3d
00000310: 68a2 e9bd 20af 6abd dad5 b53d f595 70bd
00000320: ccfa 8b3d 54d0 023e 5e97 aabc 0e04 9fbd
00000330: a11a ac3d d59e 1b3d b757 53bd 8710 a23d
00000340: a9d0 9dbd 600d 9f3d cd10 8cbd 4c02 1f3e
00000350: f7fc 153e 772f 21be 7f96 be3c 15c0 79bc
00000360: f2e5 7b3d 919b 9dbd 504d 92bd 7bf4 6bbd
00000370: d5e7 d6bd e4ce 60bd 3eb8 3f3d 0edd 05bd
00000380: 2e7d ffbd 673e 393d c4fd 2a3e 7236 b4bc
00000390: 640f b9bd 0424 8cbd 8ad3 11bd 5e25 1a3e
000003a0: 4880 603d 0629 ee3c 7da4 153e 1957 99bd
000003b0: 38c2 93bc 876c eebd ce42 81bd e8bc 8abd
000003c0: 6f61 06be 0882 63bc f13e ea3d 8e78 f93d
000003d0: 889d fc3d 02d5 083e 3e23 0dbc e022 9b3d
000003e0: 0629 8fbc 24e0 aebd 581b 25ba 60c0 463e
000003f0: 0b68 8a3d 9c4c cfbd bb9e 1bbe de41 84bd
-0.04331709 0.048141506 0.006522461 0.0164572 -0.11368784 -0.074863054 0.07330269 0.031977244
0.16422027 -0.07217028 -0.07821375 0.08808781 -0.11023918 -0.09805655 -0.020443378 -0.12676564
0.064550094 0.076563776 0.020370837 -0.015738852 -0.06450459 0.07992034 0.011185877 -0.04805627
0.09750951 0.067989156 -0.026469091 -0.027072057 0.05740546 -0.13004498 -0.08048919 0.09685295
-0.03730996 0.09830732 0.016051957 0.0019303681 0.16237143 0.05619348 0.035238538 0.09244302
-0.09121984 0.059064887 -0.0052904394 0.015610074 -0.09032756 -0.027812574 0.071682155 0.053547326
-0.09542511 -0.072613426 0.02233102 0.06284619 -0.076351345 0.087165676 0.06931082 -0.080479026
-0.04372391 -0.08110948 0.07596702 0.012510413 -0.14154574 -0.020147074 0.01993574 -0.13720642
-0.016278254 0.024788328 -0.090962835 -0.041411903 -0.02903584 0.06605822 0.017458731 -0.15114614
0.011331299 0.004924386 -0.052323885 -0.05970336 0.025347095 0.013357464 0.03529402 -0.018301545
-0.050787825 -0.0938672 0.068052635 0.07891686 0.015589234 0.12569189 0.029594354 -0.016061349
-0.06880658 0.12119533 0.058476973 -0.04740858 0.03983988 0.06277688 0.036962528 0.022465544
0.038677137 -0.03035294 -0.058823574 0.08920623 -0.08763765 -0.10123693 0.06441025 -0.04068166
0.001252302 -0.018124495 0.015778366 0.058980722 -0.041578066 -0.008772 0.05154555 0.00512603
-0.033021893 -0.14855857 0.014124131 0.053870592 -0.09761379 -0.099168204 -0.077652454 0.09710158
-0.1477947 0.05231349 0.068668716 0.04481369 -0.015073842 0.042168155 -0.0183774 -0.13894105
-0.09865464 0.10099972 0.088843964 0.028180113 -0.12875527 0.081275806 0.033698432 0.003952099
-0.028279169 -0.16537982 -0.09947624 -0.09443178 -0.08093003 0.11498037 0.09611432 -0.08213511
-0.12406942 0.05075959 -0.013083417 -0.04095246 -0.052191705 0.05880423 -0.05123514 -0.039417446
-0.05235225 0.07894517 0.06664754 0.06609811 0.068590894 -0.01721206 0.007869132 -0.031750713
0.0119883325 -0.06917596 -0.09345754 0.06593534 -0.006380483 -0.04788825 0.049312264 0.10690514
0.09776532 -0.026456783 -0.066002086 0.05267947 0.030353136 -0.0043054014 0.06361907 -0.08685869
-0.05436087 -0.010246001 0.022322921 -0.09482613 0.04026245 0.06500978 -0.012282547 -0.06507644
0.08727509 0.11270176 0.09526008 0.09132269 -0.036339093 0.007916631 -0.016751828 0.022031784
0.12178994 0.11472296 -0.13620023 0.053844266 -0.1140793 -0.05729592 0.088786796 -0.05873676
0.06834945 0.12774783 -0.02082413 -0.07764445 0.084035166 0.03799327 -0.051597323 0.079133086
-0.077058144 0.07766223 -0.06839142 0.1552822 0.1464728 -0.15740763 0.023265122 -0.01524355
0.06149859 -0.076956876 -0.071436524 -0.0576062 -0.10493437 -0.054884806 0.046806566 -0.032681517
-0.12475048 0.045225527 0.16698366 -0.021998618 -0.09036139 -0.06842807 -0.03560213 0.15053317
0.05480984 0.029072296 0.14613529 -0.07487316 -0.018036947 -0.11641794 -0.0631157 -0.06774312
-0.13123105 -0.013885982 0.11437786 0.12181197 0.12334734 0.13362506 -0.008614359 0.07575011
-0.017475616 -0.08538845 -0.0006298325 0.19409323 0.06758126 -0.10122034 -0.1519727 -0.06457876

net.4.module.0.bias f4 [32]
00000000: 3a9a 88bc 574d 793d 0755 40bd acc2 e8bb
00000010: 942b 6d3d 343c 713d df51 54bd 0423 0e3a
00000020: 480f d1bc 13fb 8e3c 0406 a23d e032 f33b
00000030: 40a4 323d 2e60 c6bd f0c8 8cbd b84d d8bc
00000040: 166e 103d ce2d 6bbd c963 c83d 68e4 e1b9
00000050: b8da 0fbb 650f 9f3c 035f 67bc f84d edbc
00000060: 6963 ebbd cc88 b43b a23e 993d c8ea d83c
00000070: 6981 5dbd e9f8 ef3b c790 e6bc 9587 943d
-0.016675103 0.060864773 -0.04695609 -0.007103285 0.057902887 0.058895305 -0.05183589 0.0005422088
-0.025519982 0.017453706 0.07911304 0.0074218363 0.043613672 -0.096863136 -0.06874263 -0.026404247
0.035261236 -0.05741673 0.097846575 -0.0004308552 -0.0021950435 0.01941652 -0.014121774 -0.028967842
-0.1149357 0.0055094715 0.074826494 0.02647914 -0.054078493 0.0073233736 -0.028145207 0.07252423

net.5.weight f4 [48, 32, 3]
00000000: 4940 9ebd 405a 47bc c8c5 c9bd 932b 2bbd
00000010: 315c 873d e7af 8ebd c633 f2bc 84ad ad3d
00000020: c853 49bc 6461 7dbd afc9 03be e573 8f3d
00000030: 6a31 a53c 5cb7 dabd c708 b53d 2eb6 9d3d
00000040: b9d6 4fbb 282a 07bd c273 ee3d 7651 8fbc
00000050: a7b7 b03d 97f7 d33d 2648 0d3d ca7a a1bd
00000060: 4f07 47bd 9a30 7f3d ba27 0f3d ea5b 753d
00000070: 7e4f a43d 6c38 9fbc cd6b 35bd e53f 36bc
00000080: 082c a53d ec05 b6bd 7940 d83d b84c 7d3d
00000090: e95d 4c3c 88c2 5abd b72f 253d aeea 19bc
000000a0: 370f 533d 8075 ac3c 4330 1fbe 3956 3fbc
000000b0: dbb7 803d bba6 1bbd f46e ecbd 44d9 193e
000000c0: 2fab c93d 6533 bfbd 2130 723d 4bab ec3d
000000d0: 4cce 04be 7834 a9bc 2477 943d 241a 91bd
000000e0: 8fdb c9bd 9263 35bd 3dcf e6bc fd41 27bd
000000f0: baa3 c5bd b98b 29bd e914 703d 7116 c7bc
00000100: 6e5d c33c 68b6 88bc 10b1 85bc a618 963d
00000110: f6b7 963d 682c 12bc 96f2 9f3d a7ff babd
00000120: 4fb3 b4bc b5b2 f6bb 34d2 29bd d789 f73b
00000130: 1c67 a1bc 5e13 e63d d522 043b e610 a83c
00000140: 00e9 a7bd b0b5 1cbc 0ee2 323d 0517 0abd
00000150: f8ac babd 6479 f33d 64fc dfbd a67d 95bc
00000160: 8e07 d83c a165 19bd 35a3 92bc c6b5 b73d
00000170: 7b72 f0bc 9f47 a1bd 9e3f 703b efd4 3bbd
00000180: 797d abbd b007 573d 147c e93d 8cdb a93b
00000190: e434 ab3d 2c1d dcbc a772 993c d76b f73c
000001a0: 111e debc b92f 093d a0f6 24bd 8ccc 953d
000001b0: 8645 2e3e bffe 653d 7373 eabd ba55 ed3c
000001c0: b488 86bd 4a09 20bc 6879 9f3c 926a 52bd
000001d0: 3d7d e6bd 60d5 873c 44d8 d8bc 435e 2dbb
000001e0: afbc 4ebd 900f c9bb 3b89 f8bd 02a8 debc
000001f0: e18f 9bbb 0f63 b73c 61be 0c3d a8ef 2bbc
00000200: 9c5a 5d3d 4f73 62bd 1113 7cbc bbf2 20bd
00000210: 92af d5bd 1004 113e 6660 ccbd e99b db3b
00000220: bf20 c63c 6624 3c3d 0b8f 00bd 85d3 523d
00000230: 4e6a 693d 30c5 283d 75f6 5abc 96e8 e03d
00000240: c37b 063d 967f cdbd 424e 8f3d 71a8 83bd
00000250: 2fc0 53bd a830 3cbd 4de0 0abd 2b44 a5bd
00000260: 6ec2 9fbd a51a ac3d 1ac7 a7bd 8d91 e63c
00000270: cf57 6f3d b1bb ff3c 6582 c83d 10da 293c
00000280: 0eba 66bc 8ff0 913d 81b5 fcbd 07ad 0d3d
00000290: 8d3a b03d c422 23bd 23db aa3d aa6e c9bd
000002a0: 4ff7 2d3d 3586 633d ea97 8eba d3d8 6c3d
000002b0: 048f a0bd 5ee9 cb3d df47 b23c 65ce 72bd
000002c0: 2690 323d 5baa 0f3c 3d21 97bb 7f51 6abd
000002d0: 01cd 14bd 601a 2abc 9182 6c3d 7def 81bd
000002e0: ddba 163c 05d4 8e3d c86e 03be bb35 7c3b
000002f0: 0b6d 1e3c b007 0fbe f618 b7bc 6cd1 553d
00000300: d20a e3bd f340 afbb 3c66 a53d 0f01 a43d
00000310: 17a5 e23d e965 c2bd b1b6 513c 8af8 ab3d
00000320: dc10 dc3d a38a 5bbd f77c 033d 42ae 7abc
00000330: b0d2 1a3d b915 763d 6e9d 833d 6ab6 6bbc
00000340: 221f cdbc 757a 0b3e 445f 883d 0dc2 0b3d
00000350: ac63 623d 25e9 e23d d3cc c4bd bf8f a1bd
00000360: d58f 293d b306 6fbd 235e 373e a10e 383d
00000370: 36ae 9e3d 5709 f73d 8f84 5cbd 0002 2d3d
00000380: 79ba 8a3c 6625 113d 2e4d 933c b27b 4bbd
00000390: 589d a0bd 011b f33d d931 a4bd 0e7d 99bd
000003a0: 45a4 7c3c 9cd2 9f3d 5b23 bdbb e20d 43bd
000003b0: 4122 8c3d 3d90 9f3d e2db b7bd 50b5 91bd
000003c0: befc ddbd 3057 0d3e e392 aebd 9147 1bbc
000003d0: b213 23bd 9fc9 e4bc 87c9 86bd 80ca 3ebd
000003e0: dcef a93d 7f09 8abc 4294 273b 9821 eabb
000003f0: 798f 21bd 30c6 783d 5413 303d 437c 8cbd
-0.07727105 -0.012167513 -0.09852177 -0.041789602 0.06609381 -0.069671445 -0.029565703 0.08480361
-0.012288041 -0.061860457 -0.12869905 0.07004527 0.020165164 -0.10679504 0.08839565 0.07700764
-0.0031713678 -0.032999188 0.11643173 -0.017494898 0.08628779 0.103499584 0.034492634 -0.07884748
-0.048590954 0.06230221 0.034949996 0.05990211 0.080229744 -0.019436084 -0.04429226 -0.011123632
0.08065039 -0.08887848 0.10559172 0.061840743 0.012473562 -0.053408176 0.040328708 -0.009394331
0.051528182 0.021052122 -0.15545754 -0.011678272 0.06285068 -0.038000803 -0.115446 0.15024287
0.09847104 -0.093359746 0.05912793 0.11556109 -0.12969321 -0.020654902 0.07249287 -0.07085064
-0.098563306 -0.04428441 -0.02817499 -0.040834416 -0.09650369 -0.041393016 0.05861369 -0.024302693
0.023848262 -0.01668854 -0.016319782 0.0732892 0.073593065 -0.00892172 0.078099415 -0.09130793
-0.022058157 -0.0075286278 -0.04146023 0.0075542736 -0.019702487 0.11234163 0.0020162363 0.02051587
-0.08198738 -0.009564802 0.043672614 -0.03371336 -0.091150224 0.11888388 -0.109368116 -0.01824839
0.02637079 -0.037450437 -0.017900089 0.089702174 -0.029351464 -0.07874989 0.0036659013 -0.045857366
-0.083735414 0.052497566 0.11400619 0.0051836427 0.083596975 -0.026869379 0.018731428 0.03020279
-0.027113946 0.033492777 -0.040274262 0.07314405 0.17018709 0.056151148 -0.114478014 0.028971542
-0.06569043 -0.00976784 0.01946707 -0.051371165 -0.11254356 0.016581237 -0.026470311 -0.002645389
-0.05047291 -0.0061358884 -0.1213555 -0.027179722 -0.0047473763 0.022386102 0.034361247 -0.01049415
0.05404149 -0.055285748 -0.015385405 -0.039293986 -0.10433878 0.14161706 -0.09979324 0.0067019355
0.024185536 0.04593315 -0.031386416 0.051471252 0.056986146 0.041203678 -0.013364424 0.10981862
0.032832872 -0.10034101 0.06997348 -0.06428612 -0.051696952 -0.04594484 -0.033905316 -0.08069643
-0.078007564 0.084035195 -0.081922725 0.028145576 0.05843335 0.031217428 0.09790496 0.010366932
-0.014082445 0.07125961 -0.123393066 0.03458884 0.08604918 -0.039828077 0.08342578 -0.098355606
0.04247218 0.05554791 -0.0010879014 0.057823967 -0.07839778 0.09956621 0.021762786 -0.059278864
0.043594502 0.008768643 -0.0046121166 -0.057206627 -0.03632832 -0.010382265 0.057741705 -0.06344507
0.009199825 0.06974033 -0.12835228 0.0038484174 0.009669553 -0.13967776 -0.02235077 0.052201673
-0.11086048 -0.0053483187 0.0807614 0.080080144 0.11066645 -0.09492094 0.012799905 0.083970144
0.10745403 -0.05359901 0.032101598 -0.015300335 0.037798584 0.06007931 0.06426512 -0.014386753
-0.02503926 0.13620932 0.066587955 0.034120608 0.055270836 0.11079625 -0.096093796 -0.078887455
0.041396935 -0.058356 0.17907004 0.044935826 0.07748072 0.12062328 -0.053837355 0.042238235
0.01693462 0.035436057 0.017981138 -0.049678512 -0.07842511 0.11870385 -0.0801732 -0.074945554
0.015420024 0.078038424 -0.005772037 -0.04762066 0.06842471 0.07791183 -0.08977486 -0.07114661
-0.10839222 0.1380279 -0.0852411 -0.009477512 -0.039813705 -0.027928172 -0.06581407 -0.046579838
0.08297703 -0.016850231 0.0025570546 -0.007145118 -0.039443467 0.06073588 0.042987183 -0.068596385

net.5.bias f4 [48]
00000000: b6b9 8b3b 87d7 5f3d 9d54 bc3d 58a1 843d
00000010: c5f6 293c 80da 16bc 585e f4bc 81f9 03bd
00000020: cc81 8e3d 1574 97bb 1a8f 2d3c 73d3 6fbd
00000030: af12 1a3b 7b62 bcbd 82f9 b7bc 685e 293d
00000040: d523 c93a 1f9e d83c 8c0c 2cbd db44 86bc
00000050: c27d 6d3d 976e 1cbd 2117 a6bb 4dfc 34bd
00000060: 797a da3c bfda 9abd f785 903d 2f78 063d
00000070: 86b3 383d 2c18 91bd 53bd 10bc 28aa 2fbc
00000080: 08b5 3f3d 2c1c 7fbd c305 5cbd 65cb 50bc
00000090: c719 92bc 9d65 643c 0b29 03bd 46eb b0bc
000000a0: 0359 0cbc f8a9 0bba 0bab 53bd c570 073d
000000b0: 8b82 1b3c 4ec1 dc3c e209 43bd 83ab 513b
0.004264082 0.054648902 0.09195826 0.064760864 0.010373776 -0.009207368 -0.029830143 -0.032220367
0.069583505 -0.0046219924 0.0105932 -0.058551263 0.0023509671 -0.09198471 -0.022457842 0.0413498
0.0015345762 0.026442586 -0.042004153 -0.016390255 0.05798126 -0.038191404 -0.005068675 -0.044185925
0.026669728 -0.07561254 0.07056802 0.03282946 0.045093082 -0.070846885 -0.008834201 -0.010721721
0.046803504 -0.062282726 -0.053716432 -0.012743806 -0.017834557 0.013940242 -0.032021564 -0.021596562
-0.008566144 -0.00053277565 -0.05167679 0.03306653 0.009491573 0.026947644 -0.047616847 0.0031993098

exp_avg f4 [32, 191, 2]
00000000: f570 a8bc 3409 00bd 2957 11be e35f 1abe
00000010: 521b 8dbd c22d 42bd 6fd2 09be b9b3 e7bd
00000020: 5d92 12be 5579 febd 17b8 7cbd ec49 5dbd
00000030: b16c e5bc ab62 9dbc f57d 1dbd 50da 7cbd
00000040: bfa1 21bd 72be 82bd f077 a03c 37eb 0f3d
00000050: 63f2 93bd 30e9 64bd ecde 24bd 818d 1dbd
00000060: 098a 35bd e89b d8bc 0440 30bd 2cef 60bd
00000070: a4b4 65bd a1fb f9bc bb45 23be dc62 2bbe
00000080: c3bb 47bd c0ed 78bd dd97 06bd c936 09bd
00000090: c0c0 6abd 8c5b 89bd 88b7 91bd 2d0e a6bd
000000a0: 67df 66bd 23bf 5dbd f651 aebd 931f 85bd
000000b0: f440 cebd 3f2e c1bd 4d30 08bd e935 2abd
000000c0: 132b b5bd 2395 94bd d09a 42bd ea9a 5abd
000000d0: 86c1 b1bd e79d 8dbd 7b72 17bd f34e 91bb
000000e0: 4f55 a8bd 6f74 7abd 5491 63bc 22ce 933c
000000f0: 2fb6 d4bd 2576 c2bd 606b cfbc 87e2 b9bb
00000100: 2256 2abd d593 54bd 0728 76bd e6ee 1fbd
00000110: 9244 5cbd 4523 22bd c6ad 25bd b1b5 2abd
00000120: 173e 90bd 2ddf c6bd 09cd 04bd 2120 f8bc
00000130: 4757 04be 76a6 cbbd e326 50bd 0fb3 57bc
00000140: 5f5f d33a 9fb1 13bc 5ed6 2fbc 541e fcbb
00000150: 068d 553c 20e0 e53b e461 57bd 687e 41bd
00000160: a5f5 96bd 9020 9dbd 5ca3 6abd e5c7 11bd
00000170: 89fe 65bd 6dd4 46bd 9266 b8bd 9bca a4bd
00000180: b4e9 35bd 49aa 36bd 5ed7 93bd 359f 84bd
00000190: e7e8 00ba 43eb 16bc 86b9 c8bd 1dcf 9dbd
000001a0: 4a5c 14be 18f6 dabd f100 c3bd d314 dcbd
000001b0: 4de6 91bd 125a 85bd 7fc0 86bd 9840 93bd
000001c0: e2a9 b0bd 780a cdbd d13e 66bd 7b8e 86bd
000001d0: e83e aabd a58e 6dbd fa86 8dbd 30bb a6bd
000001e0: e4f9 4abd d085 45bd 8424 a1bd 4945 59bd
000001f0: 4573 c7bd 0f2b 90bd 928c 02be 135b e3bd
00000200: 4c54 00be bd4c cbbd 9130 81bd e1c2 5abd
00000210: d19f 12be faae 24be b9a0 0dbe 00d9 e6bd
00000220: f269 11be 6f8b d8bd ca19 21be bfe1 06be
00000230: 098d f9bd 1824 07be d17f 21bd 8d69 0cbd
00000240: d61e 6dbd 8034 58bd bf9e 03bd 3cd3 84bc
00000250: 80bb 30be bd7b 10be ed18 f8bd 2849 8abd
00000260: f87d 0dbe 96db c2bd 5641 c1bd a913 0bbd
00000270: e42a 5abd 9a61 24bd 6948 9cbd 6890 9bbd
00000280: e403 6dbd d6ea 5cbd 89af d6bd 13dd 95bd
00000290: f114 6dbd debf f5bb c0e2 c8bd 3ec0 3bbd
000002a0: 2123 e0bc 7b93 04bd 0351 54bd b734 c3bc
000002b0: 2811 8ebd 42fa 94bd d0f5 bcbd 77d5 c1bd
000002c0: bd47 8cbd 441b 89bd 39d4 38bd d3a9 d9bc
000002d0: a109 87bc e0d3 82bb bc6a 94bd 6d3e 4fbd
000002e0: a63c afbc 3f21 dcbc 464b 67bd 702f 33bd
000002f0: 99b7 a1bd 65c9 4cbd f4a3 6dbc 97b5 2cbd
00000300: 0969 eebd 4303 8ebd 8df0 ebbd c987 ebbd
00000310: 53dd 36be 4b35 2cbe 53a1 e2bd cc59 dbbd
00000320: 8604 abbd d7b7 4abd 700d 3fbe da48 1abe
00000330: 64f4 d5bd 3d61 5bbd d8c9 04be 1757 8cbd
00000340: ca47 93bd 16fc bdbd 08bb 9cbd 84f8 a8bd
00000350: 7fa4 14be 4a4d 03be e351 5dbe 5a5c 2abe
00000360: 4252 e4bd d929 ebbd 7ed5 03be ef99 0bbe
00000370: 4024 4dbd 7dcc 2ebd 5d93 4cbd 0444 39bd
00000380: f1aa cebd 74a9 16bd c555 e4bd c3a7 9dbd
00000390: 29d6 1abd d4f3 22bd 5a0f 3bbd ad89 cabc
000003a0: 1e83 adbd 234a 7cbd 6aeb 1dbe c24b 0fbe
000003b0: ab15 a8bd 8f14 3bbd 4c0a 9fbd f675 2dbd
000003c0: 4041 b4bd cbc1 08bd adc2 e9bd b6d5 a7bd
000003d0: 1cfa acbd e5bd 93bd 881e 67bd e68b c8bc
000003e0: 9221 3ebd d6f1 11bd 7ee5 3bbd 0f39 0bbd
000003f0: 4a77 7ebd 3664 00bd 0449 d9bd a489 e6bd
-0.020561675 -0.031258777 -0.14193405 -0.1507564 -0.068899766 -0.04740692 -0.1345918 -0.11313576
-0.14313646 -0.12425486 -0.061699 -0.054025576 -0.02800593 -0.019212088 -0.0384502 -0.061731637
-0.039460894 -0.06383981 0.01958844 0.035136428 -0.07223966 -0.055886447 -0.040251657 -0.038465027
-0.044321094 -0.02644153 -0.0430298 -0.054915592 -0.056080475 -0.030515494 -0.15944569 -0.1673693
-0.048763048 -0.06077361 -0.03285967 -0.033499513 -0.057312727 -0.06706914 -0.07115084 -0.081081726
-0.056365397 -0.05413736 -0.085117266 -0.06500163 -0.100709826 -0.09432649 -0.03324919 -0.04155532
-0.088461064 -0.07255008 -0.047510922 -0.053370394 -0.0867949 -0.06914883 -0.03697441 -0.0044344603
-0.08219396 -0.061146196 -0.013889629 0.018042628 -0.10386311 -0.094951905 -0.025319755 -0.005672756
-0.04158605 -0.051898796 -0.060096767 -0.03904619 -0.05377633 -0.039584417 -0.040448926 -0.04167718
-0.07043093 -0.09710536 -0.0324221 -0.030288758 -0.12923919 -0.09943859 -0.050818335 -0.0131652495
0.0016126445 -0.009014516 -0.010732261 -0.007694045 0.013034111 0.007015243 -0.05258359 -0.04723969
-0.07371072 -0.076722264 -0.057284698 -0.035591025 -0.056150947 -0.04854243 -0.09003939 -0.080464564
-0.04441233 -0.04459599 -0.072188124 -0.06475679 -0.00049175177 -0.009211364 -0.09801011 -0.07705519
-0.1448833 -0.1069147 -0.09521664 -0.107461594 -0.071240045 -0.0651132 -0.065796845 -0.07190055
-0.086261526 -0.100117624 -0.05621225 -0.06570145 -0.0831278 -0.057997365 -0.0691051 -0.08141172
-0.04955472 -0.048223317 -0.07868293 -0.05304459 -0.09738783 -0.07039463 -0.12748936 -0.111013554
-0.12532157 -0.09926746 -0.063080914 -0.053408507 -0.14318778 -0.16082373 -0.13830842 -0.11271858
-0.14200571 -0.1057347 -0.15732494 -0.13172053 -0.121851034 -0.13197362 -0.039428536 -0.03428035
-0.057890736 -0.052784443 -0.032133814 -0.016214006 -0.17259026 -0.14109702 -0.12114129 -0.06752235
-0.13817585 -0.09514539 -0.0943629 -0.033954296 -0.05326356 -0.040132143 -0.07630999 -0.07595903
-0.05786504 -0.053934895 -0.104826994 -0.07317557 -0.0578813 -0.007499679 -0.09808874 -0.045837633
-0.0273605 -0.03236721 -0.05183507 -0.023828847 -0.06936866 -0.072742954 -0.092265725 -0.09464543
-0.068496205 -0.06694654 -0.045124266 -0.026570236 -0.016484084 -0.0039925426 -0.072469205 -0.050596643
-0.021391224 -0.026871322 -0.05646827 -0.04374641 -0.078963466 -0.049996752 -0.0145044215 -0.042165365
-0.116411276 -0.06934216 -0.11520491 -0.11500508 -0.17857866 -0.16817205 -0.110659264 -0.10710487
-0.08350472 -0.04949173 -0.1865747 -0.15066853 -0.104470044 -0.05355953 -0.12967622 -0.068525486
-0.07191427 -0.09276597 -0.07652861 -0.082505256 -0.14515875 -0.12822452 -0.21613269 -0.16636792
-0.11148502 -0.11482591 -0.1287441 -0.1363294 -0.0500834 -0.042675484 -0.049945224 -0.04523088
-0.10091198 -0.036782697 -0.11149172 -0.07698014 -0.037801895 -0.039783314 -0.045668937 -0.024723852
-0.08472274 -0.06159414 -0.15421835 -0.13993743 -0.08207258 -0.045673903 -0.07765636 -0.042348824
-0.08801508 -0.03338794 -0.114140846 -0.08195059 -0.08446142 -0.07213954 -0.0564256 -0.024480771
-0.046418734 -0.035631023 -0.045873158 -0.033989962 -0.06212548 -0.03134557 -0.1060963 -0.112567216

exp_avg_sq f4 [32, 191, 2]
00000000: 6e02 5e3b 4b1a 773b 213a 083e 8abf 0d3e
00000010: 8ea1 cd3d ac3a bb3d 96ab 0c3e 8e46 123e
00000020: 8b6c 003e 0b1c f03d c1d6 4a3d abee 5c3d
00000030: 325c 9d3d e69a 9d3d 24a0 b03d 57c6 b73d
00000040: 2acf 6a3d 69f4 793d 3be8 9c3d 2ab0 a43d
00000050: 6bd8 d23d 4747 d93d faeb 303e a45e 2a3e
00000060: 3af4 853d eb29 963d 81a6 d73d b7e6 d73d
00000070: 6a57 dd3d d1d8 ec3d b553 443e f292 393e
00000080: 93de af3c 483b b23c 5d43 9b3d 2638 a83d
00000090: f974 b53d b4a6 c53d 2b19 b33d 27c2 b43d
000000a0: f862 1b3d 8588 153d 8315 063e 0c95 fe3d
000000b0: d466 ca3d 36c9 cf3d 7c41 523d e35e 7c3d
000000c0: cc13 143e f784 1f3e 716b 5c3d 4b54 753d
000000d0: 19b4 9b3d 9851 913d ee11 d33d bbf2 dc3d
000000e0: 5afb c33d 80c7 c03d d07d 423d 944a 4e3d
000000f0: 2d78 c13d 7c55 e33d b921 1e3e 0993 133e
00000100: 06ee a93d 6258 af3d b592 c93d 55c7 c63d
00000110: c836 3a3d 8cd5 473d 33af d83d ad84 d53d
00000120: a8aa c13d a8e5 ce3d 1741 d83d 6907 da3d
00000130: 2fe5 e03d 3d2d e03d f3ca bb3d b35f be3d
00000140: 609d cd3d 5ba9 dc3d 7098 a53d c972 ab3d
00000150: a52f cf3d 61b3 d03d 611d bc3d dcbe c93d
00000160: 1cc3 cf3d c13b c23d 169a c43d 720d bf3d
00000170: f858 1a3e 103a 1f3e 4a73 353e e3cb 333e
00000180: 84a1 593d 355b 563d 7d1d b73d 0ea7 c43d
00000190: 11f9 f93d 02e3 033e ac16 bf3d 5807 b43d
000001a0: d06f 303e 85a6 303e 5bca 893d 6057 9c3d
000001b0: 0379 8f3d e66d a13d 9fe2 af3d 1d58 b33d
000001c0: 89e8 d73d 7964 e13d cb68 d83d 151e cf3d
000001d0: 1086 043e 4f45 fb3d fc64 093e 1425 143e
000001e0: 6dca ce3d 2126 dc3d 1d2f 9f3d 56ad ae3d
000001f0: b0ba 763d b0aa 7f3d 8013 1a3e 2e20 283e
00000200: 2229 bd3d 9eb2 bf3d 083f 243e 2313 2e3e
00000210: 6184 333e 1695 2e3e a44a d23d aca7 d53d
00000220: 1a6b 043e aff2 033e 88a1 0f3e b1be 0e3e
00000230: 6e9d 053e aa6e fb3d 659d ae3d 33f1 a63d
00000240: 0f3f 653d d067 6f3d a0de 743d 79f7 773d
00000250: 372a 043e f796 013e 2b97 ea3d 69d5 f03d
00000260: 9682 e53d 2aeb de3d e809 f93d 1ba5 f93d
00000270: 2633 003e b625 0a3e 6fd4 ba3d c879 c33d
00000280: 02f3 dc3d fba1 cd3d a630 c23d 0e4a c53d
00000290: b9a3 b73d c96c bd3d ffd4 173e a20c 183e
000002a0: 017c 613d 28fa 763d 8261 de3d d002 f23d
000002b0: 8e46 db3d 9774 e13d a2e6 c53d 4f14 dc3d
000002c0: bfb2 013e 52a4 133e 5956 8f3d 68e3 903d
000002d0: 9ade a13d c56e bb3d b7d2 253e 3f64 223e
000002e0: aa52 6b3d a33d 883d 0685 383d 9e96 493d
000002f0: e0ef 823d e760 6b3d 0480 b33d 0df5 fa3d
00000300: a4ec 223e e26d 273e 1711 173e 1e15 193e
00000310: 5eed 1d3e 2e43 193e 93c0 b73d aa95 c93d
00000320: 7bf2 f63d e1cf ee3d 2832 543e 25aa 5b3e
00000330: 18bd 2a3e 4d22 2f3e ccae 3e3e 9565 373e
00000340: ef2e db3d 5746 ec3d 71c5 e13d 671b d63d
00000350: ce5c 213e bbee 2a3e 971a 373e 7395 373e
00000360: 4377 fd3d fbd2 063e 4f2b 053e 07b6 fd3d
00000370: 9b39 9a3d 55b1 a13d 04f6 b83d cf17 b53d
00000380: 0efd 1c3e 699d 013e ba13 273e 8272 1b3e
00000390: 816e db3d 8fe4 e03d ae56 203e 7f54 0b3e
000003a0: 1a2f 043e b13e 013e f4d3 8a3e 39f8 873e
000003b0: ab10 0d3e 4314 0c3e 94b1 df3d c24e ea3d
000003c0: 1887 183e 152b 0a3e cc43 223e 323e 243e
000003d0: 97a6 d33d ce8e d73d aa7b 2a3e c909 0c3e
000003e0: eaec 623d 1121 743d 01ac db3d 2ef4 b43d
000003f0: 5968 ec3d 0639 db3d 77c6 8b3d 77f1 9c3d
0.003387596 0.003770488 0.13303424 0.13842598 0.1004058 0.0914205 0.1373733 0.14284727
0.12541406 0.11724099 0.04952121 0.05393855 0.076836005 0.0769556 0.086242944 0.08973377
0.057326473 0.061024103 0.07661482 0.08041413 0.10295185 0.10609298 0.17277518 0.16637665
0.06540723 0.07332214 0.10529805 0.10542052 0.108076885 0.11564792 0.19172557 0.18122461
0.021468436 0.021756783 0.07581208 0.082138345 0.088602014 0.09650937 0.08745035 0.08826094
0.03793618 0.03650715 0.13094144 0.12430772 0.09882894 0.101458 0.051331982 0.06161393
0.14460677 0.15578066 0.0538134 0.05989484 0.0760271 0.07095641 0.10306154 0.10788485
0.09569426 0.094130516 0.047483265 0.050364092 0.0944675 0.11100289 0.15442552 0.14411558
0.082973525 0.085617796 0.09842435 0.09705988 0.0454624 0.04878764 0.105802916 0.104256965
0.09456378 0.10102397 0.1055929 0.106459446 0.10981213 0.109461285 0.09169569 0.09295597
0.100397825 0.107744895 0.08085716 0.08371503 0.10116509 0.10190464 0.09185291 0.09850857
0.10144636 0.094840534 0.09599702 0.09328736 0.15073001 0.15549493 0.1771976 0.17558245
0.05313255 0.052333076 0.08941171 0.09602176 0.12205709 0.12879565 0.09330496 0.08790463
0.17230153 0.17251022 0.06728049 0.07633853 0.07005503 0.078822896 0.085881464 0.08757041
0.105423994 0.11005492 0.10566863 0.101131596 0.12941766 0.12269079 0.13417429 0.14467269
0.100972034 0.1074946 0.07772658 0.08529155 0.060236633 0.06241864 0.15046501 0.16418526
0.09236361 0.093602404 0.1603967 0.16999488 0.17530967 0.1704906 0.10268143 0.104323715
0.12931481 0.12885545 0.14026463 0.1393993 0.13048336 0.12276967 0.085261144 0.08151474
0.05596834 0.058448613 0.059782624 0.060538743 0.12906729 0.12655245 0.11454614 0.11759455
0.11206548 0.10884698 0.121600926 0.121896945 0.12519512 0.13490948 0.0912255 0.09544712
0.107885376 0.10040661 0.09481935 0.096332654 0.089667745 0.09249265 0.14827345 0.14848569
0.0550499 0.06029716 0.10858442 0.11816943 0.107068166 0.11008566 0.0966313 0.10746061
0.12665842 0.14418152 0.069988914 0.07074624 0.07903786 0.09151987 0.16193663 0.15858553
0.05745188 0.06652381 0.045048736 0.049215905 0.06393409 0.05746546 0.087646514 0.12253771
0.15910584 0.1635051 0.14752613 0.14949462 0.1542258 0.14967033 0.089722775 0.09842999
0.12057968 0.116607435 0.20722258 0.21451624 0.16673696 0.17102928 0.18621367 0.17909844
0.10702311 0.11536854 0.11023987 0.10454445 0.15758058 0.16692631 0.17881237 0.17928104
0.12376263 0.1316642 0.13004802 0.123882346 0.075305186 0.078951515 0.09031299 0.08842432
0.15330908 0.12657703 0.16316119 0.151804 0.10714436 0.10981094 0.15658066 0.13606451
0.12908593 0.12621571 0.27114832 0.26556566 0.1377589 0.13679604 0.10922542 0.11440803
0.14895284 0.13492997 0.15846175 0.1603935 0.10334509 0.10525285 0.16648737 0.13675608
0.05540172 0.059601847 0.107261665 0.08835636 0.1154334 0.10704236 0.068249635 0.07663243

exp_avg f4 [32]
00000000: 8399 b3be 6959 05be 1f41 923e 3f63 5b3d
00000010: 7391 87be 77de a93d a42b 073e 9ac3 d2bc
00000020: b251 e8bd 7112 a03d a8d2 923c 94c2 dd3e
00000030: 451f cd3d 0f19 043e c92f 69be 0ce6 493d
00000040: fee4 f7ba 61ac 683c 9dda 48be bb99 243c
00000050: 6819 b23d d42f 9ebe b9e3 88bc 0182 333e
00000060: 8172 00be 3b81 bb3d 515a c4bd 6fbc 2ebe
00000070: 0d19 8abe 85a2 a83c b86f 4cbd bfa0 38bd
-0.35078058 -0.13022389 0.28565308 0.053561445 -0.26478156 0.08294385 0.13200241 -0.025728036
-0.11343707 0.078160174 0.017922714 0.43312514 0.1001573 0.12900184 -0.22772135 0.049291655
-0.001891285 0.014201255 -0.19614644 0.010046418 0.08696252 -0.30895865 -0.01671015 0.17530061
-0.1254368 0.09155508 -0.09587539 -0.17064069 -0.26972237 0.020585308 -0.04991123 -0.045075174

exp_avg_sq f4 [32]
00000000: 6573 da3f 8de8 8d3f 5bf6 e33f 6ccb 833f
00000010: 4874 993f f87e 873f c452 cb3f 2922 823f
00000020: 9538 943f 25c1 bf3f b433 e33f 1d88 cc3f
00000030: c104 4e3f 1816 9c3f 5437 ab3e e53b 9d3f
00000040: 5838 8d3f d3a4 1140 2a51 bd3f 41f2 df3f
00000050: bb38 df3f 6de3 e93f 22e9 0640 c927 0240
00000060: f0be ca3f d9be 1040 f93d e53f 1a16 933f
00000070: 661b 0140 f4ea a53f 4e52 e63f 7686 a53f
1.7066466 1.1086594 1.7809557 1.0296454 1.1988611 1.0585623 1.5884633 1.0166675
1.1579767 1.4980818 1.7750154 1.5979038 0.80476004 1.2194242 0.3344065 1.2283903
1.103282 2.275685 1.4790394 1.7495805 1.7439188 1.827253 2.1079793 2.0336783
1.583952 2.2616484 1.7909538 1.149112 2.0172973 1.2962327 1.7993867 1.2931659
