saved_CEBRA_models/nitschke_20090812_20090819_20090910/CEBRA_models/temperature_0.0001_time_offsets_2_dataset1.pt (torch, 530690 bytes, 31 tensors)

net.0.weight f4 [32, 191, 2]
000000 f7 ee b9 bc e8 cc 42 bd 95 bf 99 3c c4 07 1e 3d
       -0.022696955 -0.047558695 0.018768111 0.038581625
000010 c2 6e 25 3d 32 d0 5d 3c 28 39 3e 3d 1a 8d 3b bc
       0.04038883 0.013538407 0.046441227 -0.011447215
000020 5b c4 8b bc 72 9a 5c 3c f9 fc 82 bd fd 29 e5 bc
       -0.017061403 0.013464557 -0.06395907 -0.027974123
000030 a7 fe 4e bd 5f 1d 1d bd df 08 b1 bc 7b a4 01 bd
       -0.050535824 -0.03835809 -0.021610675 -0.031651
000040 20 39 1a 3d 93 10 90 3c 8f d2 2f 3c 3c 5b bf 3c
       0.037652135 0.017586028 0.010731353 0.023358934
000050 7f fb 06 bd 17 f6 68 bc 23 d7 a1 bb 9b 2f 61 3c
       -0.03295469 -0.014218829 -0.0049389764 0.01374426
000060 1f 67 48 bc 02 61 ee 3c f0 61 48 ba 50 f3 83 3a
       -0.012231617 0.029098991 -0.00076439884 0.001006702
000070 64 96 bb 3c 9f 71 f0 3b 4d cc 64 bc 57 3f c6 3c
       0.02289886 0.0073377634 -0.013964725 0.024200125
000080 95 6b 1f bc 52 ce 83 3d 65 b7 3c bb 96 8a 9b bd
       -0.009730239 0.06435837 -0.0028795835 -0.075947925
000090 03 19 61 bd dd 6a b7 bb f8 f6 94 bc 62 36 60 3d
       -0.054955494 -0.005597456 -0.01818417 0.054739363
0000a0 47 4b eb bc 21 cd e8 3b de 75 43 3b b9 de c2 bc
       -0.028722418 0.0071045314 0.0029824893 -0.023787843
0000b0 95 ff bc bc b1 df 6c 3c 47 61 c0 bd 6f c8 b5 bc
       -0.02307109 0.014457629 -0.09393554 -0.0221903
0000c0 ae b1 09 bd 34 07 eb 3c 35 fe 6c bd 2d fc 6d 3d
       -0.033616714 0.028689958 -0.05785962 0.05810182
0000d0 ad cf 9e 3b 72 91 80 bc 9f 58 a5 bc e7 8e 45 bd
       0.004846534 -0.015694354 -0.02018386 -0.048231985
0000e0 6e fc 28 bc c6 8c 84 bb 52 71 ec bc fd 35 89 bb
       -0.01031409 -0.004045102 -0.02886263 -0.004187344
0000f0 e1 df dd bc 24 0e 08 3d b7 3f 35 ba 71 b3 93 3b
       -0.027084293 0.03321661 -0.00069140963 0.004507475
000100 80 27 e1 bc db 11 2d bd 02 2f 26 bd 00 49 c3 3b
       -0.027484655 -0.042253356 -0.040572174 0.00595963
000110 b2 ea 55 bd 02 0e 64 bb 45 10 07 3b 23 d5 d8 3c
       -0.052225776 -0.0034798388 0.0020609063 0.026468819
000120 b9 72 02 3d ee 97 cb 3a 02 00 d8 bc 50 ac 43 bd
       0.03184769 0.001553295 -0.026367191 -0.047771752
000130 88 2c 9e 3c 25 99 fd 3c eb 3c aa 3c 21 01 95 bc
       0.019308344 0.030956814 0.020781001 -0.018189015
000140 45 a9 4c bd 1c 1b 23 3d 0c c1 02 3d bc 63 29 bc
       -0.049966116 0.039820775 0.031922385 -0.01033872
000150 3f e7 41 3d 5c 3e 68 bd 81 f7 f3 3c bc ae d1 3b
       0.047339674 -0.056700096 0.029781105 0.006399004
000160 23 21 fb 3c ec e4 d1 3c 7c d0 90 3b 19 e0 82 3a
       0.03065545 0.025621854 0.0044193845 0.0009984999
000170 c3 c8 98 3d 8c de 01 3d 74 d4 bf 3c fc f8 13 3d
       0.07460167 0.031706378 0.023416735 0.036126122
000180 e8 40 55 bd ea 9e 47 bd 46 22 76 ba 7b d7 cb 3b
       -0.052063853 -0.048735537 -0.00093892624 0.0062207556
000190 e6 c8 b7 bb 1f 39 13 3d 55 f8 ad bb da dc 0c bd
       -0.0056086658 0.035943147 -0.0053091445 -0.034390308
0001a0 6f 9a 21 bc de e1 85 3d 00 65 5a bc c8 55 a5 bc
       -0.00986348 0.06537221 -0.013329744 -0.020182505
0001b0 21 f7 31 bd 7b 19 4f 3d 02 c8 8b 3d 11 c3 02 bd
       -0.04344857 0.05056141 0.06825258 -0.03192431
0001c0 ba ac f9 3c 23 dc e5 bc 87 f1 0d 3d c4 df 31 bd
       0.03047787 -0.02805907 0.034654167 -0.04342629
0001d0 64 28 3c 3d 2a de 25 bc 7b dc 72 bd 30 74 17 3d
       0.045936957 -0.010123769 -0.059292298 0.03697604
0001e0 44 e8 e1 3c ca 69 c9 3c 27 27 08 3d 02 f2 88 3c
       0.027576573 0.024586577 0.033240464 0.01671696
0001f0 d3 9b 7b 3d 7b 81 8f 3d 1b ae 8e 3b 15 90 77 3b
       0.061427902 0.07007118 0.004354251 0.0037775089
000200 09 f3 b3 bc 9c 15 bd bb cb 2c 05 3d a2 51 e4 bc
       -0.021966474 -0.0057703983 0.03251342 -0.027870957
000210 85 a0 46 bd f8 6b 26 bd 14 35 f8 39 0d a0 dd 3b
       -0.048492927 -0.04063031 0.00047341792 0.0067634643
000220 5e 47 72 3d ea 81 d7 3b 09 0f 70 bd 6c fc 0a 3d
       0.059150092 0.0065767663 -0.05860809 0.033932135
000230 ce 05 8b bc 26 cc 3f 3d 30 76 18 3d 98 2a 0d 3d
       -0.016970541 0.04682555 0.037222087 0.03446445
000240 56 24 0f bc 68 f1 84 3c eb 27 a5 3d b6 b0 b9 bc
       -0.0087366905 0.016228393 0.080642544 -0.02266727
000250 a1 b6 e3 3b 78 16 6e bc 5a 8e 88 3c 78 1f 80 bc
       0.0069492613 -0.014531724 0.016669441 -0.015640005
000260 2f c5 78 bd 20 ff 2a 3d 68 b3 eb 3c 5e 84 5d 3b
       -0.060734924 0.041747212 0.028772071 0.003380082
000270 b7 04 ce bc 49 49 b9 3b 38 b7 be 3c c0 72 8b 3c
       -0.025148733 0.005654488 0.023280725 0.01702249
000280 db bb cc bc 29 ff b8 3c 2f ce d3 3b 93 69 f3 bb
       -0.02499192 0.022582607 0.006463788 -0.007428357
000290 de 47 c2 bb 8f 3b 91 3a 46 75 2d bb 14 a1 2f 3d
       -0.0059289774 0.0011080372 -0.0026467605 0.042878225
0002a0 59 81 ea bc 16 83 ff 3c c1 74 7d 3c eb 12 d3 bc
       -0.02862613 0.031190436 0.015469731 -0.025765857
0002b0 f1 09 62 bd 80 f2 9a 3c 3b a3 a0 bc 48 dc c3 bb
       -0.055185262 0.018914461 -0.019609084 -0.0059771873
0002c0 7c 20 f6 bc f3 08 ac bc 34 16 95 bd 07 24 e0 3c
       -0.030044787 -0.021000361 -0.072796255 0.02736093
0002d0 89 6f 98 bd a4 62 10 3d 69 5f 57 3d 39 cf 11 3d
       -0.07443149 0.03525032 0.052581225 0.035598014
0002e0 d5 95 b0 bc 17 8b 03 3d 8a 4e ba bd 84 38 6c 3a
       -0.02155582 0.03211507 -0.090970114 0.0009011107
0002f0 40 ac 00 3d c9 ec 81 3c 12 df 9f bc e0 3e 00 bd
       0.03141427 0.015859978 -0.019515548 -0.031309962
000300 b9 af bc 3c b0 7e 14 3d 22 5a 84 bb df 09 ee 3c
       0.02303301 0.03625363 -0.004039065 0.029057441
000310 e7 e7 a7 3d fe 4b 55 bc 6d 6b 27 bd 8b fb 2c 3d
       0.08198529 -0.013018606 -0.040873934 0.042232078
000320 f8 0d df 3b d2 2f 94 3b ee 07 60 bd 0b 48 44 bc
       0.006807085 0.004522302 -0.054695062 -0.011980067
000330 27 68 60 3c ac e1 f2 bb 6e 92 73 3d 78 0f 90 bc
       0.013696707 -0.007412156 0.059465818 -0.017585501
000340 ac 71 da bb a0 1e 07 bb 7f a1 b4 3d 90 72 c2 bb
       -0.006666383 -0.002061762 0.088198654 -0.005934067
000350 08 6b 1c bd 29 7a 84 3d 48 24 52 bc 08 6f 1e bd
       -0.03818801 0.06468613 -0.012826033 -0.038680106
000360 8a 6a 08 3d 58 02 ce 3c 7b 9a 88 3c 13 f2 b8 bc
       0.03330473 0.025147602 0.016675225 -0.022576367
000370 f7 ab 58 bc b5 d2 ab 3a ab 01 f0 3c 7c 23 b9 3c
       -0.013224593 0.001310906 0.02929767 0.022599928
000380 c9 2c 28 3d 9c f6 18 bd 33 b9 3e 3d d9 94 b8 bc
       0.041058335 -0.03734456 0.04656334 -0.022531914
000390 f3 a0 32 3c 3e df 31 3d 0d a2 30 bc 20 82 d9 3c
       0.010902631 0.04342579 -0.010780823 0.026551306
0003a0 53 94 17 3d fa df 5e 3c a6 e9 8f 3c 26 91 4e bc
       0.037006687 0.013603205 0.017567467 -0.012607848
0003b0 10 78 32 bd 28 89 5b 3d d7 d6 bd bc a2 f8 66 bc
       -0.04357153 0.0535976 -0.023173733 -0.014097365
0003c0 02 d6 e6 bc a1 1a 42 bd 73 9f 32 3d 83 b9 8a 3c
       -0.028178219 -0.047388677 0.043609094 0.016934162
0003d0 9b 28 68 bc 00 41 45 bd b2 d2 59 3c a2 ff e1 3c
       -0.014169837 -0.048157692 0.013294863 0.027587716
0003e0 ad 79 c2 bd e4 83 8d bc 72 0c 8e bc 8c 8b c2 bc
       -0.09495864 -0.017274804 -0.017339919 -0.023748182
0003f0 a7 24 d6 3c 41 4a 7d bd 40 35 cc 3b e4 dd 82 bd
       0.026140524 -0.061838392 0.006231934 -0.063899785

net.0.bias f4 [32]
000000 b1 a0 a8 b9 8b 50 53 bd 95 0e 82 bd b7 c2 4d 3c
       -0.00032163181 -0.051590484 -0.063504376 0.012558631
000010 f1 9d 74 bd 3e 02 cc 3c 61 4b 76 3d fe f4 26 bb
       -0.059720937 0.024903413 0.06013048 -0.0025475617
000020 de bd 50 bd 0e 36 34 bc ac 6a 31 3d 14 c3 09 bd
       -0.05096232 -0.010999216 0.04331462 -0.033633307
000030 77 c4 ba bc 79 df 22 3d e9 9a 0d 3c 7e 9d 17 3d
       -0.02279876 0.0397639 0.0086428905 0.03701543
000040 70 55 5b bd 09 93 91 3c f3 48 3b bd 44 9c 88 bd
       -0.053548276 0.017770307 -0.045723867 -0.0667043
000050 1c 8b ac 3c b8 21 50 bb 28 0e bc bc f2 ca e0 3b
       0.021062426 -0.003175838 -0.022955969 0.0068601305
000060 64 f0 31 bc 23 c8 42 bd 71 45 15 3d c4 3f 2a 3c
       -0.010860536 -0.047554146 0.036443178 0.0103911795
000070 2b a7 e7 3c c7 7f 3b 3d 83 5b fe bc 7f 23 ec bb
       0.028277954 0.045776155 -0.031049496 -0.00720638

net.2.module.0.weight f4 [32, 32, 3]
000000 b4 3e 81 3d d0 a8 2d 3d cf ad e5 bd 50 b5 cc bc
       0.06310788 0.04239732 -0.11214792 -0.0249888
000010 5f e2 82 bd d5 b3 9c bd 28 d5 f9 bb ba bb a5 bd
       -0.06390833 -0.07651488 -0.007624287 -0.080924466
000020 1b fd e1 bc 5c de 1e be b6 7f 2c 3d 40 99 94 bc
       -0.02758651 -0.15514511 0.042113982 -0.018139482
000030 78 69 2a bb ba 9d db bd 92 54 27 bd 38 b1 cc bc
       -0.0026002806 -0.10723443 -0.040852137 -0.024986848
000040 8c 50 9e bd b8 16 ab bd eb 25 e2 bc bd bb 05 3b
       -0.07730207 -0.08353943 -0.027605971 0.002040609
000050 30 fa a5 3c 1b e3 39 bd 2c 49 1d 3d bb 41 c5 3c
       0.0202609 -0.0453826 0.03839986 0.024079194
000060 1c 02 08 bc 91 99 90 bd 62 97 fc 3b db c1 4d 3d
       -0.008301284 -0.070605405 0.007708476 0.050233703
000070 2b 42 c6 3d 27 9c df bd 66 ea a2 bc b3 45 bd 3d
       0.09680589 -0.109184556 -0.01988716 0.0924181
000080 13 37 42 3d c5 1a d1 3b ff 85 1b bd 62 4b 11 bd
       0.047415804 0.006381365 -0.037969586 -0.03547228
000090 31 90 b7 bd 90 ed 42 3d 98 ad 0e 3c 36 f2 88 bd
       -0.08963049 0.04758984 0.00870838 -0.06686823
0000a0 3f 2b 93 3a 06 d7 eb 3c b4 8e d7 3c d7 f9 8d bd
       0.0011228098 0.028789055 0.026313163 -0.06932419
0000b0 c8 18 4b 3d 00 2e 75 3c d4 f0 a5 3d 14 33 1e 3d
       0.04958418 0.014964581 0.08102575 0.03862293
0000c0 c1 d2 1d 3c 1b fe ab bb f5 70 f6 3c ec e5 33 bd
       0.009632767 -0.0052487976 0.030083159 -0.043920442
0000d0 81 38 1d 3d b9 01 ad bd 1d 70 97 3d 82 d1 43 3d
       0.038383964 -0.08447594 0.07394431 0.047807224
0000e0 ab e7 26 3d 21 10 a2 bc c6 4c 13 3d 27 8e 45 bd
       0.04074828 -0.019783081 0.03596189 -0.04823127
0000f0 fe 05 90 bd fd 3f 0b 3d ba 5c 71 3d 25 4d 16 bd
       -0.07032393 0.03399657 0.05892632 -0.036694665
000100 fe f5 c7 3d 76 7d 9e bd af b7 d9 bd bf f3 d4 bd
       0.09763716 -0.077387735 -0.10630738 -0.103980534
000110 20 83 e0 3d e2 1a 04 be 08 30 a7 bd be 5a 9a bd
       0.1096251 -0.1290088 -0.08163458 -0.07536839
000120 35 7e e9 3d 30 bc 86 bd 5d 3f 9d bd 9a 77 6d bc
       0.11401025 -0.06578863 -0.07678101 -0.014493847
000130 df 33 93 bd 9e 23 cf bd d6 4a 43 3b 53 27 97 ba
       -0.07187628 -0.10114215 0.0029799244 -0.0011532105
000140 5b 35 06 bd a0 cc 53 3d 28 18 86 bd be 7d 98 3d
       -0.032765727 0.051708817 -0.06547576 0.074458584
000150 d3 37 8b bd 41 b4 b4 bd 85 92 6c 3d 21 4b 10 be
       -0.06797757 -0.08823443 0.05775692 -0.1409116
000160 76 77 73 bd 43 ad 77 bc 73 2e 52 bb f8 f2 e8 3d
       -0.0594401 -0.015116992 -0.0032071143 0.113744676
000170 a2 db ce bd 82 a0 67 3d 98 54 93 3c d8 57 cc bc
       -0.101004854 0.056549557 0.017984673 -0.02494423
000180 07 1a 6e bc 4d e9 c5 bd 06 c9 c0 3d 27 30 a1 bd
       -0.014532573 -0.09663639 0.09413342 -0.078705125
000190 dd 64 cb bd 85 7b 83 3d 35 39 ce bd d4 fe df bd
       -0.099313475 0.06420044 -0.10069505 -0.109372765
0001a0 82 74 49 bd 3d c3 a9 3b 60 3c ea bc 85 5d d9 bb
       -0.049183376 0.005180745 -0.028593242 -0.006633463
0001b0 a3 25 11 bd 8f 3f a2 bd b9 4a 95 bd eb 06 c1 3d
       -0.035436284 -0.07922279 -0.07289643 0.094251476
0001c0 7e 2c ae 3d 37 60 13 3e 74 0c c4 bc ad ef 82 bd
       0.0850458 0.14392172 -0.02393172 -0.06393371
0001d0 17 9f 8b 3d ce c2 d6 bd 2b 2a d4 bd 31 b3 4c 3b
       0.06817453 -0.10486375 -0.103596054 0.0031234736
0001e0 32 e0 f5 bd 9b 00 ad 3d 30 ef d2 bd 61 11 e9 bd
       -0.120056525 0.08447381 -0.10299528 -0.11380268
0001f0 df b7 4d 3d 92 ed bc bb fb 3d fe 3a ca f2 cb bd
       0.05022418 -0.0057656253 0.0019397134 -0.09958418
000200 a6 1c 75 bc b0 57 57 3c b3 c4 4b bd a3 59 fe bd
       -0.014960444 0.013143465 -0.049748134 -0.124194406
000210 6a 16 a9 3d b7 f1 42 bd 43 f4 1b 3d 89 9f 5a 3c
       0.08256228 -0.0475938 0.038074743 0.0133437
000220 5f 77 a0 ba 86 df 08 bb 56 3a ba bd 15 15 70 3d
       -0.0012242607 -0.0020885183 -0.09093158 0.058613855
000230 0b 22 a3 bd 22 bf 01 be 02 66 25 3a 49 16 17 3b
       -0.079654776 -0.12670568 0.0006309451 0.0023054054
000240 3a df 92 bc 65 23 ad bd 7e a2 87 3d db 9f a6 3d
       -0.017928708 -0.084540166 0.0662279 0.08135959
000250 3a 65 ce 3c 01 77 0f be f8 c3 6f 3d 79 1b 90 bd
       0.025194753 -0.1401024 0.0585365 -0.0703649
000260 9e 77 8f bd 70 54 8a bd 49 33 1f 3d f7 86 c2 3d
       -0.07005237 -0.067543864 0.03886727 0.09498399
000270 cf 33 95 bd a5 f4 d0 3c 5f 06 58 3c 7d b0 a3 ba
       -0.07285272 0.02550728 0.013185113 -0.0012488511
000280 5b 2b 62 3d cd 10 bd 3d 88 5f b0 3c 09 d3 40 bd
       0.05521713 0.0923172 0.021529928 -0.04707626
000290 60 40 85 39 af b7 cf 3d 5c 40 75 bd a0 c0 2c 3d
       0.000254157 0.10142457 -0.05987583 0.04217589
0002a0 01 e1 48 bc 8b fd 83 bd 7f fc 04 3d 2f 37 81 bb
       -0.012260676 -0.06444844 0.03246736 -0.003943346
0002b0 ab aa d2 bd bf 5e a0 bd c6 e7 f2 b8 dc b7 1c 3e
       -0.102864586 -0.078305714 -0.000115826304 0.15304512
0002c0 19 ee 81 3d 91 4b 4e 3d bf 0a b6 3c 5c c6 7a 3d
       0.06344242 0.050365034 0.022221921 0.061224326
0002d0 68 31 a9 bd e4 e1 87 bd c6 23 8e 3d 03 57 ca bc
       -0.082613766 -0.06634882 0.06940417 -0.024699694
0002e0 9a 54 6f 3d 28 21 9f bd 8d c0 ab 3d da 3f 53 bd
       0.05843029 -0.07769996 0.083863355 -0.051574565
0002f0 5f 8b c9 3d 06 77 fb 3c f6 1e fd 3c c1 42 50 3d
       0.09841036 0.030696403 0.030898552 0.05084491
000300 96 3f 0d 3d 2d a3 3e bb 7b 2a 33 bd 2a 09 7c bd
       0.03448447 -0.002908896 -0.043741684 -0.061532177
000310 5a 75 6c bd b2 f9 04 bd 69 c2 2d bc d7 47 b5 bb
       -0.057729103 -0.03246469 -0.010605433 -0.0055322456
000320 05 d1 8f 3d f3 1c a1 bd d5 25 f1 ba 70 84 af bd
       0.07022289 -0.0786685 -0.0018398116 -0.08570182
000330 41 21 2a bd cf f7 57 bd c1 87 b0 bd dd c9 2a bd
       -0.04153562 -0.052726563 -0.08619643 -0.041696418
000340 d9 91 be 3d bd 1d 92 bd fb 01 2a be 6b 16 60 bd
       0.09305162 -0.071345784 -0.16602318 -0.05470888
000350 75 72 3a 3e ed 01 76 bd 14 98 7e bc f9 53 d2 3c
       0.18207724 -0.06006043 -0.015539188 0.025674807
000360 7a c3 06 bd d1 9a 9b bd 9c af 4d 3d c2 26 6f 3d
       -0.032901265 -0.07597888 0.050216302 0.05838657
000370 b4 48 39 3d bb f6 4e 3d e9 cc 1d 3c dd bf 34 bd
       0.04523535 0.05052827 0.009631374 -0.044128288
000380 40 65 bb 3d 96 7a 56 bd 80 6c cf bc 9f 56 39 3d
       0.09150171 -0.052363 -0.025320292 0.045248624
000390 fd 65 f7 3c ce 3a b3 3d 17 2e 85 3d 3e 85 83 3d
       0.030199999 0.087514505 0.065029316 0.06421898
0003a0 5c 60 e0 bb a3 d1 b9 bd 80 93 5b bd bc b4 95 bb
       -0.0068474244 -0.09073188 -0.053607464 -0.0045686644
0003b0 49 a7 a9 bd d5 a9 98 3d 37 8d 81 3c 75 ff 48 bd
       -0.0828386 0.07454268 0.015814407 -0.049071748
0003c0 51 a1 9c 3d 29 34 bd ba c2 25 5e bd 6f 8c 8c bd
       0.07647956 -0.0014435101 -0.054235227 -0.06862723
0003d0 ff c0 93 bd ae 56 0e bd 15 c1 3f 3d 25 5d bf 3d
       -0.072145455 -0.034750633 0.046814997 0.09343938
0003e0 3d 60 b7 bd de 53 87 bd 1c 31 f2 3c 73 be f4 3c
       -0.08953903 -0.06607793 0.029564433 0.02987597
0003f0 41 ba 57 bd 3a 60 a6 bd d8 36 e0 bc 77 a6 7f bd
       -0.05266786 -0.081238225 -0.027369902 -0.062414613

net.2.module.0.bias f4 [32]
000000 1d 2c a0 bd 55 b7 d7 bd 21 aa 09 3d 4c 70 9b 3d
       -0.07820914 -0.10533015 0.033609513 0.07589778
000010 85 28 42 bc 40 c7 bf 3d 95 b1 4f bd 1c e5 e1 bc
       -0.011850481 0.09364176 -0.050706465 -0.027575068
000020 9d fe 18 3a 69 f3 2e 3c 5f 3c 93 bd 44 6e f5 ba
       0.000583628 0.010678151 -0.07189249 -0.0018724878
000030 8d fa d2 bb 8d 59 37 3b 82 de 1e 3d 9e 2b ad 3c
       -0.0064385594 0.002797696 0.03878642 0.021138962
000040 62 a9 ae 3b 0b f0 a8 3d 9e 9e 31 ba 93 b7 c0 bd
       0.0053302506 0.082489096 -0.000677565 -0.09410014
000050 5c 47 c8 bc 5c 97 f8 3c bc d4 c5 bc 06 3d 5a 3d
       -0.02444809 0.030345611 -0.024149291 0.053280853
000060 f0 fc 87 3c a4 e5 92 bd 8d 02 29 3d c9 b1 97 bd
       0.016600102 -0.07172707 0.0412622 -0.07406957
000070 35 cb 95 bc 6f b8 a6 3d a4 49 0d bd 91 07 2e bd
       -0.018285373 0.08140647 -0.034494057 -0.042487685

net.3.module.0.weight f4 [32, 32, 3]
000000 6f 49 00 be d0 30 00 bd d7 fc 42 3d e6 4a 91 3c
       -0.12528013 -0.03129655 0.047604408 0.01773591
000010 5d af fd ba 69 69 1c bc 4c dd 99 3d 93 18 a9 bd
       -0.001935463 -0.009546616 0.07512912 -0.0825664
000020 c6 52 12 bd 7c d1 16 3d 0c f0 75 ba 14 9c e7 3d
       -0.03572347 0.036820874 -0.0009381778 0.113090664
000030 aa f2 58 bd 20 22 63 3d 44 bc 63 bd 3c f5 23 bd
       -0.052965797 0.055452466 -0.055599466 -0.040028796
000040 56 bb 9f bd a8 e4 7e 3c 52 ad f6 3c 98 3a 0f bb
       -0.07799403 0.015557446 0.030111942 -0.0021854993
000050 71 fe f4 3b c0 80 b1 3d 44 e4 9e 3d c3 f6 84 bd
       0.007476621 0.08667135 0.07758382 -0.064923786
000060 ea ca 3c bd c9 2c 13 bd 69 01 c3 bc 37 62 09 bc
       -0.04609195 -0.035931382 -0.023804383 -0.008385233
000070 8b ef 82 bd f4 a8 3a bd 42 1a 99 3c 1a af af 3d
       -0.063933454 -0.045571283 0.018689279 0.0857832
000080 c0 7d 41 3d de 63 93 bd 91 4d 04 3e ce b9 d5 3d
       0.047239065 -0.071967825 0.12920214 0.1043583
000090 af b8 b8 bd 2d a6 88 bd 4c ec ca bc 9b 93 52 bd
       -0.090196006 -0.066723205 -0.024770878 -0.0514103
0000a0 75 f8 7f bd ab 4c f6 bc c6 ab b4 3c 18 9d 3d 3c
       -0.062492806 -0.030065855 0.022054564 0.011573099
0000b0 c8 47 57 bb 2f 21 43 bd 67 6d c9 bc 10 1d 10 bd
       -0.0032849181 -0.04763907 -0.0245883 -0.035183966
0000c0 85 f8 a5 bc 92 d3 3f 3c 76 40 80 bd 83 b1 29 bd
       -0.020260105 0.011708157 -0.06262295 -0.041429054
0000d0 1b d2 88 3d dd 29 bb bd f0 83 42 bd 4d ef 9e 3d
       0.066806994 -0.09138844 -0.047489107 0.07760487
0000e0 30 de bb bd 97 26 32 3c 42 e8 86 3d e5 4a 2f bd
       -0.09173238 0.010873458 0.065872684 -0.042796034
0000f0 b9 1e 76 bd 40 ba 34 3d c5 87 5c 3d 50 6f 17 3c
       -0.060087893 0.044122934 0.053840417 0.009242848
000100 66 10 9f bd e4 89 28 bd 24 7f 4f 3d 16 a7 9d 3b
       -0.077668 -0.041147128 0.05065836 0.004811178
000110 70 b9 bb bd c6 22 a3 3d 62 0b f8 3d be 2c 9b 3c
       -0.09166229 0.07965617 0.12111546 0.018942233
000120 f3 f2 4c bd 84 f4 bf bd 1a ca d0 bd fd da 8e 3c
       -0.050036382 -0.093728095 -0.10194798 0.017438406
000130 27 c8 51 3c 13 f3 23 bc 46 58 0e bc 77 da 97 bd
       0.012804068 -0.010006684 -0.008688038 -0.07414716
000140 cd 25 24 3d 32 cf 0c 3b f6 31 ee bc a7 92 31 3d
       0.040075112 0.0021485803 -0.029076558 0.04335275
000150 3d fb 0d be 26 6d 77 3d 41 5d b7 3b 13 50 be 3d
       -0.13865371 0.060406826 0.0055958335 0.09292617
000160 0b 4b b3 bd 3f 7a 10 bd 20 ab cf 3d 86 51 59 3d
       -0.08754548 -0.035272833 0.101400614 0.053056262
000170 1b 1d 65 bd ae 59 40 bd 90 dc 94 bc d2 30 fc bc
       -0.05593596 -0.046960525 -0.018171579 -0.030784998
000180 d1 0a 0f 3d e6 70 ca 3c b4 ec 89 bd f9 be 6f bd
       0.034922425 0.024712037 -0.06734601 -0.058531735
000190 f3 1b 8b 3c be 91 a9 3d ef cd 96 3d 29 7a 98 bd
       0.0169811 0.08279751 0.073634975 -0.07445175
0001a0 0e 14 fe bd 52 8f 15 bd e2 69 3a bd ce e6 98 3b
       -0.12406169 -0.036513634 -0.045511134 0.004666186
0001b0 38 05 2e 3d 54 4b 3c bd 92 3c 43 bd 00 f7 a5 3d
       0.042485446 -0.045970276 -0.047665186 0.08103752
0001c0 e3 d7 a7 3d 0a 94 c4 3d b7 15 e7 bc f3 3e 9c 3d
       0.08195474 0.09598549 -0.028208597 0.07629194
0001d0 7e e5 e5 3d 77 dd 64 bd 1f 05 66 3d 8d 96 9b 3d
       0.11225413 -0.055875268 0.056157228 0.07597075
0001e0 52 92 b7 bd 88 95 3f bd 8a 55 d1 3d bf 53 4c 3d
       -0.08963455 -0.046773463 0.102213934 0.049884554
0001f0 3c 4a 77 3d bc b5 f5 3b eb bf 72 3c a6 fa c4 bd
       0.06037353 0.007498471 0.014816265 -0.0961812
000200 48 36 0f 3d 2c 59 19 3c ab 52 10 be 23 db aa bd
       0.034963876 0.009359639 -0.14094035 -0.08342578
000210 56 e6 84 bc f4 0f c7 3c aa a3 93 bd 90 dd 98 bd
       -0.016223114 0.0242996 -0.07208951 -0.07464135
000220 a5 43 ab 3c 61 86 02 bc a6 01 6f 3d 52 ab 21 bd
       0.020906279 -0.007966609 0.05835118 -0.039470024
000230 0d 2a ca bd 87 5c 38 be b4 59 c5 3c da d1 18 3d
       -0.09871302 -0.18004046 0.024090625 0.037309505
000240 49 91 f1 bc 30 40 3e bd 8c b6 6d 3d ca 13 10 3d
       -0.029488223 -0.046447933 0.05803542 0.035175122
000250 2e 7f ae 3d a9 f2 9a bd 71 fc cd bd cc e5 59 3d
       0.08520351 -0.07565815 -0.10057915 0.053197667
000260 4b cc 86 bc 8f b5 74 3d fc 6d ac bd 65 c7 50 3d
       -0.016454836 0.05974346 -0.08419415 0.050971407
000270 82 2d 6a bd bc 69 97 bd e9 25 8b 3d 0a c2 84 bb
       -0.057172306 -0.07393214 0.0679434 -0.0040514516
000280 83 39 db 3a 4d 77 97 3d 7c 0b 5b bd a6 9a b4 3d
       0.0016725514 0.07395802 -0.05347775 0.08818559
000290 b0 57 b2 ba bd d1 ca bb 6d b4 86 3b d1 f8 5a 3d
       -0.0013606455 -0.0061895535 0.004110864 0.053459946
0002a0 ea 96 fc bc 62 cd 03 3d 80 e3 5c 3d 9f 5c e8 3c
       -0.03083368 0.03217829 0.0539279 0.028364478
0002b0 09 b0 97 bd bb cd 8e bd 43 aa ea bd 32 57 a3 bc
       -0.07406623 -0.06972834 -0.11458256 -0.019939039
0002c0 91 69 c0 3d 64 b0 08 be 1a cb 89 3d c7 3c 9f bc
       0.09395135 -0.13348538 0.06728192 -0.01943816
0002d0 88 c9 a2 bd 8d de bb bc 4f 7e a0 bd bb f6 80 bd
       -0.07948595 -0.022933269 -0.078365915 -0.0629706
0002e0 0e e7 bb 3d 33 be 63 3d 31 49 2d bd 09 63 b8 3d
       0.091749296 0.05560131 -0.04230613 0.090032645
0002f0 2a ec e5 bc de c9 24 bd 01 64 16 bd c7 61 88 3d
       -0.028066713 -0.040231578 -0.036716465 0.066592745
000300 d6 4a 6f bd c4 46 53 bd f1 14 49 bc cc d0 61 3c
       -0.05842098 -0.05158116 -0.012273059 0.013782691
000310 db 99 50 bd ca e6 09 3c b8 fa e3 bd 59 fe 09 3d
       -0.050927978 0.008416841 -0.11131805 0.03368983
000320 65 5e c4 bd 27 e5 97 3d 96 39 9f bc 9d dd 0b 3c
       -0.09588317 0.07416754 -0.019436639 0.008536723
000330 93 f1 bb 3d e9 eb c2 3d a0 4b 96 bd 03 b6 af bb
       0.09176936 0.095176525 -0.07338643 -0.0053622737
000340 3c 3e c6 bc e3 3c 2a 3d cf 73 0f be 25 8c a5 bd
       -0.024199598 0.041561972 -0.14009021 -0.08083371
000350 21 d6 87 3d ee de 1d 39 6a 49 ad 3d d0 ba 57 3d
       0.06632639 0.00015055735 0.08461268 0.052668393
000360 22 a7 e3 bd e0 d4 c0 bd b1 fc c4 3c 48 b2 7b bb
       -0.111158624 -0.09415603 0.024046274 -0.0038405824
000370 57 fc 92 3d ce e3 af 3c 42 33 b4 bd e4 40 61 bb
       0.07177036 0.02147093 -0.08798839 -0.0034370953
000380 66 88 43 bd 2c a4 63 bd 70 20 8e 3d 33 2f 2d 3d
       -0.0477375 -0.05557649 0.06939781 0.04228134
000390 07 c1 15 bd 2f be f6 3c e7 ab bc bd 13 67 35 bd
       -0.03656104 0.030119983 -0.09212475 -0.044287752
0003a0 08 dd 83 3d e9 65 d3 3d 67 96 1b 3d bf e8 71 3a
       0.06438643 0.10322172 0.03798523 0.0009228102
0003b0 a2 6e 2c 3c 1b 00 f6 bb 47 96 62 3d cd 14 ca 3c
       0.010524424 -0.007507337 0.055319097 0.024668122
0003c0 96 e5 5a 3d a5 97 88 3d f9 f1 63 3c b0 01 e3 3d
       0.053441606 0.06669549 0.013912671 0.11084306
0003d0 3b b0 2c bd d4 40 f9 bc 02 a3 1e 3d f6 95 3f 3d
       -0.042160254 -0.03042642 0.038729675 0.046773873
0003e0 6e 49 aa bc 32 64 60 3c ba 5a 00 bd 2b 5d f5 bd
       -0.020786967 0.013695763 -0.031336524 -0.11980661
0003f0 44 3e 3e bd fa fc 90 3b 71 94 c7 3d 42 ba e4 3d
       -0.0464461 0.0044246884 0.0974511 0.11168338

net.3.module.0.bias f4 [32]
000000 6c 84 a3 bd 8d 1e 64 3c 1d b8 35 3b b0 06 e7 ba
       -0.07984242 0.0139232995 0.0027728148 -0.0017625894
000010 2c da a3 bc f1 b8 bd 3d e1 7c a9 bd f2 bf 91 3d
       -0.020001493 0.092637904 -0.08275772 0.07116689
000020 04 bd 5c 3d 0a 81 c3 bc 58 e2 66 bc 9d ee 6c bd
       0.053891197 -0.023865242 -0.0140920505 -0.057844747
000030 50 46 cd 3d 39 80 88 bd ca 0d ad 3d 21 e1 9b bc
       0.10023177 -0.066650815 0.08449896 -0.019028248
000040 d3 10 ce bd a8 21 36 3d b7 6e 51 bd 0d 8b 2a 3d
       -0.10061803 0.04446569 -0.051130977 0.041636515
000050 a5 58 a9 bd c0 f7 b5 3d 2a aa d2 3d c4 3c 89 3d
       -0.08268861 0.08885145 0.102863625 0.06701043
000060 c3 cf 53 bc 89 2a 25 bd 78 a9 3f bc 4c bd bd 3c
       -0.012927952 -0.040323768 -0.011698119 0.023161553
000070 41 f5 8f bc 32 6e bd 3d 99 5f cd 3d 5d b1 41 bd
       -0.017573 0.09249534 0.100279994 -0.047288287

net.4.module.0.weight f4 [32, 32, 3]
000000 1f 72 ee bd 7b ca ad bd 9d 69 6d 3d 0b db 5f bb
       -0.116428606 -0.08485886 0.05796205 -0.003415766
000010 d8 ee ca 3d f4 f2 93 bc 78 19 b0 bc 9b 7e 35 bd
       0.09908837 -0.018060185 -0.02149652 -0.044310194
000020 0d 13 b2 bd 88 d2 bd 3c 0d 08 e6 3d ef 5f 06 bd
       -0.0869504 0.023171678 0.11232004 -0.032806333
000030 0c b8 91 bd 64 78 4a 3d 76 07 14 bd 50 a0 17 3d
       -0.07115182 0.04943122 -0.036139928 0.03701812
000040 c5 70 aa 3d 07 d6 cc bc 18 7f 48 3d c4 3c b4 bc
       0.0832229 -0.0250044 0.04894933 -0.022001632
000050 6c c9 95 3d df 3d 2a bd 62 85 e5 bc 19 84 87 bc
       0.07313809 -0.04156291 -0.028017703 -0.016542481
000060 ff 0d 03 be 97 f0 fc bd f4 83 fd bd 09 25 22 bd
       -0.12798308 -0.12350576 -0.12378684 -0.0395861
000070 fa be 8c 3d ea ab 72 3d 0c 97 46 bd 9b 0f 6d bd
       0.068723634 0.05924598 -0.048483893 -0.05787621
000080 cc 3d a7 bd d0 1e 9f bd c2 f0 98 3c f5 85 6e bd
       -0.08166084 -0.07769549 0.01866949 -0.05823322
000090 c6 37 84 3d 07 68 1e bc 48 14 fa 3d 9d f7 97 3b
       0.064559504 -0.009668357 0.122108996 0.004637672
0000a0 a0 d3 9c 3d 17 f6 2d bc 94 b5 d2 3d 92 6b 86 bd
       0.07657552 -0.010617754 0.102885395 -0.06563486
0000b0 42 c8 b3 bd 1b 27 ba bd 20 71 d9 bd 22 d1 66 bd
       -0.087784305 -0.0908949 -0.1061728 -0.05635179
0000c0 84 da 7f bd 5f 35 c7 bd d1 07 2d bd 2a e5 fb bc
       -0.062464252 -0.097269766 -0.042243782 -0.030748922
0000d0 f5 cb af 3d 9d db 7f 3b 3b 12 f7 bd c3 35 1b b9
       0.085838236 0.0039040812 -0.12064024 -0.0001480198
0000e0 9c 47 28 3c ef 97 2c bd c1 a2 e3 3c 4b a5 a5 3d
       0.010270979 -0.042137083 0.027787568 0.08088168
0000f0 7b b9 7a bc 39 dc 3d 3c b8 0d c8 bd eb 20 82 bc
       -0.015303011 0.01158815 -0.09768242 -0.015884837
000100 93 1e be bb 92 8f 79 bd 22 aa 34 bd 60 77 4d 3c
       -0.0058019846 -0.060927935 -0.044107564 0.012540668
000110 d5 8c 84 bd b0 4c 32 bd 67 6c ae 3d 90 24 ce 3c
       -0.06472174 -0.043530166 0.0851677 0.025163919
000120 7f 4d e9 3d 93 7a a1 3c ad b0 01 bd 5b be be 3d
       0.11391734 0.019711768 -0.03166263 0.09313651
000130 2c 7d 92 3d f1 d5 2e 3d eb 54 67 3d c4 82 86 bd
       0.07152781 0.0426845 0.05647747 -0.0656791
000140 58 73 04 bd 40 bb 7e 3d 8d 43 8e bc 0e d0 34 3c
       -0.032336563 0.062190294 -0.017366195 0.011035932
000150 d1 34 8a bb 80 73 49 3d 3e be 1e 3d 83 98 7c 3c
       -0.004217722 0.049182415 0.038755648 0.015417221
000160 35 f0 95 bd f5 aa 06 3c 98 8b 4a 3d 37 85 e0 3d
       -0.073212065 0.00821947 0.049449533 0.10962909
000170 a2 1e 7f bd fd 94 82 bc 77 5c a0 bd c1 e8 0b be
       -0.062285073 -0.015940184 -0.07830136 -0.13663007
000180 91 43 ba 3d 1a 94 8b 3b 68 ac 68 3d a4 81 1d 3d
       0.090949185 0.0042595984 0.056805044 0.038453713
000190 ba 80 21 3d ad 69 1e 3d ed 0c 12 bd b5 e1 a3 3c
       0.039429404 0.038675 -0.03565686 0.020005086
0001a0 8f a1 e8 3c ff bf 98 3d 28 4e 98 3d 60 73 18 be
       0.02839735 0.07458495 0.07436782 -0.14887762
0001b0 0f e0 a0 3d ac e5 1a 3c 33 7d 1c bd 30 e3 f2 3b
       0.07855236 0.009454172 -0.038205337 0.0074123368
0001c0 c2 c2 54 bd aa 3e cd bd e0 b1 c6 bd bb 66 e1 bc
       -0.051943548 -0.10021718 -0.09701896 -0.027514806
0001d0 5b 23 f7 3d 22 81 ab bd a4 5b 0e be ab b4 8a bd
       0.120672904 -0.083742395 -0.13902146 -0.06772741
0001e0 48 cb 05 bc 32 60 25 3d 3a 82 3d 3c d5 ab b2 bd
       -0.008166142 0.040374942 0.011566693 -0.087241806
0001f0 3a 50 a6 bd 91 58 ff 3c d9 11 c2 bb ac b3 25 bd
       -0.08120771 0.031170161 -0.0059225378 -0.04045455
000200 4f 29 76 3d 37 d5 a8 bd ae 6c 00 3d 8d 70 5c bd
       0.06009799 -0.082437925 0.031353645 -0.053818274
000210 84 ea cb bc 98 39 25 3e de 4f ee bc 33 4b 60 bd
       -0.0248921 0.16135252 -0.029090818 -0.054759216
000220 24 09 51 bd 3e c6 1e 3d a7 89 c4 bd 38 39 97 bc
       -0.051034108 0.038763277 -0.095965676 -0.018459901
000230 81 41 c2 3d c8 5e b7 bd 2e de a8 bc a7 5f 39 bd
       0.0948515 -0.08953625 -0.020613756 -0.045257237
000240 49 74 29 3d 54 c1 78 bd 74 2e da 3d 08 11 7d 3c
       0.041370664 -0.060731247 0.106533915 0.015445955
000250 ff 98 a0 3d f4 d8 9d bd 24 b1 50 3d 7d 9e ae bd
       0.07841682 -0.07707396 0.050950184 -0.08526323
000260 1a 18 5d 3c 78 c1 84 3d be ce 5f 3d 55 e1 76 3d
       0.013494516 0.06482214 0.054640524 0.060273487
000270 1a 34 2c 3d dd 5a 94 bd 89 09 1e bd f0 ac f9 3b
       0.042041875 -0.07243893 -0.038583312 0.0076194927
000280 87 9f 1f 3d 99 e8 4b 3b 99 98 8c 3c 47 46 47 3d
       0.038970497 0.003111398 0.017162608 0.048651006
000290 05 8d f3 bc 7d a9 dc bc 3f c3 94 bd f5 47 0e bd
       -0.02973033 -0.026936287 -0.07263803 -0.034736592
0002a0 9f b6 48 3d cc 72 3e bd f3 de 0d 3e ad 92 01 3d
       0.049002286 -0.046496198 0.1385458 0.03163402
0002b0 ba 6f 50 bd a4 2f 0e 3c 07 79 00 3d 79 de c1 3d
       -0.0508878 0.008678351 0.03136542 0.094662614
0002c0 62 b7 2a bd 3d d4 bc 3d 03 0e 5b 3d 60 37 02 3e
       -0.041678794 0.09220169 0.05348016 0.12716436
0002d0 40 44 4b bd 62 fb 0d bc 3a 02 8c bd a0 05 90 bd
       -0.049625635 -0.008665891 -0.06836362 -0.07032323
0002e0 4f b3 0a bd 15 f0 db 3c 00 cd 87 bd 6a b2 00 3d
       -0.03386241 0.026847878 -0.066308975 0.03142015
0002f0 3f 2f ae 3a 34 9d 2a 3c 3d 0b c4 bc 83 f4 14 3e
       0.0013289227 0.010413457 -0.02393114 0.14546399
000300 ac 7e d6 bd 51 a0 da bc d1 bf b1 bd 91 be 19 3b
       -0.104733795 -0.026687773 -0.08679164 0.0023459534
000310 1b 20 44 bd 42 68 d8 3d 34 51 66 3d 1e b3 8e 3d
       -0.04788218 0.105667606 0.056229785 0.06967758
000320 c0 df 33 3d 67 85 22 bd 70 40 80 3d 94 69 47 3c
       0.043914557 -0.039678004 0.062622905 0.012171168
000330 25 19 97 bd 4e 36 29 3d 36 17 c7 bd ab ad 2e bd
       -0.07377843 0.041311555 -0.09721224 -0.04264609
000340 d1 1c b2 bd 56 02 fe bc a4 ce 7a 3d 2d 61 77 bd
       -0.086969025 -0.031006973 0.061232224 -0.06039541
000350 9c b8 29 bc 50 de 4e 3d a7 1c cf 3d 65 7b 92 bd
       -0.010358956 0.050504982 0.10112887 -0.07152442
000360 f3 4f 28 3d 46 e4 70 bd 00 6f e2 3c b1 c8 42 3d
       0.04109187 -0.05881145 0.02764082 0.047554675
000370 89 88 40 3b a9 35 86 bd 16 56 c6 bb e5 e6 4a 3d
       0.0029378256 -0.065532036 -0.0060527427 0.049536604
000380 dd 3d 88 bd c5 f5 ce bc cd a4 e2 3c ec 64 ca 39
       -0.066524245 -0.025263676 0.027666474 0.00038603635
000390 9a 53 c9 3c 75 c9 3b 3d ac 5e 0d 3d 59 ec 51 bc
       0.024575997 0.04584642 0.034514114 -0.012812697
0003a0 b9 60 71 3d 16 fe 84 bd 8a 9f 70 bd 04 ee aa 3d
       0.058930133 -0.064937755 -0.0587459 0.08346179
0003b0 dc 71 44 bc 64 a0 d5 3d 1b 46 a4 3d 78 32 57 bd
       -0.011990037 0.10430983 0.08021184 -0.052538365
0003c0 10 2f b7 3c 91 06 17 3d 26 5c 51 3d 5e 4c 22 bc
       0.022361308 0.036871497 0.05111327 -0.009905903
0003d0 ce e9 f3 bc a9 3a 8d bd 26 dc 8d 3c 68 9d 75 bc
       -0.029774573 -0.06895954 0.017316889 -0.014991142
0003e0 d7 28 ca 3d b6 5f 42 bc dc e1 71 bd 70 c1 d0 bd
       0.09871071 -0.01186364 -0.059053287 -0.10193145
0003f0 60 19 30 3d e3 68 80 bc 7d 6b 83 ba 39 7f 95 3d
       0.04299295 -0.015675014 -0.0010026541 0.072996564

net.4.module.0.bias f4 [32]
000000 dc d4 b4 3d b1 81 1f bd d5 d7 b1 bd 26 12 e3 3d
       0.08829662 -0.038942043 -0.08683745 0.11087446
000010 9c e9 49 3d 8b 9c 90 bd 61 cf 95 3d 5b 85 5a bd
       0.049295053 -0.07061108 0.07314945 -0.053349834
000020 cf 71 e7 bd a4 9c 03 3d 86 4e bd bd 38 19 18 bd
       -0.11301004 0.032131806 -0.09243493 -0.037133425
000030 2b 17 8d 3d e8 aa 20 bc 0d ff 1f bd e0 67 4e bd
       0.068891846 -0.009806372 -0.039061595 -0.05039203
000040 77 6d f3 bc e3 82 8d 3c 50 ac b7 ba d6 a1 a4 39
       -0.029715283 0.017274326 -0.0014013145 0.00031401095
000050 d9 cb 59 3c 1c 4b 9b 3d 75 44 a4 bd c8 e6 83 bd
       0.01329323 0.07582685 -0.0802087 -0.064405024
000060 66 72 69 bd 95 82 9d 3d 84 03 90 3d 41 18 b2 3d
       -0.056993864 0.07690922 0.070319206 0.08696032
000070 70 3f 06 38 8c 7b 8e bd 02 7e 64 3d 22 d2 bc 3d
       3.200717e-05 -0.069571584 0.055784233 0.09219767

net.5.weight f4 [48, 32, 3]
000000 71 b4 f3 3b 0a 43 51 bc 05 6e dc bc 11 2b e0 3d
       0.007437282 -0.012772331 -0.02690793 0.10945714
000010 07 f8 c0 bd 74 3c 87 bd 1c 0e b1 3d d8 a2 42 3d
       -0.094223075 -0.066033274 0.08645269 0.04751858
000020 00 26 12 3d aa 95 e0 bc be 21 5b 3d 49 f2 b0 bd
       0.03568077 -0.027415115 0.053498976 -0.08639962
000030 1b e7 cd bc 2e 04 26 bd 8c d7 f8 3d 7b 86 3a 3d
       -0.025134614 -0.04053133 0.12150487 0.045538407
000040 d6 f9 9c bd 1c 60 a3 ba 66 1f 84 bb 27 69 0b bd
       -0.0766484 -0.0012464556 -0.0040320633 -0.034035828
000050 9b 7a f9 3c 13 78 9b 3d c6 bd a2 bd ac 78 29 3d
       0.03045397 0.07591262 -0.07946353 0.041374847
000060 2a b7 b3 bd a4 bd 01 3d 4d 01 30 bd be 5f 91 3d
       -0.0877517 0.031674996 -0.04296999 0.070983395
000070 ce fb d6 3d 85 41 13 bd 7d 9a 66 3b 98 81 98 bd
       0.10497247 -0.035951156 0.0035187297 -0.07446593
000080 80 d0 7f bc f4 02 36 bd 52 7d 85 3c 24 aa 0b 3d
       -0.015613675 -0.04443641 0.016295109 0.034097806
000090 39 08 03 bd 85 1f 00 3e 30 be ca 3c e7 39 a1 3d
       -0.031990264 0.12512024 0.024748892 0.07872372
0000a0 05 00 7d 3c c9 34 f1 bb 47 ce b4 3c e4 6a c4 bc
       0.015441899 -0.007361029 0.022071017 -0.02397675
0000b0 73 2e b4 3c f7 07 97 bd ac f0 47 3c 1d a0 5a 3c
       0.021994805 -0.07374566 0.012203377 0.013343838
0000c0 3e 93 6e bd 51 61 80 3a 0f 7b fe bc b6 8f c5 3c
       -0.05824589 0.0009794628 -0.031064538 0.024116378
0000d0 ba 55 66 bd 67 ce 76 3d 4c 02 46 3d fe 1d 94 bd
       -0.0562341 0.060255434 0.048342034 -0.07232283
0000e0 f0 29 27 3d b5 b4 ad 3c 63 e8 d5 bd 79 32 99 bd
       0.04081148 0.021204332 -0.10444715 -0.0748033
0000f0 85 77 6f bd 15 70 43 3d f6 f5 e3 bd c9 2a 20 3d
       -0.058463592 0.04771431 -0.11130898 0.039103303
000100 4d bb cb 3d 7e 45 b0 bc b4 c4 a4 3d 51 07 86 3d
       0.09947834 -0.021517511 0.08045331 0.06544364
000110 d1 c1 e5 bc dc d1 5a 3d 0d bb 01 bd bc 5c c2 bd
       -0.02804652 0.053422794 -0.031672526 -0.09490344
000120 64 77 9e bd 5d 5b ee bc 6f 64 c4 3d 08 05 21 3d
       -0.07737616 -0.0290963 0.09589469 0.03931144
000130 e8 74 be bd a3 79 fa bc c0 e8 d4 bc ef ae 89 bd
       -0.09299642 -0.030575579 -0.02598989 -0.06722819
000140 70 52 2e bc 95 1a b5 bc d6 ad 4f bd e7 77 b2 3d
       -0.010639772 -0.022107402 -0.050702892 0.08714276
000150 0f 0e c8 bc c9 b6 60 bd 3f b3 6c 3d ce 52 82 3d
       -0.024420766 -0.054861818 0.05778813 0.0636345
000160 f9 ba 80 bd 22 aa f4 3c 23 71 e8 3b 5a 53 8d bd
       -0.06285662 0.029866282 0.007093565 -0.06900664
000170 a0 87 7a 3d c9 fd 00 3e 1d 97 97 3c 63 de 71 bd
       0.0611645 0.12596811 0.018504674 -0.059049975
000180 15 a7 98 bc c0 ce be 3c 10 d3 09 3e 89 a5 c2 bc
       -0.018634358 0.023291945 0.1345942 -0.023760574
000190 21 92 94 3d a3 ae 04 be 38 24 ea 3a 26 ac 83 3d
       0.072544344 -0.12957244 0.0017863577 0.06429319
0001a0 34 11 3f bd cf 4b 88 bd 8a 10 02 3e 4a c4 ac bb
       -0.046647266 -0.06655084 0.12701622 -0.005272423
0001b0 bd ce 14 bd c1 dc b2 bc 7c 09 9e bd 09 2c 6a 3d
       -0.036329973 -0.02183378 -0.07716653 0.0571709
0001c0 75 5a 39 3d 2a 78 9d bd e0 50 6b 3d 86 a7 7d 3d
       0.045252282 -0.07688935 0.057450175 0.06192734
0001d0 d2 bd 0b 3c f9 c4 e2 3b 0c fe da bd 32 c3 86 3d
       0.008529143 0.0069204536 -0.10692987 0.06580199
0001e0 a4 ec b5 3c ee a7 29 3d c8 b5 27 3d d5 03 3e 3c
       0.022207566 0.041419916 0.040944844 0.011597593
0001f0 8e 60 90 bd 89 40 44 bd 62 d4 1d be 86 3d bc bc
       -0.07049666 -0.047913108 -0.15413049 -0.022978555
000200 a9 ad ba 3c c9 62 1c 3d d4 5a 58 3c 62 40 1a 3d
       0.022787886 0.038180146 0.013205249 0.037659056
000210 74 c9 0c bc 0d 2a a9 3d 89 67 28 bd df b0 d5 3c
       -0.008592952 0.08259974 -0.041114364 0.026085315
000220 e3 3a aa bd ef a1 8b 3d 42 41 53 bc a3 9b 34 3d
       -0.08312013 0.06817996 -0.012893977 0.04409374
000230 b0 c6 29 3d a2 56 ab bc 40 d2 7a bd 15 fc b2 bc
       0.04144925 -0.020915333 -0.061235666 -0.021848718
000240 f7 81 7e bd a9 60 79 3d d1 be 3b 3d 79 16 20 bd
       -0.062135663 0.060883198 0.045836274 -0.03908393
000250 66 c6 93 3c 6e de a5 3c 35 da a2 bc 72 f0 a7 bd
       0.01803894 0.020247664 -0.01987944 -0.08200158
000260 0a 08 94 3c 7a 7b 3a 3d 81 5b 09 bd 58 cc 1f bd
       0.01807024 0.045527913 -0.03353453 -0.039013237
000270 42 34 0d 3d 58 8e c8 bd 15 09 01 bd 14 6b fb bc
       0.034473665 -0.09792775 -0.031502802 -0.030690707
000280 6a 2b 6a 3d e5 3f 04 3e 21 1a 6d 3d e8 02 7d bd
       0.05717031 0.12914999 0.057886247 -0.06177035
000290 14 4b 23 3e ee cb 8b bc d1 d7 9f 3d d7 4d 8d bd
       0.15946609 -0.017065015 0.078048356 -0.068996124
0002a0 35 d7 a0 bd 98 71 62 bd f8 a5 b6 3c 43 f7 1a 3d
       -0.078535475 -0.055284113 0.022295937 0.037833463
0002b0 69 68 3d 3d 6b cc ce bc ba 71 c6 3d 14 82 a1 bd
       0.04624215 -0.025243958 0.0968966 -0.078861386
0002c0 ea 7c 49 3d 6b db 87 3c 53 38 81 3d 98 89 7c bd
       0.049191393 0.016584119 0.06309571 -0.061654657
0002d0 4c 66 a4 3d f8 18 a3 bd 1e 31 89 3d 94 89 9e 3c
       0.08027324 -0.07963747 0.066988215 0.019352712
0002e0 88 b2 dc bd 31 2c 6b 3d 36 8d e7 3d 3f a0 16 3d
       -0.1077624 0.05741519 0.11306231 0.036773916
0002f0 62 64 2e 3d 15 da 62 bd bd 73 95 bd 68 4a d6 bc
       0.0425762 -0.05538376 -0.07297466 -0.026158527
000300 81 da 10 bd 6c 52 ac 3d aa 4e 8b bd 60 a3 a3 3d
       -0.03536463 0.08414158 -0.06802113 0.07990146
000310 95 09 64 3d 8a 08 9e 3d 0a 16 ad 3d 1f 0e 8c 3d
       0.0556732 0.077164724 0.08451469 0.06838631
000320 24 7a 21 3d d3 2d a6 bc 12 44 95 bd 40 ea bc 3d
       0.039423123 -0.020285523 -0.07288374 0.09224367
000330 5f d2 81 3d 84 dd 74 bd 70 6c 28 bd 14 5a c2 3c
       0.06338953 -0.059781566 -0.04111904 0.023724593
000340 34 c6 5e 3d 46 31 01 bd 7b 78 ee bc b4 bd 1b bd
       0.05438824 -0.03154113 -0.029110184 -0.038022712
000350 59 97 de bb 8b 58 24 3d f2 3c cc 3d 01 01 14 3b
       -0.0067929444 0.040123504 0.09972562 0.0022583606
000360 f6 c2 e6 3c 3c 8c 82 3d 3b 8a b0 3b 8b 36 7f 3c
       0.028169136 0.06374404 0.005387572 0.015576969
000370 8a 1b 43 bd e6 42 d5 bc 66 2b 82 3b 41 24 49 3d
       -0.047633685 -0.026032876 0.0039724587 0.04910684
000380 5d 8c 85 3d 8a be b7 bc 86 77 0c bd 02 07 51 bd
       0.06520913 -0.022429723 -0.034293674 -0.051032074
000390 0c f8 c3 3c 65 3d a2 bd d0 6f 24 3d 48 dc dc bd
       0.023921989 -0.07921866 0.040145695 -0.10784203
0003a0 20 4a 8d 3d 26 26 cb 3d 1f e9 3f bb f3 2b ab 3d
       0.06898904 0.099193856 -0.0029283238 0.08357992
0003b0 2a f7 a6 3d c5 9f 8a 3d a5 ce bd 3d 2d f4 94 bc
       0.081526116 0.06768755 0.0926793 -0.018182838
0003c0 4c 45 05 bd 57 1f bf 3d 1b ce 10 3d 5f a1 e1 bd
       -0.03253679 0.093321495 0.035352807 -0.11017107
0003d0 51 11 ea bd 1b 7b 3e 3d 35 7f 24 3d fb d8 91 bc
       -0.11429084 0.04650412 0.040160377 -0.01780366
0003e0 49 89 44 bd 1f 3d 96 bd 1e fa 1b bd c6 ef 19 3e
       -0.047982488 -0.07335877 -0.038080327 0.15032873
0003f0 76 9b 67 bd 66 5d 78 3c d5 ae ad bd b3 2c 9c 3c
       -0.056544743 0.015158987 -0.08480612 0.019064283

net.5.bias f4 [48]
000000 b7 5a 8c 3c a1 d6 88 3d 0d 5a a2 bd 25 7c 9d bd
       0.0171331 0.06681562 -0.07927332 -0.07689694
000010 47 11 92 3d 51 92 a7 bc 4c 99 17 bd 2a 64 34 3d
       0.07132202 -0.020455511 -0.03701143 0.044040836
000020 eb 61 52 3d 41 07 96 3d 3a 7c 67 3c ed e1 50 bc
       0.051362913 0.07325602 0.014128739 -0.012749177
000030 97 8b b2 3d 11 94 d1 bc a0 5b d6 bd a3 e1 7b bd
       0.08718031 -0.025583299 -0.10466695 -0.06149448
000040 90 90 3e bd 9d 8a a6 bc c3 ba 42 3d 8c f6 3a 3d
       -0.046524584 -0.020329768 0.04754139 0.04564528
000050 7a 0f b6 bc 08 8d 52 bd 61 f8 f7 bc 62 2c c0 3b
       -0.022224177 -0.05140403 -0.030269803 0.005864666
000060 61 e5 78 3d 52 28 43 bd 5e 59 02 bc 1a 30 64 bd
       0.060765628 -0.047645874 -0.007955877 -0.055709936
000070 28 72 06 bc df ad 33 bd 9b 68 9e bd 31 73 ae bd
       -0.008205928 -0.04386699 -0.07734796 -0.08518065
000080 96 3c 81 bd 3a 3c 91 3d ee 8c 4c bd 3e c4 0a bd
       -0.06310384 0.070915654 -0.04993909 -0.033878557
000090 cc 31 9b 3c c5 26 8e bd 80 08 98 3d 20 d9 81 3c
       0.018944643 -0.069409885 0.07423496 0.015850604
0000a0 bf 69 4b 3d 7a 3e ca bd ed 3b c4 bc 9b 77 d8 bd
       0.049661394 -0.09875198 -0.023954356 -0.10569688
0000b0 57 0b 14 3d fb e3 4b bd 92 4c df bb a6 71 92 3d
       0.036143627 -0.049777966 -0.006814548 0.07150583

exp_avg f4 [32, 191, 2]
000000 6f 17 36 bc d1 92 42 bc 9b b3 68 bd 92 3b 8e bd
       -0.011113985 -0.011875824 -0.05681191 -0.06944956
000010 f7 fd 31 bc 77 ce 9c bb 6d 55 5e bd 29 66 9b bd
       -0.010863773 -0.0047853547 -0.054280687 -0.07587845
000020 9b bd 95 bb b0 ea d1 3b 76 2c 8c bc 7d 82 f3 bc
       -0.004569722 0.0064061508 -0.017111044 -0.029725308
000030 ae da e2 bc ae f9 5f bc 6c 07 ac bc 68 96 be bc
       -0.027692165 -0.013670368 -0.020999633 -0.023265079
000040 d1 75 b5 bc e2 63 ff bc ef 75 5a bc aa 88 ef bc
       -0.022150906 -0.031175558 -0.013333782 -0.029239971
000050 0c 1e 57 bd 2d c8 7c bd 49 13 27 bd a4 72 fe bc
       -0.05251889 -0.06171434 -0.040789876 -0.031060524
000060 c5 b3 5a bc 3f 7a 7e bc f6 0d 35 bd 90 d7 19 bd
       -0.013348524 -0.015532075 -0.044202767 -0.037559092
000070 35 22 13 bd e0 80 0b bd 88 0f 2c bd da 6d 4c bd
       -0.035921294 -0.03405845 -0.042007 -0.04990945
000080 61 1f 37 bc 1e 01 e6 bc 65 5c 3e bd 08 f5 15 bd
       -0.011176915 -0.028076705 -0.046474833 -0.036610633
000090 6f c4 c9 bc 84 18 aa bc f3 06 0b bd 5c c9 fa bc
       -0.0246298 -0.020763643 -0.033942174 -0.030613594
0000a0 19 d0 22 bc c9 2a c1 bb 8a 0b 25 bd 67 81 eb bc
       -0.00993731 -0.005894993 -0.040294208 -0.028748227
0000b0 97 8d 25 bc cb 3d 21 bb f0 da d3 bc d7 69 5c bd
       -0.010104558 -0.0024603482 -0.025861233 -0.053811874
0000c0 99 52 00 bd 6e 86 80 bd b1 cc 08 bd ff 78 51 bd
       -0.03132877 -0.062756404 -0.033398334 -0.05114078
0000d0 43 e0 a1 bc 68 13 17 bc df 15 5a bd 71 7b 8f bd
       -0.019760257 -0.009220935 -0.053243514 -0.070059665
0000e0 a4 86 68 bd e6 18 66 bd 67 78 dc bc 7f 81 af bc
       -0.05676903 -0.05617609 -0.026912881 -0.021424053
0000f0 d3 6b 2f bd 37 da 89 bd 66 20 1b bd 9a 88 14 bc
       -0.04282744 -0.06731074 -0.037872694 -0.0090657715
000100 7e 33 23 bd b7 a9 19 bc d2 17 50 bd 06 99 0f bd
       -0.03984403 -0.009378842 -0.050803967 -0.035058044
000110 4c 50 3f bc a9 63 25 ba c4 56 51 bd 5c 98 32 bd
       -0.011676859 -0.0006309101 -0.051108137 -0.043602332
000120 d3 36 ed bc 8d 6c 34 bd e3 48 84 bd da 1f 46 bd
       -0.028956806 -0.044048835 -0.064592145 -0.04837022
000130 1a 70 3c bd 41 10 f7 bc 33 16 6d bd d8 08 41 bd
       -0.046005346 -0.030159118 -0.0578825 -0.047127575
000140 dc c4 66 bd db 9d 29 bd 0c 65 97 bd 5d 24 61 bd
       -0.056340083 -0.04141031 -0.0739232 -0.05496632
000150 31 7e 95 bd 2b b1 60 bd 48 e2 88 bd 0c 6f 40 bd
       -0.0729946 -0.05485646 -0.06683785 -0.046980903
000160 3f 8f 98 bd 74 30 b0 bd ca 92 28 bd 6c f4 03 bc
       -0.07449197 -0.08602992 -0.041155614 -0.00805388
000170 bb 36 20 bd 59 63 86 bd 04 14 12 bd d6 6c 32 bd
       -0.039114695 -0.06561918 -0.03566362 -0.043560825
000180 8c fa c4 bc 42 2e 0c bd 70 d4 7c bd 20 39 55 bd
       -0.024045251 -0.034223802 -0.061726034 -0.05205643
000190 e8 69 40 bd 41 52 70 bd a6 c2 63 bd e8 d0 98 bd
       -0.046976 -0.058672193 -0.055605553 -0.07461721
0001a0 bd 3a a3 bd 82 71 b1 bd b3 32 7e bd 95 56 79 bd
       -0.07970188 -0.08664228 -0.06206007 -0.060873587
0001b0 52 43 82 bd 1f e0 50 bd 24 a4 4d bd 2d 14 5d bd
       -0.063604966 -0.05099499 -0.050205365 -0.05397432
0001c0 41 93 01 bd 36 bb 21 bd 4f f9 36 bd 43 df 30 bd
       -0.031634573 -0.03948518 -0.044671353 -0.04318167
0001d0 ce 92 ae bd 79 c2 6d bd c4 b6 28 bd 48 9a 0c bd
       -0.085240945 -0.05804679 -0.041189924 -0.03432682
0001e0 8b 83 ff bc d4 9d 2c bd f7 c6 86 bd 93 3c a0 bd
       -0.031190654 -0.042142704 -0.06580918 -0.078240536
0001f0 17 75 31 bd cb aa aa bc f4 94 9c bd 38 fc cb bd
       -0.043324556 -0.020833394 -0.07645598 -0.09960216
000200 23 c1 16 bd e2 d7 ec bc ba 81 8c bd 9c 62 81 bd
       -0.036805283 -0.028911535 -0.06860681 -0.06317636
000210 22 94 55 bd 72 c4 41 bd 6f 5b 64 bd 59 c4 60 bd
       -0.052143224 -0.047306485 -0.05575126 -0.05487475
000220 46 87 a5 bd 74 ae 82 bd a7 ce a4 bd f2 55 9e bd
       -0.08082442 -0.063809305 -0.08047228 -0.077312365
000230 94 1b 63 bd 06 83 81 bd 15 f1 fa bc 04 25 f2 bc
       -0.055446222 -0.06323819 -0.030632535 -0.029558666
000240 c6 4f 3c bc 7b f3 ff bb ec 53 f4 bc 74 55 55 bd
       -0.011493629 -0.0078110076 -0.029825173 -0.052083448
000250 42 b3 7f bd 2b 00 34 bd 4f 09 36 bd ca fe 2b bd
       -0.062426813 -0.043945473 -0.04444247 -0.041991033
000260 4f 35 0c bd 5d 23 55 bd ce 00 a7 bc 48 75 5b bd
       -0.034230527 -0.05203568 -0.020386126 -0.053578645
000270 77 b9 14 bd 5c be 40 bd 21 49 23 bd d1 88 12 bd
       -0.036309686 -0.04705654 -0.039864663 -0.03577501
000280 96 a9 2b bd 7e 8a 0e bd 37 21 6d bd ea 2f 30 bd
       -0.041909777 -0.034800045 -0.057893004 -0.043014444
000290 93 d0 0e bd 02 14 24 bd 26 a6 fb bd dc cb ce bd
       -0.03486688 -0.040058143 -0.1228755 -0.10097477
0002a0 5d 83 1e bd 48 0b 5d bd ef bc 1d bd e2 db c3 bc
       -0.038699497 -0.053965837 -0.03851026 -0.02390856
0002b0 92 62 08 bd f2 d1 16 bd dd 71 8b bc b4 e9 25 bd
       -0.03329713 -0.036821313 -0.017022068 -0.04050608
0002c0 67 b1 af bd 6e fb b7 bd 13 78 68 bd 4f f2 83 bd
       -0.08578759 -0.08983503 -0.056755137 -0.06442701
0002d0 86 71 16 bd cd c0 91 bd 14 a7 f6 bc 47 72 44 bd
       -0.036729358 -0.07116852 -0.030108966 -0.047960546
0002e0 05 27 0c bd 34 3b 4a bd c3 bd 03 bd 3d 88 3f bd
       -0.0342169 -0.049372867 -0.032163393 -0.046760786
0002f0 37 61 b4 bd b1 86 bd bd 82 a0 0a bc 4c e3 42 bd
       -0.08807605 -0.09254206 -0.00846112 -0.04758005
000300 10 9e 70 bd 5a 74 40 bd 02 5f 69 bd 19 e3 43 bd
       -0.05874449 -0.04698596 -0.056975372 -0.047824
000310 2e ba 63 bd 3f 71 ac bd 7e 46 64 bd 53 38 36 bd
       -0.055597477 -0.084200375 -0.05573129 -0.04448731
000320 97 f2 b6 bd 39 ed 0a bd fe 13 8d bd df 60 92 bd
       -0.08932989 -0.03391764 -0.06888579 -0.07147383
000330 d6 95 71 bd cc 73 ad bd 0d 4b a1 bd 12 ae 88 bd
       -0.058980785 -0.08469352 -0.07875643 -0.06673826
000340 e0 38 6c bd 04 f6 8a bd ce a3 90 bd c0 da 83 bd
       -0.057671428 -0.06785205 -0.07062493 -0.064382076
000350 93 b0 cd bc 84 54 f8 bc 7a 8c 81 bd 52 2d 8f bd
       -0.025108611 -0.030313738 -0.06325622 -0.06991066
000360 6c 8a 38 bd 43 ab 37 bd 3c bb 65 bd 58 d8 f5 bc
       -0.045053884 -0.044841062 -0.056086764 -0.030010387
000370 1b 6f 81 bd 92 81 6e bd ce 13 be bc 45 a8 f1 bc
       -0.0632002 -0.058229037 -0.023202803 -0.029499182
000380 f7 f5 f7 bc 6c 9f d5 bb 39 e3 ad bd f9 4b 92 bd
       -0.030268652 -0.0065192487 -0.08490605 -0.07143397
000390 1e d0 e6 bc 17 f8 5f bd 6b ad 4b bd c6 5e 34 bd
       -0.02817541 -0.054679956 -0.04972593 -0.044035695
0003a0 54 d0 7c bd cc 11 3b bd fa 0a 99 bd 20 a5 8f bd
       -0.061722115 -0.04567127 -0.07472797 -0.07013917
0003b0 2e 2c 1b bd 5f 17 11 bd 5c f7 37 bd 06 5d 6a bd
       -0.03788393 -0.03542268 -0.044913635 -0.05721762
0003c0 19 a4 3b bd ee b6 1e bd 1e 5d 54 bd 44 93 7f bd
       -0.045810793 -0.038748674 -0.051846616 -0.062396303
0003d0 f9 d2 37 bd b6 89 46 bd 78 39 34 bd 11 3c 24 bd
       -0.044878934 -0.048471175 -0.04400012 -0.040096346
0003e0 81 05 28 bd 6d 4b e3 bc 0e 44 7e bd 0a a9 ff bc
       -0.041020874 -0.027745927 -0.06207662 -0.031208534
0003f0 24 ad 8e bd c6 22 4f bd dd ac 90 bc 23 42 01 bd
       -0.06966618 -0.050570272 -0.017660553 -0.031557214
