saved_CEBRA_models/nitschke_20090812_20090819_20090910/CEBRA_models/temperature_0.0027_time_offsets_1_dataset1.pt (torch, 530690 bytes, 31 tensors)

net.0.weight f4 [32, 191, 2]
00000000: 491e 813c 47e3 7dbd 0d72 2d3d 809e 4d3d
00000010: f256 c83c 3529 aa3b e0ea 49bd b53c 303a
00000020: b0cf b03a 8857 993d 8b6a 00bc 6ec6 16bd
00000030: 3644 ed3b b839 013d 044b 0f3b 53de 7f3c
00000040: 2d6f 4d3d 38c5 093c cf37 7cb9 e865 c23c
00000050: 3c8b d7bc a28c 523b 2b72 7c3c b8a7 6b3c
00000060: 0e03 033b 9d99 9f3c eac8 d8bd fbbd a8bd
00000070: 93e0 efbc af66 173c cef0 09bd 2b6a 3c3c
00000080: 6ca8 0c3c a170 f23c cfeb c4bb 07f3 3c3d
00000090: cf89 3a3d a750 cf3c cc05 a83c bb38 0f3d
000000a0: 87f7 3dbc 90c7 633b abe7 68bd 0654 abba
000000b0: eb43 4a3d def4 1a3d 0a12 3abc 000f 813d
000000c0: ed69 d7bb 98df 2ebd 1848 1bbd 4386 ab3d
000000d0: 29bb 693d d308 383d f837 eebc 47d1 0abc
000000e0: c235 cc3c 7cc6 6f3d f9d3 60bc 27ff 00bd
000000f0: 0011 8a3c 9fed 89bb 79ea e83c 9193 043d
00000100: 4552 e73c acb2 733c 53ea e33a 7f3d 9cbd
00000110: 3115 61bb 6dd3 d7bc 16c5 f7bc 8fdf 043c
00000120: 927e 1a3c 75f5 f5bc c008 6fbd 052c 223c
00000130: 7f92 d13c e9b2 c73c 0cd3 343d 71f1 1d3c
00000140: 3c74 2d3c 56b9 043d 125a 0a3d 61c2 5dbc
00000150: fccc 05bc 8f12 91bd 2ed8 0a3d 222a f63c
00000160: 82b2 6d3d 2a86 853c 20bd 033d 91a1 203c
00000170: 4aca 4dbd 06ca 4bbb b1c0 a4bb d744 d7bc
00000180: d895 f1bc 2db6 85ba c3c6 00bd 446c 02bd
00000190: 338d 043d 3de8 433c bd76 f9bc 9661 27bd
000001a0: 1fdd 89bd 87d1 b83c 82fb 93bc 6beb 353d
000001b0: 51ce e5bc a6e5 66bc e458 44bc 2437 0e3d
000001c0: e81b ad3c 44d2 833c 891e a43c b93c df3b
000001d0: 3ce1 07bc 36aa 9c3c e847 3e3d dbc4 023d
000001e0: 5866 313d 83d3 f33c 6265 b43c b576 283d
000001f0: 2960 9d3d 1cd0 9c3d 7fe7 2c3c 0c84 6e3b
00000200: c2d8 7b3d 19fb 0f3c f908 963c bc63 623c
00000210: c5f3 87bc 3a9e b2bc f1bd b93d 7704 523d
00000220: e804 13bc 3db1 5b3c b2fc 143c 610d 84bc
00000230: e277 90bc 1ec9 38bc a510 9a3c 771f 78bd
00000240: 4c86 973c 1441 04bc cd72 993c 4390 89bd
00000250: 70e2 2d3c 63f7 98bd 6173 49bd a2ee 73bd
00000260: f7b0 593b 43a7 91bc 9380 873d 1307 10bc
00000270: b095 55bd e36e f63c acbe aabc 0022 433b
00000280: 36b3 1a3b 60f6 213c 26f5 1439 2cdc 32bc
00000290: e482 d83c 90ba 833c c4a5 853b 1ccb 08bc
000002a0: d00b 7b3d d4be 7cbc 5d3e 683d 7d6d 2dbd
000002b0: 0e87 65bb 2ceb 593c f199 6dbd 714a 073d
000002c0: 082a 5bbc e455 bfbc 7b30 573b 3ea6 d93c
000002d0: a32a b83c 6eb1 993c 1ee5 3b3c dcb6 10bc
000002e0: 5874 343c 7fac 0ebc 4673 1fbc a3d9 00bd
000002f0: 26c0 463c 5bdc 38bc 1935 873d f198 00bd
00000300: c0c1 113a 36e5 81bc fcc0 003d cfb8 1abd
00000310: 4427 a7bc 66d8 413c b2a7 07bd 6e42 463d
00000320: dc92 e3bb ce75 7b3c c12d 7b3c dbb5 1dbd
00000330: 89f9 6a3c 86ab 363c c895 0a3d dbee 1f3b
00000340: d763 1ebc 2ee8 893c 94bf 333c 48b1 81bc
00000350: 3ef5 67bc 1868 febc 0703 01bd 0656 9fbc
00000360: b6a4 97bb 8060 c8b9 a2ee 113d be53 a7bd
00000370: 6f23 253d 8c01 0cbd d2b5 87bc 9163 063c
00000380: 36d2 483d 647f 44bd b4ce 58bc 135e 97bc
00000390: 0320 b43d 36d3 653c 0cc2 133d 0808 64bd
000003a0: 839f 10bd 120f 47bd 5199 a2bc 6344 1b3b
000003b0: 5838 d6bb 0ef6 143b bc65 6a3d ab8c 6f3d
000003c0: 3349 833d 939b 2dbc d4b6 f13b 1a8d fcbc
000003d0: 0d32 a63b 9d4e c73b 69b9 603d f42e eabc
000003e0: 7928 483d a798 603d 552e 693b 3afe b3bd
000003f0: 67a3 1ebd 2b0c 6cbc a461 2abd 1de6 883c
0.015761511 -0.061984327 0.042345095 0.050199986 0.024455521 0.0051929005 -0.04929626 0.0006722913
0.001348963 0.074873984 -0.007837902 -0.03681033 0.0072407974 0.031549186 0.002186478 0.015616971
0.050154854 0.008408837 -0.00024053383 0.023730233 -0.02631151 0.003212728 0.015408079 0.014383249
0.0019990834 0.019482428 -0.10585196 -0.08239361 -0.02928189 0.00924079 -0.033676915 0.011499922
0.008585077 0.029594721 -0.006009556 0.046130206 0.04554158 0.025307013 0.020510577 0.03496621
-0.01159466 0.00347564 -0.05686156 -0.0013071306 0.049381178 0.03783118 -0.01135684 0.06301689
-0.0065739066 -0.042693704 -0.03791055 0.08375218 0.057063255 0.04493029 -0.029079422 -0.008472747
0.024927977 0.0585389 -0.013722413 -0.031493332 0.01685381 -0.004209235 0.028432118 0.032367293
0.028237471 0.014874142 0.001738856 -0.07628917 -0.0034344906 -0.026345933 -0.030245345 0.008109941
0.009429591 -0.03002427 -0.058357954 0.00989819 0.02558255 0.024377303 0.044146582 0.009640084
0.0105867945 0.032403313 0.033777304 -0.013535113 -0.008166548 -0.07083618 0.03389757 0.030049387
0.058031566 0.016299326 0.032162786 0.009804145 -0.050241746 -0.0031095757 -0.0050278534 -0.026277943
-0.029490396 -0.0010201387 -0.031439554 -0.03184153 0.03236122 0.011957225 -0.030452127 -0.04086455
-0.067316286 0.022560848 -0.018064264 0.044413965 -0.02805248 -0.014092838 -0.011984084 0.034720555
0.02113147 0.016091473 0.020034092 0.0068126586 -0.008293446 0.019124132 0.046455294 0.031926017
0.043310493 0.029763943 0.022021 0.041128833 0.07684357 0.07656881 0.01055324 0.0036394624
0.061486013 0.008787894 0.018314825 0.013817724 -0.01659573 -0.021803964 0.090694316 0.05127379
-0.008973338 0.013408956 0.00909345 -0.01611966 -0.01763529 -0.011278419 0.018806765 -0.060576882
0.018496655 -0.008072156 0.0187315 -0.06716969 0.010613069 -0.0746906 -0.0491823 -0.05955375
0.0033217052 -0.017779952 0.066163205 -0.008790749 -0.052144706 0.030082172 -0.020842873 0.0029774904
0.0023605353 0.0098854005 0.00014205705 -0.010916751 0.026429601 0.01608017 0.0040785987 -0.008349206
0.061290562 -0.015426356 0.0567001 -0.042340744 -0.0035023126 0.013300698 -0.058008138 0.033029977
-0.01337672 -0.023356386 0.0032835293 0.026568528 0.022481268 0.018761363 0.0114682 -0.00883266
0.011014067 -0.008708118 -0.009732073 -0.031457555 0.012130773 -0.011283006 0.066019244 -0.031395856
0.0005560182 -0.015856367 0.031434044 -0.037773903 -0.020404465 0.011831379 -0.03311891 0.048403196
-0.0069449972 0.015347911 0.015330733 -0.03850351 0.01434172 0.011149293 0.03383425 0.0024403844
-0.009667358 0.016834345 0.010970969 -0.015831605 -0.014157591 -0.031055495 -0.031497028 -0.019450199
-0.0046277894 -0.0003821887 0.03562797 -0.081702694 0.040316995 -0.034181163 -0.01656619 0.008202449
0.049028598 -0.04797305 -0.013232876 -0.018477475 0.08795168 0.014027407 0.03607373 -0.05567172
-0.035308372 -0.048598357 -0.019848498 0.0023691885 -0.0065374784 0.0022729668 0.057225928 0.05848376
0.06410446 -0.010596174 0.007376531 -0.030829001 0.0050718845 0.0060823695 0.05486432 -0.028586842
0.048866723 0.05483308 0.0035580595 -0.08788724 -0.03873005 -0.014407198 -0.041597024 0.016711289

net.0.bias f4 [32]
00000000: 8188 a83b 0532 22bd b5d0 65bd 262e 3bbd
00000010: 970c 983d 3761 42bd 631e 08bb da3a f43c
00000020: 9f2c e03c 02f1 023d 5a84 03bc d096 bc3b
00000030: 1226 83bc f2a5 14bd 0ff2 223c 6468 21bd
00000040: c4c2 983b adc7 46bc b766 753c 7363 00bd
00000050: 5f11 2bbd 644d 443b 3d3e 7a3c d1e8 043d
00000060: 0abc 34bd f0ba f4bc 248c f83c 27f5 f03c
00000070: afdb 2dbc 73f5 8f3d 0451 7a3c a41c cbbc
0.0051432257 -0.039598484 -0.05610724 -0.045698307 0.07424276 -0.047455993 -0.0020770065 0.029813219
0.027365027 0.031968124 -0.008027161 0.005755283 -0.016009364 -0.03629107 0.009945407 -0.039406195
0.0046618897 -0.012132567 0.014978102 -0.031344842 -0.041764613 0.0029953355 0.015273628 0.032448594
-0.04412464 -0.029874295 0.030340262 0.029413773 -0.010611459 0.070292376 0.015278105 -0.02479393

net.2.module.0.weight f4 [32, 32, 3]
00000000: afcd fa3c e002 8bbb 60d3 3b3a 9c02 51bd
00000010: 1de4 dabd c117 f23d d786 d23d 7b1b 773d
00000020: d777 a63c 2324 d2bd ec58 bb3d 1b45 13bd
00000030: 8d6e 2c3e 35b7 8b3d 6d28 2a3d 9268 9ebd
00000040: e723 59bc 8a12 303d 0bf5 d0bd f7a7 c83c
00000050: 3a02 d33d 6aeb aa3b 022e 62bd 4547 d8bd
00000060: 3fe8 fb3d 155c 0b3e 27ef 043e b679 debd
00000070: 15de c3bc 4842 473d 8443 653d 2a76 723d
00000080: 3326 f2bc 4246 1abe 169c 78bd d86d 96bb
00000090: e431 6bbd e36c 00bc deed e9bd 8ea9 a33d
000000a0: 1d50 f036 4697 fcbd d0fb da3c 2652 b5bc
000000b0: 58df bcbc e7ae 553d f22a 423d 4196 41bd
000000c0: 9e28 5c3d b77d b93d 3dd2 8c3d c47f 71bc
000000d0: c679 643d cc47 dcbb 4dbf 863d d9e8 bcbd
000000e0: 4fc7 5abd f405 2d3e 5921 1a3d e44d 81bd
000000f0: 96dd a53d 022a c33c a110 27bd 33b8 983c
00000100: 2f66 823d cfb5 0c3e b110 cbbd a56f 82bb
00000110: 123c 63bc f064 203e d2e8 70bc 7e6c aabc
00000120: 60b9 32be ebc2 d83c ec6a 73bd ace1 20be
00000130: 30aa b73c 285d 36bd 81fa 46bc 8034 debc
00000140: 6b44 66be ef6f 193e b658 f43c 2715 2f3d
00000150: 5638 2dbd 5f0d 0e3d 51c1 d63d c45a 2e3d
00000160: 2b8e 753d 60a5 05be 3a2c 19be 65ae 263d
00000170: 48b2 8abd 2511 0d3d dd4f e1bd d97b 303d
00000180: e5de 5ebc fd22 b5bd f0bf 7d3d 0e5e e63d
00000190: 05fd cc3d 93fe e0bc 2d8d 39bd c454 323d
000001a0: 727b 093d 24d0 52bd 7ed5 e2bd 421c 9c3d
000001b0: b9ea 113e a80a a43d 735c c43d 9213 83bd
000001c0: 2e11 9f3d 03ec 353d 0d65 55bc 66a3 32bd
000001d0: 5fb1 453d 8878 0e3d fdfc 5e3d 7a54 86bd
000001e0: 48e2 8a3b ed0b 4c3d 4893 103d f2f2 46bc
000001f0: b872 323d 4964 c03d e101 8abd a200 7bbd
00000200: d72f 9b3d f03a 103d 94c4 e93b 12ab aa3c
00000210: 4d74 9c3c e14b f03d 358c be3d 2702 023c
00000220: d20e acbd 7357 f03d db0e abbd b67a c1bd
00000230: 9b9a ad3c 0353 b93c dba5 1fbd c5b4 8fb9
00000240: 78c9 213d 1e65 95bd 1fcc 473e 83c5 083d
00000250: 0b2a 0b3d e6c9 d23b e90e 31be b1ec 47bd
00000260: 6181 80bd 9c62 9bba 692e 87bd c400 b73d
00000270: 0d83 e2bd 14da 28bd 6ffa aa3d 2686 38bc
00000280: 5129 12be b3fe 8e3d c368 4fbd be29 c43d
00000290: 9543 96bd d0ab adbc ed5d 1b3d 9bc4 e8ba
000002a0: a2ed f83c 4759 d63d 3cc0 35bd 2d72 a1bd
000002b0: 2a5b c4bd 15e3 94bd e2a3 083c 3f3e 80bc
000002c0: 9247 cd3d 5428 ec3c 87a5 de3d e1a6 dd3d
000002d0: e237 523d a651 053d 7d6b a8bc 55a4 00be
000002e0: 4277 97bd ffdd f63d 4eef 11bd 2f95 4b3d
000002f0: 33db 253d 99fb 323d 7050 88bd 2c5d 083d
00000300: 2e65 25be 6404 02be 8c38 b93d e3ad 94bd
00000310: 2532 77bc 8b56 503d 57e0 21bc 008d e43b
00000320: 531c 85bd 298b a53d b374 8ebd e290 58be
00000330: 8f34 21bd fdac 37bd 7e6f bd3d 6ef4 f63d
00000340: d983 bdbd 64c0 29bd 3472 aebd c286 88bd
00000350: d3fd ba3d 911e dd3d b92f 59bc 1961 9b3d
00000360: 02cd 7e3d bc20 bd3d b19c 783d 05dd d9bc
00000370: 1ab3 c73d 6812 10bc 7609 ecbc 9b5a 313d
00000380: 0407 bebd af2c df3d 3b56 043e db7d cabd
00000390: b4eb 64bd 2ce0 bf3d 1f43 ce3c 2e9c b83c
000003a0: cc73 21bb fbd2 6abd 2b27 99bc 1e0b b8bd
000003b0: bfdd 9ebd 8086 273c b893 73bd 9ebc 81bc
000003c0: 5c2d c1bd 7aee b4bc 754d 443d 3077 3b3d
000003d0: 4245 c43d ee9a e13d 488a 39bc 89f0 083e
000003e0: 05c0 ef3c 05e8 943c 6ff6 cbbb 90a6 d8bc
000003f0: 6402 783d 17fa 57bb 5e0f 24bd 547f ae3d
0.030615656 -0.004242286 0.0007164981 -0.05102788 -0.106880404 0.11820937 0.10279625 0.06032894
0.020320816 -0.10260799 0.0914782 -0.035954576 0.16839047 0.06822053 0.04154246 -0.07734789
-0.013253189 0.04298643 -0.10202988 0.024494154 0.10303159 0.005216052 -0.055219658 -0.105604686
0.12300157 0.13609345 0.12981854 -0.10863058 -0.023909608 0.048647195 0.05597259 0.05919472
-0.02955923 -0.15065864 -0.06069573 -0.004590731 -0.057420626 -0.007838461 -0.11422323 0.07991324
7.161884e-06 -0.123335406 0.026731402 -0.022133898 -0.023055717 0.052168753 0.047404237 -0.047262434
0.053749673 0.09057181 0.06876037 -0.014739934 0.055780195 -0.006722426 0.065794565 -0.092241
-0.05341273 0.16896802 0.03762946 -0.063136846 0.08098905 0.023823742 -0.040787343 0.01864252
0.06367146 0.1374123 -0.09915293 -0.003980594 -0.013869302 0.15663505 -0.014703946 -0.020803686
-0.17453527 0.026460132 -0.05942814 -0.15711087 0.022420019 -0.044522434 -0.012144686 -0.027124643
-0.22487037 0.14984106 0.029827457 0.04274478 -0.042290054 0.03468072 0.10486091 0.04256703
0.059950035 -0.13051367 -0.14958277 0.04069366 -0.06772286 0.03444018 -0.11001561 0.04308686
-0.013602947 -0.08844564 0.061950624 0.11248408 0.10009197 -0.02746514 -0.04530065 0.04353787
0.033564992 -0.05146803 -0.11075877 0.07622577 0.14249696 0.08009845 0.09587946 -0.06400217
0.07766949 0.04441453 -0.013024581 -0.04361286 0.048264857 0.034782916 0.054440487 -0.065590814
0.0042384006 0.04981606 0.03529671 -0.012142884 0.043566436 0.09394128 -0.067386396 -0.0612799
0.07577484 0.035212457 0.0071340296 0.020833526 0.019098425 0.11733223 0.09304086 0.0079350835
-0.08401264 0.117354296 -0.08352443 -0.094472334 0.021191886 0.02262259 -0.03897653 -0.0002740977
0.039498776 -0.07294677 0.1951146 0.033391487 0.033975642 0.0064327596 -0.17290844 -0.04880971
-0.06274677 -0.0011854949 -0.06600649 0.08935693 -0.11060152 -0.0412236 0.08348548 -0.011262452
-0.14273573 0.06982174 -0.050637018 0.09578274 -0.07337109 -0.02120009 0.03793137 -0.0017758788
0.03038675 0.10466247 -0.044372782 -0.078831054 -0.09587701 -0.07269875 0.008339854 -0.015654681
0.100234166 0.028827824 0.108714156 0.10822845 0.051322825 0.03254857 -0.020559067 -0.12562688
-0.073957935 0.12054061 -0.03562861 0.04970282 0.040492248 0.043696973 -0.06655967 0.03329198
-0.16151878 -0.12696987 0.090439886 -0.07259729 -0.015087639 0.050863784 -0.009880147 0.0069748163
-0.06499543 0.08083183 -0.06955852 -0.21149018 -0.039356764 -0.04484271 0.09249781 0.1205834
-0.092536636 -0.041443244 -0.08517876 -0.06666328 0.091304444 0.10796846 -0.013256007 0.07586879
0.06220723 0.09234759 0.060696308 -0.026594648 0.09750958 -0.008793451 -0.028813105 0.0432993
-0.09278682 0.108971946 0.1292352 -0.09887286 -0.055888847 0.09368929 0.02517849 0.02253541
-0.002463567 -0.057330113 -0.018695435 -0.089864954 -0.077571385 0.010224938 -0.059467047 -0.01583701
-0.0943248 -0.02208637 0.04792543 0.045767963 0.095835224 0.110158786 -0.011324473 0.13373007
0.029266367 0.018177042 -0.0062244455 -0.02644661 0.060549155 -0.0032955462 -0.040053718 0.0852038

net.2.module.0.bias f4 [32]
00000000: 06dc 543c 27a3 66bd a577 a03d 52c6 febb
00000010: 1e37 1e3d 0373 82bd e6f7 a33d 3e9d 99bd
00000020: 9800 943d 093b a0bd c49c 2dbd d42b 0c3d
00000030: 71a1 17bd d187 8fbc 2f50 3fbd 3821 99bd
00000040: 104c c33d 9afd 04bd e56c 213d 3461 42bc
00000050: 153d b3bd eba4 3bbc 6ba5 63ba a5c3 b2bd
00000060: 3f31 4e3d 6f9e 9bbd eb11 52bc cff5 a3bc
00000070: 4e7a a33d c9e8 0fbd 4d90 c33c da7a e4bc
0.012991911 -0.056307938 0.078353204 -0.0077751065 0.038626783 -0.06369593 0.08006267 -0.07500695
0.07226676 -0.0782376 -0.04238583 0.034221485 -0.037019197 -0.017520817 -0.04670733 -0.07477039
0.09535992 -0.032468416 0.03941049 -0.011863995 -0.08751885 -0.011452894 -0.0008684012 -0.087287225
0.050339933 -0.07598578 -0.012821655 -0.020014672 0.07982312 -0.03513411 0.023872519 -0.027890611

net.3.module.0.weight f4 [32, 32, 3]
00000000: ecf8 db3d a1de 8f3d 0f92 82bd 0187 583c
00000010: 16ef 33bc 0a70 c83b 341d d3bd caca f1ba
00000020: ba25 1e3d eb64 9b3d 41d7 aa3b 4f80 adbd
00000030: bc31 c73d 3c25 86bd b6bc 173e 0c2e b53d
00000040: 6f14 693d 9e69 dc3d bbc8 a03d 76d7 75bd
00000050: df5b 1ebb e98a b23d bf68 023e 8373 da3c
00000060: ce10 95bc 2549 48bd ff21 cabd 2536 123d
00000070: dd22 aebd 6440 1abd f48c da3d 441f bb3d
00000080: afb4 c93d 7554 13be a201 69bb 8040 c7bb
00000090: ee3e 673b 7945 393d 51e1 633d a75d 853c
000000a0: 1f73 77bd b7dc 803d 293d 0bbd 3cf1 f43c
000000b0: 4fa9 87bd db2e 153c 4ccb 9d3d 161a 6bbc
000000c0: 2b9c 1c3d ccc2 ee3c c157 9ebc bc57 44bd
000000d0: f149 8ebd 4ebb e83d 2618 45bc 4705 a9bd
000000e0: 1210 903d c318 af3b 817d 93bd b068 e2bc
000000f0: 2cdf 583c 5bbc a63d 9060 18bc c922 87bd
00000100: 2ff5 b93c 9ffc 073d 07b5 37bd 14ae 043d
00000110: ce38 ac3d 0736 aa3d 3c91 abbd 947a 823d
00000120: 4236 3cbe 1e43 a1bd 88d5 813d 06c8 ccbd
00000130: 5b84 bf3d b745 63bd caed c33d c820 78bd
00000140: 422e 01be 8801 74bc 1c73 bebd 6e37 353d
00000150: 1470 6ebd 35ae c53d 1fbe f33d 0c44 b0bd
00000160: 52f6 0fbd a020 88bb f495 6fbd 5ff8 0bbe
00000170: 1e13 e5bd e042 97bd f78b 803c f079 acbd
00000180: e87c 8ebb 893d c7bd ae2a ec3c 19da 19bc
00000190: 5cb8 b73c f41c ca3d f39f 1c3d c379 863d
000001a0: 4b54 2e3d d518 8c3d 6b78 d1bc 7cc6 a83c
000001b0: 5a76 933d 6ff3 15bd 9e76 8e3d 39b8 703d
000001c0: e48b c43d a0a2 993d f7cf 4fbb 025b aebb
000001d0: ea12 f73b fbe0 a8bd 33d9 b5bd 5f81 1fbd
000001e0: 7663 033d 2488 7dbc 9a69 c13d 25ac abbc
000001f0: 29db ac3d 54ac 65bc 419e 8f3d 5da5 683d
00000200: 8ff6 443d 1705 fbbc ebdc 98bd 48a4 bb3d
00000210: 955f 613c b82b ae3d 4e0c fabd c831 14be
00000220: 2880 15bd 3a17 79bb 7a88 0f3d d744 79bd
00000230: f1e5 373d d529 0bbe 231a 973d 2727 b6bd
00000240: 33cd 833d 71fb 47bd 6ec2 15bd 6efb 643d
00000250: 2fd9 933d 760f 38bd 3a26 d63b bb37 b9bc
00000260: eea8 21bd b711 433d c642 033d d2ad 393c
00000270: 8560 b6bc 2a6c 8e3d af2b dabd 8682 fcbd
00000280: e0ef 4fbd 9279 433d 24ed aabd 0f01 e0bc
00000290: b7f3 46be 8310 acbc ac00 20bd 5dab bdbd
000002a0: c068 dfbd 7b36 ad3d 37d5 c83b 8a07 a93d
000002b0: 31e8 1a3b a4bf 523d c233 f53c 6f78 9bbd
000002c0: 23a0 053c 0bcd fbbd 2f5c b63d b3b9 1dbd
000002d0: 4753 873b afe7 703d c252 de3c 4019 1cbe
000002e0: 3b23 0b3b 69ec 9e3d ffe3 b63c d447 f03d
000002f0: 1df5 89bd fc81 03bc ae68 063d c6e3 453c
00000300: cafe 163c ad74 5c3a b5ee 85bd 089a eebc
00000310: f42b d3bd 6c47 e1bd d0d8 75bd 1d08 e6bc
00000320: b969 01be dd0d cdbc bb9a 92bd c1db 7a3b
00000330: 4b90 adbd 800e 8ebc e715 803b d83e 7cbb
00000340: 36bf 993d 18a7 c7bc 072e 73bc 793b 84b9
00000350: 1710 ebbc 1988 c03d c8d3 94bd 52cc ed3d
00000360: dcbb 773d 13ec 31bd db89 243d e258 373d
00000370: b184 f63d e2cb 36be 35e5 acbd 79ae 80bd
00000380: cd97 9cbd c43f 3e3d 8507 663d 8c6f f03c
00000390: 50b7 fabd 0ed0 ab3d 3f66 273d 94a1 883d
000003a0: 840b 3dbd 107c b03d b56c 4bbd 6468 a73d
000003b0: 6e90 1d3d 71a0 2a3c 881a 8cbd ff26 a73c
000003c0: b342 01be 7bee 393d 731a adbc a85c 4c38
000003d0: 1912 c3bd 3ad1 bebd b3aa 6abd ee8e f13d
000003e0: 0a22 16be a60b 62bd 3d32 6e3d 5107 ff3c
000003f0: 9262 873d 689e dd3d fcd6 2dbd 23d9 6e3d
0.107408375 0.07024885 -0.06375515 0.013215781 -0.0109822955 0.0061168717 -0.103083044 -0.0018447277
0.038610198 0.07587608 0.0052136485 -0.084717385 0.09726283 -0.06550071 0.14818081 0.08846673
0.056904253 0.107623324 0.07850786 -0.060019933 -0.0024163646 0.08717901 0.1273527 0.026666408
-0.01819649 -0.04889788 -0.098697655 0.035696167 -0.085027434 -0.037659064 0.10671416 0.09136823
0.09848916 -0.14387687 -0.0035553952 -0.006080687 0.0035285312 0.04523227 0.0556348 0.016280008
-0.060412522 0.06292098 -0.033993874 0.029900186 -0.0662409 0.0091054095 0.077047914 -0.014349481
0.03823487 0.02914562 -0.019328954 -0.047935233 -0.06947697 0.113638505 -0.012029683 -0.0825296
0.07034315 0.005343528 -0.07201672 -0.02763781 0.013236802 0.08141395 -0.009300366 -0.065984316
0.02269992 0.033199903 -0.044850376 0.032392576 0.08409272 0.08311086 -0.08377311 0.06371036
-0.18380073 -0.0787413 0.06339556 -0.09999089 0.09351417 -0.055486407 0.09566839 -0.060578138
-0.12615302 -0.014892943 -0.09299299 0.044242315 -0.058212355 0.09652368 0.11901497 -0.08606729
-0.03514702 -0.00415428 -0.058492616 -0.13668965 -0.11185287 -0.07385802 0.01569174 -0.08421695
-0.004348386 -0.09728534 0.028828945 -0.009390377 0.022426777 0.098688036 0.038238477 0.06566193
0.042560857 0.06840674 -0.025570115 0.020602457 0.07200308 -0.03660911 0.06956218 0.05876944
0.095969945 0.075017214 -0.003170965 -0.0053209076 0.0075400965 -0.082460366 -0.08879318 -0.038941737
0.032077275 -0.015474353 0.0944397 -0.020956108 0.08440239 -0.014018137 0.070126064 0.056798328
0.0480867 -0.030642075 -0.07464012 0.091621935 0.013755699 0.085044324 -0.12209378 -0.14472115
-0.036499172 -0.003800823 0.035042264 -0.060856666 0.044897024 -0.13590176 0.07378032 -0.088941865
0.06435623 -0.048823778 -0.036562376 0.055903845 0.07219159 -0.04493662 0.0065353187 -0.022609582
-0.039467745 0.047624316 0.032046102 0.011332946 -0.022262821 0.069542244 -0.10652863 -0.12329583
-0.050765872 0.04772336 -0.08346012 -0.027344255 -0.19428907 -0.021003967 -0.03906314 -0.092612006
-0.10908651 0.08457657 0.006128933 0.08253391 0.0023636932 0.051452294 0.029931907 -0.0759133
0.008155855 -0.12294968 0.089043014 -0.038507175 0.0041298005 0.0588147 0.027139071 -0.15244007
0.0021230716 0.077599354 0.022325514 0.1173245 -0.06736205 -0.008026596 0.032814674 0.012078231
0.00921602 0.000840972 -0.065396704 -0.029126182 -0.10311118 -0.10999951 -0.06002122 -0.02808004
-0.12637986 -0.025031025 -0.07158419 0.0038277956 -0.08474787 -0.017340899 0.003908861 -0.0038489606
0.07507174 -0.024371669 -0.014842517 -0.00025221313 -0.028694196 0.094009586 -0.072669566 0.11611237
0.06048189 -0.04343803 0.04017053 0.0447625 0.120370276 -0.17851213 -0.08442155 -0.06283278
-0.07646141 0.04644753 0.056159515 0.029350065 -0.12241995 0.08389293 0.040868994 0.066714436
-0.04615356 0.08617413 -0.049664218 0.08174208 0.038467817 0.010414229 -0.06840998 0.020404337
-0.126231 0.04539345 -0.021130776 4.8723683e-05 -0.09524936 -0.093172505 -0.057291698 0.1179484
-0.14661422 -0.05518689 0.05815338 0.031131418 0.06610598 0.10821229 -0.042441353 0.058312546

net.3.module.0.bias f4 [32]
00000000: dae4 70bd 6214 77bd ad3b 70bd 67f3 13bd
00000010: aabb cf3d fa96 353d de07 36bc a025 b33c
00000020: 692c 1e3d 6bc9 093c 8fe8 acbc 40b1 10bc
00000030: 49f8 8cbd 2fd3 fc3b 8619 313d ba1c 453c
00000040: 22ec 4cbd 6e0d 6dbd 84a9 973d 2062 78bd
00000050: f294 913d 3e63 903d d007 bd3d 6d72 6abd
00000060: 798b 743c 2661 923c ee69 25bd 3ace 973c
00000070: ac04 91bc 8226 da3c 67aa 58bd ddf9 7c3d
-0.058812 -0.060322173 -0.05865066 -0.0361208 0.10143216 0.044333436 -0.011110274 0.021868527
0.03861657 0.008409838 -0.021106986 -0.008831322 -0.06883294 0.0077156047 0.04323723 0.012030775
-0.05002988 -0.057874136 0.074053794 -0.060640454 0.07108487 0.07050179 0.09230006 -0.05723803
0.014925831 0.01786859 -0.040384226 0.018530954 -0.017702423 0.02662969 -0.052896883 0.061761726

net.4.module.0.weight f4 [32, 32, 3]
00000000: 2e7c 19bd 1177 11be 45cf 5f3d 2696 8cbc
00000010: 1065 eebd 1ec5 cb3b b380 c8bd 6b34 363c
00000020: bb76 a23d 7a54 14be 9add 553c 82d1 0bbe
00000030: c680 dbbc eceb 4c3d a69e 2bbd 55e3 efbd
00000040: f33d 0e3e 6740 313c 6898 c7bd 04c3 153d
00000050: 0e6f a4bc d51e ba3b 021f c13d 8457 613c
00000060: 038a 0fbd 3a0a 0fbd 6869 57bd 1557 363d
00000070: c1a8 4abd 3f9f abbd b9e1 a5bd 3d69 92bd
00000080: 46f1 8bbd 14b8 cf3d 6d8c 6f3d dbf7 b1bd
00000090: d65e f73d 893d 8a3d 30ba a9bd 1901 0abd
000000a0: 283a 4bbd 20a9 d23d df22 f4bc 94b1 04bd
000000b0: f37f b3bd 5105 063b 2f2f dfbd a2a8 063c
000000c0: 3109 4cbd f20f ed3d 2634 b53c 0e82 373d
000000d0: 2b21 c2bb 8f32 9dbd b19b 9f3d 373f cb3d
000000e0: b4d5 95bd 9443 1ebd 8d24 37bd 44d2 993c
000000f0: 9b13 813d bb0e 05bd 25fc 4cbc 4d59 00be
00000100: 8027 2ebc 38c9 55bd c8ac afbd 63dc d53d
00000110: fbc8 823d 6af0 b5bc 7776 6a3d eb32 4a3c
00000120: 4ca7 e8bc ab68 7e3c 244a c03c 125e 09be
00000130: e90d 0dbd 50cd 9cbd b0ee 1d3c aab5 94bd
00000140: 2563 8b3d b492 1d3e 2f10 5cbd 0222 98bc
00000150: 1fc4 7e3d e5e3 843d ce4e 073e 6e80 093d
00000160: 8dff 0f3c ba61 94bd 0383 c83d 13fc 8b3d
00000170: 96a6 42bd 5176 ce3c 7d03 933b 22a8 b2bc
00000180: e927 8cbd 080e ce3d 67e4 b6bd 8556 93bd
00000190: dfbe a4bd b1ca 03be a270 d3bd c4ab 92bd
000001a0: 77f6 fbbc 77a9 e53d 40fd 953d 4461 bd3c
000001b0: 0b3b 953e 94c1 413e 9bad 8c3e 4590 16be
000001c0: 558b 2fbe 61cb 68bd e7c5 f1bd 5c5b cbbd
000001d0: 073d 883d b59f ce3a 4f8b 3abc b9c2 c9bb
000001e0: 963b 1fbd a285 c23c f0e7 33bd bddf b53d
000001f0: 50d4 44bc f152 52be 843e c2bc 62c2 adbd
00000200: 9b4f 06be 3929 1d3e 9382 9c3d c4d2 fcbd
00000210: 2bcb 11bc 172a 59bc 41a8 e0bd ade1 4b3e
00000220: c3f9 ae3d adaf f63d bf64 51bb 0a6b c9bd
00000230: edd0 44be 72d4 e83d b121 ed3d aa39 e63d
00000240: f9a2 803d 95d3 aebd 279e 5b3d 26f1 113e
00000250: 8d77 07be d5b5 14be ad26 153e 233c 193e
00000260: 4930 c43d d3d9 ea3d fa33 5ebd d231 c43d
00000270: 2b5d 4cbd 969d 1fbe c170 2abd 17ac bd3d
00000280: e650 11bd 7bf7 eebb 2461 203e 2f9d b53c
00000290: ee8a f43d 3b6a d83d 2d80 dcbd 73cc 103d
000002a0: c0e9 e4bd f1dc c63d 859f 783d b6bc 47be
000002b0: 08dc 1cbe 980d 05be 8508 c5bd 3790 acbc
000002c0: 7224 2c3b eac5 5fbe 2928 2bbe 5132 f3bd
000002d0: 9c3f 94bc b0fc cd3d 6f3a a33d 3f59 103e
000002e0: 755c 983d 42ac 03bd 2f2f 5cbe 9ba3 d9bd
000002f0: fc91 ffbd a2a6 373d 2ca5 d43b 8b4e 933d
00000300: 9053 09be c3be 69bd f569 3abc f681 093d
00000310: 3750 b43c 7c17 ebbb 7bf5 7bbd 3f91 ae3d
00000320: bf78 67bd a520 833d b98f b23d 9f3b 6f3d
00000330: 27e8 083d 0c48 8ebc 8866 143d 133d 65bd
00000340: 5f27 57bc 367f 9a3d 8c5b 9dbc 6949 87bd
00000350: 3fa7 3e3d 442e 8f3d 4147 97bc d1b7 90bd
00000360: 14ad 8cbb 4c37 253b f020 56bc cb0a 313e
00000370: 38b7 233e abd6 00be 567b b03c 43d7 383d
00000380: e39f 8abd ff9f 3b3d 80ae 0b3d 57d9 25bd
00000390: cc3e c8bd 1d7b 543c 3d93 cfbd ec93 65bd
000003a0: bf4d 613d 996d d73d 3460 74bd 2dd7 1fbd
000003b0: 3388 84bd c00a 17bd 40c8 cf3d c3de 8abd
000003c0: 487f 7f3d c6d9 e7bb bd75 b53c 24c5 c1bc
000003d0: e4ed 8ebd 7443 efbb 0f45 a1bd de81 c13d
000003e0: 838d ccbd a0a7 62bd 7cff 28bd 2c88 b1bd
000003f0: fd8e a73c b5d7 0dbc c301 c93d 7b64 d03d
-0.037471943 -0.14205576 0.054641027 -0.01716144 -0.1164037 0.0062185666 -0.097901724 0.011120896
0.07932802 -0.1448535 0.013053322 -0.1365414 -0.026794802 0.05002968 -0.041899346 -0.11713282
0.13890819 0.010818577 -0.09745866 0.036562935 -0.020072486 0.005679945 0.094297424 0.0137537755
-0.035043728 -0.034921862 -0.052590758 0.04451664 -0.049477343 -0.08379983 -0.08099694 -0.07148979
-0.06833129 0.10142532 0.05848353 -0.08689853 0.120786354 0.06750018 -0.082874656 -0.033692453
-0.04961601 0.10286164 -0.029801784 -0.032395914 -0.08764639 0.0020449946 -0.108976714 0.008218916
-0.049813453 0.11575307 0.022119593 0.044801764 -0.005924364 -0.07675659 0.07793368 0.09924167
-0.07316151 -0.038638666 -0.044712592 0.01877702 0.063025676 -0.03248475 -0.012511288 -0.12534066
-0.010629535 -0.05219385 -0.08577877 0.10442426 0.0638599 -0.022209365 0.057241883 0.012341241
-0.028400086 0.0155278845 0.023472853 -0.13414791 -0.034437094 -0.07656348 0.009639427 -0.07261212
0.0680602 0.15387994 -0.05372637 -0.018570904 0.062198754 0.0648878 0.13213655 0.033569746
0.008788955 -0.07245202 0.097906135 0.06835189 -0.04752215 0.025202902 0.0044865 -0.021808688
-0.0684355 0.1006127 -0.08930283 -0.07194237 -0.08044218 -0.1287029 -0.103242174 -0.07161668
-0.030757172 0.112139635 0.07323694 0.023117669 0.2914661 0.189215 0.274762 -0.14703472
-0.17142995 -0.056834582 -0.11805325 -0.09929535 0.06652265 0.0015764149 -0.011385753 -0.006157246
-0.038875185 0.023745362 -0.043922365 0.08880565 -0.01201351 -0.20539452 -0.02371145 -0.08484341
-0.13116305 0.15347756 0.076420926 -0.12344888 -0.008898537 -0.013254664 -0.10969592 0.19910307
0.08543732 0.12045226 -0.0031950918 -0.09834869 -0.19220324 0.11368646 0.11578692 0.11241467
0.062810846 -0.0853645 0.053617623 0.14252147 -0.13229199 -0.14522488 0.14565535 0.14964347
0.09579522 0.11467328 -0.054248787 0.09579815 -0.04989354 -0.15587458 -0.041611437 0.09261339
-0.03547754 -0.0072926856 0.15662056 0.022169678 0.11940561 0.10567137 -0.10766635 0.035351228
-0.11177397 0.0971011 0.060699005 -0.19505581 -0.1531831 -0.12993467 -0.096207656 -0.02106486
0.002626684 -0.21852842 -0.16714539 -0.118748315 -0.018096738 0.10057962 0.0797013 0.14096545
0.0743951 -0.0321467 -0.21502374 -0.106269084 -0.12479016 0.044836648 0.0064894166 0.07192715
-0.13410783 -0.05706669 -0.011377801 0.033571206 0.022010906 -0.0071744304 -0.061513405 0.08523797
-0.056511637 0.06402711 0.08718819 0.05840647 0.033424523 -0.017368339 0.036230594 -0.055966448
-0.013131945 0.07543795 -0.019208692 -0.06605799 0.046546217 0.06991246 -0.018466594 -0.0706631
-0.0042930935 0.0025209961 -0.013069376 0.17289273 0.15987861 -0.1258189 0.021543186 0.045127165
-0.06768777 0.04580688 0.034101963 -0.040490475 -0.097776026 0.012968806 -0.10135505 -0.056049272
0.055005785 0.10518951 -0.05966206 -0.039023567 -0.064712904 -0.036875486 0.101456165 -0.0678077
0.062377244 -0.007075521 0.022150869 -0.023653574 -0.06978968 -0.007301742 -0.078745 0.09448598
-0.09987929 -0.05533564 -0.041259274 -0.08668551 0.020453924 -0.008657386 0.09814789 0.10175415

net.4.module.0.bias f4 [32]
00000000: 76af c4bd d9cd 67bd a66b 8fbd bdd7 75bd
00000010: 00aa 8e3d dd80 4bbd 6e61 88bd e0b1 10bc
00000020: b64c a4bd 42e6 4d3d 1185 c13c e03f b0bd
00000030: c35c 713d 77ab aa3c b7ef b1bd 81c5 dabc
00000040: 882b 9abc e148 213c 3b70 84bc d77c a7bd
00000050: 453b 5a3d d9b1 a23d 26a4 843d ceba cabc
00000060: 7613 843d e956 80bc 00a2 443d cf60 c5bc
00000070: e78c 833d 0cac a03d 695a 823d 09ff 663c
-0.09603779 -0.056592796 -0.07002954 -0.060020197 0.06966019 -0.04968344 -0.06659208 -0.008831471
-0.08022444 0.05026842 0.023623021 -0.08605933 0.058926355 0.020833714 -0.086883 -0.026705505
-0.018819585 0.009844036 -0.016166797 -0.08178108 0.05327918 0.07944078 0.06476621 -0.024747279
0.064490244 -0.015666442 0.048006058 -0.024094013 0.06423359 0.07845315 0.063649006 0.014098891

net.5.weight f4 [48, 32, 3]
00000000: 9300 803d a64c eabc ed28 12bd e15c 3dbd
00000010: 4699 08bd c5e7 7abc def2 533d 4bd6 b93c
00000020: 6b66 03bd 2364 ad3d fca8 f23c c4ac 91bd
00000030: 8df7 b33d 2514 053d a0df eabc 8109 f9bd
00000040: 2378 0fbd 48bc ce3d 50f3 f73d bef5 4cbd
00000050: c5d1 aebd 92e5 7abc 518f ae3d ef7a 22bd
00000060: d866 323d 6ae8 adbd 131a c63c 7c59 c9bc
00000070: 847c 833d f549 743d a458 2e3d ff75 57bc
00000080: 2e83 d83a f211 57bc 20c7 57bd 5107 22bc
00000090: 0c49 063c 6749 6bbd e94c 78bd 3d45 fbbd
000000a0: eefa 27bd 3e93 73bd 320b bebd a06d 6abd
000000b0: 3ec2 3f3d b133 5dbb 04ba d5bd 9a56 983d
000000c0: 6d96 87bc b8f9 88bd 0dc0 af3c 3fa6 773d
000000d0: 5717 703d 6bdf b13d 3904 c5bd 7f4e 9ebd
000000e0: 124e d63d 8569 43bd 6600 2fbd 5799 b13d
000000f0: 22e9 023e 14c1 4dbd 30cc 57bd e8bc 12bd
00000100: 142f 6b3d 82a8 243d aed6 103d 1cb7 193d
00000110: b130 833d c6a6 953b 00b0 c43d bebe 07be
00000120: 7d90 2c3d 3b36 37bc 1d55 64bd caf9 58bd
00000130: 74da 7bbb 4d71 283d 5e93 8a3d df14 5cbd
00000140: 99dd 30bd a60b 25bd ef7c 2c3d 37a1 96bb
00000150: 02bf 963d cb9c 023d 3e90 213c 72cc 863d
00000160: 3a70 5c3c d6c0 ddbc 7764 c1bb f9d7 10bd
00000170: e549 ff3d aab5 35bc 8309 1f3e 4e05 33bd
00000180: fff8 933d 78f7 3ebc bbd7 2abc e517 babd
00000190: 95b2 263d 8ae5 a23d ae8e ab3d 9440 993d
000001a0: 686c 61bd 3acd b73d e3cd 54bd 3a9f 27bd
000001b0: 96f1 5abd 4433 cfbc b57a df3d 1541 b5bb
000001c0: a794 4c3d 5bae 74bd 451b d5bc 4225 04bd
000001d0: 5115 d33d db8b 77bd cd3c a1bd b548 853d
000001e0: efa0 8abb ecf3 a93d 2007 9c3d 4ea6 113e
000001f0: 0ee1 90bd 4ff6 fdbb 1496 28bd 8252 e9bd
00000200: 153a 963d 3069 083e 98a5 01be 2fab af3d
00000210: a395 9b3d 7b76 c13d e985 babd ef02 253d
00000220: 7523 b3bd 184c a6bd 8c06 c0bc 20fb 02bd
00000230: 2893 c2bd a019 dbbc 5531 2dbc d7b3 95bd
00000240: 8b74 52bc 5ad9 dabd 0e45 37bd 2936 babd
00000250: da19 b03d de53 5a3c 51c9 85bc af57 e2bc
00000260: 7fd2 d8bc 7d04 94bd f9f9 983d 1681 99bd
00000270: 8b1e adbd 6118 0fbd 480a 913c 1199 6ebc
00000280: 6ae7 b8bc 0c72 d03c 14cb eb3b 9242 4d3d
00000290: c74b 14be 9a30 06be bbae febc 1330 033e
000002a0: 382c 993b e4f6 293c 3272 463d 70f9 8cbd
000002b0: 06fb 013d b2b7 463d dbb2 afbd d2df a03d
000002c0: 6e3f c13c 6252 093b 4077 76bc 8e71 d5bd
000002d0: 75a1 d93d 7c00 d73c 54c3 8e3c e01b 823d
000002e0: 5dd1 f73d 9065 ce3c 8b8f c53c 8219 543c
000002f0: 2e18 cfbd 208d 863d f55f 7ebc 73ac c8bd
00000300: 178b 74bd 11de 85bc 7a2f a93d f98b 183b
00000310: 1784 90bb 436e cdbc 9ede 5cbd ad54 7c3d
00000320: 8806 7ebd 00d0 75be 56c4 9a3d 49ff a83d
00000330: bbe3 abbd a151 08bd 06c8 0f3c 08b4 d4bd
00000340: 20cd d0bd 0b00 e3bc f89c 283d a17e 6ebd
00000350: 5387 c5bc 4067 7abd 5ef4 ebba 8e2e 04bd
00000360: 34f1 78bd ac4d c23d 0c30 483d 2568 cdbd
00000370: ec0c c33c 35f2 e33b 61b1 9e3d 30d9 683c
00000380: 80f4 363d d3c4 edbd c6be e03d 8315 ba3d
00000390: 0ce3 6ebd 5f28 5c3d bee8 53bd 08c7 b23d
000003a0: 7b0d d9bc cb43 36bd 7d26 a23d 2d18 a3bd
000003b0: afd0 87bb 3c9c 843d 74f2 3fbd b199 0f3b
000003c0: ea66 acbd bafa 043e 7413 b0bd c396 ee3b
000003d0: 7d81 5a3d d6d2 4dbb 130d b0bd 671e df3d
000003e0: 7879 b4bd 014b a8bd a601 8dbd 30d6 03be
000003f0: 82f8 2e3c d567 4dbd 31bb dc3c 95a7 e53c
0.062501095 -0.028601002 -0.03568356 -0.046231154 -0.033349298 -0.015314047 0.051745288 0.02268519
-0.032080095 0.08466365 0.029621594 -0.071130306 0.08787451 0.032489914 -0.028671086 -0.12160016
-0.03502668 0.100945055 0.12106955 -0.050039046 -0.08536104 -0.015313523 0.08523429 -0.03966802
0.04355511 -0.08491595 0.024182355 -0.024578802 0.06420234 0.059640843 0.042565003 -0.013150691
0.0016518587 -0.013126837 -0.052680135 -0.00988944 0.008196127 -0.05744305 -0.060620222 -0.122690655
-0.04101079 -0.059466593 -0.09279479 -0.057233453 0.046816103 -0.0033752734 -0.1043587 0.07438393
-0.01655122 -0.06688255 0.021453882 0.06046128 0.05861601 0.08685192 -0.09619946 -0.07729816
0.104641095 -0.047708053 -0.04272499 0.086718254 0.12784246 -0.05023296 -0.052684963 -0.035824686
0.057417944 0.040199764 0.035360985 0.037528142 0.064057715 0.004567 0.09603882 -0.13256356
0.042129982 -0.011182363 -0.055745233 -0.052972592 -0.0038429769 0.041123677 0.06766389 -0.05373084
-0.043180082 -0.040294312 0.042111333 -0.004596855 0.073606506 0.03188781 0.00986105 0.065819636
0.013454491 -0.02706949 -0.005901869 -0.035362218 0.12465266 -0.011090675 0.15530972 -0.04370623
0.072252266 -0.011655681 -0.010427411 -0.09086589 0.040697653 0.07953937 0.08376823 0.074830204
-0.055035025 0.08974691 -0.05195416 -0.040923335 -0.05345305 -0.025293 0.109120764 -0.00553144
0.049946453 -0.05973659 -0.02601398 -0.032262094 0.103068 -0.06043611 -0.07872925 0.065080084
-0.0042306106 0.082984775 0.076185465 0.14223596 -0.07074176 -0.0077503095 -0.04115875 -0.1139269
0.07335297 0.13321376 -0.12660825 0.085775726 0.075969 0.094464265 -0.091075726 0.040286
-0.08746997 -0.081199825 -0.023440622 -0.031977773 -0.09500724 -0.026745617 -0.010570844 -0.07309692
-0.012845169 -0.10685988 -0.04474359 -0.090923615 0.08598681 0.01332566 -0.016331347 -0.027629701
-0.02646756 -0.072274186 0.074695535 -0.07495324 -0.08453091 -0.03493536 0.017705098 -0.014562861
-0.022571284 0.025445007 0.0071958397 0.050112315 -0.14482032 -0.13104478 -0.031089177 0.12811308
0.0046744607 0.010373805 0.04844875 -0.06883514 0.031733535 0.04851503 -0.08579036 0.0785519
0.023589816 0.0020953645 -0.01504308 -0.104220495 0.106264986 0.026245348 0.017427124 0.06352973
0.1210048 0.025194913 0.024116298 0.012945535 -0.10112034 0.06569886 -0.015525808 -0.09798517
-0.05970296 -0.016341241 0.082610086 0.002327679 -0.0044102776 -0.025076991 -0.05392324 0.06160419
-0.062017947 -0.24005127 0.07556979 0.08251817 -0.083930455 -0.033280972 0.008775717 -0.10385901
-0.101953745 -0.027709981 0.041165322 -0.05822623 -0.02411238 -0.061133623 -0.0018001904 -0.03227096
-0.060776904 0.09487471 0.048873946 -0.100296296 0.023809873 0.0069563636 0.07748676 0.014211938
0.044666767 -0.11609807 0.10973887 0.09086134 -0.058321998 0.05374944 -0.051735632 0.087293684
-0.026495686 -0.044498246 0.07917497 -0.079635955 -0.00414475 0.06475112 -0.04686208 0.0021911676
-0.08418067 0.1298627 -0.085974604 0.007281156 0.053346146 -0.0031406186 -0.08596244 0.10894471
-0.08812231 -0.08217431 -0.0688508 -0.12874675 0.010679366 -0.05014785 0.026944729 0.02803401

net.5.bias f4 [48]
00000000: 6410 31bd 002e d13c 0f57 79bd 8af9 a2bd
00000010: 50eb 48bd 48ad 843d 990e 62bd 0b7a 583d
00000020: f40b f83c 07a2 5e3c 42f8 093d fa1e 5abd
00000030: 588d 93bd b2f5 51bd 0ad4 303c c3a6 83b9
00000040: 586f afbc e340 91bc e0c0 e13c 4d1c 72bd
00000050: ed1a d8bb c2fc 71bc ffc0 5aba 4de9 25bd
00000060: 4599 0a3d bcdb a2bd d9b1 093d f641 b83c
00000070: b54e 023d 0fca 883d 485f 6e3c b491 943d
00000080: 7495 69bd 4b9a 663d 69cf c7bb 1d70 1c3d
00000090: e3c9 e6ba 8875 59bd cc61 94bd 8dbc 05bd
000000a0: 22f0 26bc 5a89 0d3d 2ca5 83bd b029 713d
000000b0: aad1 89bd 69b3 61bc 98ef 06bd b7a8 30bd
-0.043228522 0.02553463 -0.06087404 -0.07957752 -0.049052536 0.06478363 -0.055189703 0.052850764
0.030279137 0.013588435 0.033684023 -0.053252198 -0.072046936 -0.051259704 0.010792742 -0.00025110514
-0.021415398 -0.017731136 0.02755779 -0.05910902 -0.0065950067 -0.014769735 -0.00083447987 -0.040505696
0.033837575 -0.07952067 0.033616874 0.02249239 0.031813342 0.066791646 0.014549084 0.07254353
-0.057027295 0.05629949 -0.0060977233 0.038192857 -0.0017607774 -0.053090602 -0.07245216 -0.03265052
-0.010189088 0.034554817 -0.064279884 0.058877647 -0.06729443 -0.013775685 -0.03294334 -0.04312965

exp_avg f4 [32, 191, 2]
00000000: f620 833c fa75 973c aae0 e93b 5c1b 433d
00000010: 30fd 58bd de6d 0bbd 28e5 b2bc f7ae 4abd
00000020: f4f8 57bd d8ec 75bd 7ac4 84bb 2393 8e3b
00000030: e413 e03c 3862 e63c 1cfd 9cbc 0ffc 9abc
00000040: 6fde 8cbd 3314 89bd d695 1cbd 70a3 81bc
00000050: f696 1dbc 6511 8e3b c3c4 bfbc 632e ce3c
00000060: 3dbe 32bd e7fd fbbc 0553 4fbc 3c8f 21bc
00000070: f39d cfbc 6797 01bd 0d70 86bc 717d d7bc
00000080: 257d d2bc 5f45 bcbc 1f8e 80bc 6bf9 433c
00000090: 7319 07bb b9e4 4bbc 6cba 39bc 6973 95bc
000000a0: 519b 03bc 05eb debb b9a0 243c 2834 b83c
000000b0: 4b42 c0bd 3059 cabd 92aa 92bd 00b0 45bd
000000c0: 1d95 3a3b 7153 76bc 1d6b 63bd ada9 43bd
000000d0: df91 79bb f479 873c c40e c6bc 0afb f9bc
000000e0: 7874 f8bc cd8a aabc 28ab 013c b34c 06bc
000000f0: d173 843c da19 263d e0d4 b7bc bc7e a33c
00000100: e084 89bd 430e 06bd 78ac 7bbd 1ded 44bd
00000110: 47ea 54bd f8f9 59bd bd06 e1bc 3d32 09bd
00000120: cb96 82bd 4ee2 61bd 48be 5cbd 6813 b4bc
00000130: 4767 01bd a001 1abd db0a a4bd 22c9 0fbd
00000140: b755 10bc 9f6f 95bb 4ff2 083c 7aa3 15b9
00000150: fca3 083d 9676 183d b2e7 a8bd 5fa8 97bd
00000160: 5778 6ebd 4dff 72bd ab27 0bbd 1ee3 92bc
00000170: 3b87 63bd 860a 6cbc f911 6abc d03b c1bc
00000180: dbb6 caba ed49 0f3d 36a1 afbc 6e24 f4bc
00000190: c969 a8bc 0440 f4bc 8e30 3cbd b44c 21bd
000001a0: 30ab 2b3d ba2a 283c 5dc9 9abc 6445 4fbc
000001b0: 2424 35bc c451 8dbc 21be 493c 5b47 e9bb
000001c0: 0d4f 83bd 1088 53bc b92c a1bb bed0 743c
000001d0: f2a2 cf3b 3b21 03bd b576 a73c d265 063c
000001e0: edf8 e93a ed3f 86bc 26d5 7f3d cbcb 863d
000001f0: d683 803c 5bc9 e73c b367 25bd a21a b5bc
00000200: c799 6ebc d732 90bc 91a3 04bc 144c e6bb
00000210: e34b 26bd b5a0 1abd 0873 a13c 90e7 283d
00000220: 70d1 3539 6762 86bc 4cdb 1d3d f5cf a53d
00000230: 8322 06bd d2e5 bfbc 6359 dbbc 261e 4ebc
00000240: 9d0e 3abc af33 62bd b5b0 7dbd 6d8a 53bd
00000250: dace 393b fd8a 283d db64 9dbc 6119 433b
00000260: 838a 20bd 1b84 1cbd 9e1e bdbc 4e35 b4bc
00000270: c8af 34bc 31cf 10bc c292 bb3c 9fe2 1a3d
00000280: 37ab 38bd a66e ad3b ca0a 553c 1a2c 6c3c
00000290: 233f 23bb 3c85 393c c5e0 9dbc e8c8 01bd
000002a0: a0ce 04bc 2d34 febb 859e 833b b90a 0c3c
000002b0: 7ceb 133d 7bd5 da3c ee48 cf3b 5c4c 7c3c
000002c0: e021 4abd c700 eabc d909 bebc 1c19 52bc
000002d0: 0c71 c03c 21e1 583c e7ab 363c ad99 483d
000002e0: 75da 613c 49a7 613d 8363 513a 41a6 93ba
000002f0: 0d3d 83bb 398d 1ebb d0fe 4abc 1700 d3bc
00000300: 9f68 f7bc 0be7 5fbc b5b3 c3bc 8091 aabc
00000310: 746e 2cbd ab9f 30bd 0594 863c b592 9c3b
00000320: 9222 213d 45d2 643d 7c22 1dbc 52fd 7cbc
00000330: 85ff 4f3d 8e78 7a3d 67d5 cb3c 8b66 e73c
00000340: 0b64 ff3c 0343 9b3c 8e14 abbc f719 233c
00000350: de22 85bd 6a4b 1fbd d438 84bc 849d 29bc
00000360: 795d 013d 07f4 65bb 783f e23c 0211 063d
00000370: 07e1 b0bc 5db6 2abc 9f57 cf3b f157 e6bb
00000380: f5bd b6bb e7e2 363c 2b47 a03b 6613 3e3d
00000390: 97cf 1dbd b4da 3cbd a04a 953c 48d8 203d
000003a0: c0bf 7fbd 2171 91bd 8e41 59bd 13cf 3bbd
000003b0: 1911 223d e097 e63b 9fb6 0abd 896c 16bd
000003c0: 3475 a9bb 3c52 b6b9 8b37 a9bc 2ce5 59bc
000003d0: 68c6 91bc 19c0 e43b e16c 0f3c 4c7b 6d3d
000003e0: 5b5f d5bc 6494 44bb b623 303c ffe5 9e3c
000003f0: 467a a73c 20d3 333d c0bf cf3c 663a 223c
0.016006928 0.018488873 0.0071373777 0.047633514 -0.052975833 -0.034040324 -0.021837786 -0.049483266
-0.052727655 -0.060040325 -0.004051742 0.004351036 0.027353235 0.028123006 -0.01916366 -0.018919019
-0.06878363 -0.06693306 -0.038228832 -0.015825003 -0.009618511 0.0043355697 -0.023409253 0.025168603
-0.043638457 -0.030760719 -0.012654071 -0.00986081 -0.02534387 -0.03163853 -0.016410852 -0.026304932
-0.02569444 -0.022982297 -0.015692769 0.011961321 -0.0020614534 -0.012444668 -0.01133595 -0.018243508
-0.008032636 -0.006802919 0.010048085 0.022485808 -0.093876444 -0.098802924 -0.0716144 -0.04826355
0.0028470226 -0.015034542 -0.055522073 -0.047769237 -0.003808133 0.016537644 -0.024176963 -0.030515213
-0.030328974 -0.020818138 0.007914342 -0.008196997 0.016168507 0.040551998 -0.022440374 0.019957893
-0.06714797 -0.032728445 -0.061443776 -0.04807769 -0.051981237 -0.053216904 -0.027469033 -0.033495177
-0.06376418 -0.05514746 -0.053892404 -0.02198191 -0.031592634 -0.037599206 -0.08009883 -0.035103925
-0.0088094985 -0.0045604254 0.008358552 -0.00014270647 0.033359513 0.037222467 -0.082473174 -0.07405161
-0.058220234 -0.059325505 -0.033973377 -0.017930564 -0.055548888 -0.014406806 -0.014286512 -0.023588091
-0.0015465872 0.03498261 -0.021439176 -0.029802527 -0.020558255 -0.029815681 -0.045944743 -0.03937979
0.041911304 0.010264093 -0.018894846 -0.012650821 -0.01105598 -0.017250903 0.012313397 -0.007119102
-0.06411562 -0.012910858 -0.0049186614 0.014942346 0.0063365633 -0.032014113 0.020442346 0.008202987
0.0017850675 -0.016387904 0.062459134 0.06581839 0.015687864 0.028294256 -0.0403821 -0.022107426
-0.014563031 -0.017602367 -0.008095638 -0.007028112 -0.040599715 -0.03775092 0.019708171 0.04123646
0.00017339527 -0.016404344 0.038539216 0.08096305 -0.032747757 -0.023425017 -0.026776021 -0.01258043
-0.011356023 -0.05522507 -0.0619361 -0.051645685 0.0028352053 0.041148175 -0.01921313 0.0029769766
-0.039194595 -0.038211923 -0.023085888 -0.021998074 -0.011028238 -0.008838461 0.022897128 0.03781378
-0.04508516 0.0052927313 0.013003061 0.0144148115 -0.0024909459 0.011323269 -0.019272218 -0.03168574
-0.008105904 -0.0077576847 0.0040166997 0.008547478 0.036113247 0.026713124 0.0063258326 0.015399065
-0.049348712 -0.028564824 -0.023198055 -0.012823369 0.023491405 0.013237269 0.011149383 0.04897468
0.013784994 0.055091176 0.00079875457 -0.0011264757 -0.0040050806 -0.0024193062 -0.012389854 -0.025756879
-0.030201254 -0.013665925 -0.023889402 -0.020821333 -0.042097524 -0.04312102 0.016428003 0.004778231
0.03933961 0.05586459 -0.009590741 -0.015441256 0.05078079 0.061150126 0.024882032 0.028247138
0.031175634 0.018952852 -0.020883825 0.009954921 -0.06500791 -0.03889028 -0.016140379 -0.010352496
0.031583283 -0.0035088079 0.027618155 0.032731064 -0.021591676 -0.010419455 0.006327584 -0.0070295264
-0.005576844 0.011162496 0.0048912964 0.04640522 -0.03852805 -0.04610701 0.01822406 0.039268762
-0.062438726 -0.07101656 -0.053041033 -0.04585178 0.039567087 0.007037148 -0.033865567 -0.0367246
-0.0051714424 -0.00034775015 -0.020656368 -0.013299268 -0.017794803 0.0069809076 0.008753986 0.057978913
-0.026046446 -0.0029995674 0.010750702 0.01939678 0.020444047 0.043902516 0.025359988 0.009901619

exp_avg_sq f4 [32, 191, 2]
00000000: 495f 1b3b 1cba 183b 3db3 d13d f5b3 d53d
00000010: 449b 983d c912 903d 5764 b63d 3cb4 be3d
00000020: 3b71 b63d 1ad6 ae3d 3c66 173d b73a 233d
00000030: 2cf0 7d3d e6d8 813d 4538 8a3d 7d52 8b3d
00000040: 63d9 3f3d 56bb 423d 0c65 7f3d 4b9a 853d
00000050: 4c57 a63d 3e97 af3d 8d18 0e3e ce66 063e
00000060: b39a 583d 5ff6 673d b365 923d b68c 943d
00000070: ccf1 ad3d 971d b93d 7457 073e 1a51 033e
00000080: 36c2 7b3c fd13 7e3c 3aa4 7a3d 4bd6 853d
00000090: 0ced 853d 35ad 933d 78b2 7f3d adcc 813d
000000a0: e2dc e03c 4c0d d63c a567 cb3d f037 c23d
000000b0: fa78 953d ef40 983d bc1f 3e3d 2997 513d
000000c0: 70dc d53d 5e31 e33d 77d7 363d 0de4 453d
000000d0: 54c6 753d 02a0 663d 0620 a53d 619b aa3d
000000e0: a0cd 9f3d e4e7 9e3d f900 203d 8501 223d
000000f0: e259 833d f9cd 963d 9189 f13d 8d60 e73d
00000100: d6db 7f3d 5dd3 823d 6113 8f3d f448 893d
00000110: c381 0e3d e5cb 183d d05a a63d ed3b a23d
00000120: 5ebb 883d bd40 933d 8dee 9d3d 5591 a33d
00000130: 8c2c a93d 0732 a73d 6d15 933d 4f7d 9b3d
00000140: c6f6 983d 361b a03d 6971 833d 90ca 883d
00000150: e3f5 8d3d 9cbc 8b3d 2a94 953d 0c80 9b3d
00000160: c15f a73d 272a 9e3d 45b5 883d a943 873d
00000170: 32c9 f03d cff3 fb3d 7d1b 013e 054a 003e
00000180: adbe 1c3d 8e0b 1a3d 615c 8c3d ea07 923d
00000190: 918c b83d bd56 c23d 2252 8f3d 07b7 893d
000001a0: b6ba 003e 8620 fa3d 157e 5a3d ef46 6d3d
000001b0: dc4e 5a3d 3c5c 6d3d c0a7 883d ff90 8a3d
000001c0: ac40 9f3d 1de8 a83d a90a aa3d d23d a23d
000001d0: 486b d03d c83b c83d 802d be3d 623c cc3d
000001e0: ee88 983d 6bc1 a73d 20dc 773d fd86 893d
000001f0: f15e 4e3d 6397 493d 873d ec3d f7f0 fd3d
00000200: 3e5d 863d 76d1 873d dfd1 f13d ef8a 013e
00000210: 40a6 f83d 6450 f13d 3633 983d 707a 9b3d
00000220: b0ef d13d 2d73 d33d e0bc d33d 973d d23d
00000230: f764 bf3d 8356 b73d a70b 743d 82a2 6a3d
00000240: b534 243d 0d63 2c3d 29eb 313d e6bc 303d
00000250: 22c1 b53d c584 b83d 9c19 a53d 4847 ae3d
00000260: 0753 a63d 6ae4 a23d a068 c03d 8724 c43d
00000270: 5c5b c43d 0f63 d43d d63e 933d 66b1 933d
00000280: 5db3 a73d 2af0 9e3d 02e1 9a3d c072 9d3d
00000290: f9e6 863d 6141 873d bea3 ee3d 2a05 e93d
000002a0: 9783 323d cd5b 393d c2a2 b03d 81b5 b43d
000002b0: 26f6 9d3d 6a9a a33d 6b04 9d3d bbae a93d
000002c0: 2611 c83d cdff d53d 68b6 693d c04d 6a3d
000002d0: e12c 823d d8ab 8c3d 531d 003e 065f fa3d
000002e0: dae1 2e3d 0a8e 403d 2486 1e3d c219 2c3d
000002f0: 50d9 523d 44ad 403d f18e 9d3d a9ea c23d
00000300: f609 f83d e274 003e bf4b e03d 17c6 e13d
00000310: 9ba8 dc3d 0cda da3d cb09 893d 7df9 903d
00000320: 3703 c43d 0f36 c03d 40eb 133e 72e4 173e
00000330: df7a fc3d c80b 003e fcb4 093e 71db 053e
00000340: af1d ae3d 5261 b73d e5d0 aa3d 97bc a53d
00000350: e792 f93d ee72 f63d a088 013e ec27 023e
00000360: 6e91 b93d 177a c73d 5452 cf3d 6909 bf3d
00000370: 18b4 7a3d 5910 793d b45f 963d 08eb 943d
00000380: dce2 0a3e fe6c ee3d 2ee3 003e 1f7b f63d
00000390: 9db9 a53d 50fe a23d e3c9 013e 1c55 e03d
000003a0: e63a cd3d 319e c53d d459 483e 3d8f 403e
000003b0: ee08 da3d dd32 d13d 1632 b13d 9f1b ae3d
000003c0: 7f33 fe3d 1a26 e93d d081 063e 86d5 003e
000003d0: 3f84 a83d 0f60 a53d 7f46 163e ba1c f73d
000003e0: d750 3d3d c64b 3b3d e5a4 ae3d 7832 923d
000003f0: 3b2f c43d bd1f b33d 7d55 583d 8d1d 693d
0.0023707917 0.002330429 0.10239265 0.10434715 0.074514896 0.07034833 0.08905857 0.09311721
0.08908316 0.085369304 0.036962733 0.039850917 0.061996624 0.06340198 0.06749014 0.06802843
0.046838176 0.04754194 0.062352225 0.0652357 0.08122119 0.08573769 0.13876553 0.13125154
0.052881908 0.056631442 0.07148304 0.07253401 0.08493385 0.09038847 0.13216954 0.12823907
0.015366128 0.015507695 0.061191775 0.06535014 0.06539354 0.07210771 0.06242606 0.06337867
0.027449075 0.026129387 0.09931878 0.094833255 0.07298465 0.0743426 0.046416983 0.05116955
0.10442436 0.110934004 0.044639077 0.04831319 0.060003594 0.05630494 0.080627486 0.083304174
0.07802892 0.077590734 0.039063428 0.03955223 0.06413628 0.07363505 0.11793817 0.112977125
0.06246551 0.063879706 0.06986118 0.06703368 0.03479172 0.037303824 0.0812279 0.07921586
0.066763625 0.07190082 0.077115156 0.07986704 0.0826045 0.08163839 0.07181821 0.0759226
0.07468943 0.0781769 0.06418116 0.06679261 0.06931665 0.06823084 0.07303651 0.075927824
0.081725605 0.07722884 0.066751994 0.06604702 0.11757125 0.12302362 0.12608142 0.12528236
0.03826778 0.037608676 0.068535574 0.07130416 0.09011186 0.094892 0.069980875 0.06724363
0.12571225 0.122132346 0.053342897 0.057928976 0.053297862 0.05794929 0.06672621 0.06765937
0.07776007 0.08247397 0.083028145 0.079219475 0.10176712 0.09777027 0.09286022 0.099724546
0.07447992 0.081911884 0.060512662 0.067152 0.050383512 0.04921664 0.11535173 0.12399476
0.06560753 0.066317484 0.11807608 0.12650655 0.12141085 0.117829114 0.07431643 0.075917125
0.10250795 0.103247024 0.103387594 0.102656536 0.093454294 0.08952048 0.059581425 0.057283886
0.040089328 0.04208665 0.043437157 0.043148898 0.08874728 0.09009699 0.08061525 0.085096896
0.08121305 0.07953723 0.09394956 0.095772795 0.09587738 0.103704564 0.071897194 0.072115704
0.08188508 0.077606514 0.07562448 0.076879025 0.06587023 0.06604267 0.11652325 0.11377938
0.043582525 0.045253564 0.086247936 0.088236816 0.07712965 0.079884365 0.07666858 0.0828528
0.09768896 0.10449181 0.05705872 0.057203054 0.06356216 0.06868714 0.12511186 0.122251555
0.042695858 0.04701046 0.038702145 0.042016752 0.051476777 0.04704024 0.076932795 0.09517414
0.12111275 0.12544587 0.109519474 0.11024111 0.107743464 0.106861204 0.06691321 0.07078836
0.09570926 0.09385311 0.1444521 0.14833239 0.12328123 0.12504494 0.13447946 0.13071992
0.085017554 0.08954109 0.08340625 0.08092611 0.121862225 0.1203364 0.12649775 0.12710541
0.09060942 0.09740084 0.10123125 0.09327967 0.061206907 0.060806606 0.07342473 0.07271391
0.13563102 0.11641882 0.12586662 0.12035202 0.080920435 0.079586625 0.1267467 0.10953733
0.100209996 0.09649313 0.19565517 0.18804641 0.106462345 0.102147795 0.08652131 0.08501362
0.12412166 0.113842204 0.13135457 0.12581453 0.08228349 0.08074962 0.1467533 0.12066026
0.046219673 0.04572656 0.08527545 0.071385324 0.09579321 0.08746288 0.052815903 0.056912947

exp_avg f4 [32]
00000000: ab27 173d 83e1 973d 9466 0a3f 6585 80be
00000010: 641c 2ebe f7eb 4b3e ad03 2bbd c56c fdbe
00000020: b8e4 2dbe 0c17 f9bd 00fa bf3e 79a3 363c
00000030: b555 3d3e 74ab 3f3d cb17 b0be cd97 d3be
00000040: 3595 cc3e 6583 cabc 75ea b0be 3673 db3e
00000050: d3b9 0cbf 156a 403e 3ed7 bc3d 806b 923e
00000060: 92fd 8a3e 00e0 143d 78f2 1bba 2106 5ebc
00000070: bb9c aebd 9017 d5bd 637d 6abe e753 0d3e
0.036903065 0.0741606 0.5406277 -0.25101772 -0.17003018 0.19914232 -0.041751552 -0.49497047
-0.1698178 -0.12162599 0.37495422 0.011147373 0.18489726 0.04679437 -0.34393153 -0.41326752
0.39957586 -0.024720857 -0.34553877 0.42861336 -0.54971045 0.18790467 0.09220742 0.2859764
0.27146584 0.036346436 -0.00059489114 -0.013551266 -0.08525988 -0.10404885 -0.22899394 0.13801537

exp_avg_sq f4 [32]
00000000: 75a0 a13f 86f9 b73f 8780 c13f 8dbe ab3f
00000010: 30b0 8f3f b6a0 e73f 16d8 b23f 41da ae3f
00000020: b2af 9f3f c7e7 633f 8c6f ca3f 3fd7 023f
00000030: a2a4 bb3f 49cc fe3e d5c0 e43f a669 d93f
00000040: 3c50 c33f 43fb 943f 08f3 ac3f 5b4c aa3f
00000050: 29a4 e43f 3552 a83f 5946 013f 806a f93f
00000060: adfc 9d3f c277 013f db89 c03f e1b2 d83f
00000070: 819c b43f 0d5e 2c3f 4008 cc3f aa49 9a3f
1.2627093 1.4373024 1.5117348 1.3417526 1.1225643 1.809592 1.3972194 1.3660356
1.2475493 0.8902554 1.5815291 0.5110969 1.4659617 0.49765232 1.7871348 1.6985366
1.525886 1.1639179 1.3511667 1.3304552 1.7862598 1.3150088 0.50497967 1.9485626
1.2342736 0.5057336 1.504207 1.692959 1.4110261 0.6733101 1.5940018 1.205373
