saved_CEBRA_models/nitschke_20090812_20090819_20090910/CEBRA_models/temperature_0.002266666666666667_time_offsets_1_dataset1.pt (torch, 531384 bytes, 31 tensors)

net.0.weight f4 [32, 191, 2]
0	0x3d1cb99e	0.038262956
1	0x3db7cf65	0.08975104
2	0x3c2801b2	0.01025431
3	0x3c2e2979	0.010630005
4	0x3bfdf1e5	0.0077497833
5	0xbd7caefd	-0.06169032
6	0xbcb48f8f	-0.02204111
7	0xbd992712	-0.07478155
8	0x3d0b19eb	0.033960264
9	0x3c3268af	0.010889216
10	0x3b581457	0.0032971108
11	0x3cab9399	0.020944403
12	0x3c15bd9f	0.0091394475
13	0xbc80cc4c	-0.015722416
14	0xbb3626bd	-0.0027794086
15	0xbd19d136	-0.037553035
16	0xbc04a795	-0.008096595
17	0x3c45d2ba	0.012074167
18	0xbd8bde84	-0.06829551
19	0xbd9e5979	-0.07731909
20	0xbc0265c3	-0.007958832
21	0xbb7d955b	-0.003869376
22	0xbbf5b411	-0.007498272
23	0x3d438866	0.0477375
24	0xbb76d32b	-0.0037662487
25	0x3d0142cc	0.031557843
26	0xbc5e23d8	-0.0135583505
27	0xbd50eed7	-0.051009025
28	0xbbfb413b	-0.007667688
29	0x3cd42127	0.025894715
30	0x3c6407e8	0.013917901
31	0x3c456af4	0.012049425
32	0x3db59f31	0.08868254
33	0x3cfac8d5	0.030613342
34	0x3a5d2db1	0.00084372895
35	0xbbaee5c7	-0.00533745
36	0xbcbb8c2a	-0.022893984
37	0x3d82194d	0.06352482
38	0x3d20c00b	0.039245646
39	0x3da02e4a	0.07821329
40	0x3c94f016	0.018180888
41	0xbc3a27f2	-0.011362063
42	0xbc202de6	-0.009776568
43	0x3cfead1a	0.0310884
44	0x3cdb8a11	0.026799234
45	0x3cd32b4a	0.025777478
46	0xbc892c8c	-0.016744874
47	0x3cb2c174	0.021820761
48	0xbc92aecd	-0.017905617
49	0x3b9db0a5	0.0048123174
50	0xbaa4bf5f	-0.001256924
51	0x3c4b4a02	0.012407782
52	0xbc10d075	-0.0088387625
53	0xbd6c4a4d	-0.057688046
54	0xbc24715c	-0.010036793
55	0x3bba9d08	0.005694989
56	0xbdc7cbbd	-0.09755657
57	0xbe0e01d7	-0.1386789
58	0x3cf1dcc3	0.029524213
59	0x3d160977	0.03663012
60	0x3d94faa9	0.07274372
61	0x3dd94a77	0.10609906
62	0x3d24dd0e	0.040249877
63	0xbcee3ea5	-0.029082606
64	0xbcde8bb0	-0.027166218
65	0x3bc3df47	0.0059775445
66	0x3cc3a5fd	0.02388286
67	0x3d7c8198	0.061647028
68	0xbbf1cf9c	-0.0073794853
69	0x3ca286a3	0.01983959
70	0xbb63fbda	-0.0034787566
71	0xbc8327b8	-0.01601015
72	0x3c120190	0.008911505
73	0x3c9a685d	0.018848592
74	0x3d0795d1	0.03310186
75	0x3d0e961f	0.034811135
76	0xbc1c54fd	-0.009541747
77	0x3cc001ba	0.023438323
78	0x3d276405	0.04086687
79	0x3c860377	0.016359074
80	0xbc12cbad	-0.008959693
81	0x3d481b30	0.048854053
82	0xbd12c583	-0.035832893
83	0x3ce9b2df	0.028527675
84	0xbc16b9b4	-0.0091995485
85	0x3c640741	0.013917745
86	0xbd8f6b1d	-0.07002852
87	0x3cb790ea	0.022407968
88	0xbd50aa0b	-0.050943416
89	0x3c624078	0.013809316
90	0x3d90ed7a	0.07076545
91	0xbcdd6911	-0.027027639
92	0xbd021705	-0.031760234
93	0x3cd86403	0.026414877
94	0xbcd4c8ac	-0.025974594
95	0x3cb010fe	0.021492478
96	0x3dd8b2e3	0.10580995
97	0x3d34e385	0.044162292
98	0xbc69b30e	-0.014263881
99	0xbd8d8923	-0.069109224
100	0x3af309c4	0.0018542339
101	0xbc8c65a9	-0.01713832
102	0x3cce1b70	0.025159568
103	0x3ced1b2f	0.028943626
104	0xbbf71fcc	-0.0075416323
105	0xbc311e39	-0.010810428
106	0xbd06269e	-0.032751672
107	0xbd4c791e	-0.049920194
108	0x3d4bbba0	0.04973948
109	0xbd46cba4	-0.04853405
110	0xbc039550	-0.008031204
111	0x3d210811	0.039314333
112	0xbc08d644	-0.008351866
113	0x3ca47d1b	0.020079186
114	0xbcb378a7	-0.021908117
115	0x3c2242b4	0.009903599
116	0x3d441560	0.047871947
117	0x3c978751	0.018497141
118	0xbcb3395f	-0.021877943
119	0xbd816766	-0.0631855
120	0xbc0857b1	-0.0083216885
121	0x3b7a284a	0.0038170987
122	0xbc998fb4	-0.01874528
123	0xbc81cd2e	-0.015844908
124	0xbc3171af	-0.010830327
125	0x3d092d96	0.03349074
126	0x3c0aee5a	0.008479679
127	0x3c314419	0.010819458
128	0x3d23fbf5	0.040035207
129	0xbce4d7e1	-0.02793497
130	0xbc5e0a16	-0.013552209
131	0x3d10bca6	0.03533616
132	0x3d254564	0.04034938
133	0xbd33a164	-0.043855086
134	0xbc4e8c2e	-0.012606664
135	0xbcee5475	-0.029093007
136	0xbba1975b	-0.004931373
137	0xbdd92a85	-0.10603813
138	0x3d038653	0.032110523
139	0x3ccbcd20	0.024878085
140	0x3c95526c	0.018227778
141	0x3bd2f178	0.0064374767
142	0xbca8f6da	-0.02062552
143	0x3d3133f3	0.043262433
144	0xbd12095a	-0.03565345
145	0xbcc0df9b	-0.023544123
146	0x3c3feb1c	0.011713769
147	0x3cabb7b4	0.02096162
148	0xbd01dac2	-0.031702764
149	0x3c871299	0.01648836
150	0x3c367d2e	0.011138244
151	0xbce4fe32	-0.027953241
152	0xbc38a1ca	-0.011269042
153	0x3cc1e88e	0.023670461
154	0x3d1434c2	0.036183126
155	0x3d868ccd	0.06569824
156	0x3c85c815	0.016330758
157	0x3d650b71	0.055919115
158	0x3b50ab71	0.0031840468
159	0x3c4fe52a	0.012688914
160	0x3af0587b	0.0018336916
161	0xba1c088a	-0.00059522
162	0x3d04d91a	0.032433607
163	0x3db0a742	0.08625652
164	0x3da4340f	0.08017742
165	0x3ceb4136	0.028717618
166	0x3b710637	0.0036777386
167	0xbd86b72c	-0.06577906
168	0x3cd8aa43	0.026448375
169	0xbcd45c1a	-0.025922824
170	0x3d19d787	0.03755906
171	0x3c8055ee	0.015665974
172	0xbc5f853a	-0.0136426035
173	0x3d05af08	0.032637626
174	0xbbd46804	-0.006482126
175	0x3d05ad6a	0.032636084
176	0x3d52150b	0.0512896
177	0xbb2368e1	-0.002493434
178	0x3b0a70d9	0.0021124391
179	0x3be3acd1	0.0069480916
180	0xbc9ab688	-0.018885866
181	0x3acd0397	0.0015641329
182	0x3c346698	0.011010788
183	0x3bf0afa0	0.007345155
184	0x3bb6752d	0.0055681677
185	0x3c52af52	0.012859182
186	0x3b252c92	0.0025203568
187	0xbc6f3c19	-0.014601731
188	0x3dcaa858	0.0989539
189	0x3d5ff4b5	0.05467673
190	0x399d6125	0.00030017752
191	0xbd475745	-0.04866721
192	0xbce86b54	-0.02837149
193	0x3aa820c4	0.0012827148
194	0xbd405bf9	-0.046962712
195	0xbc4f871a	-0.012666488
196	0xbc3e2250	-0.01160486
197	0xbdb94931	-0.09047163
198	0x3be7fea3	0.0070799156
199	0x3caf0737	0.021365745
200	0xbcd905a2	-0.026491944
201	0xbd7d6968	-0.0618681
202	0xbb31d02c	-0.0027132137
203	0x3c0b67e2	0.008508654
204	0xbcf662c3	-0.03007639
205	0x3d3e5bd4	0.046474293
206	0xbca33914	-0.019924678
207	0x3ccca12d	0.024979198
208	0x3c9e75c3	0.019343263
209	0xbd19972b	-0.03749768
210	0xbd6013a4	-0.05470623
211	0xbdd73198	-0.10507506
212	0x3d24719b	0.040147405
213	0x3c358600	0.011079311
214	0x3ca10738	0.019656762
215	0xbbf6202c	-0.0075111594
216	0x3c618961	0.013765664
217	0x3c8d6a89	0.017262714
218	0xbd1322cd	-0.03592186
219	0x3b88c730	0.0041741356
220	0xbc4f5bec	-0.012656193
221	0xbd7af5f0	-0.0612697
222	0xbcf1e28a	-0.029526968
223	0x3d395557	0.045247402
224	0xbcb58576	-0.022158366
225	0xbcd2359e	-0.025660332
226	0xbb7141f1	-0.0036812986
227	0x3c9f7d5b	0.019468954
228	0x3d79e830	0.061012447
229	0x3da6fb49	0.081533976
230	0x3bed5c92	0.0072437013
231	0xbce3f6d5	-0.02782766
232	0x3d0f332b	0.034960907
233	0xbd4bce7b	-0.049757462
234	0x3c98704c	0.018608235
235	0xbaad3f52	-0.0013217723
236	0xbcb858d1	-0.022503288
237	0x3caee073	0.02134726
238	0xbc5ccd3a	-0.013476664
239	0xbda79499	-0.0818264
240	0xbd44d969	-0.0480589
241	0xbcdd8574	-0.027041174
242	0x3ce094d6	0.02741472
243	0x3cc7e925	0.024403164
244	0xbc924697	-0.017855925
245	0xbc024096	-0.007949969
246	0xbce62066	-0.02809162
247	0xbd71af6b	-0.059005182
248	0x3af14585	0.0018407559
249	0xbd40ec38	-0.047100276
250	0x3dac4eef	0.08413493
251	0xbc971cfe	-0.018446442
252	0x3cf6b7bf	0.030116914
253	0xbd9ad53e	-0.07560204
254	0x3d2b81f4	0.04187198
255	0x3d96b6bb	0.07359072

net.0.bias f4 [32]
0	0xbd91c0f5	-0.07116882
1	0xbd41e134	-0.04733391
2	0xbc8be37b	-0.017076245
3	0xbc7526ff	-0.014962911
4	0x3d6b67c9	0.057472024
5	0x3cf19c91	0.029493602
6	0xbd707802	-0.0587082
7	0xbb7ef630	-0.0038904063
8	0x3c8ce33b	0.017198196
9	0xbd22d176	-0.03975054
10	0xbb98498a	-0.0046474384
11	0xbc0ff94a	-0.0087874625
12	0x3c9579a2	0.018246476
13	0xbd47a624	-0.04874243
14	0x3cc7c01c	0.024383597
15	0xbc94969c	-0.018138222
16	0x3d4ef661	0.050527934
17	0xbd30c184	-0.0431533
18	0xbcae59c2	-0.021283034
19	0x3d8091b3	0.0627779
20	0xbd11f56c	-0.035634443
21	0x3d1d61c7	0.038423326
22	0x3c72733a	0.01479798
23	0xbcf44e79	-0.029822575
24	0xbd6b6a95	-0.05747469
25	0xbd2ac9dd	-0.041696418
26	0xbd35d3c8	-0.044391423
27	0x3b48351e	0.0030549238
28	0xbcd04204	-0.025422104
29	0x3d2aa80c	0.04166417
30	0xbce09953	-0.02741686
31	0xbc27f325	-0.010250841

net.2.module.0.weight f4 [32, 32, 3]
0	0xbc0c6b64	-0.008570526
1	0x3daaf58d	0.08347616
2	0xbc52bee0	-0.012862891
3	0xbdf1bc53	-0.11803498
4	0x3c958942	0.018253926
5	0x3b6e848f	0.003639493
6	0x3d20c4f3	0.039250325
7	0x3db2ac3b	0.087242566
8	0x3d4af74b	0.049552243
9	0xbdaf5150	-0.08560431
10	0x3cef50d5	0.029213348
11	0x3dacb4ca	0.0843292
12	0x3d8fcd1f	0.070215456
13	0xbc0bb571	-0.008527146
14	0x3c8b1289	0.016976612
15	0xbd1e1304	-0.038592353
16	0x3d4a1bb7	0.049342837
17	0xbd5ac3c5	-0.053409357
18	0xbd874435	-0.06604806
19	0xbd397cc2	-0.045284994
20	0xbd9f3104	-0.07773021
21	0xbe3a49a9	-0.18192162
22	0xbd484fd3	-0.04890425
23	0xbd9e6d28	-0.07735664
24	0xbcbf48c7	-0.023350133
25	0x3d4d60f1	0.05014128
26	0x3c67c4f9	0.014146083
27	0x3e259cd5	0.16173108
28	0xbc5aee31	-0.013362453
29	0xbe1a5616	-0.15071902
30	0xbd670b24	-0.05640711
31	0xbd030c57	-0.03199419
32	0xbca50f0c	-0.020148776
33	0xbda31a4b	-0.07963999
34	0xbdbeaa00	-0.09309769
35	0xbd62f130	-0.055405796
36	0xbd844157	-0.06457775
37	0x3ce5dcd8	0.028059408
38	0xbd8fd4c1	-0.070230015
39	0x3d3cef83	0.046126854
40	0x3d74216f	0.059602197
41	0xbd8c5f3e	-0.068541035
42	0x3cf08481	0.029360058
43	0xbb869841	-0.0041075055
44	0xbcfe003b	-0.03100597
45	0xbcea675a	-0.028613735
46	0xbd2f61ae	-0.042817764
47	0x3bd07713	0.006361851
48	0x3d52408d	0.05133109
49	0x3dc2b1f9	0.09506602
50	0x3e034f6b	0.12823264
51	0xbd9fb084	-0.077973396
52	0x3d1da473	0.03848691
53	0x3da9176a	0.08256419
54	0x3b97e090	0.0046349242
55	0xbdceebc1	-0.1010356
56	0xbdd5789a	-0.104233935
57	0xbd40cb67	-0.04706898
58	0xbd8e3b32	-0.06944884
59	0x3d163b7c	0.036677822
60	0x3db91f97	0.090392284
61	0xbb416c4e	-0.0029514018
62	0xbc42f609	-0.01189948
63	0xbd2837b3	-0.041068744
64	0x3da1787b	0.07884308
65	0x3c71b507	0.014752633
66	0x3db7d446	0.08976035
67	0x3d375bb9	0.044765208
68	0xbd6513a5	-0.055926938
69	0x3dc2ff1a	0.09521313
70	0xbda9795e	-0.08275102
71	0xbc44a3d1	-0.0120019475
72	0x3d91cbbb	0.07118937
73	0xbd7cfe31	-0.061765853
74	0x3d649e50	0.05581504
75	0xbb92b0a8	-0.0044766255
76	0x3d1f12e6	0.038836382
77	0xbd825bf3	-0.06365194
78	0x3c86e7c1	0.01646793
79	0xbd71327f	-0.058886047
80	0xbcab8a15	-0.020939866
81	0x3d04bce4	0.032406703
82	0x3e0b44a1	0.13600399
83	0xbd0e0843	-0.034675848
84	0xbc2abd29	-0.010421076
85	0xbcb4cf5c	-0.022071533
86	0xbc08e33e	-0.00835496
87	0xbca2d5de	-0.01987737
88	0xbcf57326	-0.029962134
89	0xbde52604	-0.111888915
90	0x3c555485	0.013020639
91	0xbd86c252	-0.065800324
92	0xbe0047e2	-0.12527421
93	0x3d4741df	0.048646804
94	0x3db10689	0.086438246
95	0x3dac90c8	0.08426052
96	0xbd54df1c	-0.051970586
97	0x3d9f8b71	0.07790268
98	0x3d6c169a	0.057638742
99	0xbb130574	-0.002243367
100	0x3d27580b	0.04085545
101	0x3d8376e8	0.06419164
102	0xbcf203c5	-0.029542813
103	0x3de214d8	0.11039132
104	0xbd39c6d0	-0.045355618
105	0xbdd419ec	-0.10356507
106	0x3d578a2d	0.05262201
107	0xbcdd611e	-0.027023848
108	0x3d8b98fd	0.068162896
109	0xbd216db0	-0.039411247
110	0xbcb2a918	-0.021809146
111	0x3dbcfa45	0.092274226
112	0xbd6f1f2b	-0.058379333
113	0x3d87d336	0.06632082
114	0xbd4a095f	-0.049325343
115	0x3d1aa602	0.037755974
116	0xbd6bead7	-0.057597008
117	0x3d823db4	0.06359425
118	0xbca07a6e	-0.019589629
119	0xbccea3ec	-0.025224648
120	0x3d3c8aaf	0.046030696
121	0x3c82d49d	0.015970523
122	0xbda1b2a2	-0.078954
123	0xbda1c8e2	-0.078996435
124	0xbd848c1c	-0.06472036
125	0x3da2c2b7	0.07947295
126	0x3df8944e	0.12137662
127	0x3d26d77d	0.04073285
128	0xbcb77479	-0.022394406
129	0xbdbb6fdc	-0.09152195
130	0x3d045832	0.032310672
131	0x3c47721e	0.012173204
132	0x3cfb508c	0.030678056
133	0xbc7bf838	-0.015379004
134	0x3dda83fe	0.10669707
135	0x3de94ec0	0.113919735
136	0xbddb82e7	-0.10718327
137	0x3da6abdb	0.081382476
138	0x3da68d7a	0.08132453
139	0x3d99351c	0.07480833
140	0x3d750e40	0.059828043
141	0x3d940909	0.07228286
142	0xbdcf6947	-0.10127502
143	0x3dacbea6	0.08434801
144	0x3e06d55b	0.13167326
145	0xbd70e3ec	-0.058811113
146	0xbd7e8995	-0.062142927
147	0x3c6b7175	0.014370312
148	0x3c4e543a	0.012593323
149	0x3bb94b38	0.0056547187
150	0xba7c72b8	-0.00096301315
151	0xbd209e48	-0.03921345
152	0xbd1ee01c	-0.038787946
153	0x3d616d50	0.05503589
154	0x3c552c3b	0.013011034
155	0xbdf7c198	-0.12097472
156	0x3dc71a2c	0.09721789
157	0xbc160fa3	-0.0091590015
158	0x3d848e47	0.0647245
159	0xbc851fc8	-0.016250506
160	0x3dc440b3	0.09582653
161	0xbde3fe77	-0.1113252
162	0xbcd42fc1	-0.025901677
163	0x3d61a530	0.055089176
164	0xbdc55764	-0.09635809
165	0xba2c2b85	-0.0006567764
166	0x3d967cae	0.073479995
167	0x3e0d5994	0.13803703
168	0xbc91ff3c	-0.0178219
169	0xbd9fbd56	-0.07799785
170	0x3d777728	0.06041637
171	0x3dad8712	0.08473028
172	0x3d77f541	0.060536627
173	0xbd035c24	-0.032070294
174	0xbd3e9e14	-0.046537474
175	0xbd5f0e00	-0.05445671
176	0x3d88ccd7	0.06679695
177	0x3e05ae95	0.13054879
178	0x3d5528f8	0.052041024
179	0x3d5306fa	0.051520325
180	0xbd933e58	-0.071896255
181	0x3c52bfc7	0.012863106
182	0xbdc225d2	-0.0947987
183	0xbddb22e9	-0.10700018
184	0xbc1890ec	-0.009311896
185	0x3d6cda6c	0.05782549
186	0x3d9a2005	0.075256385
187	0x3da30142	0.07959224
188	0xbd02d422	-0.031940587
189	0x3c93fb34	0.018064119
190	0x3bc3d453	0.0059762388
191	0xbdea7f08	-0.114500105
192	0xbd54ea78	-0.05198142
193	0xbd82cb64	-0.0638645
194	0xbd392578	-0.04520175
195	0x3e02e88c	0.12784022
196	0x3cc01da4	0.023451634
197	0x3ca63496	0.020288747
198	0x3c418386	0.011811143
199	0xbd0e7b68	-0.034785658
200	0xbc9a4dcb	-0.018835923
201	0xbd6e1a12	-0.05813033
202	0x3da9fe5c	0.08300468
203	0xbd972d90	-0.07381737
204	0x3d6ed319	0.058306787
205	0x3e2f5380	0.17121696
206	0x3c27826f	0.010223969
207	0xbe093958	-0.13400781
208	0x3d5ddb55	0.05416425
209	0xbcdd8275	-0.027039746
210	0x3d06cecb	0.032912057
211	0x3e03866e	0.1284425
212	0x3ca12824	0.01967246
213	0xbd0221ae	-0.0317704
214	0x3dee7760	0.11643863
215	0xbd59437d	-0.053042877
216	0x3d6909f6	0.056894265
217	0x3c9f1763	0.019420331
218	0x3d6462af	0.055758175
219	0x3c256551	0.0100949565
220	0x3c098535	0.008393575
221	0x3db8c448	0.09021813
222	0xbd87cbf6	-0.06630699
223	0xbd90744e	-0.07053433
224	0x3ccbc28a	0.024873037
225	0x3d34243f	0.04397988
226	0xbd3a3161	-0.045457248
227	0x3ccca362	0.02498025
228	0x3df9c728	0.12196189
229	0x3d0bfdaf	0.03417748
230	0x3c8ac346	0.016938817
231	0x3ddc127c	0.10745713
232	0xbce9b337	-0.02852784
233	0x3d2b6c4d	0.04185133
234	0xbe215a58	-0.1575712
235	0x3b86b8fa	0.0041114064
236	0xbd69b531	-0.057057563
237	0x3db115ce	0.08646737
238	0x3db60456	0.08887546
239	0x3b804adc	0.003915174
240	0xbcec5308	-0.028848186
241	0x3d75002a	0.05981461
242	0xbca468e6	-0.02006955
243	0xbd70d884	-0.058800235
244	0xbd04215e	-0.032258384
245	0xbd7f6dce	-0.062360577
246	0x3de43282	0.11142446
247	0xbc86bfb6	-0.016448837
248	0x3e08029d	0.13282247
249	0x3d1532db	0.036425453
250	0xbd4d3af5	-0.050105054
251	0xbd7cd422	-0.061725743
252	0xbc86a767	-0.016437246
253	0x3d69ed08	0.057110816
254	0xbd415cdb	-0.047207695
255	0x3beb315f	0.0071775164

net.2.module.0.bias f4 [32]
0	0xbd3fa227	-0.0467855
1	0x3db2a693	0.08723178
2	0xbce87a5c	-0.028378658
3	0x3d863e4a	0.065548494
4	0x3caa8e33	0.020819759
5	0x3ce1458e	0.027498987
6	0xbdb6be58	-0.08923024
7	0x3c992ea3	0.018698996
8	0x3d9c3b34	0.076284796
9	0x3d7e34a5	0.062061924
10	0x3d0708b8	0.0329673
11	0x3db5a4fe	0.088693604
12	0x3db9e754	0.090773255
13	0xbdc795f3	-0.097453974
14	0xbcf73c24	-0.030180044
15	0xbd534d99	-0.051587675
16	0x3d2b4035	0.04180928
17	0xbddc3326	-0.10751943
18	0xbd69dcc2	-0.057095297
19	0x3ccd8f83	0.025092846
20	0x3cc524e7	0.024065448
21	0xbcb2d884	-0.021831758
22	0xbdc9d960	-0.09855914
23	0xbd936ac9	-0.07198102
24	0xbccb9fad	-0.024856413
25	0x3d641951	0.055688206
26	0xbd826b6e	-0.06368147
27	0x3d75944d	0.059955884
28	0x3cd65ce1	0.026167335
29	0xbd81fb1c	-0.063467234
30	0x3d4fb58f	0.050710257
31	0x3d97fe57	0.07421558

net.3.module.0.weight f4 [32, 32, 3]
0	0xbe0c0e48	-0.13677323
1	0xbd70ac2b	-0.058757942
2	0xbd9adc5b	-0.07561561
3	0xbbc310c2	-0.0059529254
4	0xbc4741dc	-0.012161698
5	0xbc908a71	-0.017644139
6	0xb86824c0	-5.5347336e-05
7	0x3d859396	0.065222904
8	0xbe268e6c	-0.16265267
9	0x3d8bef65	0.0683277
10	0x3d484fc0	0.04890418
11	0xbd27a08e	-0.0409246
12	0xbd97a8ce	-0.07405244
13	0xbd2bfb62	-0.041987784
14	0x3dcedc59	0.10100622
15	0x3c99cc44	0.01877416
16	0x3ded8b4c	0.115988344
17	0x3dc145a8	0.09437114
18	0x3d2de65e	0.042456023
19	0x3d85b39b	0.06528398
20	0xbd985c37	-0.074394636
21	0xbd841ed0	-0.064511895
22	0x3cb41733	0.021983718
23	0xbd63cb9c	-0.0556141
24	0x3d9456e7	0.07243138
25	0x3d5de357	0.054171886
26	0xbc02ef7b	-0.007991667
27	0x3d67b028	0.05656448
28	0xbda2a190	-0.07940972
29	0xbda87649	-0.08225686
30	0x3d1ce66e	0.038305692
31	0x3c312b88	0.010813601
32	0xbd9fbb5a	-0.07799406
33	0xbc9671ca	-0.018364806
34	0x3e0039f9	0.12522115
35	0xbd6dc217	-0.058046427
36	0x3d7374b9	0.059437487
37	0xbcf2c4b6	-0.029634815
38	0xbccb833f	-0.024842856
39	0xbe11725b	-0.1420378
40	0xbd180494	-0.03711374
41	0xbdc7b52e	-0.09751354
42	0x3d564511	0.05231196
43	0xbcfc0a72	-0.0307667
44	0x3daa7a4a	0.08324106
45	0xbd15ddf9	-0.036588643
46	0xbd48d54a	-0.049031533
47	0x3cb38a3a	0.021916497
48	0xbda972d2	-0.08273853
49	0xbd4515c6	-0.048116468
50	0x3d3232af	0.043505367
51	0xbe16d00b	-0.147278
52	0x3dbf4de1	0.09341026
53	0x3def17a4	0.11674431
54	0xbdd821ee	-0.105533466
55	0xbd6f38c5	-0.05840375
56	0x3daeba83	0.08531668
57	0x3dc5e657	0.096630745
58	0xbd87e13e	-0.066347584
59	0x3da4eed1	0.08053363
60	0x3da27ce3	0.079339765
61	0x3d99ab94	0.07503429
62	0x3cf36e1a	0.029715586
63	0xbda7a3d7	-0.08185547
64	0x3d1243ce	0.035709195
65	0xbc9405b5	-0.018069128
66	0xbcf4d980	-0.029888868
67	0x3d9d6151	0.07684577
68	0xbd027275	-0.031847436
69	0xbd9e9431	-0.07743109
70	0xbd389e35	-0.045072753
71	0x3b99bf4a	0.004691993
72	0xbda59266	-0.08084564
73	0x3bf0dd0d	0.00735057
74	0x3dc64fb2	0.096831694
75	0xbcde27b9	-0.02711855
76	0xbdbf2b8e	-0.09334479
77	0xbcb5785d	-0.02215212
78	0x3cd76546	0.026293408
79	0xbd97fa88	-0.07420832
80	0xb996271f	-0.00028639377
81	0x3c4f0db5	0.012637545
82	0x3deae477	0.114693575
83	0xbd258d34	-0.040417865
84	0xbd2a006e	-0.041504316
85	0x3de55e07	0.11199575
86	0xbe0881a9	-0.13330711
87	0x3c2577e4	0.010099385
88	0x3d611655	0.054952938
89	0xbd32c264	-0.043642417
90	0x3d80f33c	0.06296393
91	0x3d4ee73a	0.050513484
92	0x3d1a46be	0.03766512
93	0xbd23311d	-0.03984176
94	0x3d23fb3e	0.040034525
95	0xbd19a2b5	-0.037508685
96	0xbde376f0	-0.1110667
97	0x3da53505	0.08066753
98	0xbd802af0	-0.0625819
99	0xbdcb23dd	-0.0991895
100	0x3da6d762	0.0814655
101	0x3cb95923	0.022625512
102	0x3d489c15	0.048976976
103	0xbc9ba47b	-0.018999329
104	0xbd608356	-0.05481275
105	0xbd245da1	-0.040128354
106	0x3c7d7a3e	0.015471039
107	0x3dade65d	0.08491204
108	0x3a20c327	0.00061325956
109	0xbd841ea8	-0.0645116
110	0x3d295967	0.041345026
111	0x3ddffc00	0.10936737
112	0xba5f77db	-0.0008524635
113	0x3c039b53	0.008032638
114	0xbd2d789c	-0.04235135
115	0x3ccdb1ec	0.025109254
116	0xbd6c4636	-0.057684146
117	0x3d848671	0.06470955
118	0xbd31bf83	-0.04339553
119	0xbe0a411a	-0.13501397
120	0x3a0452aa	0.00050477183
121	0xbc0f993f	-0.008764564
122	0x3d1f9e79	0.03896949
123	0xbdbb3faf	-0.09143006
124	0xbddff3cf	-0.10935175
125	0x3d9793e3	0.07401254
126	0x3df1e378	0.11810964
127	0xbc7847d0	-0.01515384
128	0xbd808926	-0.06276159
129	0x3d0e8369	0.03479329
130	0x3d5aaacc	0.05338554
131	0x3c49578a	0.012288937
132	0x3db46051	0.088074334
133	0x3dbfca7b	0.09364792
134	0xbce849ce	-0.028355505
135	0x3cdf2adf	0.027242122
136	0x3d4e5b25	0.05037989
137	0x3d6583b1	0.056033794
138	0x3d788298	0.06067142
139	0x3da745d3	0.08167615
140	0xbd585315	-0.05281361
141	0x3b3f4288	0.0029183943
142	0x3d763339	0.060107443
143	0xbd5f02c6	-0.054446004
144	0xbd27a0c4	-0.040924802
145	0x3b0a575d	0.0021109201
146	0xbce8480d	-0.028354669
147	0x3b6f23ef	0.0036489924
148	0xbda2ef6d	-0.07955823
149	0xbc0968e9	-0.008386829
150	0xbdce3d2c	-0.10070261
151	0xbde83f65	-0.113402165
152	0xbd8717d7	-0.06596344
153	0x3d334491	0.043766562
154	0x3d9b358d	0.075785734
155	0x3a9659ad	0.0011470817
156	0xbdbb2108	-0.091371596
157	0xbbc4dc82	-0.006007732
158	0xba91a88f	-0.0011112856
159	0x3c0a2055	0.00843056
160	0x3dccb35c	0.099951476
161	0xbdf0801b	-0.11743184
162	0xbd084d2e	-0.03327673
163	0x3daf040b	0.08545693
164	0x3c78d217	0.015186808
165	0xbd5e4ebf	-0.054274317
166	0xbd10c3a4	-0.035342827
167	0x3d559293	0.052141737
168	0xbe279308	-0.16364682
169	0x3c1922f0	0.009346709
170	0xbd331f9b	-0.043731313
171	0xbd13b5c4	-0.036062017
172	0xbc5a5ff4	-0.013328541
173	0x3a6b193a	0.00089682976
174	0x3d566a0d	0.05234723
175	0x3b0d7585	0.002158494
176	0x3b05464c	0.002033609
177	0xbc9987b6	-0.01874147
178	0xbdbc5f0a	-0.09197815
179	0xbbb2fc34	-0.005462194
180	0xbe198c07	-0.14994822
181	0x3d65d4ad	0.056111027
182	0x3d55d6c5	0.052206773
183	0xbdbb02e4	-0.09131411
184	0x3c845a08	0.016156211
185	0xbdd7b769	-0.105330296
186	0x3d60ea57	0.054910984
187	0x3da0d4ef	0.07853114
188	0x3bfd12e1	0.007723198
189	0xbd920579	-0.0712995
190	0x3bdc0354	0.006714264
191	0xbda644e6	-0.0811861
192	0x3d0cf7b6	0.034415923
193	0xbcc70144	-0.024292596
194	0x3a0707c7	0.0005151
195	0x3d36f5ed	0.044668127
196	0xbce0a609	-0.027422922
197	0xbdc8db9b	-0.098075114
198	0x3b6bc66c	0.0035976423
199	0xbc9fde7f	-0.019515274
200	0x3d203163	0.0391096
201	0x3d9bba0c	0.07603845
202	0x3c1ec224	0.009689841
203	0xbe2612ce	-0.16218111
204	0x3c635e4c	0.013877463
205	0x3d0056bf	0.031332728
206	0x3d621c1b	0.055202585
207	0xbd95eb9a	-0.07320328
208	0x3d226a3b	0.03965209
209	0x3cb61d91	0.022230895
210	0x3cf8d4c9	0.030374901
211	0x3d47a007	0.0487366
212	0xbda15887	-0.078782134
213	0xbdad4ab9	-0.08461518
214	0x3d6564ec	0.05600445
215	0xbdc9ca92	-0.0985309
216	0x3cd7f892	0.026363645
217	0xbd82f119	-0.06393642
218	0xbe059d87	-0.13048373
219	0xbd2911d1	-0.041276757
220	0x3d24b2a0	0.040209413
221	0x3e2da1f8	0.16956317
222	0x3de16be7	0.11006909
223	0x3daff3ef	0.085914485
224	0xbcecbacb	-0.028897664
225	0x3cc42fab	0.023948511
226	0x3dfdbf96	0.12390058
227	0xbc6bdbc5	-0.014395659
228	0xbdc667a0	-0.09687734
229	0x3d7a260c	0.06107144
230	0x3d4319ea	0.047632135
231	0xbcc47f70	-0.023986548
232	0x3dadb43f	0.08481645
233	0x3a4b1a60	0.00077477656
234	0xbd86f1e8	-0.06589109
235	0x3d33266c	0.043737814
236	0xbcfbac9b	-0.030721953
237	0x3db3bbc6	0.08776049
238	0xbc8c564d	-0.017130995
239	0x3da84b1e	0.082174525
240	0x3d23c25d	0.03998028
241	0xbdadb07a	-0.08480926
242	0xbc99b6aa	-0.018763859
243	0xbe19b4d7	-0.15010391
244	0x3d381d47	0.044949796
245	0xbbe22df0	-0.006902449
246	0xbcf2dc3d	-0.029646033
247	0x3c5f99c8	0.013647504
248	0xbd500968	-0.05079022
249	0x3d398cb6	0.045300208
250	0xbb067c24	-0.002052077
251	0x3d4ea6b7	0.05045196
252	0x3d363e65	0.044493098
253	0xbc82083e	-0.01587307
254	0xbdc3bc96	-0.09557454
255	0x3dac89d7	0.08424728

net.3.module.0.bias f4 [32]
0	0x3dc9a497	0.09845846
1	0xbde24294	-0.11047855
2	0x3ca3cfdc	0.019996576
3	0xbd226d21	-0.039654855
4	0xbc0eea07	-0.008722789
5	0xbd1eb0e5	-0.03874292
6	0x3d56ac6f	0.05241054
7	0x3dbbf31c	0.09177229
8	0xbc473487	-0.01215852
9	0xbd0e7776	-0.034781896
10	0xbc347513	-0.011014241
11	0x3d9e09c0	0.077167034
12	0x3d10b009	0.03532413
13	0xbd5aed19	-0.05344877
14	0x3dbead4a	0.09310396
15	0x3c8a220f	0.016861944
16	0xbda53e50	-0.08068526
17	0xbd7107f6	-0.058845483
18	0x3d997329	0.07492668
19	0xbca1ec5d	-0.019766027
20	0x3d21c443	0.03949381
21	0xbda5b426	-0.08091001
22	0xbda453d8	-0.080238044
23	0xba0378af	-0.00050152367
24	0x3db4bde3	0.088252805
25	0x397bd863	0.00024017836
26	0xbdc3a79a	-0.09553452
27	0x3b62e64c	0.003462213
28	0x3c904187	0.01760937
29	0x3db9a90b	0.090654455
30	0xbd6e96c7	-0.05824926
31	0xbdca3b9f	-0.09874653

net.4.module.0.weight f4 [32, 32, 3]
0	0xbe414467	-0.1887375
1	0x3d8a3b29	0.06749565
2	0x3da55838	0.08073467
3	0xbd1e8c3a	-0.03870795
4	0xbd62cacd	-0.055369187
5	0xbdc404d1	-0.09571231
6	0xbcfe4bf8	-0.031042084
7	0x3dd68dcf	0.104762666
8	0xbda4b164	-0.08041647
9	0x3d618aa3	0.055063855
10	0xbd9fc9fb	-0.078021966
11	0xbdade5c2	-0.084910884
12	0x3af137b9	0.0018403447
13	0x3d8b74a7	0.06809359
14	0x3db816fb	0.08988758
15	0xbbd6d05e	-0.006555601
16	0x3c90189f	0.017589865
17	0xbcb6e37f	-0.022325275
18	0x3d93a488	0.07209116
19	0x3dac0389	0.08399112
20	0xbd87c5a6	-0.06629495
21	0xbdeb9411	-0.11502851
22	0xbcc55947	-0.024090422
23	0xbc92c33a	-0.017915357
24	0xbda8b35b	-0.08237334
25	0xbd6d42ee	-0.057925157
26	0x3c5eda5d	0.013601867
27	0x3e1835a9	0.1486422
28	0x3cfda8dd	0.03096431
29	0xbdb14248	-0.0865522
30	0xbd14335a	-0.036181785
31	0x3ba2fb0a	0.004973774
32	0xbd1ce076	-0.0383
33	0x3d3e687c	0.046486363
34	0x3d93937f	0.07205867
35	0xbc34568a	-0.011006961
36	0x3a9eaaa2	0.0012105296
37	0x3d549638	0.051901072
38	0x3d8d7a38	0.06908077
39	0xbdd70a51	-0.105000146
40	0x3cda7629	0.026667671
41	0x3d67120e	0.056413703
42	0xbdc292f5	-0.09500686
43	0xbd21c6f8	-0.039496392
44	0x3e253e96	0.16137156
45	0x3d6492b7	0.05580398
46	0xbcd77391	-0.026300224
47	0xbd28be43	-0.041197073
48	0xbdb50545	-0.08838896
49	0xbd9beb4d	-0.076132394
50	0x3d46c486	0.048527263
51	0xbe00052c	-0.12501973
52	0x3c6950dc	0.01424047
53	0xbc0d6c89	-0.008631834
54	0xbcffdc41	-0.031232955
55	0xbd9f9b1e	-0.07793258
56	0x3c87c77e	0.016574617
57	0x3d72deee	0.059294634
58	0x3d4b4d54	0.049634293
59	0x3b958327	0.0045627537
60	0xbbdece7f	-0.0067995186
61	0xbda63e1b	-0.081173144
62	0xbdbea70f	-0.09309208
63	0xbb75c1be	-0.0037499513
64	0x3d40492f	0.046944793
65	0x3d775ea4	0.06039299
66	0xbdbb7997	-0.09154051
67	0xbc21c093	-0.009872573
68	0xbda8c296	-0.08240239
69	0x3dd4309c	0.10360834
70	0xbd9d4257	-0.07678669
71	0xbdd6899b	-0.10475465
72	0xbba1cab0	-0.0049374923
73	0xbd78ad84	-0.060712352
74	0x3ccca27b	0.02497982
75	0x3c46ad09	0.012126216
76	0x3da6958b	0.08133992
77	0x3e05b4c3	0.13057236
78	0xbc2a00cd	-0.0103761675
79	0xbdc94d96	-0.098292515
80	0x3be2c354	0.0069202576
81	0xbc950baf	-0.018194048
82	0x3d8fbbd7	0.070182495
83	0xbdbe7a23	-0.093006395
84	0xbdfcef97	-0.12350386
85	0xbd82ba20	-0.06383157
86	0xbd52456f	-0.05133575
87	0x3c949921	0.018139424
88	0x3bd7a0b8	0.0065804385
89	0xbb9ec2a9	-0.0048449826
90	0x3db98cf3	0.09060087
91	0xbd68f77c	-0.056876644
92	0xbd0f0c53	-0.034923863
93	0xbd5e38f5	-0.054253537
94	0x3dc56d48	0.09639984
95	0x3d129791	0.035789076
96	0x3d7da6aa	0.06192652
97	0xbc0153a7	-0.007893479
98	0x3ae9807f	0.0017814784
99	0xbe07abaa	-0.13249078
100	0xbd300579	-0.04297397
101	0xbd885f77	-0.066588335
102	0xbaae5e42	-0.0013303238
103	0x3dc3098f	0.095233075
104	0x3b951f48	0.004550848
105	0xbd3d31bd	-0.046190012
106	0x3af4973b	0.0018660793
107	0xbd3d69dd	-0.046243537
108	0x3d24feca	0.04028205
109	0x3b67658a	0.0035308325
110	0xbcda1d52	-0.02662531
111	0x3ddc8fff	0.107696526
112	0x3d144177	0.036195245
113	0xbd80e3dc	-0.06293461
114	0xbd5273a0	-0.0513798
115	0xbd9b3add	-0.07579587
116	0x3dcd8c2e	0.10036503
117	0xbdab13f9	-0.08353419
118	0x3d9e4b00	0.07729149
119	0x3da25c2f	0.07927739
120	0xbd063878	-0.032768697
121	0x3cc7d8d4	0.024395384
122	0xbd31b9d1	-0.0433901
123	0x3d626287	0.055269744
124	0x3cb75efe	0.022384163
125	0x3e336e05	0.17522438
126	0x3cb45138	0.022011384
127	0xbd9aba8d	-0.07555113
128	0x3c6088a6	0.0137044545
129	0xbc57e83c	-0.013177928
130	0xbcf2e766	-0.029651355
131	0x3d04aa68	0.032389075
132	0xbdbcc09f	-0.09216427
133	0xbdda4bd9	-0.10658998
134	0xbcfb4044	-0.030670293
135	0xbabdb64a	-0.0014473882
136	0xbd8ba7ea	-0.068191364
137	0x3d5c0994	0.053720072
138	0xbc175f1b	-0.0092389835
139	0x3d2941b6	0.041322432
140	0x3d668bd6	0.0562857
141	0xbd17238a	-0.036899127
142	0xbc9fa730	-0.0194889
143	0xbcf9109a	-0.030403424
144	0x3d79cd29	0.06098667
145	0x3cd3ac57	0.025839014
146	0x3d9a52e5	0.07535342
147	0x3cd6c216	0.026215594
148	0x3d2605d1	0.04053289
149	0x3c1c679c	0.009546187
150	0xbd862e2a	-0.06551774
151	0xbcf65bf5	-0.030073145
152	0x3dda6181	0.10663129
153	0xbd4a5e1e	-0.049406163
154	0xbd27ea08	-0.040994674
155	0xbccb8890	-0.024845392
156	0xbdae2519	-0.085031696
157	0xbd78e1b0	-0.060762107
158	0xbd25042b	-0.040287178
159	0x3d244c24	0.040111676
160	0x3e024393	0.1272109
161	0xbd510548	-0.051030427
162	0x3dd415a0	0.10355687
163	0x3ddd5134	0.10806504
164	0x3d975cbb	0.07390734
165	0xbbcb2eac	-0.006200632
166	0x3d321d6e	0.043485098
167	0x3ccad564	0.024759956
168	0x3d4c7a61	0.049921397
169	0xbc66f898	-0.014097355
170	0xbdb5ea9e	-0.0888264
171	0xbd356079	-0.044281457
172	0xbd194502	-0.037419327
173	0xbd70b9b2	-0.058770843
174	0x3de5ffc2	0.112304226
175	0xbdc1952e	-0.09452282
176	0xbdef4fc2	-0.116851345
177	0x3d52fd25	0.05151095
178	0xbe099338	-0.13435066
179	0xbd97c210	-0.07410061
180	0xbcaaabba	-0.020833839
181	0x3e0dbe21	0.1384206
182	0x3ca79629	0.020457344
183	0x3d57d355	0.052691776
184	0x3d1b4d26	0.03791537
185	0x3b7337da	0.0037112148
186	0xbe0ea9cc	-0.1393196
187	0xbdd0bc72	-0.10192193
188	0xbdb49f75	-0.088194765
189	0x3c658b22	0.014010223
190	0x3e057e66	0.13036498
191	0xbc97e453	-0.01854149
192	0xbe0c50ec	-0.13702744
193	0xbdbd329a	-0.09238167
194	0x3c25320a	0.010082731
195	0xbce25dc5	-0.027632603
196	0xbafabc6a	-0.0019129638
197	0xbd857953	-0.065172814
198	0xbc7130ba	-0.01472109
199	0xbdfa87a8	-0.122329056
200	0xbcae31f5	-0.021264056
201	0xbe079a08	-0.13242352
202	0x3dcab958	0.09898633
203	0xbd2f0648	-0.0427306
204	0xbdad4017	-0.0845949
205	0x3da22cd6	0.07918708
206	0x3aa88fb0	0.0012860205
207	0x3db35b09	0.08757598
208	0x3d851ca8	0.06499606
209	0xbb92f863	-0.0044851764
210	0x3d91ed37	0.07125323
211	0xbd48579a	-0.04891167
212	0x3d5975da	0.053090908
213	0xbdf3f7d9	-0.119125076
214	0xbc3477c2	-0.011014881
215	0x3d0b4bc1	0.03400779
216	0x3cdeded3	0.02720586
217	0xbdd36bf2	-0.10323323
218	0xbdc93e1a	-0.09826298
219	0xbdbbdc1b	-0.09172841
220	0xbd3e541f	-0.046466943
221	0x3afc2e62	0.0019239897
222	0x3d5ec3c9	0.054385934
223	0x3c2ad0c2	0.010425748
224	0xbdb05381	-0.08609677
225	0xbdb710a8	-0.08938724
226	0x3db3e1d3	0.08783307
227	0xbd0ec516	-0.034855925
228	0x3d5baa77	0.053629365
229	0x3d1dbddc	0.038511142
230	0x3de00106	0.10937695
231	0x3c7560a9	0.014976659
232	0xbd846e7b	-0.06466385
233	0xbc62f2d9	-0.013851845
234	0xbdf69602	-0.120403305
235	0xbcb8f415	-0.022577325
236	0xbd6df9a6	-0.05809941
237	0x3dbb931f	0.091589205
238	0xbd131e80	-0.03591776
239	0x3d295c19	0.041347597
240	0xbcfc58aa	-0.030803997
241	0x3cbc6137	0.022995574
242	0x3dd87702	0.10569574
243	0xbd9015c9	-0.07035405
244	0x3ddf928c	0.109166235
245	0xbdad215a	-0.08453627
246	0x3dc850f9	0.09781069
247	0x3dec44c6	0.11536555
248	0x3c2d867b	0.010591145
249	0xbcc19b74	-0.023633696
250	0x3ce9477a	0.028476465
251	0xbd9eed4e	-0.07760106
252	0xbd047b4f	-0.03234416
253	0xbd5166b8	-0.05112335
254	0xbd382a43	-0.04496218
255	0x3a933798	0.0011231778

net.4.module.0.bias f4 [32]
0	0x3c423ad0	0.011854842
1	0xbc8526a9	-0.016253786
2	0x3cfbeff2	0.030754063
3	0xbd88a4c4	-0.066720515
4	0xbd7ecdd8	-0.062208027
5	0x3dc4f97c	0.09617898
6	0xbdaf264f	-0.08552229
7	0x3d913598	0.070903
8	0xbcc0c168	-0.023529723
9	0xbd5fb2ea	-0.054613985
10	0xbce777da	-0.028255392
11	0x3c0e9165	0.008701657
12	0xbdd31808	-0.10307318
13	0x3c24c1cd	0.010055971
14	0x3dc2f008	0.095184386
15	0xbd57ef70	-0.05271858
16	0x3d015bcc	0.031581685
17	0x3d6e02b2	0.05810804
18	0x3d15dc38	0.03658697
19	0x3da85711	0.082197316
20	0x3da5c99a	0.08095093
21	0xbd2321fd	-0.039827336
22	0x3da28ec8	0.079373896
23	0xbd8cf340	-0.06882334
24	0x3deff344	0.11716321
25	0x3c6d4b0f	0.014483227
26	0x3ba04d0d	0.0048919977
27	0xbd4ec715	-0.05048283
28	0x3db7c9f4	0.089740664
29	0xbdd98726	-0.10621481
30	0xbc9788ac	-0.018497787
31	0x3be66166	0.007030654

net.5.weight f4 [48, 32, 3]
0	0x3dc868e7	0.097856335
1	0xbd90ad06	-0.070642516
2	0x3cabe410	0.020982772
3	0x39991dc0	0.000292046
4	0xbd28c9cc	-0.041208073
5	0xbdc42909	-0.09578139
6	0xbdc6b8a2	-0.09703185
7	0x3d8a6f8a	0.06759556
8	0x3de91962	0.113817945
9	0x3dd84cfc	0.105615586
10	0xbd0481ab	-0.032350224
11	0xbddba658	-0.10725087
12	0x3e0a23f6	0.1349028
13	0xbe1443e8	-0.14479029
14	0xbdda0650	-0.10645735
15	0xbd40592d	-0.046960045
16	0xbd470b39	-0.048594687
17	0x3c659089	0.014011511
18	0xbdcf1736	-0.10111849
19	0x3d20bb70	0.039241254
20	0xbc9e6116	-0.019333404
21	0x3cd650af	0.02616152
22	0x3c997334	0.018731691
23	0xbced0481	-0.028932812
24	0xbcb49591	-0.022043975
25	0xbcce37e3	-0.025173133
26	0x3d82c02d	0.06384311
27	0xbd08c4a9	-0.033390675
28	0xbc8a10e8	-0.016853765
29	0x3d158ffc	0.036514267
30	0xbdf5d286	-0.12003045
31	0x3dd98784	0.10621551
32	0xbde4f7f1	-0.111801036
33	0x3d92d158	0.071688354
34	0xbdbfa956	-0.0935847
35	0xbd7b0cad	-0.061291385
36	0x3d9f9324	0.07791737
37	0xbde750df	-0.11294722
38	0x3dc498bf	0.095994465
39	0xbd80cc27	-0.06288939
40	0xbc5e3d84	-0.013564471
41	0x3db8f5d0	0.0903126
42	0x3dd889dc	0.105731696
43	0xbd9b4838	-0.07582134
44	0x3be28998	0.006913375
45	0xbe23c985	-0.15994842
46	0xbda2cced	-0.07949243
47	0x3d785e1c	0.060636625
48	0xbd8810f7	-0.06643861
49	0xbd84a504	-0.06476787
50	0x3d101270	0.035173833
51	0xbc216ffa	-0.009853357
52	0x3d851660	0.06498408
53	0xbcc308ea	-0.023807961
54	0xbde303ec	-0.110847324
55	0x3dbe14f1	0.09281338
56	0x38a646a7	7.928657e-05
57	0x3c411668	0.011785127
58	0x3cc0d9f7	0.023541434
59	0xbd6ccfbe	-0.057815306
60	0xbdf74e3b	-0.12075468
61	0x3dce6c01	0.10079194
62	0x3ce11fa2	0.027480904
63	0x3db84694	0.08997837
64	0x3c3f582f	0.011678739
65	0x3d905143	0.070467494
66	0x3d535e84	0.05160381
67	0x3c8dddc0	0.017317653
68	0x3cdc0905	0.02685977
69	0xbdcda717	-0.100416355
70	0x3ca02cb4	0.019552566
71	0xbc98a986	-0.018635523
72	0x3d430876	0.04761549
73	0xbd8dc188	-0.06921679
74	0x3cb16c79	0.02165817
75	0xbd4fb643	-0.050710928
76	0xbd3804a7	-0.04492631
77	0xbd9fa650	-0.077953935
78	0xbbef1c66	-0.0072970865
79	0xbcd0ed07	-0.025503648
80	0xbd8fe622	-0.07026316
81	0x3d1b3b4d	0.03789835
82	0xbcf545a6	-0.029940438
83	0x3d654414	0.055973127
84	0xbbd77a4b	-0.0065758578
85	0x3d1ffb36	0.039057933
86	0xbd7abaeb	-0.061213415
87	0x3dc08d31	0.0940193
88	0xbdbb2ee3	-0.09139802
89	0x3db3a8b1	0.0877241
90	0x3b9d3339	0.004797366
91	0x3ca3f015	0.020011941
92	0x3d051cb8	0.03249809
93	0x3df89d24	0.12139347
94	0x3d483ef3	0.048888158
95	0xbe29271f	-0.1651883
96	0xbc951fac	-0.018203579
97	0x3dacb499	0.08432884
98	0xbd8abc50	-0.06774199
99	0xbe11bf86	-0.14233217
100	0xbdf37f44	-0.11889508
101	0x3df14c46	0.11782126
102	0xbdcc71fb	-0.099826775
103	0xbd09dc42	-0.03365732
104	0x3d537d5b	0.05163322
105	0xbe05aca7	-0.13054143
106	0x3d8cd488	0.068764746
107	0xbd8cd10b	-0.06875809
108	0x3ce31e79	0.027724491
109	0xbcfa5b67	-0.030561162
110	0x3be9ca37	0.0071347016
111	0x3d495e07	0.049161937
112	0x3d2b7085	0.041855354
113	0xbd615d96	-0.05502089
114	0xbdf1eefb	-0.1181316
115	0x3996d587	0.0002876932
116	0x3de4617a	0.11151405
117	0xbd4b7b48	-0.049678117
118	0xbcef185e	-0.029186424
119	0xbcd75282	-0.02628446
120	0xbe206eff	-0.15667342
121	0x3df8bdf0	0.12145603
122	0xbb2f85ff	-0.0026782749
123	0x3d44489c	0.04792081
124	0xbde06d3e	-0.10958336
125	0xbdab0bfb	-0.083518945
126	0xbdb0885e	-0.0861976
127	0xbdbbb36b	-0.09165081
128	0x3d7c8f87	0.061660316
129	0x3d468952	0.048470803
130	0x3d1cef4e	0.038314156
131	0xbd116f21	-0.03550637
132	0x3d35c835	0.044380385
133	0x3ce63127	0.02809961
134	0xbdb6baed	-0.08922372
135	0x3d8a4881	0.0675211
136	0xbc888c3f	-0.016668437
137	0xbcbf8087	-0.023376716
138	0x3dbc3881	0.09190465
139	0xbdaf0269	-0.085453816
140	0x3bb8929c	0.0056327116
141	0xbdff0092	-0.12451281
142	0xbd3d6c56	-0.046245895
143	0xbdad963e	-0.08475922
144	0x3ddeb514	0.10874382
145	0xbd2ab6a2	-0.04167808
146	0x3d763872	0.060112424
147	0x3da40b6e	0.080099925
148	0xbd64d255	-0.05586465
149	0xbdb86a59	-0.09004659
150	0x3d8b328e	0.06796752
151	0xbd8c5687	-0.06852441
152	0xbdfbb4fb	-0.12290379
153	0xbc7abaff	-0.015303372
154	0xbd25a8a1	-0.04044402
155	0x3e090038	0.1337899
156	0x3e0178d5	0.1264375
157	0xbdab88bf	-0.083756916
158	0x3dd9b280	0.10629749
159	0xbd48b86e	-0.04900401
160	0x3d520f61	0.051284198
161	0x3d414f69	0.047194872
162	0xbc542b14	-0.012949724
163	0x3c0f4fcc	0.008747052
164	0x3a2ead13	0.00066633633
165	0xbda53b3a	-0.08067937
166	0x3d05db24	0.032679692
167	0x3c51a4a4	0.012795601
168	0xbb94c92b	-0.0045405827
169	0xbd5ceaa4	-0.05393471
170	0x3d238977	0.03992602
171	0xbb97829d	-0.0046237246
172	0xbd7ff2f6	-0.062487565
173	0x3d1f0b1a	0.038828947
174	0xbcde08e7	-0.027103854
175	0x3cb40e10	0.021979362
176	0xbd3e4c1c	-0.046459302
177	0xbd7e8107	-0.06213477
178	0xbcfde598	-0.030993268
179	0xb9ff7e34	-0.0004873142
180	0xbc24f8a8	-0.01006905
181	0xbc84f7a1	-0.01623136
182	0x3d9d8b80	0.07692623
183	0x3d2d07ae	0.042243652
184	0xbc9163b7	-0.017747743
185	0xbd6feb6f	-0.058574136
186	0x3cd6ceec	0.026221715
187	0xbd40bad5	-0.047053177
188	0xbd27f557	-0.04100546
189	0xbd98e5b8	-0.074656904
190	0x39e1edf7	0.00043092642
191	0x3dad60a4	0.08465698
192	0x3dc2feba	0.095212415
193	0x3c37ee0a	0.0112261865
194	0x3de012bf	0.109410755
195	0xbd8ca2e7	-0.06867009
196	0x3d30352a	0.04301945
197	0x3d07aa59	0.03312144
198	0xbd6eca00	-0.05829811
199	0xbbd9faea	-0.0066522257
200	0x3ca65311	0.020303281
201	0x3dd573d5	0.10422484
202	0xbd8cf147	-0.068819575
203	0xbc99feac	-0.018798195
204	0x3cf147cd	0.029453183
205	0x3db189b5	0.08668844
206	0xbdd73b89	-0.10509402
207	0x3d21f7ee	0.039543085
208	0xbb517daa	-0.003196577
209	0xbccc8c30	-0.02496919
210	0xbcf83c93	-0.030302322
211	0xbcc22e12	-0.023703609
212	0x3b0c6441	0.002142206
213	0x3da61714	0.081098706
214	0x3c90bdb3	0.01766858
215	0x3ccf1e70	0.025283068
216	0xbc984d52	-0.018591557
217	0xbdb571d4	-0.088596016
218	0xbc8dbbfe	-0.017301556
219	0x3d9aca7e	0.075581536
220	0x3d5f478f	0.054511603
221	0xbe139d07	-0.1441537
222	0x3c42f24b	0.011898587
223	0xbb4df7c3	-0.0031428195
224	0xbe3280fc	-0.17432016
225	0x3db8360c	0.089946836
226	0xbd950412	-0.07276167
227	0x3ddca30c	0.10773286
228	0x3c8609db	0.016362121
229	0xbd2f0e42	-0.042738207
230	0x3d4b5ab6	0.049647056
231	0xbccff791	-0.025386604
232	0xbc890551	-0.016726168
233	0x3c67d488	0.0141497925
234	0x3dba4319	0.09094829
235	0x3c415efb	0.01180243
236	0x3c86f0a7	0.016472174
237	0x3de14ea7	0.1100133
238	0x3df1f676	0.11814587
239	0xbdb7d02c	-0.089752525
240	0x3dfbc593	0.12293544
241	0xbd207493	-0.039173674
242	0x3dcd9f16	0.10040109
243	0x3e04f0ed	0.12982531
244	0x3cc7a0a5	0.024368593
245	0xbd47083e	-0.048591845
246	0x3cfe9e36	0.0310813
247	0x3d2cfc7e	0.042232983
248	0x3d2af1ca	0.041734494
249	0x3de4f884	0.11180213
250	0x3d89e64e	0.0673338
251	0x3daf4211	0.08557523
252	0xbd41d37c	-0.047320828
253	0x3da2d68e	0.07951079
254	0xbd125d56	-0.035733543
255	0x3cb991b6	0.022652488

net.5.bias f4 [48]
0	0xbd188ea4	-0.037245408
1	0xbd9a0aa2	-0.07521559
2	0xbd1b052b	-0.037846725
3	0xbd17a36a	-0.03702108
4	0x3d9e2385	0.077216186
5	0x3b922ac8	0.0044606663
6	0xbcc635bc	-0.024195544
7	0x3cd28fac	0.025703274
8	0x3d240293	0.040041517
9	0x3a1cd69d	0.00059829076
10	0xbc80b7b8	-0.015712604
11	0x3c22951b	0.009923245
12	0xbd83893a	-0.06422658
13	0x3c8b8f47	0.017036093
14	0xbc0b5b54	-0.008505661
15	0x3c1e6065	0.009666537
16	0x3c42f8e6	0.011900162
17	0x3c7a9765	0.015294884
18	0xbd5f98d0	-0.054589093
19	0xbdb5c2e6	-0.088750646
20	0x3cb3f64d	0.021968031
21	0xbc9f22cd	-0.019425774
22	0xbd91b721	-0.07115007
23	0xbd4321d7	-0.047639694
24	0x3cbe27f8	0.023212418
25	0xbd1fe333	-0.039035033
26	0xbbb54168	-0.0055314787
27	0xbbbffea0	-0.005859211
28	0x3d4b7b92	0.049678393
29	0x3ca2310f	0.019798784
30	0x3d8ba0d2	0.068177834
31	0xbce5ef96	-0.028068345
32	0x3d3da228	0.046297222
33	0xbcd11aa5	-0.0255254
34	0x3d065b46	0.03280189
35	0xbb21861c	-0.0024646586
36	0xbd2306a5	-0.03980126
37	0xbd5881e8	-0.052858263
38	0x3d86e0e9	0.06585867
39	0x3bc93955	0.0061408677
40	0xbd8cdfef	-0.068786494
41	0x3d44e321	0.04806817
42	0x3d96c0f0	0.07361019
43	0xbcff6202	-0.031174663
44	0xbd3ed543	-0.0465901
45	0xbd4b97d6	-0.04970535
46	0xbd206010	-0.039154112
47	0xbcaf66eb	-0.02141138

exp_avg f4 [32, 191, 2]
0	0xbc0b1e45	-0.008491104
1	0xbc349e8f	-0.011024131
2	0xbd228d8c	-0.03968577
3	0xbd39db18	-0.04537496
4	0xbd313fb1	-0.04327363
5	0xbc6d764f	-0.014493539
6	0xbdcb05fc	-0.09913251
7	0xbdf78e59	-0.120876975
8	0xbd86589f	-0.06559872
9	0xbd8babbd	-0.06819866
10	0xbcfc9339	-0.03083192
11	0xbd38e1bb	-0.04513715
12	0xbd8914ab	-0.06693395
13	0xbd6fcd1e	-0.058545224
14	0xbdd196b6	-0.10233824
15	0xbdc227a7	-0.09480219
16	0xbdd1d590	-0.10245812
17	0xbdd86cc4	-0.105676204
18	0xbdaa3c53	-0.08312287
19	0xbdae7a3d	-0.08519409
20	0xbd9583f4	-0.07300559
21	0xbda1a992	-0.07893671
22	0xbddae5f9	-0.10688395
23	0xbdf7f46a	-0.12107165
24	0xbd923c9e	-0.07140468
25	0xbd8d50e9	-0.06900198
26	0xbdd1567a	-0.10221572
27	0xbdcb19cd	-0.099170305
28	0xbd4f377b	-0.05059002
29	0xbd2f30e1	-0.042771224
30	0xbd547895	-0.05187281
31	0xbd4f5289	-0.05061582
32	0x3c35432d	0.011063379
33	0x3c8a0152	0.016846333
34	0xbdc94583	-0.098277114
35	0xbdfa3e27	-0.12218886
36	0xbdb265eb	-0.087108456
37	0xbdcc8a4a	-0.09987314
38	0xbde4aec2	-0.11166145
39	0xbdeeb08d	-0.11654768
40	0xbc6003f6	-0.013672819
41	0xbcc01104	-0.023445614
42	0xbdad7dfe	-0.08471297
43	0xbdcd7f36	-0.10034029
44	0xbd752236	-0.05984708
45	0xbd98f57c	-0.074686974
46	0xbd99477e	-0.07484339
47	0xbda43366	-0.08017616
48	0xbdae9fc2	-0.08526565
49	0xbda64e2e	-0.0812038
50	0xbd435b86	-0.047694705
51	0xbd538c61	-0.051647548
52	0xbdad8960	-0.08473468
53	0xbd651f65	-0.055938143
54	0xbdbf7d49	-0.09350068
55	0xbdbadeb4	-0.091245085
56	0xbda7b584	-0.08188918
57	0xbdaf382d	-0.085556366
58	0x3c41aa00	0.011820316
59	0x3cd96ea9	0.026542025
60	0xbdc87ecc	-0.097898096
61	0xbdb45076	-0.08804409
62	0xbdec892a	-0.115495995
63	0xbda954db	-0.08268138
64	0xbdaba9ec	-0.083820194
65	0xbdc62adb	-0.09676143
66	0xbd9ec38f	-0.077521436
67	0xbda129b0	-0.078692794
68	0xbcfdf4c8	-0.03100051
69	0xbd3f50df	-0.046707984
70	0xbdc845dd	-0.0977895
71	0xbdb22729	-0.086988755
72	0xbda1529b	-0.07877084
73	0xbda1f2c9	-0.07907636
74	0xbdea1270	-0.11429298
75	0xbe1d4d25	-0.1536146
76	0xbdaa8999	-0.08327026
77	0xbddbf125	-0.10739354
78	0xbdfad9a0	-0.1224854
79	0xbdf6b658	-0.12046498
80	0xbd6aa6ac	-0.057287857
81	0xbd95dce3	-0.073175214
82	0xbd1ab2f9	-0.037768338
83	0xbdd45989	-0.1036864
84	0xbe01eec1	-0.12688734
85	0xbdd5c058	-0.10437077
86	0xbd939350	-0.07205832
87	0xbd903ce7	-0.07042866
88	0xbd28f9cf	-0.04125386
89	0xbd76b3c4	-0.06023003
90	0xbd4acb02	-0.04951001
91	0xbd197cb2	-0.037472434
92	0xbdbdb242	-0.092625156
93	0xbdc7c6de	-0.09754728
94	0xbd5fcfa3	-0.054641377
95	0xbdac8568	-0.08423883
96	0xbdb06688	-0.08613306
97	0xbd9faf9d	-0.077971675
98	0xbdddf9ca	-0.10838659
99	0xbe0bb78f	-0.13644241
100	0xbdf13cd1	-0.11779178
101	0xbdd52128	-0.10406715
102	0xbd59b3e7	-0.053150084
103	0xbd5e67c1	-0.054298166
104	0xbdfe7aab	-0.12425741
105	0xbe01336e	-0.12617275
106	0xbd6f5c2f	-0.058437523
107	0xbd906422	-0.07050349
108	0xbd870755	-0.06593195
109	0xbd9c2995	-0.07625119
110	0xbd2f1a21	-0.042749528
111	0xbdb090ac	-0.08621344
112	0xbe101dbf	-0.14073847
113	0xbe02b229	-0.12763275
114	0xbdd15ef1	-0.10223187
115	0xbdc07931	-0.093981154
116	0xbde03e52	-0.10949387
117	0xbe12f7f0	-0.14352393
118	0xbdb83d94	-0.0899612
119	0xbdc3943d	-0.095497586
120	0xbdc2c630	-0.095104575
121	0xbd20212f	-0.039094146
122	0xbd8d99f8	-0.06914133
123	0xbd4b1781	-0.049582962
124	0xbd714393	-0.058902334
125	0xbd6d9360	-0.058001876
126	0xbd3d4c2c	-0.04621522
127	0xbd641df8	-0.055692643
128	0xbd7f8b93	-0.062388968
129	0xbd89ed35	-0.06734697
130	0xbdde80ad	-0.10864387
131	0xbde410ab	-0.11135992
132	0xbdec8907	-0.115495734
133	0xbdfa784f	-0.12229978
134	0xbdaa7d27	-0.08324652
135	0xbd6bb4ca	-0.05754546
136	0xbd7b82b0	-0.06140393
137	0xbd5c2e4a	-0.053755082
138	0xbd959029	-0.07302887
139	0xbd964999	-0.073382564
140	0xbdca7771	-0.09886063
141	0xbdc9ee2b	-0.0985988
142	0xbde0d2e1	-0.10977722
143	0xbdd26f65	-0.10275153
144	0xbd5b017d	-0.053468216
145	0xbd5f02d6	-0.054446064
146	0xbdc108a3	-0.094254754
147	0xbdc9b005	-0.09848026
148	0xbd9cc743	-0.07655194
149	0xbdd559e4	-0.10417536
150	0xbdc1cec1	-0.09463263
151	0xbdc10025	-0.09423856
152	0xbd1fdc9d	-0.039028753
153	0xbd1655ae	-0.036702804
154	0xbdd3b00f	-0.10336315
155	0xbdbe3749	-0.092878886
156	0xbdb0d1d9	-0.08633775
157	0xbd797fb6	-0.06091281
158	0xbd826d1f	-0.063684694
159	0xbd4603e3	-0.04834355
160	0xbd749889	-0.05971578
161	0xbd8b97c8	-0.06816059
162	0xbd7436e8	-0.059622675
163	0xbda2923a	-0.07938047
164	0xbdd0e38c	-0.10199651
165	0xbd9faf6f	-0.07797133
166	0xbdbdf032	-0.09274329
167	0xbdd81bf6	-0.10552208
168	0xbd879382	-0.06619932
169	0xbd3196ee	-0.04335683
170	0xbd89a2a5	-0.06720475
171	0xbd2eaa69	-0.042642985
172	0xbdc26e38	-0.09493679
173	0xbd6e1440	-0.05812478
174	0xbd0a7963	-0.03380717
175	0xbd4bde06	-0.049772285
176	0xbdad6ad4	-0.084676415
177	0xbd727000	-0.059188843
178	0xbd1c08fa	-0.0380945
179	0xbd3b7d73	-0.045773935
180	0xbd95634f	-0.07294332
181	0xbd5487e5	-0.05188741
182	0xbe4b58c0	-0.19858074
183	0xbe3a1666	-0.18172607
184	0xbd7e8128	-0.06213489
185	0xbce0b30d	-0.027429128
186	0xbd8ef3fc	-0.0698013
187	0xbd978709	-0.07398803
188	0xbd2701e6	-0.040773295
189	0xbd0e35ec	-0.034719393
190	0xbdb51326	-0.08841543
191	0xbdb16d4c	-0.08663425
192	0xbdbfb67c	-0.09360978
193	0xbde33f29	-0.11096031
194	0xbd3b6a58	-0.045755714
195	0xbdcb7580	-0.09934521
196	0xbda7399d	-0.08165286
197	0xbd7159b7	-0.05892345
198	0xbde80c43	-0.11330464
199	0xbdd9641e	-0.10614799
200	0xbd842df8	-0.0645408
201	0xbd83b528	-0.06431037
202	0xbd81424c	-0.06311473
203	0xbdeacce0	-0.11464858
204	0xbd6e305a	-0.05815158
205	0xbd702dc0	-0.05863738
206	0xbd7b39c6	-0.061334394
207	0xbdacaf65	-0.08431891
208	0xbd5d1777	-0.053977456
209	0xbd50fbea	-0.051021494
210	0xbd317aab	-0.043329876
211	0xbd134b9b	-0.035960775
212	0xbdacbfdc	-0.08435032
213	0xbd7ee190	-0.062226832
214	0xbd463798	-0.048392862
215	0xbdaeab61	-0.08528782
216	0xbdc43ae3	-0.09581544
217	0xbdb0655e	-0.08613084
218	0xbd877125	-0.066133775
219	0xbda372bd	-0.07980869
220	0xbcbb6b76	-0.02287839
221	0xbae0d472	-0.0017153157
222	0xbd722432	-0.05911655
223	0xbdc78ebb	-0.097440206
224	0xbd615d56	-0.055020653
225	0xbd5ce78b	-0.053931754
226	0xbd8b0338	-0.06787723
227	0xbdae521b	-0.08511754
228	0xbdc36678	-0.09541029
229	0xbd9093a9	-0.07059414
230	0xbd989acf	-0.074514024
231	0xbd897c1f	-0.06713127
232	0xbd8e5700	-0.06950188
233	0xbd96c233	-0.07361259
234	0xbe209adc	-0.15684074
235	0xbe1794ce	-0.14802858
236	0xbddc9758	-0.10771054
237	0xbdb3ab0d	-0.0877286
238	0xbda89061	-0.08230663
239	0xbdbda7e5	-0.09260539
240	0xbdcb9fb9	-0.09942574
241	0xbdb87b4e	-0.090078935
242	0xbe013e9b	-0.12621538
243	0xbde00db3	-0.10940113
244	0xbd9a1f15	-0.0752546
245	0xbdc65fd0	-0.096862435
246	0xbde2e0a8	-0.11078006
247	0xbd50a424	-0.050937787
248	0xbdb03d81	-0.08605481
249	0xbdd70415	-0.104988255
250	0xbd93eb93	-0.072226666
251	0xbd8840a8	-0.06652957
252	0xbde878b2	-0.11351146
253	0xbda13c2c	-0.07872805
254	0xbd7a2228	-0.06106773
255	0xbd88bea5	-0.066769876
