saved_CEBRA_models/nitschke_20090812_20090819_20090910/CEBRA_models/temperature_0.0005333333333333334_time_offsets_2_dataset1.pt (torch, 531429 bytes, 31 tensors)

net.0.weight f4 [32, 191, 2]
0	0xbd40b5aa	-0.04704825
1	0x3dd3fa5c	0.10350487
2	0x3d1a38dc	0.03765188
3	0xbcc03ff1	-0.02346799
4	0x3ca721ab	0.020401796
5	0xb9aafd93	-0.00032613854
6	0x3b54b633	0.0032457232
7	0xbc3b21f6	-0.011421671
8	0xbd559a8e	-0.052149348
9	0xbc5e160b	-0.01355506
10	0x3d2a16b3	0.041525554
11	0xbcd9d5e1	-0.026591243
12	0xbca405b8	-0.020022258
13	0xbd0d51fc	-0.034502015
14	0x3c86d877	0.01646064
15	0xbd0672d5	-0.032824356
16	0xbc1b142e	-0.00946526
17	0x3c2fb678	0.010724656
18	0x3ba22b55	0.0049490132
19	0xbce809a9	-0.028324919
20	0x3ccd5199	0.025063323
21	0xbbde8cae	-0.0067916727
22	0x3cf2bdd4	0.029631533
23	0xbb911b0d	-0.0044282735
24	0xbd1b390a	-0.037896194
25	0xbb0a6300	-0.0021116138
26	0x3da761f0	0.08172977
27	0x3d61976b	0.055076044
28	0xbb8c08ec	-0.0042735245
29	0xbc8fded6	-0.017562311
30	0x3d07f320	0.033190846
31	0xbcd96a45	-0.026539931
32	0x3d963f9c	0.07336351
33	0x3ddcb107	0.10775953
34	0xbbd1f2d7	-0.0064071226
35	0xbc41c575	-0.011826863
36	0x3d7eeb65	0.06223621
37	0x3c9f58e8	0.019451573
38	0xbc841458	-0.016122982
39	0x3cc6b21e	0.024254855
40	0x3cdc0204	0.02685643
41	0xbd05356a	-0.032521643
42	0x3c6fb1aa	0.014629761
43	0x3d5f0136	0.054444514
44	0x3bd6e94f	0.0065585743
45	0xbae8432b	-0.0017720213
46	0x3b26423c	0.0025369069
47	0xbca352fe	-0.019937035
48	0xbd56389f	-0.05230009
49	0xbd92de11	-0.07171262
50	0x3c461ee3	0.012092325
51	0x3ca36292	0.019944463
52	0xbb3acc3f	-0.0028503088
53	0x3b3a7cea	0.0028455802
54	0xbd416194	-0.0472122
55	0x3c825332	0.015908811
56	0xbc815435	-0.015787223
57	0x3caf5c92	0.021406446
58	0xbd1edc3d	-0.038784254
59	0x3d6d4569	0.057927523
60	0x3d3ca35c	0.04605423
61	0x3d39828c	0.045290515
62	0xbc8211de	-0.01587766
63	0x3cae0a24	0.02124507
64	0xbc270e99	-0.010196351
65	0x3b85ba18	0.004081022
66	0x3d050528	0.03247562
67	0xbccdda73	-0.025128579
68	0x3d41d2f2	0.047320314
69	0xbd24ac67	-0.04020348
70	0x3d125dca	0.035733975
71	0x3d37c9f8	0.044870347
72	0x3ce61c68	0.028089717
73	0xbccbac74	-0.024862505
74	0x3b788e2a	0.0037926533
75	0xbc21fc98	-0.009886883
76	0xbd2dd0cf	-0.042435464
77	0x3cc4409d	0.023956591
78	0xbc97ea61	-0.018544378
79	0xbd1e3391	-0.038623396
80	0xbc835d14	-0.016035594
81	0x3c4c6821	0.012475998
82	0x3ba075c6	0.004896852
83	0x3cd555ab	0.026041826
84	0x3c20a6bd	0.0098053785
85	0xbc894c5e	-0.016760048
86	0x3c613d8b	0.013747583
87	0xbd112337	-0.035433974
88	0xbd88e11f	-0.066835634
89	0xbcfa4629	-0.030551033
90	0x3d0c6664	0.034277335
91	0x3c9567cb	0.018237969
92	0xbc311d0d	-0.010810149
93	0xbc933ddc	-0.017973833
94	0xbce1ae25	-0.027548859
95	0x3d1db90e	0.03850656
96	0x3cf14f7d	0.029456848
97	0x3d094932	0.03351707
98	0x3d362ac9	0.044474397
99	0x3c64c600	0.0139632225
100	0x3cb64e30	0.02225408
101	0x3d07d7bd	0.03316473
102	0x39d89715	0.00041311295
103	0xbc9a6b8d	-0.018850112
104	0x3ba0d7bc	0.00490853
105	0xbd43b625	-0.04778113
106	0x3d324e9c	0.043532
107	0xbd5a743a	-0.0533335
108	0x3d0466f6	0.032324754
109	0x3c0c6009	0.008567818
110	0xbd9935e0	-0.07480979
111	0xbcef1c5f	-0.029188333
112	0x3d9bca90	0.07606995
113	0x3be6d5a7	0.0070445123
114	0xbb031bc8	-0.0020005573
115	0xbd190aa9	-0.037363682
116	0xbcb1a63d	-0.021685714
117	0xbb7369da	-0.003714195
118	0x3d423f2e	0.047423534
119	0xba202158	-0.0006108484
120	0x3c4428b1	0.011972592
121	0x3a766554	0.00093992543
122	0x3bd179de	0.0063927015
123	0xbd54981f	-0.051902886
124	0x3d3a58f2	0.04549498
125	0x3d900519	0.07032222
126	0x3d58a047	0.052887227
127	0xbd62531a	-0.055255033
128	0xbc8ba8c6	-0.01704825
129	0x3ce2d189	0.027687805
130	0x3ca940c5	0.020660767
131	0x3bb7a563	0.0056044324
132	0xbd3354a2	-0.043781884
133	0x3d012859	0.03153262
134	0xbbb62759	-0.00555889
135	0xba5484ed	-0.00081069657
136	0xbd9b53c9	-0.0758434
137	0xbd5cb636	-0.053884707
138	0xbd87b038	-0.06625408
139	0x3c2b8227	0.010468042
140	0xbd4dfd0a	-0.050290145
141	0xbd615913	-0.05501659
142	0xbd248449	-0.04016522
143	0x3c331418	0.010930084
144	0xbcbc6114	-0.02299551
145	0xbd16d16b	-0.03682081
146	0xbd17afef	-0.037033018
147	0xbc09aac9	-0.008402535
148	0x3c97428b	0.018464347
149	0xba006f9d	-0.0004899444
150	0x3d83605d	0.06414864
151	0xbaaae2e5	-0.001303759
152	0xbbb032b9	-0.0053771404
153	0xb9056f44	-0.00012725318
154	0xbd833fe8	-0.064086735
155	0x3c084132	0.008316325
156	0xbc1ba1bb	-0.009499009
157	0xbc513f21	-0.012771399
158	0xbc35be3a	-0.011092717
159	0x3cbcd6a5	0.02305157
160	0x3a7ff25d	0.0009763593
161	0x3cc6588d	0.024212146
162	0x3c00708d	0.007839334
163	0xbc2d31f1	-0.010570989
164	0xbc0d41bb	-0.008621628
165	0x3c857dd9	0.01629536
166	0xbd515138	-0.051102847
167	0x3c1ce5ef	0.009576305
168	0xbb45ef71	-0.0030202533
169	0xbd759bfb	-0.059963208
170	0x3d582edd	0.052779067
171	0x3d3fbc14	0.046810225
172	0x3c87e665	0.016589353
173	0xbb0d3cdc	-0.0021551168
174	0x392be9ba	0.00016394901
175	0x3d834e76	0.064114496
176	0x3c812c1d	0.015768105
177	0xbc7ef8d8	-0.015562259
178	0xbce497a8	-0.027904347
179	0x3c994ba1	0.01871282
180	0xbcba7e20	-0.02276522
181	0x3cb3656e	0.021898951
182	0xbd8077c9	-0.06272847
183	0x3c82f27b	0.015984764
184	0x3d6137ba	0.054984786
185	0x3c8f835f	0.017518697
186	0xbc76db70	-0.015066966
187	0xbce9ccc5	-0.028540025
188	0xbd388790	-0.045051157
189	0x3d340f08	0.043959647
190	0xbb875e4f	-0.0041311155
191	0xbd4b1dfe	-0.04958915
192	0x3daa2afa	0.083089784
193	0xbd397aea	-0.045283236
194	0xbb8d28d2	-0.0043078447
195	0x3d384aa9	0.044993076
196	0xbd2cbf9c	-0.04217492
197	0xbc3d0620	-0.011537105
198	0x3a402a65	0.0007330536
199	0x3d811b64	0.063040525
200	0x3d4bacad	0.049725223
201	0xbba89378	-0.005144533
202	0x3d957483	0.072976135
203	0xbc24918f	-0.0100444695
204	0xbbe9ecb7	-0.0071388143
205	0x3b568483	0.0032732792
206	0x3d106138	0.035248965
207	0xbd01c7aa	-0.031684555
208	0x3ab49e46	0.0013780079
209	0xbcc9a3cd	-0.02461424
210	0xbb45f787	-0.0030207352
211	0x3cac3feb	0.021026572
212	0x3d1b567f	0.037924286
213	0xbb8ab1f5	-0.00423264
214	0x3d3945b0	0.045232475
215	0xbd116279	-0.0354943
216	0x3cbd9430	0.02314195
217	0xbccfa237	-0.025345905
218	0xbc66db7a	-0.014090413
219	0xbce11845	-0.027477393
220	0x3d61c535	0.055119712
221	0xbc942dd2	-0.018088255
222	0x3d08bdf8	0.033384293
223	0x3b1fc616	0.0024379543
224	0x3ce43477	0.027857048
225	0xbd535d28	-0.051602513
226	0xbb306eb7	-0.002692146
227	0x3c29fd15	0.010375281
228	0x3d7bdaf1	0.061488096
229	0x3c97b7f5	0.018520335
230	0x3ca81e0e	0.020522144
231	0x3b947ded	0.004531613
232	0xbba887c0	-0.005143136
233	0x3c9564ca	0.018236537
234	0xbd09be1f	-0.03362858
235	0x3cdd8edf	0.027045665
236	0x3d58188d	0.05275779
237	0x3c70b86c	0.014692407
238	0x3b0b008b	0.002121004
239	0x3d828407	0.063728385
240	0xbc044b21	-0.008074553
241	0x3cf7e7fe	0.03026199
242	0x3cb753f9	0.022378908
243	0x3c8e7c7d	0.017393345
244	0x3c1fbac6	0.00974912
245	0xbd123d57	-0.03570303
246	0xbd1da267	-0.038484957
247	0x3ac52ba7	0.0015042917
248	0x3bd55ecc	0.006511545
249	0x3d6282d6	0.055300556
250	0x3cb23e2a	0.021758158
251	0xbd30dc68	-0.043178946
252	0xbd248340	-0.040164232
253	0x3b29f0b2	0.002593082
254	0xbd2a7406	-0.041614555
255	0xbd7fdc88	-0.062466174

net.0.bias f4 [32]
0	0xbc9a101a	-0.018806506
1	0x3cc554fb	0.024088373
2	0x3ce8513c	0.028359048
3	0xbda8c5f1	-0.08240879
4	0xbc05bb66	-0.008162355
5	0x3b8d1670	0.0043056533
6	0xbc329338	-0.0108993575
7	0x3c867e68	0.016417697
8	0xbbc35f8d	-0.0059623183
9	0x3cbd0d8b	0.023077747
10	0x3d5c8f32	0.0538475
11	0xb9d6c486	-0.00040963682
12	0xbc1943f5	-0.009354581
13	0x3c4c88a4	0.01248375
14	0x3c54fc62	0.012999626
15	0xbd81dc52	-0.06340851
16	0xbcc4a177	-0.024002774
17	0xbd11002e	-0.035400562
18	0xbc07c7c7	-0.008287377
19	0xbd261614	-0.0405484
20	0xbd233d66	-0.039853476
21	0xbb537b96	-0.0032269708
22	0xbd4e4739	-0.050360892
23	0x3d375f72	0.044768758
24	0x3b3a8350	0.0028459616
25	0xbc8bb17b	-0.017052403
26	0xbb95c308	-0.0045703687
27	0x3cf642f4	0.030061223
28	0xbd48bea6	-0.04900994
29	0x39504747	0.00019862979
30	0xbcbfaaa9	-0.023396807
31	0x3b9baa8e	0.0047505563

net.2.module.0.weight f4 [32, 32, 3]
0	0xbd9b7762	-0.0759113
1	0xbde96500	-0.11396217
2	0x3d6d19eb	0.057886045
3	0x3e1bebc7	0.1522666
4	0x3c8ea5ff	0.017413137
5	0x3d3e6814	0.046485975
6	0xbc7c3f1e	-0.015395908
7	0x3c493fea	0.012283305
8	0xbe113952	-0.14182022
9	0xbc300096	-0.010742327
10	0x3c026fff	0.007961272
11	0xbd32d883	-0.043663513
12	0x3c651341	0.013981641
13	0x3d7ff46d	0.062488962
14	0x3cc1b8c0	0.023647666
15	0xbc121df1	-0.008918271
16	0xbba727ef	-0.005101196
17	0x3dd5ce55	0.10439745
18	0xbc09e08e	-0.008415354
19	0xbcbe79d1	-0.023251446
20	0xbe25b01a	-0.16180459
21	0x3a2a1889	0.00064886414
22	0x3d4f28b3	0.050575923
23	0x3d4da351	0.05020458
24	0xbcffc197	-0.03122024
25	0xbdc9f987	-0.09862047
26	0xbda927b0	-0.08259523
27	0x3d252484	0.040318027
28	0x3c3030e1	0.010753841
29	0xbd2941f8	-0.04132268
30	0x3dacb878	0.08433622
31	0x3df00c1b	0.11721059
32	0x3cb093f7	0.02155493
33	0x3a15f0b9	0.00057197694
34	0xbd7e6715	-0.062110025
35	0x3d36f2b1	0.044665042
36	0x3ccb1f73	0.02479527
37	0xbdb01f1c	-0.08599684
38	0xbc209be5	-0.009802793
39	0x3d35f9d1	0.044427697
40	0x3dd762a3	0.1051686
41	0xbd4582fa	-0.048220612
42	0xbcfef029	-0.031120377
43	0x3dba83cf	0.09107172
44	0xbdc3c53e	-0.09559105
45	0x3c6ea8f8	0.0145666525
46	0xbd590b48	-0.052989274
47	0x3d02f2d7	0.03196987
48	0x3d3e8fcc	0.046523854
49	0xbd7f5752	-0.062339135
50	0xbd47f2c8	-0.04881552
51	0x3d8d76a7	0.06907397
52	0x3d3f75ec	0.04674332
53	0xbae7d1b9	-0.0017686404
54	0xbdc00860	-0.093765974
55	0xbddb0b3a	-0.10695501
56	0xbd9e77ce	-0.07737695
57	0xbdb8010e	-0.08984576
58	0xbd20eb30	-0.039286792
59	0x3e09532c	0.13410634
60	0xbdd9343f	-0.10605668
61	0x3cb7180f	0.02235034
62	0xbd851131	-0.064974196
63	0xbe1cbf2b	-0.153073
64	0xbd18dce7	-0.037320044
65	0x3d9bf1ed	0.07614503
66	0xbda4058d	-0.08008871
67	0xbdfa90cb	-0.12234648
68	0xbc9137b0	-0.01772675
69	0x3caf93e2	0.02143282
70	0xbcfa145a	-0.030527283
71	0x3d27100f	0.0407868
72	0xbd4c7cf0	-0.049923837
73	0xbd94312b	-0.072359405
74	0xbe05ab5b	-0.13053648
75	0xbca7d767	-0.020488454
76	0xbd9ff6e5	-0.07810763
77	0xbdcc77d6	-0.099837944
78	0x3d8207ce	0.06349145
79	0xbd2178e1	-0.03942192
80	0x3c2f622c	0.010704558
81	0x3d0e876c	0.034797117
82	0x3cdc8d5b	0.026922872
83	0x3c3ba6a7	0.011453307
84	0xbd8ecf21	-0.069731005
85	0x3db03755	0.08604304
86	0x3b9c44d1	0.0047689457
87	0x3d82422c	0.063602775
88	0xbd8a599a	-0.067553714
89	0xbd9d1de0	-0.07671714
90	0x3d9b0371	0.07569016
91	0xbdce953f	-0.1008706
92	0x3d913dcc	0.07091865
93	0x3d471142	0.048600443
94	0x3bc71edd	0.0060766772
95	0xbdb3df64	-0.08782843
96	0xbd4182bb	-0.047243815
97	0x3c99b808	0.01876451
98	0xbd9361e1	-0.07196403
99	0x3dea1516	0.11429803
100	0xbdb736e7	-0.08946019
101	0x3ddbd622	0.10734202
102	0x3d92cbc5	0.07167772
103	0x3cbfc11f	0.023407517
104	0xbe08790d	-0.13327427
105	0x3a39e1a1	0.0007090811
106	0xbd421932	-0.04738731
107	0x3d666e63	0.056257617
108	0xbd8590ef	-0.065217845
109	0xbd14c513	-0.036320757
110	0x3c969e7b	0.018386116
111	0xbd28e1d1	-0.04123098
112	0x3ce1e1bf	0.027573464
113	0xbda65c0e	-0.08123027
114	0x3de1f2c3	0.11032631
115	0xbdc39360	-0.09549594
116	0xbde8beda	-0.11364527
117	0x3dca67c1	0.09883071
118	0xbd42b1d5	-0.047532875
119	0xbcaec177	-0.021332486
120	0x3d28d9b8	0.041223258
121	0x3dfc0941	0.123064525
122	0x3d84e4ae	0.0648893
123	0xbd721550	-0.059102356
124	0xbc19ae1e	-0.009379892
125	0xbbec4c2b	-0.0072112284
126	0x3d64ddb0	0.05587548
127	0xbae5cb8f	-0.0017531979
128	0xbd336603	-0.043798458
129	0xbd8019f8	-0.06254953
130	0xbd549fb9	-0.051910136
131	0xbd4d3256	-0.050096832
132	0xbde15063	-0.11001661
133	0xbb9ffc52	-0.004882374
134	0xbb434c81	-0.0029800239
135	0x3d31a14e	0.043366723
136	0x3dbaa82e	0.09114109
137	0xbd48cc60	-0.049023032
138	0xbe002b76	-0.12516579
139	0x3d61be0c	0.055112883
140	0xbb128d52	-0.0022362066
141	0xbdea6866	-0.11445694
142	0xbd235a21	-0.039880875
143	0x3dd1a246	0.10236029
144	0x3da6395a	0.08116408
145	0x3d25ff49	0.040526662
146	0x3d59ee4b	0.05320577
147	0xbd334a56	-0.043772064
148	0xbce21c0c	-0.027601264
149	0x3d43c08d	0.047791053
150	0xbd9962b2	-0.07489528
151	0xbd7787c6	-0.060432218
152	0x3cd41d4c	0.025892876
153	0x3d4bd90e	0.049767546
154	0x3d9dd49b	0.07706567
155	0xbdea83a3	-0.11450889
156	0x3d0066ec	0.031348154
157	0xbdb632b3	-0.08896389
158	0xbe0d3688	-0.13790333
159	0x3d8c2679	0.068432756
160	0xbdbbbe5d	-0.09167168
161	0x3d112b40	0.035441637
162	0x3cad6e30	0.021170706
163	0x3d2cac8c	0.04215674
164	0x3dbc7da0	0.092036486
165	0x3d62ddcf	0.055387314
166	0xbdcf4ea9	-0.10122425
167	0x3d838fcd	0.06423912
168	0xbd967896	-0.07347219
169	0x3c26883f	0.01016432
170	0xbb623ded	-0.0034521774
171	0xbc73301c	-0.014843013
172	0x3d99adbd	0.07503841
173	0x3bb28e3d	0.005449085
174	0x3cac892d	0.021061504
175	0x3d135ad4	0.035975292
176	0xbdb596b3	-0.08866634
177	0xbd7cce27	-0.06172004
178	0x3bd25b43	0.0064195707
179	0xbdfa64b3	-0.12226238
180	0xbdd6c85a	-0.10487433
181	0xbd75aa6d	-0.059976984
182	0x3c4481be	0.011993824
183	0x3adeec92	0.0017007759
184	0x3dc61812	0.0967256
185	0xbe0c1b3b	-0.13682263
186	0xbdb3b01d	-0.08773825
187	0xbd3ed4ae	-0.046589546
188	0x3dbb3877	0.09141629
189	0xbd40aa94	-0.047037676
190	0xbd9e3779	-0.07725424
191	0x3d472a59	0.04862437
192	0xbd62eb3b	-0.055400115
193	0xbd931aa3	-0.07182815
194	0x3d1d235c	0.0383638
195	0xbd863107	-0.0655232
196	0xbd8c1bbc	-0.068412274
197	0xbcfe6c0c	-0.03105738
198	0xbd6b77ed	-0.057487417
199	0xbdaebba3	-0.085318826
200	0x3d549ce1	0.051907424
201	0xbc741d4b	-0.014899562
202	0xbdf423ca	-0.11920889
203	0xbdceeff5	-0.10104362
204	0xbc8b8dce	-0.017035391
205	0x3d04707b	0.032333832
206	0x3cd336c0	0.025782943
207	0x3e25143a	0.16120997
208	0xbd709196	-0.05873259
209	0xbd7379cd	-0.05944233
210	0xbcbbe7f9	-0.022937762
211	0xbe0021ca	-0.1251289
212	0xbd91ce23	-0.071193956
213	0x3d7a9fd9	0.0611876
214	0x3c8ad94e	0.016949322
215	0x3dc6f4e8	0.09714681
216	0xbd74ddac	-0.059781715
217	0x3d8805e7	0.06641751
218	0x3d7d972f	0.061911758
219	0x3e069ab1	0.13144948
220	0xbd10e5bb	-0.035375338
221	0x3d8c016c	0.06836209
222	0x3a4a5bc7	0.00077193644
223	0xbd2ed126	-0.04267993
224	0x3c0c09d5	0.008547266
225	0xbde0c514	-0.1097509
226	0x3c3d3e84	0.011550549
227	0xbdb1e5ce	-0.0868641
228	0xbc1a16c6	-0.009404844
229	0xbd393dbb	-0.045224886
230	0xbda64e55	-0.081204094
231	0xbdb13608	-0.08652884
232	0xbde6e966	-0.11274986
233	0x3dbd47cd	0.092422105
234	0xbdc18146	-0.09448485
235	0x3bfe2d8e	0.0077568954
236	0x3d95c833	0.073135756
237	0xbcae175c	-0.021251373
238	0x3d4d57f0	0.05013269
239	0x3dab8be3	0.08376291
240	0xbd5f6189	-0.054536376
241	0xbcf8bdcd	-0.030363942
242	0x3d6c9eb4	0.05776854
243	0x3dbfd7b4	0.09367314
244	0x3d259b72	0.040431447
245	0x3d3d2e7a	0.0461869
246	0x3d084d3a	0.033276774
247	0x3d90e785	0.07075409
248	0xbdca32be	-0.098729596
249	0x3dd804d0	0.10547793
250	0x3d246a26	0.040140294
251	0xbdc2e280	-0.09515858
252	0xbd9c15e7	-0.07621365
253	0x3aaee9b4	0.0013344795
254	0x3d9f5707	0.07780271
255	0xbc83ea02	-0.016102795

net.2.module.0.bias f4 [32]
0	0x3c2ed0b4	0.010669876
1	0xbb82b0c5	-0.0039883577
2	0x3d1f7e8c	0.038939044
3	0x3d581677	0.0527558
4	0xbca148f4	-0.019688107
5	0x3d052621	0.032507066
6	0xba7b647f	-0.0009589865
7	0x3dade4f6	0.084909365
8	0x3da0982e	0.07841526
9	0xbda85777	-0.082198076
10	0xbd66b0f9	-0.056321118
11	0xbd6afed6	-0.057371937
12	0x3d9c8978	0.076434076
13	0xbd2e6161	-0.042573337
14	0xbdc96330	-0.09833372
15	0x3c014931	0.007890985
16	0xbd3570f7	-0.044297185
17	0xbd67bb28	-0.05657497
18	0x3dcd6ed2	0.10030903
19	0x3bfaf655	0.0076587596
20	0xbd914194	-0.07092586
21	0x3d66fa79	0.056391213
22	0x3cce7243	0.025200969
23	0x3d81403c	0.0631108
24	0x3b16eb5d	0.002302847
25	0x3d4e917b	0.05043171
26	0xbafdb808	-0.0019357214
27	0xbd4632f7	-0.048388448
28	0x3d474573	0.048650216
29	0x3dbbee24	0.09176281
30	0xbb30d8ca	-0.0026984685
31	0xbcd6a7b0	-0.026203007

net.3.module.0.weight f4 [32, 32, 3]
0	0x3d35fbb8	0.04442951
1	0x3d9dd4d9	0.07706613
2	0xbd84182a	-0.064499214
3	0xbbcd538f	-0.0062660645
4	0xba114163	-0.00055410544
5	0xbc4aa04b	-0.012367318
6	0xbd75121c	-0.059831724
7	0xbda131ad	-0.07870803
8	0x3d65f741	0.056144003
9	0x3ca630f6	0.020287018
10	0x3d890048	0.06689507
11	0xbd21cfa4	-0.039504662
12	0x3aee7722	0.0018193463
13	0xbcf48d5c	-0.029852562
14	0xbe06c9e7	-0.13162957
15	0x3d66fee1	0.056395415
16	0xbc1a122e	-0.009403748
17	0xbdfd4e68	-0.123684704
18	0x3b5e2f50	0.0033902712
19	0xbdd9ba54	-0.106312424
20	0xbdb572bf	-0.08859777
21	0x3b71a1d8	0.0036870148
22	0x3d8b2afe	0.067953095
23	0x3df23c08	0.11827856
24	0x3d3598c8	0.044335157
25	0x3d25acb8	0.04044792
26	0xbd0907c2	-0.033454664
27	0x3d0502ea	0.032473482
28	0x3d8aaf18	0.06771678
29	0x3d881ea2	0.06646468
30	0x3b1e4593	0.0024150356
31	0xbd7965be	-0.060888045
32	0xbd9bc532	-0.076059714
33	0x3d47fb56	0.048823677
34	0x3ccee0d2	0.025253687
35	0x3d32e2a0	0.043673158
36	0x3db2f64f	0.08738386
37	0x3c2fbbc2	0.010725917
38	0x3bc1c98b	0.0059139184
39	0x3db8ddc9	0.09026677
40	0x3d1914e5	0.037373442
41	0x3b6eac3e	0.0036418582
42	0xbd13843d	-0.036014784
43	0xbdd8267b	-0.105542146
44	0xbd91a375	-0.07111255
45	0xbde6381f	-0.11241173
46	0x3ca5f9b7	0.020260675
47	0x3d0a0033	0.033691596
48	0xbd6313a2	-0.055438645
49	0xbd8d65ed	-0.069042064
50	0xbd606949	-0.054787908
51	0xbd950f3d	-0.07278297
52	0x3db22427	0.08698302
53	0x3c49f3d0	0.012326196
54	0x3cadded2	0.021224413
55	0x3c06dbbb	0.008231099
56	0xbe078b53	-0.13236742
57	0x3db75dcd	0.08953438
58	0x3d1ed16b	0.038773935
59	0x3d9bb523	0.076029085
60	0x3ccbee91	0.02489403
61	0x3daf0397	0.085456066
62	0xbde129cb	-0.109942995
63	0xbd45a486	-0.048252605
64	0x3be8ca98	0.007104229
65	0x3be89790	0.007098146
66	0xbe0d1195	-0.13776238
67	0x3ba8b866	0.005148935
68	0xbe235efa	-0.159542
69	0x3def667b	0.116894685
70	0xbd3a3c47	-0.04546764
71	0x3e4a9813	0.19784574
72	0xbd393672	-0.04521794
73	0xbcf21063	-0.02954883
74	0xbd54bf96	-0.051940523
75	0xbd65488f	-0.0559774
76	0x3c55df2a	0.013053695
77	0xbdcaa05a	-0.09893866
78	0x3dd0177a	0.10160728
79	0x3c125df1	0.00893353
80	0x3da8b7d9	0.08238191
81	0x3d3db8fa	0.046318986
82	0x3da6dc37	0.081474714
83	0x3d5103b7	0.051028933
84	0x3b48aecd	0.0030621768
85	0x3da6a427	0.08136778
86	0x3d1a2ecd	0.03764229
87	0xbcd1f113	-0.025627648
88	0xbc7a4bdc	-0.015276875
89	0x3e0f5543	0.13997369
90	0xbd038d23	-0.03211702
91	0xbdc9de1f	-0.09856819
92	0x3bdae7ee	0.00668048
93	0x3e0eaa54	0.13932163
94	0x3d7e1f1f	0.0620414
95	0x3d4be483	0.049778473
96	0xbc9f8bd2	-0.019475851
97	0x3c31b9dd	0.010847536
98	0xbd4adc17	-0.0495263
99	0x3d542495	0.0517927
100	0x3d242583	0.040074836
101	0x3bd59dbd	0.006519048
102	0x3e017b51	0.12644698
103	0x3d9dc8bb	0.07704302
104	0xbd34d498	-0.044148058
105	0x3e073620	0.13204241
106	0x3c9e9674	0.019358851
107	0x3df4aae9	0.11946661
108	0x3c916f41	0.017753245
109	0xbdbae986	-0.09126572
110	0xbd6aeaa6	-0.057352684
111	0xbdb6df9c	-0.08929369
112	0xbd9a54de	-0.075357184
113	0xbd9dddd2	-0.077083245
114	0x3dc56bcb	0.096397005
115	0xbde405ce	-0.1113392
116	0xbd9490d4	-0.07254186
117	0x3d31593b	0.043297987
118	0x3e2849fd	0.16434474
119	0x3a876914	0.0010330998
120	0xbd770119	-0.06030378
121	0xbc8689fd	-0.01642322
122	0xbd7002d9	-0.058596466
123	0x3cc8d057	0.024513407
124	0xbd14d207	-0.03633311
125	0xbd730218	-0.05932817
126	0x3d76e1a1	0.06027377
127	0xbbe19e21	-0.0068853055
128	0xbdf2af73	-0.118498705
129	0xbd7047aa	-0.058662094
130	0xbcd006b3	-0.02539382
131	0x3db6304d	0.088959314
132	0x3c9f7c10	0.019468337
133	0xbdb605c3	-0.08887818
134	0x3c8fcd48	0.01755394
135	0x3d1f14d1	0.03883821
136	0xbdcd7e0a	-0.10033806
137	0x3d9f008f	0.077637784
138	0xbd9489c9	-0.07252843
139	0xbd16ad13	-0.03678615
140	0x3e2d862f	0.16945718
141	0xbd97159f	-0.07377171
142	0x3d0473ed	0.032337118
143	0x3ce55492	0.027994428
144	0x3c95ed7a	0.018301714
145	0x3db7815d	0.08960221
146	0xbd5839de	-0.05278956
147	0xbdf2f1d3	-0.118625306
148	0x3d0c6245	0.034273405
149	0x3d974077	0.073853426
150	0xbd2af620	-0.04173863
151	0xbc05aefa	-0.008159393
152	0xbd9f168e	-0.07767974
153	0x3d30c104	0.043152824
154	0x3dd85755	0.10563532
155	0x3ce573e4	0.028009363
156	0x3d1a4825	0.03766646
157	0x3d852d1d	0.06502745
158	0x3cb766be	0.022387858
159	0xbe10cfeb	-0.14141814
160	0x3cb9b2a2	0.022668187
161	0xbd303af4	-0.043024972
162	0x3d67f76a	0.056632437
163	0x3d09c218	0.033632368
164	0x3dd06131	0.10174788
165	0x3cc163cf	0.023607163
166	0xbd39d2d8	-0.045367092
167	0xbb8a7559	-0.0042254147
168	0xbd952203	-0.07281878
169	0x3c0712e5	0.008244251
170	0xbd987a34	-0.074451834
171	0x3cc76700	0.024341106
172	0xbcb54f42	-0.02213252
173	0xbd8d236a	-0.0689152
174	0x3d7e807a	0.062134244
175	0xbb838a5f	-0.004014298
176	0xbd9baa0e	-0.07600795
177	0xbd83dec4	-0.064389735
178	0x3da8658b	0.08222493
179	0x3e146d4c	0.14494818
180	0xbd2aa33a	-0.04165957
181	0xbd16e24b	-0.036836904
182	0xbd37a0f0	-0.044831216
183	0xbd1b5bc7	-0.037929323
184	0xbc817e2a	-0.01580723
185	0xbcf7806d	-0.030212605
186	0xbd08637f	-0.033298012
187	0xbd893faa	-0.06701596
188	0xbd52ebfb	-0.05149458
189	0x3d35a963	0.044350993
190	0x3ca2123c	0.019784085
191	0xbd3097b9	-0.043113444
192	0x3dc31462	0.09525372
193	0xbb6fe4ec	-0.0036604954
194	0x3b975abd	0.004618971
195	0x3d2a7ea3	0.041624676
196	0x3c7a5e7d	0.015281317
197	0xbd6ad89b	-0.057335477
198	0x3da378f8	0.07982057
199	0x3dce8c73	0.10085382
200	0x3dce1f8c	0.10064611
201	0x3cbfaf72	0.023399089
202	0x3d21c10e	0.039490752
203	0xbd1672ba	-0.036730506
204	0x3c8b9d8f	0.017042903
205	0x3d225c5d	0.039638866
206	0xbdb9d3d9	-0.0907361
207	0x3e264406	0.16236886
208	0x3cb9f6bd	0.022700662
209	0xbe07292f	-0.13199304
210	0xbdfad7a4	-0.122481614
211	0xbdaa2bad	-0.08309112
212	0x3b62f7d4	0.003463258
213	0x3b8e8aa7	0.0043500247
214	0xbd78cfdd	-0.06074511
215	0xbd93bca1	-0.072137125
216	0xbda97c28	-0.08275634
217	0x3d416029	0.047210846
218	0x3ca12311	0.019670041
219	0xbd673b4a	-0.056453027
220	0x3b08e7ae	0.0020890045
221	0xbd9b57d6	-0.07585113
222	0xbcf6eb9d	-0.030141646
223	0x3ca7cb56	0.0204827
224	0xbde0e752	-0.10981621
225	0xbdd71eba	-0.105039075
226	0xbc9ed24e	-0.01938739
227	0xbd3bfa4f	-0.04589301
228	0xbdb1b84c	-0.0867773
229	0xbddb6d6c	-0.1071423
230	0x3b35115e	0.002762876
231	0x3d037fb0	0.032104194
232	0xbc114ff1	-0.008869157
233	0xbccd2180	-0.025040388
234	0x3da83534	0.08213273
235	0x3cddde4f	0.027083544
236	0xbc827ad1	-0.015927704
237	0xbdf7fd70	-0.12108886
238	0x3d21b8ad	0.03948276
239	0xbddd2b1c	-0.10799238
240	0xbe0059d4	-0.12534267
241	0xbd85d858	-0.06535405
242	0xbc4fc139	-0.012680345
243	0x3e01ea2c	0.12686986
244	0xbd938ded	-0.072048046
245	0x3cbabafc	0.02279424
246	0xbd967d1c	-0.073480815
247	0x3db46a11	0.08809293
248	0x3dad0480	0.08448124
249	0x3dc5c8b7	0.09657424
250	0xbd1cf8e2	-0.03832329
251	0x3d9beafc	0.07613179
252	0xbd8c2dae	-0.0684465
253	0xbd5741d2	-0.052553006
254	0xbc46c3af	-0.012131616
255	0xbdcba660	-0.09943843

net.3.module.0.bias f4 [32]
0	0x3d3f3640	0.046682596
1	0x3cb5a755	0.022174517
2	0x3c748b3c	0.014925774
3	0x3b110971	0.0022130872
4	0xbdc20024	-0.09472683
5	0xbd8752ec	-0.06607613
6	0x3d642396	0.055698
7	0x3daa4377	0.08313649
8	0x3d9b3d45	0.075800456
9	0x3d8e5bca	0.06951101
10	0x3d64dc72	0.055874296
11	0x3c6a08a6	0.0142842885
12	0x3d3e7ed9	0.04650769
13	0xbd135f64	-0.035979643
14	0x3d81ca5d	0.06337426
15	0x3c81b351	0.015832575
16	0x3d109adb	0.03530393
17	0x3d5de3cc	0.054172322
18	0x3aaf3620	0.0013367571
19	0x3d462669	0.048376475
20	0xbdcbf4fa	-0.09958835
21	0x3d16985d	0.0367664
22	0xbc9818bf	-0.018566487
23	0xbd0271ff	-0.031846996
24	0xbd75f3b4	-0.060046867
25	0x3db656af	0.08903252
26	0xbd72ac84	-0.059246555
27	0x3cb7e8e9	0.022449927
28	0x3d93989f	0.072068445
29	0x3cef0252	0.029175911
30	0xbd07ae6c	-0.033125326
31	0xbdb1d583	-0.08683302

net.4.module.0.weight f4 [32, 32, 3]
0	0x3dd9b206	0.106296584
1	0xbce20fe0	-0.02759546
2	0x3ddbef81	0.10739041
3	0x3dfe64cb	0.124215685
4	0x3d270ef7	0.040785756
5	0x3c2419e7	0.010015941
6	0xbdd38880	-0.1032877
7	0x3dcbc64c	0.099499315
8	0xbd7a2e56	-0.061079346
9	0xbd9432be	-0.07236241
10	0xbd0fac4e	-0.035076432
11	0xbd19c1be	-0.037538283
12	0x3e3df969	0.18552174
13	0x3dab3f67	0.083617024
14	0xbd6f51cd	-0.05842762
15	0xbda97bb3	-0.08275547
16	0x3cc0c340	0.023530602
17	0xbd4109df	-0.047128554
18	0x3d433117	0.047654238
19	0x3ca88cdc	0.02057498
20	0x3d73526d	0.05940478
21	0x3c9093c0	0.017648578
22	0x3dc890fc	0.097932786
23	0xbdbeebe4	-0.09322336
24	0x3e11c152	0.14233902
25	0x3d64e115	0.055878717
26	0xbab9e4c1	-0.0014182554
27	0x3e32af8a	0.17449775
28	0x3d10b724	0.035330907
29	0xbd35de4a	-0.044401444
30	0x3de01e2e	0.10943256
31	0x3d60abb5	0.054851253
32	0xbbfab4d8	-0.007650953
33	0x3e10594c	0.14096564
34	0x3df4ad80	0.11947155
35	0x3e1e2af2	0.1544607
36	0x3e52cf14	0.20586807
37	0x3db2488d	0.08705244
38	0x3dc90b68	0.09816629
39	0xbda9db8e	-0.0829383
40	0x3c8fb1bb	0.017540803
41	0xbc576829	-0.013147392
42	0xbdb211a0	-0.08694768
43	0x3d8e8dc5	0.06960634
44	0xbcc7ee2e	-0.024405565
45	0xbb2b3933	-0.0026126623
46	0x397c05c3	0.00024034739
47	0xbd3f00ff	-0.04663181
48	0xbdca088c	-0.098649114
49	0xbcb25d0d	-0.021772886
50	0x3d8286f4	0.063733965
51	0x3d28cb8b	0.04120974
52	0xbd547e7e	-0.051878445
53	0xbd20cdf9	-0.03925893
54	0xbc9ee3b4	-0.019395687
55	0x3ddbfa5a	0.1074111
56	0xbe06a8de	-0.13150355
57	0x3d91cf88	0.071196616
58	0xbcd3bab3	-0.025845861
59	0x3e636047	0.22204696
60	0xbd7ad725	-0.061240334
61	0xbc5833d3	-0.01319595
62	0xbcb36ca6	-0.021902394
63	0xbda2ae17	-0.07943361
64	0xbd4cbc2d	-0.049984146
65	0x3d5027c0	0.05081916
66	0xbcd5ccd4	-0.026098646
67	0x3cb8ad06	0.022543442
68	0xbbde7242	-0.006788523
69	0xbd9b9d89	-0.07598407
70	0x3d8aedc1	0.06783629
71	0x3d8b4be6	0.06801586
72	0xbd5b3c39	-0.05352423
73	0xbd262b2d	-0.04056852
74	0xbd73ae17	-0.059492197
75	0x3cfd07db	0.030887535
76	0x3d48c488	0.04901555
77	0x3d9a3cdc	0.07531139
78	0x3e0a86a7	0.13527928
79	0x3d6d2583	0.057897102
80	0xbd9dd4ec	-0.07706627
81	0xbdc41b5c	-0.09575531
82	0x3d80da0e	0.06291591
83	0x3c8586bf	0.016299604
84	0x3d42b657	0.047537174
85	0x3dc38884	0.09547523
86	0x3dd95d96	0.10613553
87	0x3c116b3a	0.008875662
88	0x3dc3f88c	0.09568891
89	0x3cf7759c	0.030207448
90	0xbdb60df6	-0.088893816
91	0x3d61d196	0.055131517
92	0xbba9cbb1	-0.0051817526
93	0xba7ff14d	-0.00097634346
94	0x3db96108	0.0905171
95	0x3c90d3ac	0.017679058
96	0x3da8679c	0.08222887
97	0x3d85b9ab	0.06529554
98	0x3d0cfb15	0.034419138
99	0x3d85792d	0.06517253
100	0xbd26aefe	-0.04069423
101	0xbc2bd7c9	-0.010488459
102	0xbc3a5b01	-0.011374236
103	0x3d19942b	0.03749482
104	0xbd34bee0	-0.044127345
105	0xbbf99af2	-0.007617348
106	0x3e3b0ed1	0.18267371
107	0xbd3cfce0	-0.046139598
108	0xbbc79176	-0.0060903383
109	0x3cd5f3d1	0.026117237
110	0xbd2556e4	-0.04036607
111	0xbd85690a	-0.06514175
112	0xbdb5b4c5	-0.0887237
113	0x3d78e593	0.060765814
114	0xbd50ccb2	-0.050976463
115	0x3cec4be9	0.02884479
116	0xbcd6cac6	-0.026219737
117	0x3e04f61b	0.12984507
118	0x3e15884d	0.14602776
119	0x39f4e391	0.00046708857
120	0xbc877476	-0.016535025
121	0x3d7bd2c2	0.06148029
122	0x3d1e1705	0.038596172
123	0xbda342ef	-0.07971751
124	0x3dc86094	0.09784046
125	0xbd907e7f	-0.07055377
126	0x3e0a60ba	0.13513461
127	0xbcd257ad	-0.025676573
128	0xbc0d56cd	-0.008626652
129	0x3ce7547c	0.028238527
130	0xbd26246e	-0.040562086
131	0x3dcd9c5d	0.100395896
132	0x3c3fd104	0.011707548
133	0x3d68301d	0.05668651
134	0x3d00b9ab	0.031427067
135	0xbcf2f9d9	-0.029660152
136	0xbc420b32	-0.0118434895
137	0x3d790380	0.060794353
138	0x3dc58237	0.09643977
139	0xbd5b23f3	-0.05350108
140	0x3dcfa0bb	0.10138079
141	0xbd52df1d	-0.05148231
142	0xbc53fb57	-0.012938342
143	0x3d218881	0.03943682
144	0x3d892f01	0.066984184
145	0x3d5b9494	0.053608492
146	0x3d907c94	0.070550114
147	0xbe046115	-0.12927659
148	0xbd754089	-0.059876
149	0x3d848b23	0.06471851
150	0xbc527b3c	-0.012846764
151	0xbca2de11	-0.01988128
152	0xbd781e6a	-0.06057588
153	0x3e42f50d	0.19038792
154	0x3bdccd49	0.006738339
155	0xbd49384d	-0.04912596
156	0x3ccd244c	0.025041722
157	0x3d21a443	0.039463293
158	0xbd1bb239	-0.038011763
159	0xbcd6dfec	-0.026229821
160	0x3df36ce8	0.118860066
161	0x3ceda83f	0.02901089
162	0xbdaf1791	-0.08549417
163	0xbc815541	-0.015787723
164	0xbda3e5c0	-0.08002806
165	0xbdaefe8c	-0.08544645
166	0x3d1ba08c	0.037994906
167	0xbd5ca28b	-0.05386595
168	0x3d95eb2d	0.07320247
169	0xbb9de157	-0.0048181224
170	0x3c97f509	0.018549459
171	0xbcfc527f	-0.030801056
172	0x3cebcf35	0.028785327
173	0xbcadd8bc	-0.021221511
174	0x3d7e8a1d	0.062143434
175	0xbe0ce48d	-0.1375906
176	0xbe25508e	-0.1614401
177	0xbbaceebd	-0.0052774833
178	0x3d355bd5	0.04427703
179	0x3cff2b2f	0.031148521
180	0xbdcfdd62	-0.10149647
181	0xbce4cdbb	-0.027930131
182	0xbd977aad	-0.073964454
183	0xbd157e9f	-0.03649771
184	0x3d4ae8f7	0.04953858
185	0xbdfef7a0	-0.124495745
186	0x3c87af1c	0.01656299
187	0x3df51752	0.119673386
188	0xbd317e05	-0.043333072
189	0x3db60f95	0.08889691
190	0xbce2b95e	-0.02767628
191	0xbd61db16	-0.055140577
192	0xbdad4881	-0.08461095
193	0x3e015e0c	0.12633532
194	0x3dcf3213	0.10116973
195	0x3ddd4b4c	0.10805377
196	0xbd665010	-0.056228697
197	0xbddd278e	-0.1079856
198	0xbd895e38	-0.06707424
199	0x3b724bf7	0.0036971548
200	0xbd5d4055	-0.05401643
201	0x3d40124f	0.04689246
202	0xbdb41675	-0.08793346
203	0xbd499dd0	-0.049222767
204	0xbd955e59	-0.07293386
205	0x3ae3b980	0.0017374009
206	0xbd629cce	-0.05532532
207	0x3e050355	0.12989552
208	0x3b8b9a24	0.0042603184
209	0xbc81b367	-0.015832616
210	0x3d2a7487	0.041615035
211	0x3b6460e1	0.0034847783
212	0x3da3b7c5	0.07994036
213	0x3b8489cb	0.0040447465
214	0xbddcc419	-0.1077959
215	0xba8b952f	-0.0010649319
216	0xbd12e7c0	-0.035865545
217	0x3da7c871	0.08192528
218	0x3cf4774d	0.029842043
219	0x3d60d08d	0.05488639
220	0xbdc99e0b	-0.098445974
221	0x3d6ac03f	0.057312246
222	0xba831a4b	-0.0010002343
223	0x3ce5c077	0.028045876
224	0xbd3fa04e	-0.046783738
225	0x3c1e1421	0.009648354
226	0x3dc0d472	0.09415521
227	0xbd313cbe	-0.04327082
228	0x3d471182	0.04860068
229	0x3d50f917	0.0510188
230	0x3cf8df9a	0.030380059
231	0xbd850565	-0.064951696
232	0x3d508c41	0.050915007
233	0xbd85bbba	-0.065299466
234	0x3d8b8f47	0.06814437
235	0xbdc26967	-0.0949276
236	0xbc5217d6	-0.012823066
237	0xbccdf360	-0.025140464
238	0x3c8cb001	0.017173769
239	0x3b46d547	0.0030339526
240	0x3b145d27	0.002263853
241	0xbdd3af41	-0.103361614
242	0x3d07b8c9	0.03313521
243	0x3d87c32f	0.06629025
244	0x3ce5cfaa	0.028053124
245	0x3ad1932a	0.0015989293
246	0xbde40d26	-0.1113532
247	0xbd2edaa4	-0.04268898
248	0xbc017afe	-0.007902859
249	0x3dcad3e4	0.09903696
250	0xbc7a0d6d	-0.01526199
251	0xbe07483e	-0.13211152
252	0xbd01e210	-0.03170973
253	0x3b0febb8	0.0021960568
254	0xbd1f0dbc	-0.038831457
255	0x3d7fa79e	0.06241571

net.4.module.0.bias f4 [32]
0	0x3dae278c	0.08503637
1	0x3d0c62da	0.03427396
2	0xbddf706a	-0.10910113
3	0xbc80746c	-0.015680514
4	0x3d94a9cf	0.07258951
5	0x3d367473	0.04454465
6	0x3d976011	0.0739137
7	0xbcfecf7d	-0.031104797
8	0x3da91991	0.082568295
9	0xbd139d01	-0.036038402
10	0x3dd39c20	0.10332513
11	0xbd85156b	-0.06498226
12	0xbdb09fcb	-0.08624228
13	0xbd9bb423	-0.07602718
14	0x3c71da31	0.014761494
15	0x3d9fb2ff	0.07797813
16	0x3d92bf95	0.071654476
17	0x3b60d405	0.003430606
18	0xbd06221e	-0.03274738
19	0x3c2bd004	0.0104866065
20	0xba662c92	-0.0008780445
21	0x3ca8a852	0.020588074
22	0xbc8288e5	-0.015934417
23	0x3d0565a6	0.032567643
24	0xbb885521	-0.004160539
25	0xba8adfb5	-0.0010595234
26	0x3d65e2f9	0.05612466
27	0xbd4af559	-0.049550388
28	0x3ccf2d68	0.025290206
29	0xbd8a961d	-0.06766913
30	0xbdb55eb6	-0.08855955
31	0xbd382837	-0.044960227

net.5.weight f4 [48, 32, 3]
0	0x3d759ad5	0.059962112
1	0xbdc2481a	-0.094864085
2	0x3d60387b	0.054741364
3	0xbd5c4318	-0.053774923
4	0x3d220c89	0.039562736
5	0xbd823006	-0.06356816
6	0xbd9d3465	-0.07676009
7	0xbb1172fc	-0.002219378
8	0x3dfe2c91	0.12410844
9	0xbd961802	-0.07328798
10	0xbda1be62	-0.07897641
11	0x3d5883e7	0.052860167
12	0x3da83870	0.082138896
13	0x3c7d1793	0.015447515
14	0xbdeba186	-0.115054175
15	0xbdfd707e	-0.12374972
16	0xbdb9f939	-0.090807386
17	0xbd79d3f3	-0.060993146
18	0xbc840e7c	-0.016120188
19	0xbb171043	-0.0023050464
20	0x3d3a6fc5	0.045516748
21	0x3dc7bf06	0.09753232
22	0xbd0d402b	-0.034485023
23	0xbd8d00bc	-0.06884906
24	0x3dbdf493	0.092751645
25	0x3d7547df	0.059882995
26	0xbc1500bc	-0.009094413
27	0xbdd0ad82	-0.10189344
28	0x3de02876	0.10945217
29	0x3d59f023	0.053207528
30	0x3d28ade6	0.041181467
31	0x3ce4ea7a	0.027943838
32	0x3d147a70	0.036249578
33	0x3d8b9ee3	0.068174146
34	0x3c79956b	0.015233378
35	0xbd0c0b10	-0.034190238
36	0x3d3da462	0.046299346
37	0xbd15c2eb	-0.03656284
38	0xbdc54bba	-0.09633584
39	0xbda87616	-0.08225648
40	0x3da87ec2	0.08227302
41	0x3ccd2b31	0.02504501
42	0xbd39d4e5	-0.045369048
43	0x3cb97c41	0.022642257
44	0x3caedf1c	0.021346621
45	0xbc05e46d	-0.008172137
46	0x3d4c2dd9	0.04984841
47	0xbd1382fc	-0.03601359
48	0xbd9c403c	-0.07629439
49	0x3b1ab8d2	0.0023608697
50	0xbd366ea7	-0.04453912
51	0xbd535ca2	-0.051602013
52	0xbccd96ab	-0.025096258
53	0xbd9e3392	-0.0772468
54	0xbc92cea6	-0.017920803
55	0xbdb4957f	-0.088175766
56	0x3d81772a	0.06321557
57	0xbd0c23ea	-0.034213938
58	0x3e0afe84	0.13573653
59	0xbdca6c0d	-0.0988389
60	0x3d6f704f	0.058456715
61	0x3bb7697c	0.0055972915
62	0x3d7c2cc1	0.06156612
63	0xbde29082	-0.11062719
64	0x3d71a793	0.0589977
65	0xb9e95b3e	-0.00044509204
66	0xbce883fd	-0.02838325
67	0x3cf03253	0.029320871
68	0xbdbac121	-0.09118868
69	0xbd94be67	-0.07262879
70	0x3bbe75f3	0.0058124005
71	0x3d5cb7d2	0.053886242
72	0x3dbf7c59	0.09349889
73	0x3da4ee41	0.08053256
74	0xbda2c4c3	-0.079476856
75	0x3d9ad3f1	0.07559956
76	0x3cc3a7cd	0.023883725
77	0x3b7734f1	0.0037720765
78	0xbd5249e4	-0.05134
79	0x3d8cb66c	0.06870732
80	0x3de9d798	0.11418074
81	0xbd5b2665	-0.053503413
82	0x3def8028	0.11694366
83	0x3ba4bdb3	0.0050274967
84	0x3cb1d6ba	0.021708835
85	0x3cd5e858	0.026111767
86	0x3d9087b7	0.070571356
87	0x3c7910c6	0.015201753
88	0xbc8015d8	-0.015635416
89	0xbd3c85cd	-0.04602604
90	0x3cb4610c	0.022018932
91	0x3d1f272b	0.038855713
92	0xbd8e6135	-0.069521345
93	0x3dd112b0	0.102086425
94	0xbc706fe9	-0.014675119
95	0xbca7d55c	-0.02048748
96	0x3dc2f06b	0.09518512
97	0x3d4c071e	0.049811475
98	0xbddb1c7c	-0.10698792
99	0x3d42f12e	0.047593288
100	0x3dadc024	0.084839135
101	0x3d98df16	0.07464425
102	0x3c640cb7	0.013919047
103	0x3ce76c72	0.028249953
104	0x3d8e1f19	0.06939525
105	0x3db81e05	0.08990101
106	0xbd0a775d	-0.03380524
107	0x3d1f42fb	0.038882237
108	0x3d952410	0.07282269
109	0x3cf9f19e	0.03051072
110	0xbd9a7121	-0.07541109
111	0x3cb64497	0.022249503
112	0x3da8d505	0.08243755
113	0xbd3a41e4	-0.045472994
114	0xbcda757e	-0.026667353
115	0xbd45732f	-0.04820555
116	0x3dab85ea	0.083751515
117	0x3dad9ad9	0.084768005
118	0x3c9832ee	0.018578973
119	0xbcac70bf	-0.021049855
120	0x3c69eacf	0.014277174
121	0x3d211a90	0.039331973
122	0xbc8c3e66	-0.017119598
123	0x3d617452	0.055042572
124	0xbd70a554	-0.05875142
125	0x3b41efa1	0.0029592293
126	0x3acc3ec7	0.0015582674
127	0xbcd09979	-0.025463806
128	0xbdd16fc0	-0.10226393
129	0x3d288588	0.04114297
130	0xbd1c20cb	-0.03811721
131	0x3d3578a0	0.04430449
132	0xbd055de3	-0.03256024
133	0x3d061915	0.032738764
134	0x3d509be2	0.05092991
135	0x3ce2eab4	0.027699806
136	0xbd9de75a	-0.077101424
137	0xbdc7562b	-0.09733232
138	0xbd2e21db	-0.042512756
139	0xbc923f25	-0.017852375
140	0xbc8ca7b1	-0.017169805
141	0x3e248216	0.16065249
142	0xbc7bc899	-0.01536765
143	0xbd89673b	-0.06709143
144	0x3da91cc2	0.08257438
145	0x3d5d02ac	0.053957626
146	0xbd925f11	-0.07147039
147	0xbca69170	-0.020333022
148	0xbd6d85d2	-0.05798895
149	0x3c9eff67	0.019408895
150	0xbd1eaa8c	-0.038736865
151	0x3da1b5d0	0.07896006
152	0x3dc48b8f	0.09596931
153	0xbdf76487	-0.12079721
154	0x3a8ecf0b	0.0010895444
155	0x3cfd18f1	0.030895682
156	0x3c767a3d	0.015043792
157	0xbccacfc4	-0.024757273
158	0x3d9d3f72	0.07678117
159	0xbcd04f30	-0.025428385
160	0x3e059189	0.13043799
161	0xbd91d71d	-0.07121108
162	0xbd06d452	-0.03291733
163	0xbd1cdc2e	-0.038295917
164	0xbdb52c7e	-0.08846377
165	0x3dd5988c	0.10429487
166	0xbe05b093	-0.13055639
167	0x3de96b5c	0.1139743
168	0xbc11bad1	-0.008894638
169	0xbd99e04f	-0.075134866
170	0x3de11910	0.109911084
171	0xbd9f3622	-0.07773997
172	0xbcdbc4f0	-0.026827306
173	0xbdbb7abf	-0.09154271
174	0x3d6be878	0.057594746
175	0xbd991018	-0.07473773
176	0xbd1fdb63	-0.039027583
177	0x3d80d39e	0.06290363
178	0xbd314dc3	-0.04328705
179	0x3d7060ba	0.058685996
180	0x3cb75b8f	0.022382526
181	0xbd9e65b6	-0.077342436
182	0x3d3982d4	0.045290783
183	0xbdc26c48	-0.09493309
184	0xbd97b68d	-0.07407866
185	0xbc1076f6	-0.008817425
186	0x3dd495e2	0.103801504
187	0x3d9e33c0	0.07724714
188	0xbdb92489	-0.09040172
189	0xbd52a6c5	-0.051428575
190	0x3c3c37e1	0.011487932
191	0x3da0c42b	0.07849916
192	0x3bc038f6	0.0058661653
193	0xbcf4009e	-0.02978545
194	0xbd0277d4	-0.03185256
195	0xbc7f0849	-0.01556594
196	0x3d1e3e2f	0.03863352
197	0xbd5f3496	-0.05449351
198	0x3dbf70eb	0.09347709
199	0xbe06b572	-0.13155153
200	0x3c0c4410	0.008561149
201	0xbbfdcf63	-0.0077456697
202	0x3d38b25d	0.045091975
203	0x3d04b8e9	0.032402907
204	0xbd733b15	-0.059382517
205	0x3cd73fda	0.026275564
206	0xbcbf93eb	-0.023385962
207	0x3d5b165c	0.05348812
208	0xbcebe3cf	-0.028795151
209	0x3b1e8143	0.0024185933
210	0x3dab30ec	0.083589405
211	0x3cf0bae6	0.029385995
212	0xbded9d15	-0.11602227
213	0x3d9298cf	0.07158052
214	0x3d80340e	0.06259929
215	0xbd1f1b2b	-0.03884427
216	0x3e06dd28	0.13170302
217	0x3da66c5f	0.08126139
218	0xbd8aabff	-0.06771087
219	0x3e1ca38a	0.1529676
220	0x3b5c428b	0.0033608999
221	0xbc13b540	-0.009015381
222	0x3d88a3ac	0.06671843
223	0xbd8dcaf0	-0.06923473
224	0xbd402c6b	-0.04691736
225	0xbc3d72d9	-0.011563026
226	0xbda512fa	-0.0806026
227	0xbd7b923b	-0.061418753
228	0xbdc71a27	-0.09721785
229	0x3d10a7ad	0.035316158
230	0xbd03f3a1	-0.032214765
231	0xbded6b16	-0.11592691
232	0xbdc00fbd	-0.09378002
233	0x3cbbec60	0.02293986
234	0x3de490f0	0.11160457
235	0xbd8f0f31	-0.069853194
236	0xbd83750b	-0.064188085
237	0x3c37bfb8	0.011215143
238	0xbd07ba89	-0.03313688
239	0x3d90ab16	0.07063882
240	0xbc49f8f2	-0.01232742
241	0x3de44edc	0.11147854
242	0x3d583113	0.052781176
243	0xbd9a5ab0	-0.075368285
244	0xbcb492e5	-0.022042701
245	0x3d8ac068	0.0677498
246	0xbcb19a44	-0.021680005
247	0x3d14b62d	0.03630655
248	0x3d00c84a	0.03144101
249	0x3c05179f	0.0081233075
250	0xbd51e1b7	-0.05124065
251	0xbd358eeb	-0.04432575
252	0xbda3b383	-0.079932235
253	0xbb4d726f	-0.0031348725
254	0x3cf7f74c	0.030269288
255	0xbd275380	-0.040851116

net.5.bias f4 [48]
0	0x3d1e2264	0.038607016
1	0x3c1f8e2a	0.009738484
2	0x3c2a46ba	0.010392839
3	0x3c1b9fac	0.009498518
4	0x3d5567d2	0.052100964
5	0xbd54b973	-0.05193467
6	0x3cf115de	0.029429372
7	0x3d011029	0.031509552
8	0xbcfa1bfd	-0.030530924
9	0x3d76b559	0.06023154
10	0xbcb41bac	-0.021985851
11	0xbcbde5b6	-0.023180824
12	0xbd7f2d83	-0.062299263
13	0x3d80c366	0.06287269
14	0xbc12dd09	-0.008963832
15	0x3d8a5166	0.06753807
16	0x3d2435e3	0.040090453
17	0xbd11fe43	-0.035642873
18	0xbd3f3435	-0.046680648
19	0x3d5d6a16	0.05405625
20	0x3d011432	0.0315134
21	0x3d6f419e	0.058412187
22	0xbd87776f	-0.06614577
23	0x3cadcc38	0.021215543
24	0xbb97850d	-0.004624015
25	0x3ccc4f0c	0.024940036
26	0xbd22f682	-0.03978587
27	0xbd755209	-0.059892688
28	0x3da5cd18	0.08095759
29	0xba566498	-0.0008178442
30	0x3d9adea8	0.075619996
31	0x3d29a682	0.04141856
32	0x3d76a3b0	0.0602147
33	0x3cdd99f6	0.027050953
34	0xbd96ef37	-0.07369845
35	0xbd86db6a	-0.06584819
36	0x3c78e9e3	0.015192482
37	0xbced5639	-0.028971778
38	0x3d956f20	0.07296586
39	0x3d6d59db	0.05794702
40	0x3d4dfc0c	0.0502892
41	0x3d927659	0.07151479
42	0x3db01ee9	0.08599646
43	0x3d145e2c	0.03622262
44	0x3cf3e6b6	0.029773097
45	0xbd9d07bd	-0.076674916
46	0xbc83010e	-0.015991714
47	0x3dad0da9	0.08449871

exp_avg f4 [32, 191, 2]
0	0x3ddfd62a	0.109295204
1	0x3db04ce5	0.086084165
2	0x3db466d4	0.088086754
3	0x3dc229ca	0.09480627
4	0x3e23f193	0.16010122
5	0x3dffe014	0.124939114
6	0x3e709d59	0.23497523
7	0x3e770896	0.24124369
8	0x3e95b13a	0.29236776
9	0x3eadcb49	0.33944157
10	0xbd339ff5	-0.04385372
11	0xbcfe7723	-0.031062668
12	0x3d36e69d	0.044653524
13	0x3cb04f31	0.021522136
14	0x3db5dc0f	0.088798635
15	0x3e07a72e	0.13247368
16	0x3d962cfd	0.073327996
17	0x3d2017ab	0.03908507
18	0x3e149bac	0.14512509
19	0x3df0e8dd	0.11763165
20	0xbc7cd3c9	-0.015431353
21	0x3c2bd8ca	0.010488698
22	0x3e9a8da2	0.30186182
23	0x3e957bcc	0.29196012
24	0x3e0d1cf5	0.13780577
25	0x3e2c3350	0.16816449
26	0x3e6a6802	0.22891238
27	0x3e4c3d4f	0.19945262
28	0xbdfb9a14	-0.122852474
29	0xbd479173	-0.048722696
30	0x3ed2c861	0.41168502
31	0x3ec94bff	0.39315793
32	0x3d0de78f	0.03464466
33	0x3b681dfa	0.0035418258
34	0x3e3f3b5e	0.1867499
35	0x3e4fbcbe	0.20286843
36	0x3dec1e39	0.11529202
37	0x3e22dd5f	0.15904759
38	0x3e0d8f19	0.13824119
39	0x3e4b50ba	0.19855013
40	0x3e17f958	0.14841211
41	0x3e3e044d	0.18556328
42	0x3d840b18	0.064474285
43	0x3e0c8330	0.13721919
44	0x3de7e652	0.11323227
45	0x3e1389cd	0.14408036
46	0xbcda8dc6	-0.026678931
47	0xbd50f280	-0.051012516
48	0x3e28915d	0.16461702
49	0x3e3400ce	0.17578432
50	0x3d243bb4	0.040096
51	0x3d5ae6fe	0.053442948
52	0x3deda301	0.11603356
53	0x3d8c6f29	0.068571396
54	0x3dadf995	0.084948696
55	0x3cb5c7dc	0.022190027
56	0xbdfcc57a	-0.12342353
57	0xbdca1302	-0.09866907
58	0xbd9b9598	-0.07596892
59	0xbe126e48	-0.14299881
60	0x3dbb38ed	0.09141717
61	0x3e72b42e	0.23701546
62	0x3e0dd829	0.1385199
63	0x3e575635	0.21028979
64	0x3e3b7b13	0.18308668
65	0x3e34ec78	0.1766833
66	0x3e944e8d	0.2896618
67	0x3ecb6f9d	0.39733592
68	0x3d9070d4	0.0705277
69	0x3dc92301	0.098211296
70	0x3e3bdc0f	0.18345664
71	0x3e444e87	0.19170581
72	0x3e5ad6f2	0.21371058
73	0x3e59a1e4	0.21253163
74	0x3ea02786	0.31280154
75	0x3e7913e7	0.24323998
76	0x3d1fd2e7	0.03901949
77	0x3e3d7831	0.1850288
78	0x3e275eda	0.16344777
79	0x3e2196c8	0.15780175
80	0x3dcc46bd	0.0997443
81	0x3e314b01	0.17313768
82	0x3e1e0e93	0.15435247
83	0x3e34ab01	0.17643358
84	0x3dfc8325	0.12329701
85	0x3d95b05c	0.073090285
86	0x3e40d379	0.1883067
87	0x3e67acc7	0.22624503
88	0xbe354edc	-0.17705864
89	0xbd83be4d	-0.06432781
90	0x3e66fc9b	0.22557299
91	0x3e68f88f	0.22751068
92	0x3e5e9c6b	0.21739356
93	0x3e891de1	0.26780608
94	0x3e205af1	0.15659691
95	0x3e332ea9	0.17498268
96	0x3d38aca6	0.045086525
97	0x3cebddf5	0.02879236
98	0xbc9ada69	-0.018902974
99	0xbd747414	-0.059681013
100	0x3dafe61a	0.0858881
101	0x3d2b9b1f	0.041895982
102	0x3db4a9a7	0.08821421
103	0x3da89e19	0.0823328
104	0x3dda9ee8	0.1067484
105	0x3d88f8a7	0.06688052
106	0x3ce9413a	0.028473485
107	0x3d8f8aae	0.07008873
108	0x3ca70dad	0.020392263
109	0x3d82ce8d	0.06387053
110	0x3e800f48	0.2501166
111	0x3e5206ab	0.20510356
112	0xbd016a79	-0.03159568
113	0x3cf505a9	0.029909926
114	0x3dcf47ad	0.10121093
115	0x3dc00544	0.09376004
116	0x3daf4674	0.0855836
117	0x3d352804	0.044227615
118	0x3d84cd0f	0.06484424
119	0x3cb77f25	0.022399494
120	0x3ce7120d	0.02820685
121	0xbb8d3226	-0.0043089567
122	0x3defca80	0.11708546
123	0x3e003a61	0.1252227
124	0xbd135f11	-0.035979334
125	0x3d3b34bb	0.045704585
126	0x3e5201b7	0.20508467
127	0x3e76668a	0.24062553
128	0x3e0391f0	0.1284864
129	0x3e161132	0.14654997
130	0x3e0c380c	0.13693255
131	0x3c639d08	0.01389242
132	0x3e30f992	0.17282704
133	0x3e33c592	0.17555836
134	0x3e15b724	0.14620644
135	0x3e293a11	0.16526057
136	0x3e34d029	0.17657532
137	0x3dedb0dd	0.116059996
138	0x3e5c1785	0.21493347
139	0x3da115d5	0.07865492
140	0x3e15b55a	0.14619961
141	0x3dcdc14b	0.10046633
142	0x3e77bf39	0.2419404
143	0x3e5f8e74	0.21831685
144	0x3e4aa1c1	0.19788267
145	0x3e157795	0.14596398
146	0x3e486afb	0.1957206
147	0x3e88ce8e	0.2672009
148	0x3e707aef	0.23484395
149	0x3ea3339c	0.31875312
150	0x3e116383	0.14198117
151	0x3d4c1c98	0.049831957
152	0x3e6ef0ba	0.23334017
153	0x3e107190	0.1410582
154	0xbdadde68	-0.08489686
155	0xbdbab6ff	-0.09116935
156	0x3df874c1	0.12131644
157	0x3e288f66	0.16460952
158	0x3e997f13	0.29979762
159	0x3e7e3a22	0.24826863
160	0x3e0b1352	0.13581589
161	0x3e3af92f	0.18259118
162	0x3df37fce	0.11889611
163	0x3daa5247	0.083164744
164	0x3d91bf16	0.07116525
165	0x3dc17905	0.09446911
166	0x3e5f3648	0.2179805
167	0x3e7e9690	0.24862123
168	0x3d2b214f	0.041779812
169	0x3db69646	0.08915381
170	0x3da384cd	0.07984314
171	0x3e5dcf69	0.21661152
172	0x3e156235	0.14588244
173	0x3d2e0914	0.042489126
174	0x3df5d529	0.12003548
175	0x3e077b5f	0.13230656
176	0x3d22b4ac	0.039723083
177	0xbc3374fd	-0.010953185
178	0xbd6cfd73	-0.057858896
179	0xbdf33f87	-0.11877351
180	0xbdddb9c0	-0.108264446
181	0xbdc3009d	-0.09521601
182	0x3e27371c	0.16329616
183	0x3df13ba2	0.11778952
184	0xbd8da509	-0.069162436
185	0x3d61793c	0.05504726
186	0x3d1e6558	0.038670868
187	0x3d80afeb	0.06283554
188	0xbdab0011	-0.08349622
189	0xbd4fb821	-0.05071271
190	0x3d3d0e4f	0.046156224
191	0x3d17c4a3	0.03705276
192	0x3e3a4577	0.18190561
193	0x3e602a9f	0.21891259
194	0x3e055de0	0.13024092
195	0x3d985c70	0.07439506
196	0x3e29fced	0.1660039
197	0x3e364fc4	0.17803866
198	0x3c99de1f	0.018782673
199	0x3d07b254	0.03312905
200	0x3eb5daeb	0.35518584
201	0x3ea82995	0.32844225
202	0x3e21ed0c	0.15813082
203	0x3e818771	0.25298646
204	0x3ec515b4	0.3849312
205	0x3e93164b	0.28727946
206	0x3d4debb7	0.050273623
207	0x3deb55ce	0.11490975
208	0x3cbd64ad	0.023119295
209	0x3deb3948	0.11485535
210	0x3df1e559	0.11811323
211	0x3df8dbe4	0.12151316
212	0x3e08ed1d	0.13371702
213	0x3e93cbba	0.2886637
214	0x3ea8a5d8	0.3293903
215	0x3e9a0072	0.30078465
216	0x3d85ffd7	0.06542938
217	0x3e35e6dc	0.17763847
218	0x3ea02aea	0.3128274
219	0x3e62368a	0.22091118
220	0x3c818869	0.015812116
221	0x3dc15401	0.094398506
222	0x3e387a03	0.18015294
223	0x3e4e17ce	0.20126268
224	0x3ea9efdf	0.3319082
225	0x3ea4a565	0.32157436
226	0x3e955a9f	0.291707
227	0x3e284ea4	0.16436249
228	0x3e014064	0.1262222
229	0x3dabaa7a	0.08382125
230	0x3e886a9d	0.2664384
231	0x3eb4d039	0.3531511
232	0x3e80248e	0.2502789
233	0x3e832942	0.25617415
234	0x3e68c4d4	0.22731334
235	0x3e8b068b	0.2715343
236	0x3e5e85bf	0.21730708
237	0x3eb0ed7e	0.34556192
238	0x3e32a41c	0.17445415
239	0x3d8a19c5	0.067431964
240	0x3eeaae1c	0.4583596
241	0x3ea22244	0.31666768
242	0x3e2dc012	0.169678
243	0x3e82a286	0.2551462
244	0x3ec6e2d5	0.38844934
245	0x3ebc7c5a	0.36813623
246	0x3ee48663	0.4463378
247	0x3f0244b7	0.508861
248	0x3e4ad8db	0.19809286
249	0x3e369017	0.17828403
250	0x3eb2324a	0.34803993
251	0x3eb32a97	0.3499343
252	0x3e81e3cb	0.25369105
253	0x3e9e1e2f	0.30882403
254	0x3d2a0bf9	0.041515324
255	0x3db13e1b	0.08654424
