saved_CEBRA_models/nitschke_20090812_20090819_20090910/CEBRA_models/temperature_0.0005333333333333334_time_offsets_1_dataset1.pt (torch, 531429 bytes, 31 tensors)

net.0.weight f4 [32, 191, 2]
-0.13663565 -0.11559152 -0.03559074 0.02822386 0.047895122 -0.014838245 -0.043682836 0.06363158
-0.004302472 0.004090096 -0.07401466 0.025576796 0.02247036 -0.019331062 0.011938418 -0.017072527
-0.013923317 -0.025183508 0.006472828 0.002265911 -0.001843053 -0.00023862161 -0.02475298 0.014100917
0.015554049 0.047973495 0.11153797 0.039923683 0.027512908 -0.017527431 -0.0063802362 -0.01976842
0.09498863 0.12529758 -0.05157497 0.01388304 0.008594099 0.01052313 0.06297199 0.02461652
-0.041099023 -0.0145494025 -0.057986517 -0.0571928 -0.020453593 -0.029842142 -0.019103633 0.0462871
-0.025931349 -0.061677337 0.039792564 0.040931325 -0.029009165 -0.01770343 -0.059250936 0.044197705
-0.0069734505 0.041334745 -0.031356823 0.005626183 -0.03379345 0.0047618644 0.027073672 0.024799064
-0.025906727 -0.007568049 -0.06327849 0.0002316425 -0.036844198 -0.0008208926 -0.033505633 0.036063384
-0.011535497 -0.039921258 0.011989703 -0.040675275 0.025625154 0.030234264 -0.10498181 -0.08131882
-0.0093282405 -0.03114445 -0.077069625 0.023005273 0.010515723 0.018409124 0.030251557 0.0018548273
0.034051005 -0.016837966 0.0046310658 0.04099965 -0.02687826 -0.015533545 -0.024452003 0.042684115
0.001025447 -0.019038528 0.0012525291 0.030258622 -0.08697429 0.013571485 0.049674317 -0.016281715
0.01088799 0.02782263 0.037316922 -0.041914694 0.023546217 0.0035844536 0.023207225 -0.0017554006
0.00470819 0.03163704 -0.0006233144 -0.026043458 -0.041448012 0.024647351 0.029170802 0.01864872
-0.021159919 -0.025905112 0.0025094424 -0.0038048178 0.018104607 0.046756264 0.00014413765 0.0005155028
0.03127159 0.019094072 0.0068009733 -0.03762177 0.0016444824 -0.026252039 -0.031014279 -0.05561658
0.0128606735 0.019237421 0.043024603 -0.015744634 0.005328067 0.0023505224 -0.0448696 0.02243287
0.029766915 0.045806326 -0.01530442 0.056639127 -0.015964283 0.00575714 -0.0015250131 0.027189825
-0.03613956 0.0050037894 -0.02957896 -0.08216012 -0.023215963 0.028983684 0.011199443 0.027871776
-0.051846843 0.02841854 0.010838173 0.029759595 -0.038857345 -0.028847996 -0.0028419225 0.024612054
-0.04261468 0.022308126 0.0044862404 0.03967406 -0.036015254 -0.02228001 0.0047476627 -0.011890897
0.006317799 0.018622037 -0.015088171 -0.030162198 -0.009626882 0.03707898 -0.02710663 0.041900564
-0.016923752 0.015554511 -0.022149045 0.018101418 -0.0064529884 0.0008984672 -0.024991794 0.018993838
0.028248178 -0.009854936 0.0138567295 -0.0012264106 0.02416197 -0.018376559 -0.04382435 0.030380873
-0.015922625 -0.010222618 0.016658425 -0.03539717 0.039239246 0.008416589 0.022397965 -0.011417859
0.0070476853 -0.011888862 0.055001292 -0.010573446 0.01712973 0.041278563 0.0056583504 -0.00088713394
-0.021900063 -0.057076856 -0.01296884 0.008941254 0.049543366 -0.008093613 0.00054165383 0.012071956
0.04873025 -0.056697804 0.0012473924 0.049891245 0.08028856 0.05848908 0.01755217 -0.016183771
-0.017020391 0.0021433567 0.012142744 0.028451454 -0.015713304 0.0006708721 -0.067063674 -0.012173992
0.017809585 -0.0047296784 0.020901956 0.0017427139 0.028824879 0.032096762 0.0129382145 -0.010043762
-0.021489214 0.025025768 -0.031134307 -0.059784975 0.037983477 -0.017871806 -0.087272264 -0.03445123
00000000: 37ea 0bbe 3fbb ecbd 99c7 11bd b935 e73c
00000010: ad2d 443d 1c1c 73bc c6ec 32bd 4651 823d
00000020: c0fb 8cbb 3606 863b 0095 97bd 6e86 d13c
00000030: c313 b83c 2d5c 9ebc 5b99 433c afdb 8bbc
00000040: a01e 64bc a54d cebc 041a d43b ae7f 143b
00000050: 9992 f1ba 8036 7ab9 c3c6 cabc 8807 673c
00000060: 69d6 7e3c db7f 443d 056e e43d 0487 233d
00000070: c062 e13c b095 8fbc 4d11 d1bb 62f1 a1bc
00000080: 6689 c23d 024e 003e 4740 53bd b175 633c
00000090: 44ce 0c3c 3569 2c3c 75f7 803d 96a8 c93c
000000a0: 7357 28bd 9e60 6ebc 4583 6dbd ff42 6abd
000000b0: 4b8e a7bc 8277 f4bc 397f 9cbc 8b97 3d3d
000000c0: fb6d d4bc 60a1 7cbd 87fd 223d 9ba7 273d
000000d0: a1a4 edbc c906 91bc 1cb1 72bd a708 353d
000000e0: 8b81 e4bb 9f4e 293d 0370 00bd d85b b83b
000000f0: 006b 0abd 6a09 9c3b 9bc9 dd3c 6827 cb3c
00000100: 583a d4bc 65fd f7bb 2798 81bd 0fe5 7239
00000110: f1e9 16bd 2b31 57ba 343d 09bd 33b7 133d
00000120: 62ff 3cbc 7984 23bd 7670 443c 1e9b 26bd
00000130: d8eb d13c d9ad f73c b400 d7bd 7b8a a6bd
00000140: 7ad5 18bc a522 ffbc aed6 9dbd 8e75 bc3c
00000150: 244a 2c3c bbce 963c 1dd2 f73c ad1d f33a
00000160: 1179 0b3d c6ef 89bc 32c0 973b 40ef 273d
00000170: cc2f dcbc 6980 7ebc 914f c8bc 8ad5 2e3d
00000180: 4b68 863a b0f6 9bbc e72b a43a eee0 f73c
00000190: 941f b2bd ef5a 5e3c 4c77 4b3d 3b61 85bc
000001a0: 8a63 323c 49ec e33c a1d9 183d beae 2bbd
000001b0: ffe3 c03c 27e9 6a3b 141d be3c 7815 e6ba
000001c0: 2947 9a3b d795 013d ec65 23ba 1759 d5bc
000001d0: 64c5 29bd 3ee9 c93c 9bf7 ee3c 33c5 983c
000001e0: 9157 adbc f536 d4bc 7575 243b 405a 79bb
000001f0: 1d50 943c 7f83 3f3d a823 1739 cf22 073a
00000200: a416 003d 2c6b 9c3c b3da de3b 4919 1abd
00000210: ac8b d73a 840e d7bc a811 febc 36ce 63bd
00000220: 93b5 523c cc97 9d3c 913a 303d e4fa 80bc
00000230: 1197 ae3b 390b 1a3b 30c9 37bd 23c5 b73c
00000240: bfd9 f33c 6a9f 3b3d 64bf 7abc 6efe 673d
00000250: 87c7 82bc 64a6 bc3b f3e2 c7ba 32bd de3c
00000260: 1307 14bd d4f6 a33b 934f f2bc 9143 a8bd
00000270: 672f bebc 316f ed3c de7d 373c 5a53 e43c
00000280: 5b5d 54bd ffcd e83c 9892 313c 65ca f33c
00000290: e128 1fbd a252 ecbc 8c3f 3abb 389f c93c
000002a0: bb8c 2ebd 88bf b63c 5001 933b 4481 223d
000002b0: bb84 13bd 9184 b6bc 4892 9b3b 09d2 42bc
000002c0: 8a05 cf3b 3e8d 983c 6034 77bc b716 f7bc
000002d0: 12ba 1dbc 21e0 173d b90e debc ed9f 2b3d
000002e0: aea3 8abc 59d8 7e3c ea71 b5bc 6d49 943c
000002f0: 9773 d3bb 1d87 6b3a 97bb ccbc f798 9b3c
00000300: b968 e73c 9976 21bc 5607 633c 83bf a0ba
00000310: 53ef c53c 708a 96bc 2981 33bd 4fe1 f83c
00000320: 2a70 82bc c47c 27bc 4077 883c 9ffc 10bd
00000330: 55b9 203d bce5 093c f07b b73c f911 3bbc
00000340: 45f0 e63b 80c9 42bc 0949 613d 3f3c 2dbc
00000350: a653 8c3c b613 293d af69 b93b 8d8e 68ba
00000360: c367 b3bc 6cc9 69bd 427b 54bc 567e 123c
00000370: fced 4a3d 139b 04bc c6fd 0d3a 74c9 453c
00000380: 5f99 473d f53b 68bd 8b7f a33a c35a 4c3d
00000390: 546e a43d 3f92 6f3d 92c9 8f3c d493 84bc
000003a0: 596e 8bbc 8f77 0c3b 5cf2 463c 0613 e93c
000003b0: 30b9 80bc 77dd 2f3a ae58 89bd 6c75 47bc
000003c0: 68e5 913c 6bfb 9abb 943a ab3c c66b e43a
000003d0: 2722 ec3c e577 033d cefa 533c 978e 24bc
000003e0: 260a b0bc d702 cd3c 600d ffbc 17e1 74bd
000003f0: 9094 1b3d e567 92bc cdbb b2bd bc1c 0dbd

net.0.bias f4 [32]
0.024547113 -0.0052695507 0.0067872717 0.02982987 -0.031795733 0.04637409 -0.030694779 0.016541336
-0.03511914 -0.044282693 0.007300953 -0.008429038 -0.01879873 0.009369413 0.09506224 -0.013204859
0.039125774 -0.013395226 0.01351555 0.026818601 0.03243648 -0.0018076934 0.024962394 -0.021870084
0.035076268 -0.007440925 0.051364034 -0.003051178 0.014428944 -0.061597336 0.0342894 0.005368857
00000000: 0717 c93c 32ac acbb c367 de3b c65d f43c
00000010: 3e3c 02bd c2f2 3d3d 9e73 fbbc b281 873c
00000020: 16d9 0fbd c561 35bd d53c ef3b f319 0abc
00000030: cbff 99bc 2b82 193c feaf c23d 3159 58bc
00000040: 5942 203d a677 5bbc 5370 5d3c afb2 db3c
00000050: 1ddc 043d 20f0 ecba ef7d cc3c e428 b3bc
00000060: 22ac 0f3d 01d3 f3bb 1863 523d 46f6 47bb
00000070: 6167 6c3c 7d4d 7cbd 0b73 0c3d 3ded af3b

net.2.module.0.weight f4 [32, 32, 3]
0.019626193 0.06915213 0.07661403 0.05798511 0.08988124 0.103028685 -0.053425767 0.019270957
-0.074210055 -0.051730618 0.11011394 -0.024141569 -0.13440494 0.0026272675 0.013469119 -0.013585236
0.009103689 0.042741284 0.09002049 -0.010358141 -0.028501123 0.013491768 0.008283796 0.043052368
-0.053832155 -0.10150256 0.014016687 0.08405749 0.08014378 -0.051393628 -0.04654915 0.0001953231
-0.053046145 -0.005126004 0.058753703 9.0145535e-05 0.035988417 0.034019288 -0.0538333 -0.08423696
-0.05517608 0.047026493 0.017736988 0.09995896 -0.0015984387 -0.015070471 0.022750715 0.0961855
-0.1020729 -0.09033997 0.0074222814 0.0099083325 -0.01595513 -0.11116958 0.054777134 -0.04999144
0.049691245 0.00201892 -0.025856428 0.098852865 0.08224447 -0.08872998 -0.018948913 0.020873975
0.046918504 0.05794501 -0.017800482 -0.049627908 -0.031916082 -0.040939875 -0.10157328 -0.022440528
0.04315888 0.103464216 0.041653212 0.034067195 -0.08122799 0.035864055 -0.013803485 -0.008643078
-0.051472083 0.06770906 0.017712813 -0.046180423 -0.020520385 -0.009260395 0.110376805 -0.00022878833
-0.030793898 -0.109157875 -0.021671426 0.04939264 0.010675897 -0.14300658 -0.04872359 -0.09994527
0.034301862 0.07057708 -0.16443682 0.005420516 -0.093681626 -0.12472582 -0.06061699 0.0577316
-0.1394905 0.010518338 -0.012124694 -0.008721548 0.08469125 0.07720528 0.1379384 -0.036298696
-0.02893483 -0.03786068 -0.0030838419 0.039082576 0.019492928 -0.060888845 -0.025654223 0.04250487
-0.02567455 -0.08627903 0.038059983 0.092862315 0.042447254 0.0932816 -0.01613366 0.022485984
0.0391876 0.009680801 0.044216055 -0.101249136 0.12494773 0.008586942 0.009990393 -0.06347735
-0.06555479 -0.05424513 0.056535464 -0.014412626 0.05066369 0.021042198 0.0028244033 0.047781184
-0.06760313 -0.046350896 -0.1078429 -0.029522322 0.03159043 -0.08337291 -0.019586917 0.007382349
0.06832072 -0.029943086 0.006334262 0.08154692 -0.1334035 0.020013744 -0.0003185717 -0.100175306
-0.061641898 0.04730961 -0.030326257 -0.019363536 0.053707197 0.093827225 -0.08635659 0.099214636
0.010064099 0.08117968 -0.08061721 -0.060764384 0.032641135 0.002475622 0.11787835 0.04153245
-0.06250265 -0.0536412 0.10189825 0.062225882 -0.020804618 0.06290468 0.034376804 0.08806795
-0.09142526 -0.093454555 -0.08654063 -0.049175087 -0.045804873 0.009250213 0.08932089 0.07246645
0.0373664 -0.05558064 -0.04690956 -0.03560244 0.0757673 0.12788339 -0.0005474768 -0.006995721
-0.0029853955 0.1526483 0.08155484 0.12085804 -0.031299595 -0.035552233 0.013300426 -0.055595566
0.076122604 0.07607334 0.1206394 0.06978692 0.13348529 0.102594815 -0.041203205 -0.030109674
0.058746625 -0.08003978 -0.080973364 -0.0058781207 -0.04864309 0.16345578 0.06545221 0.015802324
-0.0053439117 0.09525857 0.040409792 0.012019488 -0.095529616 -0.01866112 -0.03499455 -0.067895345
-0.04176907 -0.0012236496 0.037163876 0.09362344 0.12239868 -0.065378815 -0.08625615 -0.06948312
0.033645857 -0.003091518 -0.00028661138 -0.039485786 -0.046979822 -0.13407078 0.064453036 0.062328633
-0.15183227 0.0019071118 0.08023758 0.064111724 -0.051350247 -0.04827003 0.062051605 0.015179838
00000000: 1cc7 a03c a29f 8d3d d1e7 9c3d cb81 6d3d
00000010: a813 b83d b400 d33d fad4 5abd 20de 9d3c
00000020: 71fb 97bd 7ce3 53bd 6b83 e13d 8ac4 c5bc
00000030: 73a1 09be 3c2e 2c3b 94ad 5c3c 9c94 5ebc
00000040: a427 153c 7c11 2f3d aa5c b83d 31b5 29bc
00000050: 307b e9bc 940c 5d3c c2b8 073c ae57 303d
00000060: 1b7f 5cbd 93e0 cfbd 3fa6 653c 5526 ac3d
00000070: 6c22 a43d 2082 52bd 52aa 3ebd a5cf 4c39
00000080: ea46 59bd 0af8 a7bb b9a7 703d 840c bd38
00000090: 9768 133d cf57 0b3d 4e80 5cbd 6d84 acbd
000000a0: 5000 62bd da9e 403d 294d 913c 49b7 cc3d
000000b0: b482 d1ba 23ea 76bc b55f ba3c e7fc c43d
000000c0: 990b d1bd 2a04 b9bd 9c36 f33b 8f56 223c
000000d0: 55b4 82bc e0ac e3bd fd5d 603d d3c3 4cbd
000000e0: 0c89 4b3d db4f 043b dcd0 d3bc 5f73 ca3d
000000f0: ca6f a83d 10b8 b5bd c03a 9bbc e6ff aa3c
00000100: 9e2d 403d bf57 6d3d 51d2 91bc a246 4bbd
00000110: 70ba 02bd 92b0 27bd a705 d0bd 33d5 b7bc
00000120: 5ec7 303d 0ce5 d33d 8f9c 2a3d 0b8a 0b3d
00000130: dc5a a6bd 30e6 123d 0328 62bc b29b 0dbc
00000140: 64d4 52bd 0cab 8a3d 761a 913c af27 3dbd
00000150: 5e1a a8bc e9b8 17bc 3c0d e23d e6e6 6fb9
00000160: 7c43 fcbc 2a8e dfbd 4688 b1bc f04f 4a3d
00000170: f5e9 2e3c 5170 12be 6392 47bd 1bb0 ccbd
00000180: 1c80 0c3d b78a 903d 2062 28be 959e b13b
00000190: 27dc bfbd 4070 ffbd 8549 78bd f877 6c3d
000001a0: 99d6 0ebe 1b55 2c3c a7a6 46bc d3e4 0ebc
000001b0: 9b72 ad3d cd1d 9e3d b93f 0d3e f1ad 14bd
000001c0: bd08 edbc cd13 1bbd 481a 4abb 0d15 203d
000001d0: a2af 9f3c 9566 79bd ce28 d2bc 9619 2e3d
000001e0: 6f53 d2bc 0fb3 b0bd c9e4 1b3d 992e be3d
000001f0: 2cdd 2d3d 6c0a bf3d bd2a 84bc 8734 b83c
00000200: 2d83 203d 399c 1e3c e51b 353d b55b cfbd
00000210: 98e4 ff3d 3fb0 0c3c bfae 233c 6a00 82bd
00000220: 9741 86bd 2430 5ebd bb91 673d ef22 6cbc
00000230: bb84 4f3d b060 ac3c a019 393b 34b6 433d
00000240: 8373 8abd 70da 3dbd bddc dcbd ccd8 f1bc
00000250: f764 013d 6bbf aabd be74 a0bc a2e7 f13b
00000260: bceb 8b3d 344b f5bc a48f cf3b 1202 a73d
00000270: ed9a 08be ddf3 a33c f805 a7b9 b628 cdbd
00000280: 377c 7cbd b9c7 413d c56e f8bc 47a0 9ebc
00000290: 14fc 5b3d 7d28 c03d b9db b0bd 0b31 cb3d
000002a0: e4e3 243c 8841 a63d a31a a5bd 13e4 78bd
000002b0: b6b2 053d 0c3e 223b 346a f13d ee1d 2a3d
000002c0: 6401 80bd e0b6 5bbd 08b0 d03d 91e0 7e3d
000002d0: 726e aabc 2bd4 803d b1ce 0c3d f85c b43d
000002e0: 2b3d bbbd 1a65 bfbd 373c b1bd d16b 49bd
000002f0: e49d 3bbd 358e 173c dfed b63d 4a69 943d
00000300: 830d 193d 86a8 63bd 3d24 40bd ddd3 11bd
00000310: e32b 9b3d ddf3 023e 8c84 0fba 5c3c e5bb
00000320: a0a6 43bb d64f 1c3e 3906 a73d 6c84 f73d
00000330: 0134 00bd 389f 11bd 08ea 593c 2db8 63bd
00000340: 2be6 9b3d 57cc 9b3d ca11 f73d 72ec 8e3d
00000350: 5eb0 083e 3b1d d23d b1c4 28bd 90a8 f6bc
00000360: 4da0 703d e5eb a3bd 5dd5 a5bd 409d c0bb
00000370: fa3d 47bd f460 273e cf0b 863d e073 813c
00000380: fb1b afbb ed16 c33d bd84 253d 63ed 443c
00000390: 08a5 c3bd 35df 98bc 7256 0fbd b70c 8bbd
000003a0: 0b16 2bbd de62 a0ba 2639 183d a5bd bf3d
000003b0: 29ac fa3d 54e5 85bd 10a7 b0bd 2b4d 8ebd
000003c0: 3dd0 093d 119b 4abb 5444 96b9 d9bb 21bd
000003d0: ea6d 40bd da49 09be f4ff 833d 4f4c 7f3d
000003e0: eb79 1bbe 0ef8 f93a 9a53 a43d 024d 833d
000003f0: a354 52bd ccb6 45bd d329 7e3d dbb4 783c

net.2.module.0.bias f4 [32]
-0.06960621 0.0071823345 0.026696153 0.029800663 -0.017123092 0.02623948 0.04780055 -0.08763175
0.01668142 -0.036291867 0.06662597 0.020325346 0.11371583 -0.08227564 -0.065817624 0.08215527
-0.10369673 -0.02718131 -0.042731844 -0.05361949 0.061052065 -0.0125774685 -0.078304276 0.05424148
0.06945331 -0.09568237 0.037819084 0.07477643 -0.0054116966 0.052187975 -0.024123477 0.069216125
00000000: b38d 8ebd ca59 eb3b e4b1 da3c 8520 f43c
00000010: ba45 8cbc 2ef4 d63c 82ca 433d 4678 b3bd
00000020: 79a7 883c c8a6 14bd 3273 883d 5781 a63c
00000030: d8e3 e83d 2180 a8bd 64cb 86bd 0641 a83d
00000040: f45e d4bd 57ab debc 9607 2fbd 1ca0 5bbd
00000050: bb11 7a3d ba11 4ebc fe5d a0bd 502c 5e3d
00000060: 893d 8e3d 1ef5 c3bd 2fe8 1a3d 6324 993d
00000070: 9a54 b1bb 0fc3 553d 999e c5bc 2fc1 8d3d

net.3.module.0.weight f4 [32, 32, 3]
-0.084742025 -0.06627101 0.054795373 0.013073687 -0.053724743 0.054269876 0.005428206 -0.013861297
0.080070496 0.022001987 0.11034253 -0.036435872 -0.013249026 -0.10326386 -0.027927047 -0.09545673
-0.07021335 0.042760644 -0.07264377 0.034827176 0.05171677 -0.0767946 0.08532866 -0.033665832
0.0999778 -0.05408671 -0.095262714 -0.08788131 -0.06681808 -0.06757748 -0.08244387 -0.022126442
-0.040961627 0.06001304 0.07539882 -0.046089582 0.02757568 0.08177532 0.10656422 -0.006030852
0.09067411 0.10356134 -0.0030981319 -0.018457105 0.008987668 -0.059847206 -0.0619278 -0.009684876
0.027054155 0.0023491299 -0.10650475 -0.02121265 -0.066388175 -0.039525207 -0.04944912 0.030338492
-0.08855907 -0.10331817 -0.046696458 0.047157824 0.00040114237 -0.0015716052 -0.021502927 0.12280103
0.050614305 0.0873643 -0.06120851 0.09008747 -0.06062448 -0.0033438897 0.0716489 0.023924043
0.0066417535 -0.0035316574 0.016588561 0.11299386 -0.10071066 -0.00453116 0.05813531 -0.011659232
-0.11514994 0.04039893 0.009713545 -0.044725206 0.048680525 -0.0008443936 0.091271564 -0.01527787
-0.024088662 -0.0034856112 -0.100794785 0.022550933 -0.07148431 -0.0029838018 -0.12937842 -0.0069293207
-0.046431918 0.03451881 0.020834839 0.0993685 -0.0756818 -0.10120788 -0.059667733 -0.06314533
0.029765237 -0.05854549 0.04649584 0.12091716 -0.025881073 0.020605536 0.10097315 -0.08130665
-0.11559703 -0.003412977 -0.12157847 0.012991045 -0.027220305 0.1827176 0.046128068 -0.00899127
-0.06851643 0.045560114 -0.04715995 0.006387524 -0.10199943 -0.04689673 -0.07559356 0.08600588
-0.07368177 0.08164416 0.0025939897 -0.05667376 0.069827445 -0.034372468 -0.03528905 -0.028242836
-0.008332134 0.05076205 -0.055185314 -0.062359225 -0.06718514 0.06821281 -0.11051738 0.10611691
0.051959086 0.065025166 0.05874826 0.096976146 -0.083407834 0.06444134 0.05260751 0.040835097
0.03999338 -0.06396452 -0.03672018 0.039054736 -0.011991001 0.14251345 0.05172153 -0.10356558
-0.041167043 -0.104910396 0.02893869 -0.08620286 0.07569647 0.054530438 -0.023476457 0.026882362
-0.0772407 0.048065744 0.15569763 -0.010306069 -0.057080984 0.010816862 -0.10287051 0.076915875
0.030424543 -0.0036352142 -0.009211818 -0.030930378 0.099163145 -0.07617072 -0.088490024 0.04442212
0.0936748 0.005274239 0.048928242 -0.087459855 -0.06180594 0.06438905 0.07592949 0.03321528
-0.06594356 0.04787391 0.05534447 -0.1001177 0.07342248 0.008136089 0.0035808694 -0.013803118
0.13297296 -0.089099325 0.058026027 -0.023889305 -0.09345196 0.0005809834 -0.043714784 0.16654217
0.08924024 0.030981446 0.038625035 0.03650135 0.080703 -0.021719746 -0.039198987 -0.04062399
-0.004350434 0.005348838 -0.13284355 0.03458109 0.021269185 0.012581058 0.03174381 -0.03048453
0.034302782 0.04245404 0.035509508 -0.14407688 0.018386068 -0.033875514 -0.12689988 0.061088923
-0.040978722 -0.041496146 0.11299603 -0.05783248 -0.08886563 0.006118593 0.088096134 0.09186278
0.024475377 0.051486284 0.09547208 0.080855295 -0.06691475 -0.016816508 -0.104221575 -0.023060754
-0.08090439 -0.07369343 0.05476266 0.06925417 0.03401971 -0.000726213 0.04019276 0.14394663
00000000: 3a8d adbd 18b9 87bd 1d71 603d 0533 563c
00000010: 7a0e 5cbd 174a 5e3d 18df b13b 7e1a 63bc
00000020: 00fc a33d 833d b43c 44fb e13d c83d 15bd
00000030: 7112 59bc 017c d3bd 43c7 e4bc d17e c3bd
00000040: 04cc 8fbd c925 2f3d 42c6 94bd f1a6 0e3d
00000050: f7d4 533d 7d46 9dbd cbc0 ae3d 2fe5 09bd
00000060: 29c1 cc3d 078a 5dbd 1919 c3bd 1efb b3bd
00000070: ebd7 88bd 1066 8abd 55d8 a8bd 8342 b5bc
00000080: 61c7 27bd 3cd0 753d b26a 9a3d 6ec8 3cbd
00000090: 64e6 e13c d279 a73d 573e da3d 749e c5bb
000000a0: 59b3 b93d f817 d43d 070a 4bbb 5b33 97bc
000000b0: 0341 133c 5822 75bd 01a8 7dbd 50ad 1ebc
000000c0: ada0 dd3c dcf3 193b 2a1f dabd 27c6 adbc
000000d0: 86f6 87bd 2fe5 21bd 298b 4abd 6e88 f83c
000000e0: 755e b5bd 7a98 d3bd c944 3fbd 9028 413d
000000f0: 6b50 d239 52fe cdba e826 b0bc 1b7f fb3d
00000100: f250 4f3d 0eec b23d c6b5 7abd c87f b83d
00000110: 6051 78bd 2925 5bbb a9bc 923d 5bfc c33c
00000120: 11a3 d93b 6173 67bb bce4 873c 5369 e73d
00000130: 6441 cebd 207a 94bb 4a1f 6e3d 5d06 3fbc
00000140: bbd3 ebbd 5979 253d 9025 1f3c c731 37bd
00000150: 3b65 473d 4c5a 5dba 96ec ba3d 0850 7abc
00000160: 9655 c5bc da6e 64bb 7f6d cebd bcbc b83c
00000170: 5e66 92bd e38b 43bb c77b 04be 5b0f e3bb
00000180: 652f 3ebd 9963 0d3d d3ad aa3c b681 cb3d
00000190: 0fff 9abd 1446 cfbd 2766 74bd 5752 81bd
000001a0: 3ad6 f33c 65cd 6fbd 6c72 3e3d 6aa3 f73d
000001b0: 8b04 d4bc f1cc a83c 03cb ce3d 1a84 a6bd
000001c0: 23be ecbd 41ac 5fbb 22fe f8bd 64d8 543c
000001d0: 1efd debc 531a 3b3e c9f0 3c3d 1f50 13bc
000001e0: 5852 8cbd 3e9d 3a3d cb2a 41bd 6f4e d13b
000001f0: 14e5 d0bd c916 40bd ccd0 9abd da23 b03d
00000200: 78e6 96bd 0e35 a73d edff 293b bf22 68bd
00000210: b101 8f3d 25ca 0cbd 408b 10bd 855d e7bc
00000220: 8183 08bc deeb 4f3d ff09 62bd 636c 7fbd
00000230: 5d98 89bd 28b3 8b3d f056 e2bd d353 d93d
00000240: 0dd3 543d ea2b 853d 04a2 703d 6e9b c63d
00000250: bad1 aabd d2f9 833d f97a 573d b442 273d
00000260: 19d0 233d d5ff 82bd e667 16bd dcf7 1f3d
00000270: e775 44bc 0cef 113e f4d9 533d 311a d4bd
00000280: c69e 28bd 43db d6bd d510 ed3c 208b b0bd
00000290: c006 9b3d 4f5b 5f3d b351 c0bc 6638 dc3c
000002a0: 5f30 9ebd 96e0 443d 336f 1f3e c9da 28bc
000002b0: c0cd 69bd 3539 313c c6ad d2bd 1286 9d3d
000002c0: e43c f93c c63c 6ebb 2aed 16bc b461 fdbc
000002d0: 0c16 cb3d 65ff 9bbd 423a b5bd f8f3 353d
000002e0: 93d8 bf3d 86d3 ac3b fb68 483d 271e b3bd
000002f0: 3a28 7dbd 68de 833d ec80 9b3d bf0c 083d
00000300: 6b0d 87bd 6f17 443d e2b0 623d 820a cdbd
00000310: 865e 963d 3b4d 053c 05ad 6a3b 7926 62bc
00000320: 102a 083e b579 b6bd b3ac 6d3d 81b3 c3bc
00000330: be63 bfbd 234d 183a 460e 33bd 088a 2a3e
00000340: 96c3 b63d cdcc fd3c 4935 1e3d 7182 153d
00000350: 9d47 a53d 9ced b1bc 1e8f 20bd 5765 26bd
00000360: 168e 8ebb 4e45 af3b 2408 08be e7a4 0d3d
00000370: b73c ae3c c820 4e3c cc05 023d b1ba f9bc
00000380: 1381 0c3d 4ae4 2d3d 6b72 113d e488 13be
00000390: 619e 963c 0dc1 0abd 0bf2 01be 6138 7a3d
000003a0: 4ed9 27bd ddf7 29bd 766a e73d c0e1 6cbd
000003b0: 2fff b5bd 7a7e c83b bf6b b43d 8e22 bc3d
000003c0: 9680 c83c 48e3 523d de86 c33d 7697 a53d
000003d0: 9a0a 89bd c6c2 89bc 1f72 d5bd e8e9 bcbc
000003e0: 33b1 a5bd 95ec 96bd d04e 603d 21d5 8d3d
000003f0: 4058 0b3d 545f 3eba 2aa1 243d bf66 133e

net.3.module.0.bias f4 [32]
-0.06018871 -0.03135776 -0.05710785 -0.044817396 -0.046794336 -0.0062932465 0.016552906 -0.039199997
-0.009396893 -0.065567054 -0.0045966324 -0.07134777 0.082179464 -0.074987546 -0.07083857 -0.035293527
-0.07041018 0.038164765 -0.021889972 0.0049378523 0.03475731 -0.025894204 -0.01058564 0.07120749
-0.036943574 -0.0095830895 -0.03887676 -0.076343305 -0.088403285 0.077915475 0.010594558 0.06285229
00000000: 7088 76bd ff70 00bd ece9 69bd 7292 37bd
00000010: 6bab 3fbd 9437 cebb f699 873c 2d90 20bd
00000020: 6df5 19bc 0548 86bd 599f 96bb c81e 92bd
00000030: b54d a83d 1293 99bd d013 91bd f28f 10bd
00000040: 3633 90bd a852 1c3d 9952 b3bc b5cd a13b
00000050: ae5d 0e3d 1520 d4bc 646f 2dbc 3cd5 913d
00000060: 2552 17bd 6402 1dbc 3d3d 1fbd e159 9cbd
00000070: c80c b5bd 2692 9f3d cc94 2d3c b4b8 803d

net.4.module.0.weight f4 [32, 32, 3]
-0.11532556 -0.03582297 0.038714107 -0.18284534 0.022805097 0.05084834 -0.023773028 -0.0400788
-0.07002743 -0.053558726 -0.06122254 0.080365874 0.056319658 0.002441031 0.015753202 0.089780994
-0.0021728291 -0.06255715 0.044378716 -0.06946606 -0.064288884 0.0018846669 0.03132251 -0.047474895
0.07456279 0.033849344 0.077854514 0.05968292 0.009591274 -0.099032976 -0.07180477 -0.084532835
-0.023606753 -0.005569513 -0.0028237586 -0.020237733 -0.095987655 -0.07515769 0.053157832 0.0023027235
0.035695568 -0.002805194 -0.06048343 -0.039933685 -0.007007704 -0.114149384 -0.031982478 0.02402479
-0.034383293 -0.03920177 0.0016575059 -0.026618455 0.035152975 -0.043910205 0.07804799 -0.015559965
0.07288185 -0.004404639 -0.060093015 -0.06994439 -0.06775622 0.022147596 0.05822446 0.10423547
0.03403457 0.05071359 -0.012423807 -0.012795308 -0.05087132 -0.084451236 -0.05235826 0.06825702
-0.073738255 0.098595284 -0.00486673 -0.027152352 -0.10268776 0.020493027 -0.05689846 -0.05166455
0.034567587 -0.035102565 -0.069557965 -0.02716721 -0.010387808 -0.08441963 -0.0016986713 0.086682945
-0.07347811 -0.086898856 0.008894603 -0.05351947 0.14030135 0.034072194 0.047897942 0.051250555
0.03313435 0.062091906 -0.10371395 0.05986215 -0.036170073 -0.028097538 -0.046936046 -0.08252497
-0.13018687 0.10790828 -0.054567598 0.11324666 0.056013044 -0.02117951 0.00013645731 -0.091794394
-0.04003779 0.08433798 -0.13518368 0.03869398 0.022451902 0.044035833 0.03491339 -0.2105613
0.08769824 0.031861298 0.0021203088 0.074532956 0.06297284 -0.043707047 -0.08021632 -0.041325048
0.13400023 -0.041887067 -0.07037663 -0.009517107 -0.022456111 0.11417093 0.0033404138 -0.02677504
-0.038303576 -0.013827988 -0.06348739 -0.07437603 -0.03297906 0.07656199 -0.07010303 0.15832867
-0.039826296 -0.02236637 -0.031576313 -0.06963383 0.007968096 0.002195167 0.08204008 0.029285084
-0.08024038 -0.07346635 -0.058106236 0.07027141 0.054968372 -0.020445831 -0.059420064 0.08602096
-0.08165383 -0.017907435 -0.006814402 -0.13038097 -0.07282607 0.16800196 -0.11151587 0.041449893
0.015722858 0.031105146 0.052026957 -0.050900836 -0.05428387 0.07626373 -0.05005709 0.096537784
0.061710853 -0.09738725 -0.0357155 0.06549371 0.09331788 -0.038532052 0.004549683 -0.10109987
-0.09515252 0.044136442 0.040227585 0.026944472 -0.053223114 0.16466287 0.054125488 0.08745574
0.018783366 -0.101597674 0.009661627 0.0049239453 0.09314278 0.1063548 0.010915212 0.0407542
0.035213664 -0.14061832 -0.045684535 -0.040336903 0.064783074 0.018226463 -0.03434417 -0.0021185454
-0.03697773 0.09448961 0.103279494 0.042507418 -0.035435382 0.02144976 -0.05911046 0.008724317
-0.07576434 -0.047370233 0.042097833 -0.028258933 -0.05897601 -0.09257271 -0.09649838 -0.051550653
0.034491558 -0.089353584 -0.12280919 -0.041683737 0.06503252 0.12265009 0.07748421 -0.0022524346
-0.09639506 -0.053792585 0.13222979 -0.010108429 -0.070364326 -0.0757622 -0.015201777 -0.043206323
0.014249612 0.009507848 0.05824102 0.1474879 -0.03564001 0.059722 -0.10395805 -0.12145718
-0.00080208236 0.04769967 -0.08566276 -0.023175737 0.08585633 0.08442988 0.0715959 0.035661735
00000000: cf2f ecbd 1bbb 12bd af92 1e3d cf3b 3bbe
00000010: c1d1 ba3c 5946 503d a7bf c2bc ab29 24bd
00000020: 8b6a 8fbd 6560 5bbd 7cc4 7abd dd96 a43d
00000030: 71af 663d b4f9 1f3b dc0c 813c 19df b73d
00000040: 0666 0ebb f71d 80bd 75c6 353d 3944 8ebd
00000050: e4a9 83bd ed06 f73a 084c 003d 0975 42bd
00000060: 60b4 983d 9ca5 0a3d 3072 9f3d 1476 743d
00000070: b824 1d3c cdd1 cabd 610e 93bd 8d1f adbd
00000080: f362 c1bc 7680 b6bb cf0e 39bb 9ac9 a5bc
00000090: 2d95 c4bd 46ec 99bd 07bc 593d 4ae9 163b
000000a0: 8435 123d 58d7 37bb 79bd 77bd 8191 23bd
000000b0: e2a0 e5bb 27c7 e9bd 0f00 03bd a3cf c43c
000000c0: 7fd5 0cbd 0992 20bd ab40 d93a f20e dabc
000000d0: 91fc 0f3d 30db 33bd a0d7 9f3d 39ef 7ebc
000000e0: 1443 953d ca54 90bb 1824 76bd 013f 8fbd
000000f0: c6c3 8abd e06e b53c c57c 6e3d 6879 d53d
00000100: d567 0b3d 0eb9 4f3d 398d 4bbc 69a3 51bc
00000110: 725e 50bd c5f4 acbd 9d75 56bd 56ca 8b3d
00000120: 1504 97bd 53ec c93d 1779 9fbb 9c6e debc
00000130: f64d d2bd fee0 a73c 5c0e 69bd 359e 53bd
00000140: be96 0d3d b5c7 0fbd 6874 8ebd c58d debc
00000150: a031 2abc 33e4 acbd f3a5 deba d486 b13d
00000160: b17b 96bd 07f8 b1bd abba 113c 3b37 5bbd
00000170: 28ab 0f3e 498f 0b3d a230 443d 1aec 513d
00000180: e2b7 073d 1554 7e3d fb67 d4bd 0432 753d
00000190: 1227 14bd cf2c e6bc 0340 40bd da02 a9bd
000001a0: b54f 05be 04ff dc3d 4682 5fbd dded e73d
000001b0: ef6d 653d a780 adbc fb15 0f39 b3fe bbbd
000001c0: aafe 23bd 64b9 ac3d 976d 0abe 947d 1e3d
000001d0: 0ded b73c eb5e 343d 5801 0f3d 629d 57be
000001e0: 239b b33d fe80 023d e1f4 0a3b bca4 983d
000001f0: e8f7 803d 2906 33bd 7448 a4bd 7444 29bd
00000200: 5b37 093e c691 2bbd 9f21 90bd a4ed 1bbc
00000210: e1f5 b7bc 73d2 e93d d8ea 5a3b 5457 dbbc
00000220: 36e4 1cbd c98e 62bc ad05 82bd 7652 98bd
00000230: 0d15 07bd 88cc 9c3d 2d92 8fbd e920 223e
00000240: e620 23bd ad39 b7bc 2a56 01bd 2e9c 8ebd
00000250: 9e8c 023c cadc 0f3b a104 a83d 46e7 ef3c
00000260: 1155 a4bd 8775 96bd ce00 6ebd 75ea 8f3d
00000270: 8426 613d 047e a7bc 7462 73bd c22b b03d
00000280: 203a a7bd 9db2 92bc 594b dfbb 9782 05be
00000290: d625 95bd b508 2c3e 6f62 e4bd 5dc7 293d
000002a0: 39cd 803c 38d0 fe3c 381a 553d 657d 50bd
000002b0: c358 5ebd 2930 9c3d aa08 4dbd 9ab5 c53d
000002c0: 85c4 7c3d f772 c7bd 6b4a 12bd 9121 863d
000002d0: 721d bf3d c9d3 1dbd 8215 953b 730d cfbd
000002e0: 53df c2bd 6ac8 343d aec5 243d a7ba dc3c
000002f0: 7b00 5abd 629d 283e b0b2 5d3d ff1b b33d
00000300: 93df 993c 7112 d0bd cd4b 1e3c 0c59 a13b
00000310: a4c1 be3d 8cd0 d93d b8d5 323c e0ed 263d
00000320: 343c 103d 40fe 0fbe b51f 3bbd 4f38 25bd
00000330: fdac 843d aa4f 953c 79ac 0cbd 4bd7 0abb
00000340: f675 17bd c583 c13d 3384 d33d 421c 2e3d
00000350: b124 11bd 68b7 af3c cf1d 72bd 70f0 0e3c
00000360: 562a 9bbd 4a07 42bd c76e 2c3d 477f e7bc
00000370: d490 71bd c396 bdbd f1a0 c5bd c726 53bd
00000380: 0547 0d3d 03ff b6bd 6283 fbbd 91bc 2abd
00000390: c52f 853d f82f fb3d 0bb0 9e3d 959d 13bb
000003a0: c66a c5bd 9d55 5cbd 3f67 073e d39d 25bc
000003b0: 2c1b 90bd 3629 9bbd e010 79bc 1df9 30bd
000003c0: 3477 693c cec6 1b3c 238e 6e3d 1107 173e
000003d0: 42fb 11bd 0e9f 743d f5e7 d4bd 8bbe f8bd
000003e0: d642 52ba bb60 433d f56f afbd 0bdb bdbc
000003f0: 72d5 af3d 93e9 ac3d dfa0 923d 0a12 123d

net.4.module.0.bias f4 [32]
-0.036616176 0.07540944 0.10573254 0.07506543 -0.0076101273 -0.0015460944 -0.032306522 0.012308181
0.049395435 -0.055334378 -0.07318163 0.053926166 0.010122404 -0.059353136 -0.026216866 -0.057993043
0.0037593108 0.052016202 0.008126043 -0.016736403 0.0084810145 0.060113873 -0.017272547 0.03335399
-0.035490233 0.05773965 0.100838445 -0.0018207546 0.04271961 0.074705064 0.07672495 0.029194271
00000000: d8fa 15bd 4470 9a3d 4d8a d83d e7bb 993d
00000010: 605e f9bb 52a6 caba d853 04bd 41a8 493c
00000020: de52 4a3d 4da6 62bd 40e0 95bd afe1 5c3d
00000030: 71d8 253c 461c 73bd c1c4 d6bc 1d8a 6dbd
00000040: c55e 763b f10e 553d 1823 053c c81a 89bc
00000050: f4f3 0a3c f739 763d 287f 8dbc 329e 083d
00000060: 355e 11bd 6980 6c3d 6384 ce3d 63a6 eeba
00000070: c2fa 2e3d f8fe 983d f821 9d3d d328 ef3c

net.5.weight f4 [48, 32, 3]
0.081481956 0.012608469 -0.06482703 0.05359507 -0.110490315 0.067063116 0.089506805 -0.09618659
0.039960377 0.07061126 -0.007384748 -0.048163287 0.015679136 -0.055899568 -0.009429472 -0.007816604
0.04892858 0.015051014 -0.0490327 -0.027256025 -0.063975446 0.022652717 0.05926158 -0.054735035
-0.020956416 0.08578294 -0.03953812 0.025875963 -0.057756558 -0.068381906 0.037465267 -0.064789884
-0.022844657 -0.0062278584 -0.06471113 0.054326154 0.055563938 0.01752186 -0.11544563 -0.084794424
-0.013339996 0.02181889 0.057648677 0.07299065 -0.022882277 -0.03665766 -0.009129977 -0.040654317
0.07930316 0.0054535503 -0.022819811 0.01948291 0.00023696356 0.084100805 0.11916819 0.045604054
-0.050628472 -0.10154573 0.038942132 -0.0027068213 0.0049950113 0.061529197 0.11615444 -0.072906815
0.04189175 0.045440547 0.10943728 0.0270989 -0.06836572 -0.04586336 -0.058208264 -0.03613346
-0.11658123 -0.038703144 0.10336907 -0.06867497 0.055228446 -0.032005124 0.13291436 0.040149126
0.031216193 -0.022091435 -0.01530059 -0.01057964 -0.012417235 -0.07573746 -0.10693926 0.0032183134
-0.091065995 -0.079083756 0.1253845 -0.037416693 -0.08444884 -0.03771885 0.028568145 -0.010073283
0.02853956 -0.063412145 0.057941914 -0.018951014 -0.06603008 0.070608065 -0.03541628 0.027815396
-0.027350292 0.06053411 -0.050853793 0.0945273 -0.04925026 0.07196859 -0.03824796 -0.03278536
0.04035478 -0.020894818 -0.124494076 -0.01719802 -0.04701001 0.034492154 -0.012057532 0.028346142
0.093068 -0.107415706 -0.09164829 -0.074915275 -0.05620446 0.045597278 0.06565876 -0.069723554
0.09017475 0.058615796 -0.073588714 0.103086665 -0.07643684 -0.030479368 0.024681916 0.092731185
-0.13820925 0.004853135 -0.026142186 0.066614926 -0.0027079396 0.101388335 -0.08632819 -0.018170238
-0.05213388 -0.0024397846 -0.0051292423 0.080533594 -0.018594263 0.092899196 -0.0062777987 0.027254377
-0.06870286 -0.03172901 -0.089355364 0.07139745 0.08253157 -0.06704075 0.06369809 0.019038495
0.09976763 -0.0025811067 0.051668763 -0.07117158 -0.07667475 0.09962203 0.02160811 0.008843815
0.072179966 -0.010685407 -0.041461132 -0.00667754 -0.091260485 0.081387565 0.07003389 0.09254869
-0.060894135 0.01395217 0.08702602 -0.0054221577 -0.034003545 -0.055224985 0.056193203 -0.024443848
-0.0068647526 0.057929788 0.00049341226 0.08373236 -0.058000024 -0.09426585 -0.034153882 -0.08562463
0.06187052 -0.0015604384 0.059225205 -0.13858084 0.032700405 -0.01673167 -0.013056872 -0.014747397
-0.021602022 0.12830251 -0.01413233 0.03701466 -0.025582071 -0.00070678553 0.019826546 -0.11029968
0.08426824 -0.058509428 0.041907366 -0.05923686 0.106176615 0.057561066 -0.05810388 0.10847625
-0.014456001 -0.020743065 0.044065997 0.03441695 0.07127456 0.032479923 0.033384226 0.063898675
-0.120515384 -0.022496466 -0.14008112 0.1171541 -0.019916613 0.00060925866 0.060912922 0.026252842
0.003909709 0.09674333 0.07990498 0.046906516 0.028019207 -0.033431645 0.016229078 -0.028428854
-0.034010537 0.08247207 -0.02874738 0.02263267 -0.033352077 -0.031920902 0.16276227 -0.14716227
-0.11717412 0.04245123 0.040053938 -0.048726864 -0.050581466 0.050237887 0.08370189 0.095583625
00000000: 03e0 a63d c193 4e3c 09c4 84bd 8186 5b3d
00000010: bf48 e2bd 6358 893d 584f b73d 7afd c4bd
00000020: 7ead 233d a39c 903d c2fb f1bb de46 45bd
00000030: 8871 803c f2f6 64bd 127e 1abc 3711 00bc
00000040: 5669 483d 8798 763c 83d6 48bd 0748 dfbc
00000050: 8f05 83bd 3192 b93c 45bc 723d d831 60bd
00000060: caac abbc f7ae af3d b9f2 21bd d4f9 d33c
00000070: 2492 6cbd d00b 8cbd 2e75 193d 8fb0 84bd
00000080: b824 bbbc 1013 ccbb 4587 84bd 1a85 5e3d
00000090: 0397 633d 018a 8f3c c26e ecbd b3a8 adbd
000000a0: 0090 5abc 87bd b23c 0521 6c3d 1f7c 953d
000000b0: 9d73 bbbc 5826 16bd e695 15bc 2485 26bd
000000c0: b269 a23d b2b3 b23b 9df0 babc a09a 9f3c
000000d0: 6c79 7839 0b3d ac3d 740e f43d 51cb 3a3d
000000e0: cd5f 4fbd 35f7 cfbd c981 1f3d ed64 31bb
000000f0: 31ad a33b 0a06 7c3d 61e2 ed3d 2b50 95bd
00000100: af96 2b3d de1f 3a3d a720 e03d 83fe dd3c
00000110: 5403 8cbd 38db 3bbd ca6b 6ebd ae00 14bd
00000120: 24c2 eebd 3087 1ebd 2ab3 d33d 76a5 8cbd
00000130: 3937 623d ce17 03bd b41a 083e 6973 243d
00000140: 1ab9 ff3c 19f9 b4bc 53af 7abc 3a56 2dbc
00000150: a971 4bbc 3e1c 9bbd f902 dbbd 57ea 523b
00000160: cf80 babd aaf6 a1bd cb64 003e 3f42 19bd
00000170: 83f3 acbd 157f 1abd be07 ea3c 690a 25bc
00000180: cccb e93c 3ade 81bd 8054 6d3d 283f 9bbc
00000190: c73a 87bd f69a 903d a910 11bd 1ddd e33c
000001a0: b80d e0bc 9df2 773d 114c 50bd 8797 c13d
000001b0: a4ba 49bd 4564 933d e5a9 1cbd f149 06bd
000001c0: 0e4b 253d 9c2b abbc c0f6 febd dde2 8cbc
000001d0: 918d 40bd a547 0d3d f48c 45bc 2b36 e83c
000001e0: 709a be3d c4fc dbbd 19b2 bbbd 2e6d 99bd
000001f0: a636 66bd 36c4 3a3d 1a78 863d 39cb 8ebd
00000200: 8aad b83d 1e17 703d aeb5 96bd 1a1f d33d
00000210: eb8a 9cbd deaf f9bc bb31 ca3c d9e9 bd3d
00000220: ba86 0dbe 0c07 9f3b 2328 d6bc 686d 883d
00000230: b077 31bb b0a4 cf3d d6cc b0bd c0d9 94bc
00000240: 568a 55bd cbe4 1fbb 3413 a8bb ccee a43d
00000250: ff52 98bc ef41 be3d feb5 cdbb 9244 df3c
00000260: 16b4 8cbd 47f6 01bd f2ff b6bd d438 923d
00000270: 5006 a93d a94c 89bd 2574 823d 9ef6 9b3c
00000280: f952 cc3d c927 29bb a0a2 533d 68c2 91bd
00000290: a707 9dbd a306 cc3d 7e03 b13c a6e5 103c
000002a0: 17d3 933d d811 2fbc 26d3 29bd 44cf dabb
000002b0: c7e6 babd 86ae a63d ee6d 8f3d 2b8a bd3d
000002c0: 216c 79bd a497 643c b33a b23d 5bac b1bb
000002d0: 4d47 0bbd 9833 62bd d82a 663d 773e c8bc
000002e0: b8f1 e0bb c947 6d3d 5658 013a df7b ab3d
000002f0: 6f91 6dbd 740e c1bd f1e4 0bbd f75b afbd
00000300: f16b 7d3d a087 ccba 2196 723d 23e8 0dbe
00000310: dcf0 053d db10 89bc 7eec 55bc 119f 71bc
00000320: b9f6 b0bc bc61 033e 4a8b 67bc af9c 173d
00000330: 7e91 d1bc 9347 39ba 486b a23c cce4 e1bd
00000340: d494 ac3d 95a7 6fbd 0fa7 2b3d 5aa2 72bd
00000350: 2073 d93d 27c5 6b3d 56fe 6dbd cc28 de3d
00000360: ddd8 6cbc 5ced a9bc 8c7e 343d caf8 0c3d
00000370: 66f8 913d ab09 053d e6bd 083d 4fdd 823d
00000380: c5d0 f6bd 824a b8bc 6d71 0fbe 7dee ef3d
00000390: 2a28 a3bc a8b6 1f3a d47f 793d 3310 d73c
000003a0: 041d 803b 5e21 c63d 39a5 a33d 0c21 403d
000003b0: 8988 e53c 9fef 08bd d8f2 843c a1e3 e8bc
000003c0: a24e 0bbd 1ee7 a83d a07f ebbc 2668 b93c
000003d0: 309c 08bd 7ebf 02bd 27ab 263e b5b1 16be
000003e0: fcf8 efbd 57e1 2d3d 990f 243d d295 47bd
000003f0: 832e 4fbd 3ec6 4d3d e66b ab3d 59c1 c33d

net.5.bias f4 [48]
0.09764085 0.03862526 0.03190405 -0.098611005 0.071191214 0.00504316 0.054215647 0.06864706
0.052408107 -0.036084738 0.0218439 -0.0010116968 -0.08157378 0.0011931899 0.08325211 -0.06679906
0.09672906 -0.06624055 0.07403107 -0.06317202 -0.004708007 0.034776945 -0.060892593 -0.02969728
0.0712631 0.06975151 -0.078641206 -0.040870663 0.05170947 -0.04438555 0.052808974 -0.052904427
0.040342513 -0.046313573 -0.05831993 0.037645787 0.022694994 -0.04709136 -0.054106507 0.0772446
0.04708887 -0.01777688 0.05802117 0.02153178 -0.07603984 -0.02418193 -0.07217822 -0.022454983
00000000: edf7 c73d 8535 1e3d d2ad 023d 91f4 c9bd
00000010: b3cc 913d 1841 a53b 3a11 5e3d d496 8c3d
00000020: e2a9 563d 97cd 13bd fbf1 b23c e99a 84ba
00000030: 2710 a7bd cf64 9c3a 1580 aa3d f2cd 88bd
00000040: e319 c63d 20a9 87bd 9a9d 973d 5560 81bd
00000050: a045 9abb 4572 0e3d 836a 79bd b647 f3bc
00000060: 63f2 913d e1d9 8e3d a40e a1bd ff67 27bd
00000070: 4fcd 533d 9fcd 35bd 394e 583d 50b2 58bd
00000080: 313e 253d 4db3 3dbd e1e0 6ebd 7832 1a3d
00000090: daea b93c dfe2 40bd c99e 5dbd 6b32 9e3d
000000a0: 42e0 403d d2a0 91bc 9ba7 6d3d 6a63 b03c
000000b0: c7ba 9bbd 2f19 c6bc 2dd2 93bd 83f3 b7bc

exp_avg f4 [32, 191, 2]
0.010185236 0.00807507 -0.10260117 -0.09349392 0.010374527 -0.0053246953 -0.13323493 -0.084604986
-0.05463437 0.0023023558 0.08927368 0.070540585 -0.008682896 -0.13854484 -0.0088432 0.011791117
-0.10150876 -0.0032197416 -0.124809965 -0.04632978 0.017281743 0.096100986 -0.13937756 -0.23613058
0.0048863883 -0.0037025546 -0.058752436 -0.03813033 -0.099679485 -0.20499101 -0.13962576 -0.068211816
0.016690956 0.025832415 -0.13928355 -0.107611895 0.06504712 0.047279228 -0.10345037 -0.035361096
0.022488918 0.023141503 -0.021615844 0.026645888 -0.03359549 -0.028950995 0.03000286 0.052374642
-0.23108503 -0.25742427 -0.03524604 -0.05730883 -0.13668022 -0.05841931 -0.27182916 -0.19380088
0.04791054 0.026233904 0.14303778 0.19718571 0.11850576 0.08150395 0.022167275 0.06077044
-0.18612072 -0.17733446 0.005186288 -0.087311976 0.026313357 -0.008747043 -0.09710156 -0.11204034
0.08313048 0.09642092 -0.017001273 -0.046792675 0.0029866844 0.07112677 -0.035093203 -0.113203086
-0.059784446 0.0037530488 0.08213245 0.061064187 -0.09680103 -0.21498197 -0.04885424 -0.048600886
0.13189839 0.15595597 -0.012241993 -0.06011349 -0.021301113 -0.06835345 0.049048677 0.046307743
0.052846447 0.028631642 -0.12935333 -0.14762741 -0.32278338 -0.18996169 0.015928343 0.14869167
-0.30122033 -0.2118191 0.11520446 0.08342706 0.058419824 0.114422545 -0.17310731 -0.118138194
-0.08201645 -0.034973815 0.14744934 0.15659401 -0.05168894 -0.038672432 0.09435589 0.101463445
-0.15086901 -0.06484201 0.057355803 0.09240672 -0.028948396 -0.060683604 -0.026965873 0.008094415
0.061572034 0.041476447 -0.043314967 0.004943529 -0.0052357665 0.06929409 -0.048177168 -0.06714521
0.04438525 0.010680395 0.026044175 -0.017080076 0.14389588 0.06595582 0.06273231 -0.026804695
0.00024377469 0.041065253 0.010799687 -0.027480876 -0.010806807 -0.0019220727 -0.22950594 -0.115286365
-0.024314055 0.0070589134 0.045297816 0.012355175 0.037253108 0.06250641 0.20207815 0.31086376
-0.1540193 -0.029889511 0.18251096 0.10543475 -0.09690351 -0.051780842 0.14970972 0.2135909
-0.038316384 0.07776148 0.17049074 0.020140711 -0.12895729 -0.017087266 0.015632065 0.06256797
-0.12054882 -0.03694923 -0.029201856 -0.011667273 0.0400447 0.124551624 -0.06999297 -0.09036557
0.16953525 0.15349127 -0.091324374 0.034994073 -0.021658905 0.074280724 -0.009672101 -0.022671327
0.16535982 0.0710329 0.11512623 0.105237894 0.055837117 0.12233343 -0.09366094 -0.19024599
-0.0684124 0.0211633 0.049596127 -0.023608543 0.024444588 0.17065041 -0.08374723 -0.015838718
-0.12217163 -0.13420717 0.1296718 0.04567577 0.13721511 0.20830068 -0.09983649 -0.0820458
0.021286733 0.12048579 0.15606566 0.11942627 0.034475453 0.034530327 -0.117000625 -0.018340997
-0.008373159 0.046245057 0.028733304 0.047250453 0.14201657 0.0899185 -0.097014524 -0.04713772
0.062295895 0.05038169 -0.19828025 -0.15607929 0.040929973 0.012020055 0.08108155 -0.022039445
-0.06667094 0.013472434 0.013929653 -0.12390163 -0.016230537 0.080271594 0.029240968 0.043988686
-0.091761574 -0.07000922 -0.14033751 -0.081262566 -0.004492784 -0.03845796 0.13514866 0.09961677
00000000: fadf 263c 4c4d 043c 9020 d2bd be79 bfbd
00000010: ecf9 293c c87a aebb bd6e 08be 6145 adbd
00000020: 4ac8 5fbd 1fe3 163b 1ed5 b63d 9577 903d
00000030: b542 0ebc b3de 0dbe 12e3 10bc 872f 413c
00000040: d3e3 cfbd 4d02 53bb 5e9c ffbd 4cc4 3dbd
00000050: 7192 8d3c 98d0 c43d feb8 0ebe 37cc 71be
00000060: ff1d a03b 8fa6 72bb 65a6 70bd 8d2e 1cbd
00000070: c224 ccbd 2ae9 51be 0efa 0ebe a3b2 8bbd
00000080: 79bb 883c 809e d33c 59a0 0ebe a063 dcbd
00000090: 6d37 853d dda7 413d cadd d3bd ccd6 10bd
000000a0: ae3a b83c 4093 bd3c b613 b1bc 7a48 da3c
000000b0: 6d9b 09bd a32a edbc 8fc8 f53c cb86 563d
000000c0: 8ea1 6cbe 1dcd 83be 275e 10bd aabc 6abd
000000d0: e6f5 0bbe 1649 6fbd 312d 8bbe bd73 46be
000000e0: d83d 443d 7ce8 d63c 7f78 123e 0deb 493e
000000f0: 26b3 f23d 8beb a63d 2598 b53c 6dea 783d
00000100: 6e96 3ebe 2a97 35be bdf1 a93b 9fd0 b2bd
00000110: 1c8f d73c c24f 0fbc 2fdd c6bd 6875 e5bd
00000120: 5040 aa3d 5578 c53d 4146 8bbc ada9 3fbd
00000130: 40bc 433b e9aa 913d e4bd 0fbd 05d7 e7bd
00000140: 89e0 74bd b6f5 753b 0f35 a83d 711e 7a3d
00000150: 9e3f c6bd 3c24 5cbe 621b 48bd b911 47bd
00000160: 5f10 073e ecb2 1f3e a492 48bc 9039 76bd
00000170: ac7f aebc e5fc 8bbd 44e7 483d 30ad 3d3d
00000180: 8475 583d e88c ea3c 3375 04be a42b 17be
00000190: dd43 a5be 5185 42be 287c 823c a142 183e
000001a0: 8d39 9abe 1be7 58be 51f0 eb3d cedb aa3d
000001b0: a049 6f3d 5e56 ea3d 0b43 31be 70f2 f1bd
000001c0: 3ef8 a7bd b440 0fbd f6fc 163e 2e5a 203e
000001d0: c8b7 53bd fc66 1ebd a93d c13d 11cc cf3d
000001e0: 687d 1abe e3cb 84bd ebed 6a3d bc3f bd3d
000001f0: 3025 edbc 5f8f 78bd 89e7 dcbc 709e 043c
00000200: f532 7c3d 35e3 293d 096b 31bd 54fd a13b
00000210: cb90 abbb 0fea 8d3d 6c55 45bd 6e83 89bd
00000220: 4fcd 353d d3fc 2e3c 985a d53c 84eb 8bbc
00000230: 7159 133e d813 873d cc79 803d 8595 dbbc
00000240: c59d 7f39 0a34 283d 2cf1 303c 931f e1bc
00000250: 090f 31bc 0fee fbba 9b03 6bbe 421b ecbd
00000260: 452e c7bc 754e e73b 348a 393d 5c6d 4a3c
00000270: b796 183d 5c03 803d 93ed 4e3e 8929 9f3e
00000280: 3cb7 1dbe d9da f4bc 27e4 3a3e 2dee d73d
00000290: 5975 c6bd 2618 54bd 814d 193e 93b7 5a3e
000002a0: a4f1 1cbd 6941 9f3d 2095 2e3e 22fe a43c
000002b0: 610d 04be 98fa 8bbc d10e 803c a323 803d
000002c0: 4de2 f6bd 1358 17bd bb38 efbc 1728 3fbc
000002d0: e905 243d ec14 ff3d 7958 8fbd 9511 b9bd
000002e0: a69a 2d3e d12c 1d3e 4608 bbbd f255 0f3d
000002f0: 046e b1bc 7e20 983d bb77 1ebc 38b9 b9bc
00000300: 1654 293e b279 913d 4dc7 eb3d f786 d73d
00000310: 76b5 643d f389 fa3d 4fd1 bfbd d8cf 42be
00000320: cd1b 8cbd a85e ad3c 4f25 4b3d b466 c1bc
00000330: 0440 c83c fbbe 2e3e ab83 abbd 33c0 81bc
00000340: 1f35 fabd 9b6d 09be afc8 043e 8416 3b3d
00000350: 1e82 0c3e c64c 553e 1377 ccbd a107 a8bd
00000360: 8461 ae3c 41c1 f63d adcf 1f3e c395 f43d
00000370: 2236 0d3d ac6f 0d3d 069e efbd dc3f 96bc
00000380: 932f 09bc 756b 3d3d 1b62 eb3c b189 413d
00000390: cb6c 113e 3127 b83d 8daf c6bd 7b13 41bd
000003a0: fb29 7f3d 085d 4e3d fa09 4bbe 40d3 1fbe
000003b0: 30a6 273d c4ef 443c 150e a63d 118c b4bc
000003c0: c68a 88bd 7cbb 5c3c 3339 643c 23c0 fdbd
000003d0: e7f5 84bc 6f65 a43d c18a ef3c 7b2d 343d
000003e0: 7eed bbbd fe60 8fbd a3b4 0fbe fd6c a6bd
000003f0: 3438 93bb 1886 1dbd 6964 0a3e e103 cc3d

exp_avg_sq f4 [32, 191, 2]
0.00087139546 0.00092865055 0.73567504 0.7465065 0.3089771 0.29441255 0.30748153 0.33700818
0.29072142 0.27316362 0.1572442 0.17393275 0.36072838 0.37566498 0.22548054 0.23274398
0.13146266 0.13215686 0.3380546 0.35972178 0.5260667 0.55813193 0.6952427 0.6468592
0.26424083 0.28707892 0.27591267 0.27333367 0.48514593 0.50202835 0.7069994 0.6650985
0.073645756 0.07375931 0.2416243 0.27158523 0.3113103 0.34040105 0.21722887 0.21926972
0.039268274 0.03778158 0.54698443 0.53417295 0.18786247 0.19153565 0.19590819 0.22798936
0.557161 0.625729 0.22671185 0.26293725 0.19609699 0.18529175 0.51603943 0.5379706
0.50715244 0.47752085 0.20413698 0.214052 0.2581939 0.30401042 0.82164735 0.7341782
0.21102376 0.20956033 0.28829548 0.27560577 0.12686457 0.14161049 0.46252933 0.44968972
0.27212524 0.27520356 0.24507791 0.24170338 0.33122382 0.31554595 0.29756662 0.30793613
0.31818047 0.34050205 0.2683841 0.2789822 0.44466475 0.44744736 0.2063131 0.21776105
0.49429774 0.4679554 0.2812515 0.2780251 0.81800663 0.8274171 0.61785454 0.61308
0.1968444 0.18967718 0.34016082 0.36005127 0.755332 0.8092854 0.27820396 0.27180225
0.80435073 0.80665714 0.18237977 0.19678369 0.26918817 0.29441088 0.3556504 0.3379591
0.37868762 0.4047891 0.53406835 0.5164733 0.70954716 0.67911 0.626755 0.6878156
0.4198249 0.4738746 0.2209117 0.23048413 0.3327629 0.3399596 0.45359057 0.49559832
0.23726535 0.23611964 0.6060707 0.6715299 0.54889566 0.510444 0.297083 0.29449132
0.5503186 0.558553 0.6913546 0.6863498 0.40903416 0.38466454 0.15697546 0.14917284
0.16337943 0.17464274 0.16024977 0.16370992 0.36561397 0.36607748 0.46207738 0.5154405
0.43076515 0.44101098 0.48171148 0.5094671 0.74609065 0.7989039 0.412035 0.4267872
0.5942106 0.53653777 0.40062022 0.39696372 0.306934 0.3227345 0.6088155 0.61912954
0.19028628 0.20746002 0.44151822 0.45980987 0.6389723 0.6643781 0.42300507 0.483549
0.4292302 0.49344003 0.24343254 0.25404695 0.26296297 0.2963086 0.99147904 0.94613945
0.1870442 0.20649357 0.13723916 0.15227647 0.12946297 0.12080784 0.4175842 0.52635187
0.7019893 0.7209994 0.52947444 0.54477096 0.4018055 0.39553294 0.38306054 0.4273973
0.49077314 0.46560517 0.59909254 0.6121065 0.5620024 0.55231476 0.7435955 0.70549077
0.51398635 0.5315298 0.45598444 0.42380175 0.654949 0.67097247 0.78722143 0.781796
0.50715214 0.52231836 0.6027946 0.5425095 0.35424122 0.34753978 0.49568602 0.48951268
0.88684356 0.69067293 0.90068066 0.81557155 0.3709641 0.3635548 0.8984282 0.7652747
0.57526493 0.56218624 0.8169844 0.7942282 0.5838513 0.5397939 0.3357279 0.33223337
0.90124786 0.7957258 0.66684157 0.66767883 0.43333957 0.45436087 0.9005988 0.7583942
0.2765545 0.28118587 0.50041986 0.4143479 0.5883652 0.5336804 0.23191158 0.2446287
00000000: 5c6e 643a af70 733a 3355 3c3f 0d1b 3f3f
00000010: 3f32 9e3e 3ebd 963e 386e 9d3e 568c ac3e
00000020: 70d9 943e 1adc 8b3e a004 213e 6d1b 323e
00000030: 64b1 b83e 2957 c03e 5fe4 663e 7054 6e3e
00000040: 269e 063e 2154 073e 7e15 ad3e 742d b83e
00000050: 4fac 063f bce1 0e3f 6dfb 313f 9198 253f
00000060: 934a 873e 02fc 923e 6d44 8d3e 64f2 8b3e
00000070: 0c65 f83e ee84 003f eafd 343f e543 2a3f
00000080: 96d3 963d 1f0f 973d 5c6c 773e 380d 8b3e
00000090: 1064 9f3e 0c49 ae3e 3f71 5e3e 3e88 603e
000000a0: c5d7 203d dcc0 1a3d 2c07 0c3f 8fbf 083f
000000b0: 055f 403e ec21 443e 289c 483e 0b76 693e
000000c0: 1aa2 0e3f c72f 203f 2727 683e b69f 863e
000000d0: a6cd 483e 1fbd 3d3e 291b 043f 71b8 093f
000000e0: bed4 013f 9d7d f43e 4909 513e 7330 5b3e
000000f0: fe31 843e 41a7 9b3e 7b57 523f 1af3 3b3f
00000100: 9d16 583e fc96 563e 779b 933e 331c 8d3e
00000110: c9e8 013e 5702 113e a5d0 ec3e bb3d e63e
00000120: 0054 8b3e 7be7 8c3e b4f5 7a3e 1781 773e
00000130: 2b96 a93e 3d8f a13e a75a 983e cea9 9d3e
00000140: 8de8 a23e 4956 ae3e a469 893e c1d6 8e3e
00000150: 19ab e33e d217 e53e be43 533e c1fc 5e3e
00000160: 9814 fd3e da97 ef3e 3200 903e 4e59 8e3e
00000170: e268 513f 9bd1 533f b72b 1e3f d0f2 1c3f
00000180: 9491 493e bc3a 423e 8f29 ae3e a458 b83e
00000190: 705d 413f 542d 4f3f c070 8e3e aa29 8b3e
000001a0: eee9 4d3f 1581 4e3f c3c1 3a3e aa81 493e
000001b0: 08d3 893e 06bd 963e cf17 b63e fa08 ad3e
000001c0: 58e3 c13e 8440 cf3e b4b8 083f 9837 043f
000001d0: e2a4 353f 27da 2d3f 0473 203f af14 303f
000001e0: 4af3 d63e b19f f23e ad36 623e 0804 6c3e
000001f0: e65f aa3e 2f0f ae3e 063d e83e 10bf fd3e
00000200: b0f5 723e 59c9 713e 7327 1b3f 62e9 2b3f
00000210: 6d84 0c3f 75ac 023f 431b 983e 91c7 963e
00000220: aee1 0c3f 54fd 0e3f 9dfc 303f 9fb4 2f3f
00000230: ed6c d13e c0f2 c43e 2dbe 203e c4c0 183e
00000240: f04c 273e 8cd5 323e 8418 243e 93a3 273e
00000250: c131 bb3e 826e bb3e 6895 ec3e e9f3 033f
00000260: 408d dc3e 31cc e13e e3a2 f63e 706c 023f
00000270: ccff 3e3f f784 4c3f 40f6 d23e da83 da3e
00000280: 301e 183f 8a5a 093f 181e cd3e d43e cb3e
00000290: 7426 9d3e 753d a53e 55db 1b3f 467f 1e3f
000002a0: 68da 423e 6670 543e ad0e e23e 336c eb3e
000002b0: b093 233f af14 2a3f 1f94 d83e bc93 f73e
000002c0: 10c4 db3e 2ca4 fc3e 6146 793e 7112 823e
000002d0: 15a3 863e c3b5 973e 92d1 7d3f 3236 723f
000002e0: 8488 3f3e 0d73 533e 6c88 0c3e 5dee 1b3e
000002f0: f191 043e 1a6a f73d 99cd d53e ffbe 063f
00000300: 92b5 333f 6b93 383f a38b 073f 1c76 0b3f
00000310: 73b9 cd3e 4b83 ca3e 8320 c43e d2d3 da3e
00000320: 9e46 fb3e cd63 ee3e 215e 193f 03b3 1c3f
00000330: 64df 0f3f 8064 0d3f 465c 3e3f 0b9b 343f
00000340: 9c94 033f 5612 083f cb76 e93e 8bfc d83e
00000350: bdaa 273f dac4 2b3f 5887 493f c823 483f
00000360: b9d4 013f a8b6 053f bf50 1a3f e7e1 0a3f
00000370: 1b5f b53e bcf0 b13e 8fca fd3e 68a1 fa3e
00000380: 2e08 633f f1cf 303f 0293 663f 4cc9 503f
00000390: 02ef bd3e db23 ba3e 64ff 653f 0be9 433f
000003a0: 9044 133f 70eb 0f3f e425 513f 8a52 4b3f
000003b0: 4777 153f ef2f 0a3f 87e4 ab3e 7e1a aa3e
000003c0: 2eb8 663f b0b4 4b3f 21b6 2a3f 00ed 2a3f
000003d0: afde dd3e fda1 e83e a58d 663f 1f26 423f
000003e0: 8d98 8d3e 98f7 8f3e 841b 003f 6825 d43e
000003f0: 1a9f 163f 479f 083f 3b7a 6d3e f27f 7a3e

exp_avg f4 [32]
0.40640333 -0.4999417 0.28193477 -0.17658468 -0.21630317 -0.87315357 -0.26677543 -0.11130603
0.59936327 0.5639808 -0.016324848 0.20121613 -0.1057065 0.41999874 -1.1339298 0.26985902
0.06499157 0.28022 0.14307897 -1.448398 -0.96252483 0.828849 0.30612186 -0.49585435
-0.648437 0.9185266 0.39180744 -0.6553513 0.6185611 0.4388733 -0.26828903 -0.26258087
00000000: 1914 d03e 5cf8 ffbe c159 903e 9dd2 34be
00000010: 947e 5dbe fe86 5fbf ca96 88be 6af4 e3bd
00000020: df6f 193f 0c61 103f b0bb 85bc 9a0b 4e3e
00000030: a67c d8bd 130a d73e 9d24 91bf f62a 8a3e
00000040: 4d1a 853d ff78 8f3e 4b83 123e 1b65 b9bf
00000050: 0768 76bf 732f 543f 01bc 9c3e 9fe0 fdbe
00000060: f8ff 25bf 8f24 6b3f fc9a c83e 1ac5 27bf
00000070: 055a 1e3f 00b4 e03e 2e5d 89be 0071 86be

exp_avg_sq f4 [32]
5.63864 5.195671 7.5010495 4.382033 4.763177 7.4970903 6.5195932 7.786969
6.4625874 7.4525266 6.2004676 3.8210728 1.7834573 3.516894 4.8255615 6.9063263
7.6229863 8.312935 7.984552 8.039586 2.836067 7.268802 8.430027 1.6184193
5.768173 5.7472105 6.995059 5.8539543 5.21054 5.3329134 7.9959803 4.812993
00000000: bd6f b440 f042 a640 9908 f040 9d39 8c40
00000010: f26b 9840 2ae8 ef40 82a0 d040 da2e f940
00000020: 84cd ce40 197b ee40 3b6a c640 758c 7440
00000030: 5448 e43f cb14 6140 006b 9a40 a000 dd40
00000040: 81ef f340 c801 0541 7381 ff40 25a2 0041
00000050: 1f82 3540 079a e840 64e1 0641 5d28 cf3f
00000060: e094 b840 26e9 b740 86d7 df40 9853 bb40
00000070: bebc a640 3aa7 aa40 12df ff40 0a04 9a40
