saved_CEBRA_models/nitschke_20090812_20090819_20090910/CEBRA_models/temperature_0.0031333333333333335_time_offsets_2_dataset1.pt (torch, 531429 bytes, 31 tensors)

net.0.weight f4 [32, 191, 2]
0.012898357 0.033888668 0.017353635 0.0456111 -0.028352687 0.012162624 -0.048389707 0.017697077
0.07057565 -0.009416939 -0.041806158 -0.004084519 -0.0061711147 0.025982322 -0.004183527 0.04295899
-0.030625394 0.0013280689 0.013406805 -0.031181442 -0.056267552 0.030763973 -0.021854576 0.056064434
0.005140331 0.0134916715 -0.108974524 -0.029449802 -0.03668851 0.0053443327 0.038049173 -0.0038818014
0.010133615 0.04618474 -0.005339515 -0.029796451 0.015403796 0.0008106267 0.012671043 0.033199623
0.0064751566 0.03834186 -0.064215764 -0.0011029001 -0.011994458 -0.0001756746 -0.035349775 0.023637287
-0.019665055 -0.051283944 -0.047700673 -0.02557115 -0.009391 0.0019472415 -0.0049811793 -0.024875488
0.002884287 0.042077012 -0.05077971 0.0061863917 0.019610438 -0.054766633 -0.00453708 0.063986465
-0.009868258 0.0036426182 -0.028871344 0.03996975 -0.012269705 -0.037931584 0.017128354 0.055289343
-0.03288673 -0.020645948 0.02095172 0.009354681 -0.03382428 0.0703877 -0.035050735 0.0074822796
-0.0056569483 0.055483885 0.0062117493 -0.011664776 0.006827821 -0.027202576 0.003443459 0.004198805
0.04658053 -0.024541613 -0.028264463 0.00614667 -0.030139778 -0.012607287 -0.013842281 0.031507853
-0.042122845 0.109409936 -0.006734005 -0.018931739 -0.0064768153 0.010462293 -0.032894064 -0.009017491
-0.011364335 -0.042432696 0.089074604 0.0055914605 -0.055270348 -0.027286742 -0.042973056 0.029620145
-0.00110922 0.008598759 -0.017835168 -0.041494165 -0.062013205 -0.005752076 -0.008001918 0.015998924
-0.051208436 -0.02380899 0.025769394 -0.016668111 0.009838495 0.044141293 -0.04553678 0.0252398
-0.022911292 0.0021235792 -0.0369824 0.015356454 -0.049851496 0.019411312 0.030893361 0.03907297
-0.023940139 0.023518544 0.001115537 -0.03318979 -0.055449102 -0.06168787 -0.008204231 0.012948367
-0.0023195515 0.056896262 0.03286833 -0.002990378 0.0150580015 -0.035039578 0.08366563 -0.044823885
-0.001981415 -0.0288218 -0.07754512 -0.057884105 -0.093178615 -0.042574286 -0.0028621054 -0.05049786
0.00741999 -0.003311341 -0.022483343 0.035895538 -0.08996778 -0.0047628204 -0.04840043 -0.00616364
0.019054763 -0.05066767 0.04527798 0.038318183 -0.025369378 -0.0043331045 -0.06099649 -0.022475073
0.05694703 0.021651808 0.013436512 0.040142514 -0.005936472 -0.034615174 0.03963643 -0.03752372
0.033611268 0.027168538 0.014114881 0.06524957 0.022984477 0.07533818 0.0051250616 -0.023793774
0.028653212 0.022766408 -0.0009297843 -0.029539507 0.008030919 0.017004522 -0.02846694 0.025856884
-0.023354055 0.050675713 -0.0034496204 0.020715829 -0.02927433 -0.011483944 0.020070998 0.037808027
0.01590796 -0.010831422 0.008564448 -0.009068118 -0.01975402 0.008452948 -0.06620491 -0.0038721154
-0.044773534 0.010973844 0.0113296425 0.048673034 0.017687062 0.026858198 0.009996948 0.008166281
0.024562562 -0.027986312 -0.0007997621 0.033785667 0.04978095 0.07803802 -0.026510885 0.00012409867
-0.014748059 0.01325271 -0.06992952 -0.013491334 -0.03062588 0.013594952 0.035889998 0.012142662
-0.015269089 -0.0076113613 -0.041582145 -0.014359406 -0.04665666 0.023538763 0.005633356 -0.02596319
0.017910313 0.007199699 0.04248625 0.02931463 0.020457571 0.052483175 0.021354886 0.030759702
00000000: a153 533c d8ce 0a3d 3629 8e3c b4d2 3a3d
00000010: e543 e8bc be45 473c 4934 46bd 76f9 903c
00000020: f789 903d 8149 1abc ef3c 2bbd 6ed7 85bb
00000030: 1037 cabb e1d8 d43c f815 89bb c4f5 2f3d
00000040: 1be2 fabc 9912 ae3a 37a8 5b3c 3970 ffbc
00000050: ce78 66bd ba04 fc3c 5e08 b3bc d2a3 653d
00000060: 3970 a83b 2c0c 5d3c 092e dfbd b640 f1bc
00000070: b146 16bd 831f af3b 73d9 1b3d d265 7ebb
00000080: 7607 263c 362c 3d3d 19f7 aebb b017 f4bc
00000090: 3460 7c3c 3d80 543a 359a 4f3c 54fc 073d
000000a0: 8d2d d43b 5b0c 1d3d 8e83 83bd 308f 90ba
000000b0: 6784 44bc 4b35 38b9 edca 10bd fca2 c13c
000000c0: 9c18 a1bc 1d0f 52bd c861 43bd 977a d1bc
000000d0: b5dc 19bc 953a ff3a 2939 a3bb aec7 cbbc
000000e0: 4e06 3d3b f258 2c3d 63fe 4fbd 37b7 ca3b
000000f0: 12a6 a03c fa52 60bd c9ab 94bb 560b 833d
00000100: 79ae 21bc feb8 6e3b 9983 ecbc 52b7 233d
00000110: df06 49bc 265e 1bbd c350 8c3c 1477 623d
00000120: 3cb4 06bd b121 a9bc f1a2 ab3c 6044 193c
00000130: 548b 0abd 6d27 903d 5c91 0fbd e92d f53b
00000140: ec5d b9bb 1243 633d ee8b cb3b 9e1d 3fbc
00000150: eabb df3b f0d7 debc a8ab 613b 2196 893b
00000160: 3acb 3e3d 7e0b c9bc e08a e7bc 016a c93b
00000170: b2e7 f6bc cb8e 4ebc bcca 62bc 610e 013d
00000180: 0189 2cbd 5112 e03d eea8 dcbb bc16 9bbc
00000190: 773b d4bb 0a6a 2b3c edbb 06bd 19be 13bc
000001a0: 7a31 3abc e8cd 2dbd bf6c b63d 9238 b73b
000001b0: 2963 62bd 7288 dfbc 8404 30bd f2a5 f23c
000001c0: 3f63 91ba cfe1 0c3c 0f1b 92bc c9f5 29bd
000001d0: 8f01 7ebd e97b bcbb 7a1a 03bc 2d10 833c
000001e0: f0bf 51bd 120b c3bc 561a d33c 908b 88bc
000001f0: a431 213c 80cd 343d c684 3abd b2c3 ce3c
00000200: 76b0 bbbc bf2b 0b3b db7a 17bd a399 7b3c
00000210: 1531 4cbd 7904 9f3c 1314 fd3c fb0a 203d
00000220: 1c1e c4bc f6a9 c03c 3637 923a 04f2 07bd
00000230: 991e 63bd 6cac 7cbd 0a6b 06bc 6325 543c
00000240: 9e03 18bb 0e0c 693d f1a0 063d 38fa 43bb
00000250: d6b5 763c a985 0fbd e358 ab3d 4099 37bd
00000260: a1da 01bb b21b ecbc facf 9ebd e217 6dbd
00000270: 6ed4 bebd 6062 2ebd 2992 3bbb d8d6 4ebd
00000280: 6323 f33b 1503 59bb fd2e b8bc 3307 133d
00000290: 0741 b8bd 6f11 9cbb 873f 46bd 5cf8 c9bb
000002a0: bc18 9c3c e788 4fbd 6775 393d 87f3 1c3d
000002b0: 71d3 cfbc b7fc 8dbb 75d7 79bd a51d b8bc
000002c0: 4a41 693d 225f b13c d124 5c3c 7a6c 243d
000002d0: bd86 c2bb a4c8 0dbd cf59 223d 79b2 19bd
000002e0: f8ab 093d 8e90 de3c 1a42 673c 91a1 853d
000002f0: f149 bc3c e74a 9a3d 22f0 a73b 29eb c2bc
00000300: 24ba ea3c 9e80 ba3c c5bc 73ba d6fc f1bc
00000310: 1e94 033c 114d 8b3c 8033 e9bc d1d1 d33c
00000320: 0151 bfbc 5691 4f3d 0713 62bb 3eb4 a93c
00000330: b8d0 efbc 2727 3cbc ef6b a43c 97dc 1a3d
00000340: 6951 823c 4776 31bc e651 0c3c 7292 14bc
00000350: 2fd3 a1bc 3c7e 0a3c 7196 87bd 51c3 7dbb
00000360: 7464 37bd a3cb 333c f79f 393c 605d 473d
00000370: 75e4 903c b905 dc3c 3dca 233c ddcb 053c
00000380: 6d37 c93c 8d43 e5bc 20a7 51ba d762 0a3d
00000390: 1ce7 4b3d 66d2 9f3d 5b2d d9bc 7c20 0239
000003a0: d8a1 71bc e521 593c 3537 8fbd c20a 5dbc
000003b0: 20e3 fabc 5dbd 5e3c 6401 133d 04f2 463c
000003c0: 332b 7abc ba68 f9bb 0a52 2abd b743 6bbc
000003d0: 0e1b 3fbd 5dd4 c03c 0498 b83b c1b0 d4bc
000003e0: a6b8 923c 74eb eb3b 1006 2e3d 3c25 f03c
000003f0: a396 a73c 99f8 563d 71f0 ae3c c5fb fb3c

net.0.bias f4 [32]
-0.022400357 0.024614368 -0.038383577 -0.020963112 0.037625138 0.008381219 -0.014155054 0.00019168438
0.0036272588 -0.0028214287 -0.046675865 -0.018171117 0.019362915 0.03691121 -0.0006259499 -0.02214741
0.06908257 0.011644336 -0.039999634 -0.023762228 -0.019343078 -0.031896498 -0.033454876 0.0073099732
-0.00683953 0.010967157 -0.05139599 -0.050233543 -0.0039342465 0.0049826973 -0.051444087 0.028485682
00000000: f480 b7bc 12a4 c93c 1938 1dbd d5ba abbc
00000010: d11c 1a3d 6151 093c 9aea 67bc e2fe 4839
00000020: 4eb7 6d3b b8e7 38bb 312f 3fbd 98db 94bc
00000030: fa9e 9e3c 3530 173d c916 24ba 7c6e b5bc
00000040: 2a7b 8d3d e3c7 3e3c a8d6 23bd 01a9 c2bc
00000050: 6075 9ebc e7a5 02bd fb07 09bd 8088 ef3b
00000060: 231e e0bb 97af 333c 9a84 52bd b0c1 4dbd
00000070: daea 80bb e545 a33b 09b7 52bd ce5a e93c

net.2.module.0.weight f4 [32, 32, 3]
-0.014144268 0.04492312 0.036238227 -0.07377094 0.015705539 0.018728908 -0.012899942 -0.03710397
0.003216377 -0.07694595 -0.03765749 -0.032616567 0.10240622 0.007606327 0.10662412 -0.06717587
-0.011833746 -0.108486496 -0.10623741 0.050982624 0.052081976 0.06274257 -0.055665802 0.06788631
0.007841201 -0.016403904 -0.034644283 -0.01307295 -0.062660016 -0.003242735 0.13310842 -0.05135559
-0.09965681 -0.046747454 0.058861077 -0.028932491 -0.10060027 -0.07999773 0.06368916 -0.07226442
-0.03495519 -0.119169824 -0.10189668 -0.07489337 -0.07879258 0.056416463 -0.054475747 -0.13270932
-0.020533063 -0.06301333 -0.09995805 -0.025016338 0.038035806 -0.009494476 -0.084934555 0.028344963
-0.117432125 -0.029929722 -0.08346968 -0.06456414 -0.07209798 0.026666995 -0.023094982 0.044229526
-0.051956885 -0.012777971 -0.046685956 -0.078102686 -0.058933478 0.005499395 -0.07154847 0.040012542
-0.12891033 -0.07702904 0.040582206 -0.08306862 -0.0839345 0.0058635985 -0.0069971746 0.08831906
0.015659083 0.032480128 -0.09479452 -0.0035499264 0.05003085 -0.07394489 0.002488408 -0.0456333
0.026998928 -0.05344982 0.19469242 0.030432755 -0.021327345 -0.04924056 -0.0028479644 0.039629932
0.003999473 0.021653486 -0.15265755 0.0019300743 -0.014566251 0.15480256 -0.05456278 -0.029013542
0.04741676 -0.037269082 0.007834832 -0.013611217 0.014830214 -0.07482369 0.056397017 -0.006195072
-0.03552656 0.06381769 -0.042864673 -0.122091055 0.0010280345 -0.11032068 -0.024103833 0.08235434
0.1146181 -0.0022872987 0.052223217 0.06868024 -0.033366397 0.033650953 0.08388602 0.07085775
-0.0054978365 0.074570686 0.05002983 -0.06031371 -0.015330558 0.06997715 -0.067226544 -0.093624935
0.046192393 -0.11300771 -0.08328032 0.03755178 -0.034104288 -0.0056427307 -0.04042526 -0.14123556
-0.12674154 -0.012085228 -0.061448105 -0.08394944 0.049802616 -0.04640216 0.067188345 0.021072116
-0.012411382 0.039221313 -0.089894205 -0.018321456 -0.09645622 0.09543994 0.012379848 0.08216415
-0.020605493 0.054896384 0.16430086 -0.0030876512 -0.062174693 -0.043183766 -0.085367136 -0.037661552
-0.07394166 -0.085632205 -0.0068128724 0.12119134 0.1379212 0.00083539216 0.015539582 0.039824355
0.0033849978 0.016986104 0.095039584 0.0064308955 -0.10792785 -0.13416825 -0.036524374 0.20258975
-0.10648809 -0.16956712 -0.016127834 -0.15441301 -0.16537607 -0.048251826 -0.024963582 0.024323614
-0.08695151 0.08163812 -0.03009702 0.043184888 -0.061581325 0.07437701 0.035653237 -0.026986893
0.08026967 -0.000345389 0.088511646 0.119688235 0.06333362 0.0971983 -0.1098964 -0.07502277
-0.042210825 0.013086177 0.035365686 -0.076512925 -0.049871583 0.11145051 -0.14081068 -0.06415596
-0.053120382 -0.06986151 -0.0032206646 -0.063190095 -0.03881832 0.0037196232 -0.07662059 -0.07583176
0.08673354 0.02079126 0.17563987 0.0701244 -0.04876197 0.076728866 0.04630078 -0.04351257
0.08499323 -0.105980664 0.16514155 0.11707727 -0.11513593 -0.06393941 0.0725079 0.09110301
-0.14153935 -0.03789168 -0.10698595 0.017607903 -0.07362463 -0.13342473 -0.05008598 0.029854892
-0.0058400165 -0.09894074 -0.063746534 0.10834756 -0.00069464097 -0.013034054 0.12706977 -0.019470107
00000000: 5cbd 67bc 4e01 383d 896e 143d 3815 97bd
00000010: e7a8 803c 5e6d 993c 475a 53bc 55fa 17bd
00000020: dac9 523b d795 9dbd bd3e 1abd f398 05bd
00000030: 5aba d13d 7f3e f93b bf5d da3d 8193 89bd
00000040: 54e2 41bc 2b2e debd 0093 d9bd 28d3 503d
00000050: e953 553d 2d7f 803d d301 64bd fa07 8b3d
00000060: 6178 003c 7b61 86bc 2ae7 0dbd ed2f 56bc
00000070: e553 80bd 1184 54bb 934d 083e 3d5a 52bd
00000080: df18 ccbd 427a 3fbd 5018 713d d503 edbc
00000090: 8407 cebd dad5 a3bd 766f 823d 5eff 93bd
000000a0: 2c2d 0fbd 4f0f f4bd 35af d0bd b261 99bd
000000b0: 015e a1bd f314 673d f621 5fbd f4e4 07be
000000c0: f434 a8bc 220d 81bd ceb6 ccbd 10ef ccbc
000000d0: 6fcb 1b3d b88e 1bbc 2bf2 adbd b233 e83c
000000e0: 4180 f0bd 2d2f f5bc 27f2 aabd 343a 84bd
000000f0: 1ba8 93bd be74 da3c b031 bdbc 052a 353d
00000100: bed0 54bd b25a 51bc c639 3fbd 4df4 9fbd
00000110: 3b64 71bd 4534 b43b 0188 92bd 31e4 233d
00000120: 1201 04be 67c1 9dbd 8739 263d e11f aabd
00000130: dae5 abbd 6e23 c03b 8e48 e5bb a0e0 b43d
00000140: 7a47 803c e209 053d a123 c2bd e2a5 68bb
00000150: 26ed 4c3d 6b70 97bd 8f14 233b fce9 3abd
00000160: db2c dd3c 33ee 5abd 735d 473e 1d4e f93c
00000170: afb6 aebc 78b0 49bd eaa4 3abb ff52 223d
00000180: 030e 833b a762 b13c 4352 1cbe 8cfa fc3a
00000190: 49a7 6ebc 9084 1e3e 397d 5fbd cfad edbc
000001a0: 1438 423d 77a7 18bd ab5d 003c 9501 5fbc
000001b0: 6dfa 723c 2a3d 99bd 8f00 673d 0800 cbbb
000001c0: 4c84 11bd d9b2 823d de92 2fbd e00a fabd
000001d0: 1dbf 863a cfef e1bd 6775 c5bc 64a9 a83d
000001e0: e5bc ea3d 81e6 15bb 03e8 553d 3aa8 8c3d
000001f0: 34ab 08bd 95d5 093d 6fcc ab3d de1d 913d
00000200: 3227 b4bb 84b8 983d 14ec 4c3d 820b 77bd
00000210: 052d 7bbc 2e50 8f3d 12ae 89bd 6ebe bfbd
00000220: 3c34 3d3d 9670 e7bd df8e aabd e5cf 193d
00000230: f0b0 0bbd a8e6 b8bb f594 25bd 0ea0 10be
00000240: 89c8 01be 1f01 46bc 02b1 7bbd afed abbd
00000250: d4fd 4b3d 3110 3ebd 0b9a 893d 6e9f ac3c
00000260: 1c59 4bbc 87a6 203d 741a b8bd e116 96bc
00000270: d78a c5bd 0476 c33d d9d4 4a3c ae45 a83d
00000280: dacc a8bc 08db 603d 7c3e 283e 315a 4abb
00000290: e4aa 7ebd 76e1 30bd f7d4 aebd 0043 1abd
000002a0: ba6e 97bd f05f afbd 843e dfbb 2a33 f83d
000002b0: 373b 0d3e 38fe 5a3a bb99 7e3c dd1e 233d
000002c0: d7d6 5d3b 7126 8b3c 1da4 c23d 43ba d23b
000002d0: 4709 ddbd 6763 09be 959a 15bd b073 4f3e
000002e0: 6d16 dabd 01a3 2dbe 851e 84bc 721e 1ebe
000002f0: 5858 29be b5a3 45bd 6d80 ccbc 5142 c73c
00000300: a213 b2bd e331 a73d 078e f6bc a3e2 303d
00000310: b33c 7cbd f952 983d 2109 123d 9e13 ddbc
00000320: 6d64 a43d 5415 b5b9 9845 b53d 1b1f f53d
00000330: 0fb5 813d e70f c73d 5d11 e1bd 8aa5 99bd
00000340: 42e5 2cbd 6867 563c 9cdb 103d cfb2 9cbd
00000350: 2546 4cbd 2a40 e43d ad30 10be 3364 83bd
00000360: c294 59bd 8d13 8fbd c911 53bb cf69 81bd
00000370: f5ff 1ebd ecc4 733b 42eb 9cbd af4d 9bbd
00000380: 5ba1 b13d 6f52 aa3c f0da 333e 629d 8f3d
00000390: a2ba 47bd 0624 9d3d e3a5 3d3d 3d3a 32bd
000003a0: ee10 ae3d 640c d9bd de1a 293e 35c6 ef3d
000003b0: 63cc ebbd aaf2 82bd 067f 943d 3794 ba3d
000003c0: b1ef 10be 4e34 1bbd 731b dbbd 733e 903c
000003d0: 83c8 96bd 7ea0 08be f526 4dbd 3f92 f43c
000003e0: 9c5d bfbb 71a1 cabd 8b8d 82bd 53e5 dd3d
000003f0: 9118 36ba c98c 55bc 941e 023e c67f 9fbc

net.2.module.0.bias f4 [32]
0.08426409 -0.074169904 0.093654566 -0.0030089396 -0.07066351 -0.038954925 -0.02170292 0.01762391
0.04551168 -0.07341271 -0.01891728 -0.06813835 0.06427179 -0.0125926025 0.09600916 -0.014487735
-0.016609943 -0.003082868 -0.055918727 0.08944337 0.038750328 0.009253788 -0.005146637 0.01951188
0.030549118 -0.05606314 0.012747702 0.03605704 0.029525926 0.060968153 -0.06063649 0.0034190845
00000000: a792 ac3d 64e6 97bd f7cd bf3d a131 45bb
00000010: 08b8 90bd 338f 1fbd 52ca b1bc 0560 903c
00000020: 756a 3a3d 6759 96bd 69f8 9abc 1f8c 8bbd
00000030: eea0 833d 3451 4ebc 73a0 c43d f75d 6dbc
00000040: 9311 88bc f109 4abb 090b 65bd 162e b73d
00000050: aab8 1e3d 339d 173c 1fa5 a8bb 61d7 9f3c
00000060: 2542 fa3c 77a2 65bd bddb 503c 8cb0 133d
00000070: 5be0 f13c beb9 793d f85d 78bd b812 603b

net.3.module.0.weight f4 [32, 32, 3]
-0.0011350923 -0.12676392 0.07389343 0.037358094 -0.028043093 -0.102106445 0.16954628 -0.06201695
-0.084138915 0.09132791 0.07598092 0.06828734 -0.06639181 -0.019235412 0.10114575 0.0071384143
-0.058288045 -0.038591284 -0.02819302 0.03365932 0.03476752 0.08066987 -0.04228662 -0.010226325
-0.16109703 -0.12648761 -0.002340989 0.051777575 -0.026350934 -0.03159675 0.17101187 -0.011946863
-0.078593425 0.029181818 -0.04016721 -0.032197505 -0.03401202 -0.017914737 0.060809843 0.0776096
0.041642923 -0.020479439 -0.059198864 0.075569734 0.06366286 0.11526126 0.11812879 -0.0043202485
-0.03059744 -0.010575814 -0.12766363 -0.10704401 -0.03482022 -0.061856035 -0.031524926 0.059329804
0.062008508 -0.10311586 -0.058755618 -0.17275366 0.02737685 -0.09136755 0.07983638 0.052915882
0.006433903 -0.06619548 -0.015370171 0.059253387 0.08448408 0.057166737 0.08530743 -0.0885291
0.016878396 -0.018287648 0.082186006 -0.1255426 0.084929846 0.025377417 -0.03436854 0.0034185334
0.0009169963 -0.09926667 0.05619801 -0.07761147 -0.053124893 0.095770165 -0.05488578 0.0949851
0.016181141 0.09011386 0.10253527 -0.08383217 -0.10072403 0.08028762 -0.053743366 -0.034409907
0.15663187 0.043561272 -0.05010179 -0.0025725237 0.09819136 0.120812714 -0.020603986 0.08392627
-0.072861604 0.019563736 -0.010209569 0.082460396 0.06352343 0.022354191 -0.029404804 -0.061420668
0.09472541 -0.032086473 0.09196349 -0.0001382981 -0.10000764 -0.065188244 0.071448065 0.031017888
-0.032194614 0.043897305 0.18081376 -0.12750754 -0.093128406 -0.109392345 0.07467175 -0.0110670095
0.023667028 -0.039719783 -0.0721328 -0.067376904 -0.032262534 0.009814631 0.009902875 0.029330248
0.06574216 -0.09004771 -0.013812036 0.06858203 0.050011735 -0.079421125 0.0708951 -0.09691258
-0.04972585 -0.056307394 -0.008575144 -0.066839464 0.075734 -0.056649216 0.10669745 0.094354
-0.018349214 0.004253637 0.07715262 0.047245167 -0.090212576 0.08676974 -0.026574481 0.08713353
-0.030989148 -0.10453626 0.052482754 0.005671875 -0.047531355 -0.021885496 -0.01286128 0.019606926
0.09279627 -0.06073779 0.09402619 0.015263907 -0.11811694 0.06133468 -0.051730867 0.041097514
0.14240736 -0.056139387 0.09613923 0.05978071 0.028020445 -0.010719907 -0.09952651 0.028486418
0.10434653 0.058530107 0.12033605 -0.033034623 -0.13767897 -0.13265778 0.008849396 -0.006557528
0.10367391 -0.017825756 0.033913806 -0.15972322 -0.03544764 0.13607971 0.016796663 -0.049508955
-0.08153459 -0.027790934 0.021058386 0.098474056 0.07446552 0.102205396 0.0914427 -0.04621363
0.099664524 -0.07533098 -0.048497364 0.015579455 -0.083633035 0.010027152 -0.0796224 0.030887796
-0.074009895 -0.075755246 0.08627564 0.07175427 -0.116957426 0.00229322 -0.022010326 0.041151628
-0.02982097 0.09959551 0.14124951 0.0019149951 0.007056967 -0.0711822 -0.077324696 0.0928113
0.03900855 0.04137929 0.13905178 0.04227973 0.029933233 -0.09765136 0.08813073 0.043192994
-0.13218394 -0.0710021 -0.0865166 -0.067964904 0.02569621 -0.034012962 -0.07179206 -0.091604315
-0.058166303 -0.069798894 -0.048394844 0.016418451 -0.04685973 0.04796826 0.005908924 0.09501025
00000000: 61c7 94ba 67ce 01be 7055 973d cd04 193d
00000010: a1ba e5bc 2f1d d1bd 8a9d 2d3e 7c05 7ebd
00000020: 0651 acbd 210a bb3d e29b 9b3d 3cda 8b3d
00000030: 6ef8 87bd 9593 9dbc 8125 cf3d 5ce9 e93b
00000040: 72bf 6ebd e511 1ebd 0cf5 e6bc 5bde 093d
00000050: 6368 0e3d 3f36 a53d bc34 2dbd 518c 27bc
00000060: 9ff6 24be f885 01be 476b 19bb b914 543d
00000070: eadd d7bc 986b 01bd bc1d 2f3e c6bc 43bc
00000080: 97f5 a0bd b50e ef3c 5f86 24bd 88e1 03bd
00000090: 3050 0bbd edc1 92bc be13 793d c8f1 9e3d
000000a0: c591 2a3d 7fc4 a7bc 827a 72bd 4ec4 9a3d
000000b0: ac61 823d 180e ec3d 82ed f13d df90 8dbb
000000c0: 7ca7 fabc 2e46 2dbc 41ba 02be e439 dbbd
000000d0: a69f 0ebd c15c 7dbd 4820 01bd cf03 733d
000000e0: a2fc 7d3d 682e d3bd bba9 70bd 56e6 30be
000000f0: 6a45 e03c e91e bbbd 4281 a33d 53be 583d
00000100: 7dd3 d23b 7f91 87bd 2bd3 7bbc aeb3 723d
00000110: fd05 ad3d ab27 6a3d a9b5 ae3d bf4e b5bd
00000120: 9044 8a3c facf 95bc 2351 a83d 3d8e 00be
00000130: b3ef ad3d 4de4 cf3c 07c6 0cbd 7909 603b
00000140: 9462 703a 534c cbbd e22f 663d c3f2 9ebd
00000150: 7d99 59bd 2623 c43d e9cf 60bd 8c87 c23d
00000160: 508e 843c 9e8d b83d 03fe d13d 33b0 abbd
00000170: 6648 cebd d66d a43d 0122 5cbd 67f1 0cbd
00000180: 1b64 203e 4e6d 323d 8937 4dbd c997 28bb
00000190: 8d18 c93d a86c f73d b1c9 a8bc 89e1 ab3d
000001a0: 7738 95bd 2144 a03c 0946 27bc ffe0 a83d
000001b0: 9218 823d 2320 b73c 58e2 f0bc 3d94 7bbd
000001c0: 65ff c13d 1b6d 03bd 5b57 bc3d 1d04 11b9
000001d0: ced0 ccbd 6a81 85bd 5d53 923d 3a19 fe3c
000001e0: 80de 03bd a9cd 333d 3e27 393e 5691 02be
000001f0: 1bba bebd 1809 e0bd 81ed 983d 6752 35bc
00000200: 5be1 c13c 36b1 22bd 5dba 93bd e7fc 89bd
00000210: b825 04bd 8ccd 203c ab3f 223c fd45 f03c
00000220: d3a3 863d ef6a b8bd e14b 62bc bc74 8c3d
00000230: 1bd9 4c3d 8ba7 a2bd 7331 913d 1a7a c6bd
00000240: 55ad 4bbd 95a2 66bd c37e 0cbc 21e3 88bd
00000250: 6d1a 9b3d 0209 68bd 3184 da3d ac3c c13d
00000260: 1751 96bc 1862 8b3b 3102 9e3d 2684 413d
00000270: 5fc1 b8bd 55b4 b13d bab2 d9bc 1073 b23d
00000280: f4dc fdbc 1b17 d6bd 28f8 563d 23db b93b
00000290: 3db0 42bd 3649 b3bc 1eb8 52bc b49e a03c
000002a0: f90b be3d 30c8 78bd ce90 c03d 7715 7a3c
000002b0: 4be7 f1bd 133a 7b3d bfe3 53bd de55 283d
000002c0: 3cd3 113e 6af2 65bd a5e4 c43d 9edc 743d
000002d0: 228b e53c 8ca2 2fbc 8ed4 cbbd 595c e93c
000002e0: a2b3 d53d 44bd 6f3d bf72 f63d 504f 07bd
000002f0: b7fb 0cbe 71d7 07be 0ffd 103c 88e0 d6bb
00000300: fd52 d43d 5207 92bc 34e9 0a3d 7c8e 23be
00000310: 8b31 11bd 7b58 0b3e 2899 893c e7c9 4abd
00000320: 9bfb a6bd d0a9 e3bc a382 ac3c c4ac c93d
00000330: 6181 983d 1051 d13d 4f46 bb3d 814a 3dbd
00000340: ea1c cc3d 2147 9abd 2ca5 46bd f840 7f3c
00000350: cc47 abbd ec48 243c 1211 a3bd 6708 fd3c
00000360: 8092 97bd 9125 9bbd 48b1 b03d e7f3 923d
00000370: 6087 efbd d949 163b 004f b4bc 9c8e 283d
00000380: 1b4b f4bc bbf8 cb3d b6a3 103e 9300 fb3a
00000390: 213e e73b f9c7 91bd 695c 9ebd da13 be3d
000003a0: 6ec7 1f3d 557d 293d 9763 0e3e 832d 2d3d
000003b0: 8a36 f53c 70fd c7bd e27d b43d 23eb 303d
000003c0: 3a5b 07be 8d69 91bd 9d2f b1bd 2f31 8bbd
000003d0: dc80 d23c 2d51 0bbd b707 93bd 0b9b bbbd
000003e0: ca3f 6ebd b9f2 8ebd ac39 46bd fd7f 863c
000003f0: fdef 3fbd 5e7a 443d a69f c13b bc94 c23d

net.3.module.0.bias f4 [32]
0.09160122 -0.08608084 0.09916323 -0.06005049 -0.08522729 -0.066333294 0.062080428 -0.015774997
0.015882181 -0.08216403 0.03327577 0.015009618 -0.050019607 -0.033745233 -0.011087672 -0.024325645
0.11147616 0.08479505 -0.025085619 0.0055924533 0.05373312 -0.03431843 -0.015996696 0.0942122
-0.002978746 -0.09557359 0.08049425 0.090343356 -0.075495765 0.028683273 0.039010923 0.09482092
00000000: 6c99 bb3d 274b b0bd 1716 cb3d 81f7 75bd
00000010: a58b aebd c0d9 87bd 0c48 7e3d 913a 81bc
00000020: 591b 823c 9d45 a8bd 2c4c 083d e7ea 753c
00000030: 5ce1 4cbd 7138 0abd 11a9 35bc 9346 c7bc
00000040: 9d4d e43d 07a9 ad3d 5b80 cdbc e640 b73b
00000050: 4317 5c3d 7b91 0cbd 810b 83bc 53f2 c03d
00000060: 1137 43bb 16bc c3bd 2bda a43d f005 b93d
00000070: 869d 9abd 2ff9 ea3c ebc9 1f3d 7831 c23d

net.4.module.0.weight f4 [32, 32, 3]
0.008211307 -0.03237846 0.0052575944 0.094568126 0.07705199 -0.09614203 0.23738289 0.02065613
-0.005109167 -0.112347625 -0.031516157 -0.023511363 -0.008810791 0.0070972275 0.0023296215 0.002261006
0.07007227 0.01626558 0.0044934163 0.011162743 8.013492e-05 -0.085820675 0.098093584 -0.044705994
0.015373897 0.000877459 -0.05941934 0.05021321 0.098756164 0.01167781 -0.05062518 -0.010435399
-0.015342031 0.063471414 -0.0073125353 -0.102006 -0.08071863 -0.072235905 0.09579059 0.11869785
0.08691535 0.07369504 0.1396103 0.10666507 -0.030128015 -0.027632512 -0.03555638 0.043497484
-0.006960175 0.06059922 -0.059772074 0.028685316 0.029127838 0.015827036 0.051942497 0.023441032
0.09060065 -0.14081492 0.101919174 -0.014831594 -0.04668977 -0.048522804 0.07906571 0.09557333
-0.0428827 0.11454742 -0.08486791 -0.034892466 0.013158308 -0.009309939 0.07654247 -0.10004067
0.08156646 0.029927693 0.12837708 -0.021946564 -0.10927431 0.03945635 0.072292805 -0.02334904
0.060251553 -0.036350016 0.059961908 0.17589805 0.019497981 0.08195299 -0.12077359 0.027513705
-0.053941175 0.1338092 0.112850815 0.06973583 -0.05098838 -0.06541839 0.02122449 0.021059731
0.031078761 -0.011392366 0.043193676 -0.050973933 0.07970628 0.013524498 -0.071996175 0.09092403
0.09039351 0.059962064 -0.09821496 -0.016928876 -0.011193131 -0.08582956 -0.044250503 -0.0749568
0.065435454 0.03123988 -0.009961109 -0.045543592 0.005480586 -0.12697433 -0.1014507 -0.1047226
0.025595458 -0.06571631 -0.018294675 -0.09527428 -0.002374419 0.030260673 -0.12922835 0.04630626
0.009975187 -0.13154165 0.15988404 -0.0026582053 -0.12128882 0.041553393 -0.013857724 0.17497599
-0.08686048 -0.10886539 -0.08626668 -0.047175385 -0.07399898 -0.044359714 0.024481043 -0.14910288
0.12102459 0.044507314 0.008268957 -0.053265665 -0.0075808726 0.08259974 0.06803396 0.06623201
0.067099445 0.15685442 -0.037425954 -0.11198397 0.057803404 -0.10361468 0.043458104 -0.04033387
-0.08416737 -0.117775545 -0.061117385 -0.024654638 0.051055484 0.043810792 0.05725717 -0.058130775
-0.044616852 0.100990005 0.19104213 0.12730278 0.010098744 0.08364966 0.12852225 0.039931476
0.009358355 -0.13796903 0.025984494 0.018135553 -0.014020581 0.08065622 -0.04754248 0.18294759
-0.032322153 -0.10252995 -0.051825933 -0.08851106 0.046927597 -0.07759195 0.030504826 0.07014681
0.12095347 -0.0734634 0.14399083 -0.0017509887 -0.13430882 0.07936846 0.016757388 0.062286757
-0.051315304 0.1639472 0.15516451 0.14017282 -0.012199775 0.004001997 0.061583146 0.0067418544
0.11542156 -0.029211072 0.055470414 -0.093382716 0.0026075484 -0.0012164555 0.040477116 0.017862806
-0.06539505 -0.05983256 -0.046712667 0.087078854 -0.041034497 0.06858568 -0.050771426 -0.08178672
0.020115323 0.05935516 -0.057400633 -0.12317746 0.056802753 -0.08878293 0.08832154 0.08687256
-0.06335166 -0.07491685 0.053194817 0.08632172 -0.12467103 -0.0009993146 -0.010549002 -0.07241038
0.06359611 0.0022539073 -0.030076051 0.07667797 0.09230466 -0.14456008 -0.09435097 -0.023549005
-0.032547597 0.025829349 -0.020264726 0.12788886 -0.14102137 0.0149450805 -0.042242736 -0.07293705
00000000: b888 063c 479f 04bd e647 ac3b efac c13d
00000010: 6fcd 9d3d 1de6 c4bd 8014 733e 0b37 a93c
00000020: cd6a a7bb 8316 e6bd 1617 01bd e79a c0bc
00000030: 235b 10bc dc8f e83b 90ac 183b 632d 143b
00000040: 0d82 8f3d 653f 853c 823d 933b f0e3 363c
00000050: 1c0e a838 c0c2 afbd 4ae5 c83d a21d 37bd
00000060: cce2 7b3c 4705 663a b261 73bd 5eac 4d3d
00000070: ac40 ca3d 4954 3f3c 595c 4fbd 3cf9 2abc
00000080: 245d 7bbc 4dfd 813d fe9d efbb 86e8 d0bd
00000090: cf4f a5bd 6bf0 93bd db2d c43d dc17 f33d
000000a0: ad00 b23d 6ded 963d 01f6 0e3e 3773 da3d
000000b0: 07cf f6bc 945d e2bc 91a3 11bd 6b2a 323d
000000c0: 2e12 e4bb e336 783d 90d3 74bd 78fd ea3c
000000d0: 819d ee3c b3a7 813c a8c1 543d 6807 c03c
000000e0: d58c b93d c931 10be 00bb d03d 3700 73bc
000000f0: c63d 3fbd d9bf 46bd 34ed a13d f3bb c33d
00000100: c5a5 2fbd d697 ea3d 3acf adbd 67eb 0ebd
00000110: f295 573c b788 18bc 4cc2 9c3d 1fe2 ccbd
00000120: 510c a73d ec2a f53c 4875 033e 48c9 b3bc
00000130: 36cb dfbd fb9c 213d 400e 943d 7c46 bfbc
00000140: 55ca 763d c1e3 14bd 9e9a 753d 9e1e 343e
00000150: 3bba 9f3c f8d6 a73d 2558 f7bd 6c64 e13c
00000160: 6cf1 5cbd 4705 093e 541e e73d a9d1 8e3d
00000170: 31d9 50bd 14fa 85bd fbde ad3c 7585 ac3c
00000180: e398 fe3c 0ca7 3abc daeb 303d 0bca 50bd
00000190: 0c3d a33d db95 5d3c bb72 93bd 6136 ba3d
000001a0: 3c20 b93d c89a 753d ed24 c9bd 6dae 8abc
000001b0: 6563 37bc 69c7 afbd 0440 35bd f382 99bd
000001c0: 0603 863d c7ea ff3c eb33 23bc eb8b 3abd
000001d0: 7d96 b33b 8f05 02be 62c5 cfbd cd78 d6bd
000001e0: 91ad d13c 4696 86bd b7de 95bc 291f c3bd
000001f0: 249c 1bbb 3be5 f73c 7054 04be a2ab 3d3d
00000200: f76e 233c dbb2 06be a4b8 233e 4935 2ebb
00000210: 4666 f8bd e433 2a3d 820b 63bc e82c 333e
00000220: e8e3 b1bd d1f4 debd 96ac b0bd fa3a 41bd
00000230: c78c 97bd 88b2 35bd 788c c83c 6dae 18be
00000240: bedb f73d 4d4d 363d 857a 073c 192d 5abd
00000250: f868 f8bb 0d2a a93d 6455 8b3d a6a4 873d
00000260: 6f6b 893d 729e 203e f54b 19bd da57 e5bd
00000270: 43c3 6c3d ef33 d4bd 2001 323d 2135 25bd
00000280: f15f acbd 4e34 f1bd 3956 7abd 86f8 c9bc
00000290: 8e1f 513d f272 333d 7f86 6a3d 891a 6ebd
000002a0: 29c0 36bd d9d3 ce3d 8ca0 433e a95b 023e
000002b0: 3475 253c 8350 ab3d 569b 033e 308f 233d
000002c0: c953 193c c147 0dbe 6fdd d43c 0391 943c
000002d0: 94b6 65bc 172f a53d e7bb 42bd 9d56 3b3e
000002e0: 3c64 04bd 39fb d1bd 6e47 54bd 4945 b5bd
000002f0: 2737 403d 87e8 9ebd 42e5 f93c 21a9 8f3d
00000300: 74b6 f73d fb73 96bd 5572 133e 6e81 e5ba
00000310: 4088 09be ee8b a23d ca46 893c 6620 7f3d
00000320: ff2f 52bd c6e1 273e 72e3 1e3e 7789 0f3e
00000330: 91e1 47bc 2f23 833b 9c3e 7c3d c6ea dc3b
00000340: 2462 ec3d 0f4c efbc f234 633d 703f bfbd
00000350: 67e3 2a3b 7971 9fba 55cb 253d 0555 923c
00000360: d7ed 85bd fd12 75bd c855 3fbd 6656 b23d
00000370: ca13 28bd a676 8c3d b3f5 4fbd cc7f a7bd
00000380: e4c8 a43c 651e 733d ed1c 6bbd 7744 fcbd
00000390: 01aa 683d d3d3 b5bd ece1 b43d 3eea b13d
000003a0: 84be 81bd 016e 99bd cfe2 593d 71c9 b03d
000003b0: 8653 ffbd 6ffb 82ba b9d5 2cbc e54b 94bd
000003c0: ad3e 823d 4ab6 133b 0d62 f6bc 5709 9d3d
000003d0: 3a0a bd3d 8f07 14be 153b c1bd d8e9 c0bc
000003e0: a150 05bd 1298 d33c 3602 a6bc 4cf5 023e
000003f0: e867 10be 36dc 743c b806 2dbd 0560 95bd

net.4.module.0.bias f4 [32]
0.10498367 0.07222458 -0.009027529 0.11865134 -0.084181905 0.04016103 0.04697523 -0.031211829
0.09241403 -0.04609583 0.044758487 0.010407367 0.07144288 -0.09976964 0.038541436 0.06535
-0.06297016 0.07881508 -0.08542648 -0.015338074 0.052762177 0.06660653 -0.0068445886 -0.0850883
0.08343537 0.0659639 -0.036544733 -0.082922705 0.09642379 -0.07007482 0.089293204 0.0019552861
00000000: ae01 d73d 7bea 933d 33e8 13bc 79ff f23d
00000010: 9067 acbd e47f 243d 1969 403d f3af ffbc
00000020: 9143 bd3d fbce 3cbd ad54 373d a983 2a3c
00000030: a550 923d 0654 ccbd a0dd 1d3d 39d6 853d
00000040: 80f6 80bd cd69 a13d 14f4 aebd 8c4c 7bbc
00000050: 271d 583d 0169 883d 9248 e0bb c642 aebd
00000060: 2ae0 aa3d 1518 873d eeaf 15bd 61d3 a9bd
00000070: d679 c53d 6383 8fbd 5bdf b63d 4224 003b

net.5.weight f4 [48, 32, 3]
0.0704255 0.014301749 -0.04846368 0.022512201 -0.09792974 0.0778639 0.040130273 -0.08373428
0.045052182 -0.0887166 0.016774604 -0.07521948 -0.001481791 -0.004382387 -0.03777959 0.049837764
0.062891096 -0.0035361995 0.03488509 -0.071528256 0.11521239 0.04135887 -0.050107468 0.0750374
-0.17198175 0.07963334 -0.025015645 -0.07538458 -0.05412057 -0.065357514 0.02293972 0.02625306
0.054406803 -0.04761189 -0.10213693 -0.08829387 -0.00058114785 0.09970988 -0.11564353 0.022812916
0.097324 -0.055946395 0.012990621 0.065834 -0.062386166 0.08319045 -0.0055345395 0.038021766
0.060605578 0.07333157 -0.0198914 0.010251495 -0.048394162 0.059133712 -0.0825802 -0.01396013
0.14091656 0.05993476 -0.017206702 0.030185502 0.10431051 -0.12164585 0.12516564 0.051377688
-0.06894653 -0.06934628 -0.03539793 0.13030808 -0.028733952 -0.011742867 -0.0325794 0.14422715
0.0021017403 -0.011138019 0.09698319 0.0399902 0.014860123 -0.11458707 0.05870655 -0.0426748
-0.044540197 -0.04033057 0.10054448 -0.09134598 0.035408698 -0.02467459 0.10216618 -0.027579598
0.03935341 0.0011429129 0.032027923 -0.11096049 -0.055688463 0.009958489 -0.0630936 0.042486664
-0.03316056 -0.041691348 0.035742328 -0.026967814 -0.05422814 0.0365306 -0.026914205 -0.0043571065
-0.01888315 0.038738757 -0.035423562 -0.05809695 -0.10978968 0.038221173 0.1246706 -0.025599625
0.07249927 -0.03795819 0.14484423 0.037117694 0.041772693 0.07512519 -0.053167753 -0.0014709141
-0.095025264 0.06937576 0.051926173 -0.012570345 -0.07251853 -0.058145277 0.027753837 -0.041374717
0.057066947 -0.0056777606 0.016383147 0.025283737 -0.07333116 -0.023631254 0.0567785 -0.05797011
-0.057350162 -0.05219387 -0.11382797 -0.07655296 0.029762376 0.008110096 -0.047427364 0.014686539
0.064290196 0.031481482 -0.020794908 0.054514572 -0.102721654 0.090471596 0.044372283 0.057692584
-0.07810113 0.056079205 -0.04199078 -0.06754299 -0.06647734 0.0034640336 0.05834258 0.04692092
0.07070519 0.041583724 0.046437178 0.09354518 -0.038230095 -0.016128454 -0.07967121 0.07563956
-0.0030495147 0.034352135 -0.047530156 -0.053885654 -0.12773515 -0.09648347 0.07949103 -0.04630029
0.041385863 -0.06400016 -0.025896402 0.020125674 0.08426917 0.038723852 -0.031023297 -0.09139786
-0.06496707 0.0816762 -0.081104346 -0.035223942 -0.038397033 -0.0688943 0.0013654293 -0.032032188
0.031426404 -0.0383875 -0.048115533 -0.020704482 -0.08713983 0.023615818 -0.07631074 0.038890723
0.03517016 -0.035917178 -0.10119366 0.1133778 0.02698334 -0.08650261 -0.058827024 -0.06858544
-0.028943567 -0.034697387 0.0119385095 -0.01165138 0.06339221 -0.05806522 -0.061666276 0.1038462
-0.082673915 0.08603603 0.04575099 -0.11923669 0.052102067 0.10052136 -0.07316317 0.026380992
0.06434026 -0.07168952 0.04575487 -0.030782249 0.08706347 -0.05311052 -0.06200203 -0.08587
0.063385636 -0.06416504 0.04704543 -0.016645733 0.09045154 -0.098104075 0.09993764 -0.034831055
-0.057148594 -0.079954095 -0.05997929 -0.034314632 -0.053022746 0.078776 -0.027544823 0.04492624
-0.0637507 -0.04598763 0.085405365 0.07201021 0.14832436 -0.054551166 0.029280432 0.06631534
00000000: 3f3b 903d e251 6a3c da81 46bd 826b b83c
00000010: 638f c8bd 1c77 9f3d a45f 243d e17c abbd
00000020: a388 383d 0cb1 b5bd e56a 893c ac0c 9abd
00000030: a838 c2ba 209a 8fbb c5be 1abd af22 4c3d
00000040: 0ccd 803d 95bf 67bb abe3 0e3d 687d 92bd
00000050: 79f4 eb3d eb67 293d 7d3d 4dbd 35ad 993d
00000060: fc1b 30be ce16 a33d 9ced ccbc 3b63 9abd
00000070: 88ad 5dbd 29da 85bd 14ec bb3c a810 d73c
00000080: abd9 5e3d af04 43bd 2b2d d1bd 6bd3 b4bd
00000090: 2c58 18ba b234 cc3d 84d6 ecbd 27e2 ba3c
000000a0: ce51 c73d 0c28 65bd 9dd6 543c fad3 863d
000000b0: a388 7fbd c15f aa3d 155b b5bb b6bc 1b3d
000000c0: 8e3d 783d dd2e 963d 4af3 a2bc e3f5 273c
000000d0: f538 46bd 3136 723d cf1f a9bd 07b9 64bc
000000e0: 6e4c 103e 277e 753d 12f5 8cbc 9647 f73c
000000f0: c0a0 d53d 7621 f9bd 6c2b 003e 6971 523d
00000100: d733 8dbd 6c05 8ebd 6bfd 10bd 7b6f 053e
00000110: 7763 ebbc 2765 40bc fa71 05bd 48b0 133e
00000120: 5abd 093b 3d7c 36bc 1f9f c63d c4cc 233d
00000130: e077 733c a0ac eabd 4876 703d c5cb 2ebd
00000140: c86f 36bd ab31 25bd 44ea cd3d 9a13 bbbd
00000150: b608 113d 5e22 cabc 813c d13d 9cee e1bc
00000160: 0b31 213d cbcd 953a b62f 033d 413f e3bd
00000170: 9619 64bd ee28 233c 3837 81bd 7f06 2e3d
00000180: 5ed3 07bd 8cc4 2abd 8c66 123d 9beb dcbc
00000190: 531e 5ebd 1ca1 153d 2e7b dcbc 0fc6 8ebb
000001a0: d6b0 9abc 88ac 1e3d 4c18 11bd 11f7 6dbd
000001b0: 69d9 e0bd ce8d 1c3d 4d53 ff3d 4eb6 d1bc
000001c0: 7f7a 943d 0c7a 1bbd 0c52 143e b908 183d
000001d0: d819 2b3d 3cdb 993d 6ec6 59bd b0cb c0ba
000001e0: 9b9c c2bd e114 8e3d 8ab0 543d d9f3 4dbc
000001f0: 9884 94bd be29 6ebd 045c e33c 8978 29bd
00000200: 08bf 693d 820c babb f335 863c d71f cf3c
00000210: a62e 96bd 5596 c1bc 9390 683d 1172 6dbd
00000220: 01e8 6abd 3dc9 55bd a41e e9bd ccc7 9cbd
00000230: 3ad0 f33c 35e0 043c 3243 42bd cf9f 703c
00000240: 94aa 833d baf2 003d 155a aabc ac4a 5f3d
00000250: bb5f d2bd 2c49 b93d b6bf 353d 0f4f 6c3d
00000260: 7cf3 9fbd 4fb3 653d 86fe 2bbd fb53 8abd
00000270: 4625 88bd d704 633b a1f8 6e3d 2730 403d
00000280: e2cd 903d b253 2a3d e934 3e3d 9e94 bf3d
00000290: 2997 1cbd d21f 84bc a92a a3bd eae8 9a3d
000002a0: 5eda 47bb d3b4 0c3d fbae 42bd 34b7 5cbd
000002b0: 01cd 02be 2099 c5bd 31cc a23d 5fa5 3dbd
000002c0: 3984 293d 8412 83bd b124 d4bc 99de a43c
000002d0: 5195 ac3d e79c 1e3d 9224 febc cd2e bbbd
000002e0: 750d 85bd da45 a73d 091a a6bd fb46 10bd
000002f0: 3546 1dbd 7418 8dbd 34f8 b23a 2f34 03bd
00000300: f9b8 003d 363c 1dbd cb14 45bd 729c a9bc
00000310: 5e76 b2bd f675 c13c ce48 9cbd e14b 1f3d
00000320: 960e 103d e41d 13bd 9f3e cfbd 9f32 e83d
00000330: 2a0c dd3c 4828 b1bd 9bf4 70bd 8676 8cbd
00000340: 0f1b edbc d91e 0ebd bd99 433c 6ee5 3ebc
00000350: c6d3 813d ccd5 6dbd c795 7cbd 51ad d43d
00000360: f150 a9bd a833 b03d 6465 3b3d 5e32 f4bd
00000370: fa68 553d 25de cd3d 92d6 95bd f31c d83c
00000380: d4c4 833d f4d1 92bd 7569 3b3d 0e2b fcbc
00000390: 554e b23d 6b8a 59bd d7f5 7dbd 9cdc afbd
000003a0: 54d0 813d f668 83bd b5b2 403d a25c 88bc
000003b0: a83e b93d caea c8bd 1bac cc3d 02ab 0ebd
000003c0: a514 6abd f9be a3bd d8ac 75bd 808d 0cbd
000003d0: 612e 59bd 5055 a13d aea5 e1bc 9404 383d
000003e0: ba8f 82bd 865d 3cbd 02e9 ae3d 177a 933d
000003f0: 57e2 173e 0b71 5fbd 84dd ef3c 56d0 873d

net.5.bias f4 [48]
-0.0350645 -0.081089005 -0.0077289934 -0.028422164 0.053616572 -0.061123867 0.025583534 -0.0452325
-0.07110097 0.01270221 -0.032601833 0.020590967 0.0484068 -0.062279485 0.02531649 -0.07819193
0.0022046834 0.06678936 -0.08159932 0.008306315 -0.015544529 0.064126916 0.031535067 0.042042177
-0.073798716 0.023101093 -0.0010363068 -0.028562149 0.08070997 -0.051014777 0.010635548 -0.05290476
-0.027912606 0.010548841 0.010351226 0.05363647 -0.07297677 0.04866716 -0.03743156 -0.007958923
-0.036504775 -0.063554324 0.015555653 -0.018994583 0.019525591 -0.03652867 0.061079692 0.06333929
00000000: cb9f 0fbd fe11 a6bd 7f43 fdbb 99d5 e8bc
00000010: 0d9d 5b3d 055d 7abd 8f94 d13c b745 39bd
00000020: 639d 91bd ee1c 503c 8089 05bd 63ae a83c
00000030: 3546 463d c618 7fbd 8764 cf3c 1723 a0bd
00000040: 737c 103b dcc8 883d 8b1d a7bd 3617 083c
00000050: 7bae 7ebc f954 833d ea2a 013d 6b34 2c3d
00000060: c823 97bd 813e bd3c b0d4 87ba 2bfb e9bc
00000070: 454b a53d dff4 50bd b940 2e3c a9b2 58bd
00000080: faa8 e4bc 0cd5 2c3c 3098 293c eab1 5b3d
00000090: d874 95bd 3757 473d d651 19bd 2466 02bc
000000a0: 0886 15bd c528 82bd 23dd 7e3c 879a 9bbc
000000b0: 22f4 9f3c 169f 15bd b32e 7a3d 08b8 813d

exp_avg f4 [32, 191, 2]
0.011322564 0.013214743 0.064460255 0.056633037 0.042200107 0.033479776 0.036544666 0.026450984
0.0402632 0.03391151 0.03925215 0.034376204 0.034633353 0.023146214 0.038563397 0.03344781
0.009568466 0.015521354 0.041920654 0.041121606 0.03619568 0.043222316 0.07183836 0.06238013
-0.003311994 0.02006945 0.032913364 0.024950225 0.013520019 0.00940192 0.047291808 0.047103897
-0.006738487 -0.00018509376 0.04541497 0.038496558 0.04909411 0.045254663 0.046229288 0.030903313
0.009935305 0.007861943 0.055387516 0.030770969 0.046979435 0.03854706 0.0004028668 0.01085585
-0.000115557195 0.0029168553 0.024509965 0.031643316 -0.010980434 -0.014828909 0.047500312 0.050257284
0.01784425 0.020192495 0.015838016 0.01810324 0.01199483 0.0094902655 0.08059277 0.068695225
-0.02393808 -0.015332474 0.040166978 0.01459384 0.043962985 0.041490395 0.038162477 0.024047514
0.027883878 0.011955688 0.007397764 0.01829562 0.034524467 0.015944935 0.026066545 0.030097112
0.07361202 0.052154794 -0.0015796165 0.0039353715 0.04170091 0.038862925 0.010159759 0.011397665
0.07151654 0.065756395 0.04147514 0.027454104 0.060849838 0.05184944 0.06595614 0.07001318
0.031845823 0.026173748 0.05096128 0.047735408 0.042159036 0.07069643 0.08839676 0.0748245
0.1071312 0.11450115 0.018423047 0.029849702 0.033437338 0.035093237 0.016109379 -0.013880268
0.057823926 0.041137915 0.044013195 0.064242415 0.0373928 0.006161119 0.05651637 0.08376041
0.05816472 0.044535547 0.0171607 0.0013131117 0.03989939 0.034069125 0.027814355 0.042657413
0.029840104 0.008850373 0.06417999 0.06504067 0.0911322 0.089857884 0.036105033 -0.002001361
0.057573363 0.06515657 0.04018857 0.04201341 0.03898862 0.02937599 0.016443932 0.008672823
0.003473273 -0.004876125 0.009147707 -0.00017268014 0.030266041 0.025118554 0.081560984 0.06587956
0.07314996 0.048679944 0.018460443 0.0038366055 0.032074347 0.03162094 0.054756247 0.057550956
0.076162346 0.08023808 0.024569368 0.015297364 0.02306653 0.0012189721 0.039766982 0.04999328
-0.02350195 -0.051392976 0.05732545 0.03340138 0.11221116 0.09515025 0.04838641 0.05432808
0.051198825 0.063238956 0.008969357 -0.0038147543 0.024024425 0.024513682 0.062599875 0.067653045
0.015077351 0.034230247 -0.010684107 0.0082624825 0.014732062 0.01821023 0.033617724 0.019515807
-0.042767853 -0.029966267 0.035449408 0.044101372 0.008159993 0.008694689 0.029213907 0.03209118
-0.020020016 -0.007589485 0.07232329 0.046437364 -0.012240056 0.020393234 0.07175814 0.05621916
0.0150862485 -0.004198321 0.042301945 0.020376518 0.07199187 0.049405158 0.053016227 0.07362241
0.033775423 0.013312629 0.027492426 0.041359995 0.026992612 0.015436725 0.04777085 0.059477594
0.08129155 0.06377123 0.05350357 0.051165156 0.03596909 0.045839015 0.060528975 0.048188243
0.02958697 0.046476346 0.081185356 0.0773122 0.04522137 0.041942813 0.03806946 0.023231935
0.07759137 0.057558853 0.0601139 0.06759194 0.05826446 0.07410271 0.034688503 0.0707612
0.0018873282 0.010371668 0.061989225 0.05962251 0.031905543 0.0010838007 0.04297048 0.031658262
00000000: 4782 393c a682 583c bd03 843d 0bf8 673d
00000010: 05da 2c3d 1722 093d dcaf 153d bcaf d83c
00000020: 06eb 243d cce6 0a3d ddc6 203d 10ce 0c3d
00000030: b4db 0d3d 219d bd3c a7f4 1d3d 9200 093d
00000040: 0ec5 1c3c 474d 7e3c feb4 2b3d 216f 283d
00000050: ec41 143d e209 313d fd1f 933d 4f82 7f3d
00000060: 0a0e 59bb b068 a43c 2ad0 063d 6a64 cc3c
00000070: 1283 5d3c 830a 1a3c 0eb5 413d 04f0 403d
00000080: 87ce dcbb ba15 42b9 0c05 3a3d 91ae 1d3d
00000090: e816 493d f45c 393d ec5a 3d3d f228 fd3c
000000a0: b1c7 223c 61cf 003c 05de 623d 6613 fc3c
000000b0: 826d 403d 86e3 1d3d de37 d339 bcdc 313c
000000c0: 4c57 f2b8 b628 3f3b 1fc9 c83c 6c9c 013d
000000d0: 47e7 33bc f4f4 72bc b08f 423d 95da 4d3d
000000e0: 1b2e 923c bb6a a53c babe 813c 3f4d 943c
000000f0: f785 443c 0f7d 1b3c d20d a53d 15b0 8c3d
00000100: cb19 c4bc 0f35 7bbc 2186 243d 001b 6f3c
00000110: 8812 343d d5f1 293d 4250 1c3d 4bff c43c
00000120: bb6c e43c cae1 433c f168 f23b b2e0 953c
00000130: 8769 0d3d f49e 823c 8289 d53c 388e f63c
00000140: e6c1 963d 44a0 553d 220b cfba 4af4 803b
00000150: 93ce 2a3d bb2e 1f3d 1e75 263c 46bd 3a3c
00000160: 4477 923d 4aab 863d d6e1 293d 6ee7 e03c
00000170: ae3d 793d 1460 543d 0314 873d 1263 8f3d
00000180: c470 023d 546a d63c c6bc 503d 3486 433d
00000190: f4ae 2c3d 4ac9 903d 5c09 b53d 963d 993d
000001a0: 9a67 db3d 947f ea3d eeeb 963c 5d87 f43c
000001b0: 97f5 083d edbd 0f3d d1f7 833c 106a 63bc
000001c0: c8d8 6c3d 3b80 283d 2e47 343d 8791 833d
000001d0: 3129 193d 36e3 c93b b67d 673d 948a ab3d
000001e0: 213e 6e3d e86a 363d 9994 8c3c b81c ac3a
000001f0: 8b6d 233d 118c 0b3d eeda e33c 8ab9 2e3d
00000200: 3c73 f43c 2801 113c cc70 833d 0b34 853d
00000210: 85a3 ba3d 6907 b83d dfe2 133d 4429 03bb
00000220: 0cd2 6b3d cf70 853d c59c 243d 4116 2c3d
00000230: 88b2 1f3d eba5 f03c 6db5 863c 7518 0e3c
00000240: da9f 633b e7c7 9fbb 44e0 153c 7911 35b9
00000250: 7df0 f73c 6dc5 cd3c 7209 a73d ddeb 863d
00000260: a5cf 953d 9f64 473d 5b3a 973c 8f6f 7b3b
00000270: 6460 033d f584 013d 1648 603d 8dba 6b3d
00000280: 01fb 9b3d dd53 a43d b345 c93c cca1 7a3c
00000290: 05f6 bc3c ebc5 9f3a b4e2 223d c1c5 4c3d
000002a0: 2987 c0bc 7181 52bd 17ce 6a3d e3cf 083d
000002b0: f7ce e53d 22de c23d d430 463d 1f87 5e3d
000002c0: dcb5 513d 6d83 813d 36f4 123c f500 7abb
000002d0: dfce c43c ebd0 c83c 5d34 803d ae8d 8a3d
000002e0: fe06 773c 0435 0c3d 650c 2fbc 5d5f 073c
000002f0: bf5e 713c 9f2d 953c bdb2 093d 9ddf 9f3c
00000300: 582d 2fbd d17b f5bc 6633 113d a4a3 343d
00000310: 7eb1 053c 2b74 0e3c 0152 ef3c 0b72 033d
00000320: 0401 a4bc 37b1 f8bb 3c1e 943d 1b35 3e3d
00000330: 848a 48bc b60f a73c eff5 923d 1046 663d
00000340: 502c 773c 1292 89bb ce44 2d3d a8ec a63c
00000350: 7970 933d 105d 4a3d 8b27 593d 59c7 963d
00000360: 1958 0a3d 371d 5a3c cc37 e13c 1969 293d
00000370: 9c1f dd3c 51ea 7c3c 5eab 433d c79e 733d
00000380: 2f7c a63d 7e9a 823d 8f26 5b3d 8e92 513d
00000390: 5354 133d b1c1 3b3d 3bed 773d 0961 453d
000003a0: 6060 f23c fb5d 3e3d 8244 a63d dc55 9e3d
000003b0: 0b3a 393d 3acc 2b3d b9ee 1b3d e650 be3c
000003c0: 39e8 9e3d d5c2 6b3d fe39 763d a56d 8a3d
000003d0: b7a6 6e3d 29c3 973d 8815 0e3d 3feb 903d
000003e0: 3a60 f73a eeed 293c 6ae8 7d3d bc36 743d
000003f0: 63af 023d 510e 8e3a d001 303d 18ac 013d

exp_avg_sq f4 [32, 191, 2]
0.0019426802 0.0019930296 0.054578993 0.05797615 0.047712203 0.04324467 0.065269634 0.06718437
0.056645826 0.05202536 0.02106298 0.022905178 0.02959634 0.03102062 0.039102033 0.040157497
0.029394101 0.031316787 0.028732007 0.03142809 0.04188547 0.04556453 0.07390429 0.07132831
0.027668685 0.03089639 0.046471536 0.048165865 0.04543555 0.04990792 0.08950609 0.08500919
0.009568974 0.009941357 0.032873586 0.036800545 0.037831396 0.04245204 0.040768694 0.041832212
0.019898785 0.018764665 0.051336315 0.050568756 0.047795493 0.048693884 0.020754127 0.027191654
0.057185885 0.063972674 0.019959703 0.023052143 0.03720355 0.03420557 0.03761239 0.041383546
0.042052627 0.04194445 0.022470435 0.024976173 0.045042228 0.054270003 0.06548075 0.062474027
0.036752723 0.039791875 0.044253442 0.043809038 0.01829918 0.020877462 0.04521836 0.046179112
0.040285867 0.04444305 0.048514817 0.050365023 0.055812754 0.054586917 0.039273065 0.0410978
0.04337537 0.047117986 0.038544122 0.041023653 0.042559978 0.041577183 0.046307996 0.05061256
0.04287827 0.03971247 0.046373285 0.04565766 0.060372777 0.06244099 0.077567145 0.07755587
0.022545954 0.022565627 0.03831858 0.04193286 0.046380706 0.050683793 0.04288956 0.039982166
0.0654554 0.06954554 0.033094976 0.038454406 0.029106457 0.03494576 0.04007534 0.040331393
0.04666253 0.050432008 0.043830328 0.041602228 0.05035425 0.049117126 0.052247852 0.05861423
0.040972024 0.04689469 0.037618633 0.04261124 0.02583479 0.026351847 0.0676593 0.074226715
0.04420809 0.045122374 0.06858005 0.07554825 0.07600935 0.07384631 0.045094777 0.046654437
0.055670794 0.05588372 0.060351104 0.060826324 0.059772566 0.056801546 0.043843362 0.04206002
0.026214689 0.02875622 0.028698124 0.029465178 0.06288284 0.062875755 0.045159034 0.049018137
0.046890773 0.047738276 0.052672483 0.055264246 0.049039952 0.0548552 0.04220518 0.042681206
0.04357363 0.04179521 0.04319943 0.045411196 0.037418462 0.03882745 0.06886115 0.0706849
0.025299365 0.029198727 0.050870527 0.05396994 0.04222682 0.04460283 0.04343796 0.047603067
0.058831513 0.0697283 0.034558088 0.0355238 0.033414964 0.039888762 0.06702322 0.065785006
0.030718645 0.036404822 0.02236661 0.025973536 0.035888236 0.032887135 0.039672185 0.05568277
0.07196662 0.074213095 0.07238248 0.07428923 0.07381309 0.07068205 0.037149902 0.04069518
0.060932677 0.059776936 0.09906322 0.104874924 0.08001793 0.08183778 0.08261243 0.08072705
0.043860834 0.04891872 0.05041672 0.049283136 0.06897203 0.07449186 0.07646707 0.07739881
0.053840086 0.058692932 0.05977719 0.054914556 0.033816498 0.035432618 0.037706207 0.038001694
0.0684533 0.054506466 0.07049252 0.06752517 0.056300856 0.057730876 0.06768319 0.05769518
0.05838335 0.05672566 0.12546787 0.12006401 0.06346968 0.06045757 0.050058927 0.051844776
0.065088004 0.05711812 0.06789182 0.0688164 0.04797069 0.048223667 0.073516935 0.059109725
0.023657775 0.02484111 0.056635994 0.047638215 0.050526008 0.04611508 0.031850323 0.035414312
00000000: 88a1 fe3a 7d9d 023b 398e 5f3d 6678 6d3d
00000010: df6d 433d 5321 313d 16ac 853d f597 893d
00000020: 7405 683d 8b18 553d 458c ac3c a4a3 bb3c
00000030: 0674 f23c f51e fe3c 7429 203d 307c 243d
00000040: e6cb f03c 0846 003d 635f eb3c beba 003d
00000050: 1990 2b3d dfa1 3a3d 225b 973d 9414 923d
00000060: 70a9 e23c 6d1a fd3c f058 3e3d 9249 453d
00000070: a11a 3a3d 3f6c 4c3d f84e b73d 4c19 ae3d
00000080: 30c7 1c3c 13e1 223c 74a6 063d 2bbc 163d
00000090: 18f5 1a3d 31e2 2d3d 13fd 263d 4158 2b3d
000000a0: c702 a33c 5bb8 993c 0746 523d 2f21 4f3d
000000b0: 35c5 433d 3d73 473d 8f04 aa3c 08c1 de3c
000000c0: bf3b 6a3d 1b04 833d 8882 a33c d9d7 bc3c
000000d0: c062 183d 241b 0c3d 730f 1a3d cb81 293d
000000e0: 603f 2c3d f2cd 2b3d eb13 b83c d59a cc3c
000000f0: 337e 383d 394a 5e3d c51a 863d c4e4 7f3d
00000100: 068a 163d cefc 223d 1943 353d 1b71 333d
00000110: 29e8 953c 3607 ab3c e336 393d 4f26 3d3d
00000120: cb02 253d ea09 363d 79b7 463d 8e4b 4e3d
00000130: ea9b 643d 8896 5f3d cbdc 203d 2b56 283d
00000140: 5faa 313d cafe 403d 71e0 1d3d 6b08 283d
00000150: 5f53 2e3d d64c 2a3d 74ad 3d3d 1e4f 4f3d
00000160: 20a1 2f3d 8ba9 223d eaf1 3d3d 8703 3b3d
00000170: 7249 773d 20c2 7f3d 86db 9e3d 9dd5 9e3d
00000180: 4bb2 b83c 8ddb b83c f1f3 1c3d cac1 2b3d
00000190: b2f9 3d3d cf99 4f3d f7ac 2f3d 57c4 233d
000001a0: 7b0d 863d e46d 8e3d 998e 073d 5e82 1d3d
000001b0: aa70 ee3c 4923 0f3d 0a26 243d 8832 253d
000001c0: 3621 3f3d cb91 4e3d 6e87 333d 1967 2a3d
000001d0: 4240 4e3d 0a2f 493d d801 563d 7a15 703d
000001e0: 48d2 273d a514 403d ff15 1a3d 2089 2e3d
000001f0: 7ba3 d33c d4df d73c f690 8a3d 2d04 983d
00000200: 8b13 353d 3dd2 383d b273 8c3d 0ab9 9a3d
00000210: caaa 9b3d bc3c 973d 4db5 383d b918 3f3d
00000220: 0f07 643d 54e6 643d b832 773d 0625 793d
00000230: 14d4 743d bda8 683d 1995 333d 2147 2c3d
00000240: 30c0 d63c 2a92 eb3c 5418 eb3c f560 f13c
00000250: b8c8 803d 01c5 803d aef8 383d 3ec7 483d
00000260: 8a10 403d 3689 433d 1abf 573d c35c 623d
00000270: 1ede 483d d9af 603d 57df 2c3d 7dd2 2e3d
00000280: 437a 323d 7431 2b3d e3f1 303d 1701 3a3d
00000290: 1a44 193d 8809 1f3d 1307 8d3d 3fc3 903d
000002a0: 9d40 cf3c 2b32 ef3c 9d5d 503d 950f 5d3d
000002b0: 08f6 2c3d 75b1 363d 01ec 313d 6ffb 423d
000002c0: 50f9 703d b6cd 8e3d c88c 0d3d 6781 113d
000002d0: 21de 083d 6662 233d 7843 893d 4aba 863d
000002e0: aba5 fb3c 391d 153d 2e3a b73c 74c6 d43c
000002f0: 8bff 123d a9b4 063d 4d7f 223d 9e13 643d
00000300: 3c63 933d 09fd 973d 443d 943d f424 983d
00000310: 512b 973d c0c1 903d 7f2a 183d fdaf 263d
00000320: 8b94 793d a9d8 743d a8e1 ca3d aac8 d63d
00000330: 71e0 a33d 919a a73d b530 a93d 3954 a53d
00000340: 6ba7 333d ff5e 483d c381 4e3d 1ddd 493d
00000350: 3541 8d3d 308f 983d c49a 9c3d 4483 9e3d
00000360: 6c87 5c3d 0068 703d edd8 743d 16ee 603d
00000370: 2b83 0a3d cb21 113d d371 1a3d aaa7 1b3d
00000380: 3e31 8c3d 2c42 5f3d 625e 903d a34a 8a3d
00000390: ba9b 663d 3677 6c3d 7c9d 8a3d c851 6c3d
000003a0: 6123 6f3d 2a59 683d a67a 003e 1fe4 f53d
000003b0: 64fc 813d 5ba2 773d 970a 4d3d 305b 543d
000003c0: dc4c 853d b1f4 693d de0a 8b3d 9def 8c3d
000003d0: ea7c 443d 2e86 453d 0c90 963d 0a1d 723d
000003e0: f3cd c13c 957f cb3c 25fb 673d 4a20 433d
000003f0: 5cf4 4e3d 2be3 3c3d 7c75 023d 990e 113d

exp_avg f4 [32]
0.12325167 -0.19496232 -0.037431292 -0.08222069 0.04017527 -0.13986787 -0.13354157 -0.16071007
-0.24731384 -0.047045954 0.017094033 -0.097794466 0.22356637 0.07835397 -0.029512769 -0.0054631056
0.44218695 -0.12541324 -0.0073386463 0.0658457 -0.14057516 0.18797842 0.092761435 -0.0057987957
-0.1384087 -0.14688776 -0.08071101 0.18170166 -0.17783636 -0.121052966 0.1958226 0.18348129
00000000: 5f6b fc3d 34a4 47be 8e51 19bd 5263 a8bd
00000010: d38e 243d 8639 0fbe 1fbf 08be 2e91 24be
00000020: d73f 7dbe 42b3 40bd c908 8c3c 7748 c8bd
00000030: 95ee 643e 0c78 a03d c3c4 f1bc da03 b3bb
00000040: 5466 e23e 546c 00be 0779 f0bb 1cda 863d
00000050: eff2 0fbe 6a7d 403e b5f9 bd3d d303 bebb
00000060: 03bb 0dbe bf69 16be d04b a5bd 0010 3a3e
00000070: bc1a 36be 9eea f7bd b885 483e 85e2 3b3e

exp_avg_sq f4 [32]
0.6969408 0.93245643 1.0218697 0.78738165 0.7831757 0.9088412 1.0747385 1.0853604
1.235147 0.6047439 0.9035932 1.3836654 1.2140863 0.97499746 0.31281054 1.0317924
0.98436284 0.79983646 1.2435935 0.30104387 1.1876198 0.7489141 1.0196148 0.67377985
0.6465271 1.0062943 1.1714478 1.1965734 1.1312265 1.0544348 0.7476951 1.0362917
00000000: b66a 323f 77b5 6e3f a0cc 823f d891 493f
00000010: 347e 483f d1a9 683f 0891 893f 17ed 8a3f
00000020: 4c19 9e3f 7fd0 1a3f e251 673f f31b b13f
00000030: 2e67 9b3f 6f99 793f b428 a03e c611 843f
00000040: 34ff 7b3f 15c2 4c3f 122e 9f3f 6c22 9a3e
00000050: ed03 983f d6b8 3f3f bd82 823f d67c 2c3f
00000060: cd82 253f 40ce 803f 00f2 953f 5129 993f
00000070: 08cc 903f b8f7 863f f268 3f3f 35a5 843f
