saved_CEBRA_models/nitschke_20090812_20090819_20090910/CEBRA_models/temperature_0.0014000000000000002_time_offsets_2_dataset1.pt (torch, 531429 bytes, 31 tensors)

net.0.weight f4 [32, 191, 2]
-0.083490945 0.051252276 -0.030063124 -0.021342622 -0.035249457 0.0097202845 -0.0039784946 -0.03037311
-0.018465975 0.043157693 -0.03681851 0.020296143 -0.024390962 -0.0022771114 0.05586906 0.009992482
-0.08031652 -0.039481554 0.049105864 0.05254454 -0.038912352 -0.007646978 -0.014863781 -0.009595879
-0.027300674 -0.016342796 0.09435622 -0.0031730914 -0.026921563 0.046749074 -0.050560802 -0.022817919
0.04099319 -0.038209464 0.012988953 0.008608137 0.00018647726 0.013644895 0.00033972555 -0.021796737
0.0025324158 -0.0037466907 0.031643398 -0.07633115 -0.0017369571 0.029250992 -0.0011824488 -0.013017765
0.029653376 0.009634478 0.014978914 -0.03675462 0.024473533 -0.03994828 -0.11058031 -0.013222602
0.039806083 0.040136494 -0.021686641 -0.012853548 -0.04005058 -0.023834888 0.04495635 0.011234524
-0.030309541 0.0038913763 0.026465818 -0.019726707 0.05313133 -0.037545886 -0.04789364 0.015226097
0.026051845 -0.045496408 0.034270294 -0.013748983 0.018672323 -0.012603922 -0.053813696 -0.008773245
-0.0621408 0.00998467 -0.009266231 0.012505224 0.0061720684 0.028206244 0.0021855591 -0.051522363
0.020893821 0.040726937 0.017364427 -0.00051499443 -0.0051125856 -0.0775629 -0.0016104267 0.04943284
0.12637451 -0.026045904 0.004974652 -0.0004552112 0.00700745 0.015227128 -0.016251773 0.08390986
0.025471356 0.049889743 -0.02023029 -0.00014405046 -0.012595629 0.012077622 -0.027735235 -0.037942845
0.024323815 0.005685397 0.007735003 0.020387096 -0.030340414 0.0050572483 0.041382402 7.879261e-05
-0.017952712 0.01239591 -0.025669426 0.022408403 -0.047140606 -0.0028979743 -0.01575975 0.023662254
-4.321587e-05 0.0007829311 0.042223766 -0.038355645 -0.0062336503 -0.009460666 0.016514754 -0.039023936
-0.0019373132 -0.007941796 0.009100346 0.055406056 -0.015840098 -0.06096025 0.00672811 -0.063831024
0.019053234 0.12386176 -0.071077384 -0.032512177 -0.011440965 0.015791386 0.017852345 0.0060772104
-0.0054370123 0.01062385 0.0066552856 -0.12652351 0.02301115 -0.004801101 -0.045873888 0.054112636
0.015884843 0.0021443658 0.010510942 -0.065875575 -0.077605926 -0.0027274324 0.035197042 0.040467575
-0.08710731 0.01150552 -0.075373486 -0.034393515 0.011947498 -0.04318949 0.015543916 0.021994065
0.04373617 0.037817806 0.012037461 -0.049909886 0.030360084 0.031653643 -0.029280769 0.03512758
-0.032493357 0.06705121 -0.019141348 -0.01544752 0.03691405 -0.060779583 0.022383194 0.03213975
0.021485217 0.073230684 -0.01761341 0.004452632 0.038900547 0.004067398 -0.016879493 -0.011686282
0.0658264 0.011703376 -0.03084508 -0.025524026 0.045281086 -0.017713437 -0.003073187 0.047145803
-0.0022420804 -0.018348444 0.059655197 0.036564592 0.016750557 -0.029838234 0.020825328 0.03147123
-0.052125785 0.014692357 0.010647114 -0.008126989 -0.004868887 -0.02955252 -0.051836178 -0.030123567
0.04237786 -0.00070934644 -0.008287259 0.003423912 -0.027189692 -0.0038164214 0.049711235 0.05710534
0.0015632765 0.033148643 -0.020105036 0.009975899 -0.01799803 0.07597755 0.029442793 -0.045862313
0.046575174 -0.0050197598 -0.012908767 -0.049243353 -0.0031835411 -0.02088332 0.038395703 0.0015543768
-0.04227954 0.05368447 0.023183353 -0.043853503 0.0297489 -0.01152781 -0.05029455 -0.020093765
00000000: 4dfd aabd e8ed 513d f146 f6bc b9d6 aebc
00000010: bc61 10bd d441 1f3c 085e 82bb 07d1 f8bc
00000020: f545 97bc 1fc6 303d 02cf 16bd 1944 a63c
00000030: 8ecf c7bc 973b 15bb f5d6 643d 82b7 233c
00000040: fd7c a4bd 69b7 21bd 3b23 493d f238 573d
00000050: 8f62 1fbd 8093 fabb 3787 73bc 0938 1dbc
00000060: aaa5 dfbc 54e1 85bc d53d c13d a4f3 4fbb
00000070: 9c8a dcbc f57b 3f3d d818 4fbd a5ec babc
00000080: 7ae8 273d 8781 1cbd 9ecf 543c 2509 0d3c
00000090: 1c89 4339 d68e 5f3c 311d b239 128f b2bc
000000a0: e3f6 253b 0a8b 75bb 829c 013d 8253 9cbd
000000b0: 9caa e3ba c79f ef3c 66fc 9aba 7748 55bc
000000c0: a3eb f23c eed9 1d3c 1e6a 753c 038c 16bd
000000d0: b87c c83c cfa0 23bd ee77 e2bd 9da3 58bc
000000e0: b40b 233d 2a66 243d 2fa8 b1bc b097 52bc
000000f0: 140c 24bd 6241 c3bc 2624 383d 0211 383c
00000100: b74b f8bc 7606 7f3b d8ce d83c e799 a1bc
00000110: 3da0 593d b7c9 19bd 1f2c 44bd e176 793c
00000120: ae6a d53c 715a 3abd 025f 0c3d 6a43 61bc
00000130: b3f6 983c ae80 4ebc c06b 5cbd a8bd 0fbc
00000140: 5a87 7ebd be96 233c 64d1 17bc b6e2 4c3c
00000150: 103f ca3b c810 e73c 993b 0f3b 1d09 53bd
00000160: 8529 ab3c 4ad1 263d d83f 8e3c b100 07ba
00000170: 7a87 a7bb 4cd9 9ebd f414 d3ba 177a 4a3d
00000180: 5268 013e 385e d5bc 6802 a33b 6aa9 eeb9
00000190: c09e e53b 347b 793c 7022 85bc efd8 ab3d
000001a0: 4ea9 d03c 3059 4c3d feb9 a5bc 400c 17b9
000001b0: e65d 4ebc 38e1 453c 0135 e3bc f569 1bbd
000001c0: bd42 c73c 914c ba3b e875 fd3b d702 a73c
000001d0: 768c f8bc 46b7 a53b 9880 293d 763d a538
000001e0: 9111 93bc 3718 4b3c b048 d2bc d491 b73c
000001f0: 8216 41bd f1eb 3dbb 971a 81bc 58d7 c13c
00000200: b042 35b8 9e3d 4d3a d4f2 2c3d cf1a 1dbd
00000210: a643 ccbb e900 1bbc f349 873c 90d7 1fbd
00000220: 72ed fdba 4f1e 02bc 9e19 153c 76f1 623d
00000230: 18c3 81bc 75b1 79bd 7a77 dc3b d7b9 82bd
00000240: 8715 9c3c 3cab fd3d 0591 91bd 7d2b 05bd
00000250: e372 3bbc f05c 813c 153f 923c 5623 c73b
00000260: f728 b2bb a80f 2e3c 9514 da3b 618f 01be
00000270: e181 bc3c 8e52 9dbb 42e6 3bbd 36a5 5d3d
00000280: ee20 823c 7d88 0c3b 1636 2c3c c6e9 86bd
00000290: dbef 9ebd b9be 32bb c62a 103d 54c1 253d
000002a0: 5165 b2bd a681 3c3c 6a5d 9abd 37e0 0cbd
000002b0: 70bf 433c 76e7 30bd e9ab 7e3c e62c b43c
000002c0: b324 333d d8e6 1a3d c538 453c 4f6e 4cbd
000002d0: b6b5 f83c 40a7 013d 39de efbc f0e1 0f3d
000002e0: c117 05bd 2552 893d 51ce 9cbc 9817 7dbc
000002f0: 3033 173d 03f4 78bd f65c b73c f8a4 033d
00000300: c401 b03c f8f9 953d ff49 90bc 62e7 913b
00000310: 2e56 1f3d cf47 853b dd46 8abc d277 3fbc
00000320: fecf 863d 84bf 3f3c d2ae fcbc c317 d1bc
00000330: a978 393d c51b 91bc 8667 49bb f51b 413d
00000340: deef 12bb 7a4f 96bc 0259 743d c1c4 153d
00000350: 7738 893c 506f f4bc e199 aa3c fae7 003d
00000360: d981 55bd 36b8 703c 3c71 2e3c 1027 05bc
00000370: 2f8b 9fbb 2018 f2bc 2c52 54bd b3c5 f6bc
00000380: 6894 2d3d 6ff3 39ba 49c7 07bc b663 603b
00000390: ebbc debc ed1c 7abb 029e 4b3d 4ae7 693d
000003a0: dbe6 cc3a dfc6 073d 51b3 a4bc f471 233c
000003b0: 9b70 93bc 1e9a 9b3d 0332 f13c 1fda 3bbd
000003c0: 9cc5 3e3d cc7c a4bb 4b7f 53bc 66b3 49bd
000003d0: f5a2 50bb 7f13 abbc d044 1d3d 3bbc cb3a
000003e0: 502d 2dbd 3fe4 5b3d 04eb bd3c bb9f 33bd
000003f0: f7b3 f33c 24df 3cbc a801 4ebd ae9b a4bc

net.0.bias f4 [32]
-0.008387089 -0.038257662 0.05851909 0.060347006 -0.009469538 0.0379934 -0.047661763 -0.012755764
0.06305278 0.0021792853 0.015136111 0.012404041 -0.02641351 -0.022557521 -0.05131128 -0.032142065
0.02947867 -0.024248164 -0.03907347 -0.037775695 0.008657953 -0.046741117 0.0066927066 0.033267435
-0.047244105 0.0068314536 -0.030215364 -0.0027616727 0.02290416 0.022779077 -0.009228888 -0.0203556
00000000: 006a 09bc 11b4 1cbd b7b1 6f3d 6c2e 773d
00000010: 1f26 1bbc f89e 1b3d fb38 43bd 8dfd 50bc
00000020: d121 813d 57d2 0e3b 73fd 773c 523a 4b3c
00000030: 2561 d8bc 8dca b8bc c72b 52bd 66a7 03bd
00000040: 407d f13c 16a4 c6bc 810b 20bd b0ba 1abd
00000050: 16da 0d3c 9d73 3fbd 7e4e db3b 6f43 083d
00000060: 0983 41bd 63da df3b 3686 f7bc 2efd 34bb
00000070: 81a1 bb3c 309b ba3c c334 17bc cac0 a6bc

net.2.module.0.weight f4 [32, 32, 3]
-0.003288476 0.056469705 0.03560209 0.007869679 0.045258563 0.057020903 -0.005407188 -0.060086172
0.04969916 -0.0068036756 0.010340848 0.0010726998 -0.06127611 -0.09215119 0.036625158 -0.071042456
0.016973915 -0.16554351 0.104161166 0.083358705 0.14408574 -0.04811468 -0.066162325 0.06558646
0.084689945 -0.15664077 -0.027200937 -0.02923619 -0.05461841 -0.022031488 -0.2604374 -0.07610548
0.0755932 -0.063141175 0.09615934 0.09898813 0.04650338 0.088240385 0.031366527 0.11846248
-0.042622123 -0.03260422 0.12924665 -0.10191984 0.015104234 0.101345226 0.094536096 0.08856323
-0.017625162 0.078973144 -0.0379994 0.07885479 0.06875679 -3.141423e-05 0.11142282 0.056499835
0.026993342 -0.0520516 -0.10702307 -0.09251781 -0.084632464 0.112554625 0.15891033 0.032748964
-0.011410734 0.018389527 0.119920716 0.007902121 0.09616061 0.050490517 0.07349331 0.05623023
0.03024408 0.0012516218 -0.06930328 0.020152254 0.03819024 0.01673124 0.12487818 -0.0730898
-0.012188246 0.06531429 -0.06479133 0.018952303 -0.010895626 0.023428338 0.021289796 -0.024426168
0.101423785 -0.119912736 0.04111418 -0.0076733525 0.039049815 0.05358422 0.10323701 -0.10406806
-0.10675077 -0.07808227 -0.14461882 -0.04261737 0.07930736 -0.03311071 -0.033949047 0.001561841
0.06012802 0.037573658 0.10821885 -0.04413521 0.017081313 -0.026743373 0.09240279 -0.07356372
-0.048969556 0.021375941 0.034716956 0.008731277 -0.115669854 -0.06133657 0.058736134 -0.042728424
-0.12650461 -0.05971605 -0.09125027 -0.05589624 0.102145106 -0.019676311 -0.0714377 -0.0050735325
0.09303988 0.018828366 0.13606109 -0.0561298 -0.030884005 -0.10014232 0.02386282 -0.108828835
0.058643594 0.025680345 0.05120547 0.09211185 -0.07942216 -0.06617536 0.011088585 -0.10707375
-0.015277272 0.081585094 0.12320044 -0.108804695 -0.042795528 -0.020644778 -0.046018295 -0.08378983
-0.06519015 -0.015779296 0.074936554 -0.081193134 -0.032790568 -0.025013445 0.10421216 -0.043634396
0.10839455 0.020804131 -0.17425099 -0.077542864 -0.10382297 -0.07817403 0.055674355 0.070757106
-0.03476421 0.05833831 -0.07925444 0.10681152 -0.076773055 -0.05217774 0.09285081 0.0918099
0.03883531 -0.024754541 -0.025831368 0.0015630953 -0.059871223 -0.023650523 0.04214125 -0.16614223
-0.0059483936 -0.060551677 0.087467074 0.13611929 0.00799244 0.1000311 -0.06660294 0.03204522
0.0828695 0.10123897 -0.034125887 -0.04908937 0.08300414 0.0043176482 0.041711736 -0.060610794
0.047299895 0.045702092 -0.058750775 -0.017520815 0.0707645 0.036089852 -0.077566266 -0.012406398
0.05263853 -0.027353233 0.063854806 0.03466512 -0.136626 -0.042606767 0.025453052 0.12974715
-0.04635302 0.1113837 -0.04878638 -0.03953422 0.044222582 0.012283371 0.024965635 0.09886036
-0.075043574 -0.07198144 -0.12289975 -0.10899959 0.04851266 0.08313957 0.06420592 -0.03148124
0.09086407 0.09030266 -0.017437067 -0.054382615 0.048655026 0.026083056 -0.02789955 0.08925688
0.06972175 -0.04397489 0.06326281 -0.058140807 -0.011369583 0.11253611 -0.052191384 0.057684895
0.08209667 -0.034373254 0.09276985 -0.016331617 -0.04265731 -0.11111486 -0.061099634 0.12447996
00000000: 7983 57bb c74c 673d 7fd3 113d d3ef 003c
00000010: 0b61 393d c08e 693d c82e b1bb eb1c 76bd
00000020: 5991 4b3d 5ef1 debb a96c 293c d599 8c3a
00000030: a9fc 7abd c3b9 bcbd 4304 163d b57e 91bd
00000040: e10c 8b3c 3d84 29be 7352 d53d f8b7 aa3d
00000050: 368b 133e e613 45bd 1d80 87bd 3252 863d
00000060: ec71 ad3d 7066 20be 80d4 debc bc80 efbc
00000070: 8eb7 5fbd 617b b4bc 0d58 85be 31dd 9bbd
00000080: 9cd0 9a3d 2950 81bd 30ef c43d 4aba ca3d
00000090: 547a 3e3d 60b7 b43d 307a 003d 759c f23d
000000a0: 8994 2ebd 018c 05bd 3c59 043e 59bb d0bd
000000b0: c077 773c 168e cf3d 249c c13d a460 b53d
000000c0: a562 90bc acbc a13d 42a5 1bbd 9f7e a13d
000000d0: 5cd0 8c3d c6c2 03b8 a631 e43d 5f6c 673d
000000e0: 2421 dd3c 0f34 55bd e92e dbbd fa79 bdbd
000000f0: c953 adbd 0a83 e63d 64b9 223e c723 063d
00000100: 16f4 3abc a2a5 963c fe98 f53d e677 013c
00000110: dbef c43d 25cf 4e3d a983 963d ab51 663d
00000120: 6fc2 f73c 750d a43a e1ee 8dbd 5716 a53c
00000130: 5e6d 1c3d f40f 893c 22c0 ff3d 1bb0 95bd
00000140: 35b1 47bc 80c3 853d 51b1 84bd dc41 9b3c
00000150: 9183 32bc c9ec bf3c f067 ae3c 6319 c8bc
00000160: 46b7 cf3d cf94 f5bd 5867 283d bf70 fbbb
00000170: b3f2 1f3d 217b 5b3d ed6d d33d a321 d5bd
00000180: 26a0 dabd 99e9 9fbd f516 14be 8d8f 2ebd
00000190: e66b a23d 199f 07bd 280e 0bbd b0b6 cc3a
000001a0: cc48 763d d6e6 193d d8a1 dd3d 1fc7 34bd
000001b0: 1cee 8b3c eb14 dbbc ad3d bd3d 93a8 96bd
000001c0: 4d94 48bd 991c af3c 5e33 0e3d a10d 0f3c
000001d0: 51e4 ecbd 0e3c 7bbd 4d95 703d 0004 2fbd
000001e0: 6d8a 01be d198 74bd 6ce1 babd 75f3 64bd
000001f0: 7431 d13d 3730 a1bc ee4d 92bd e03f a6bb
00000200: b18b be3d f23d 9a3c 9953 0b3e 5ce8 65bd
00000210: 7400 fdbc 6b17 cdbd f67b c33c a7e1 debd
00000220: 4434 703d 965f d23c d4bc 513d 23a5 bc3d
00000230: 16a8 a2bd f286 87bd e5ac 353c 7b49 dbbd
00000240: 864d 7abc 1616 a73d 8350 fc3d ffd4 debd
00000250: 5d4a 2fbd 3d1f a9bc ae7d 3cbd 019a abbd
00000260: 6a82 85bd 9543 81bc 5678 993d 9648 a6bd
00000270: 674f 06bd ffe8 ccbc 2f6d d53d fbb9 32bd
00000280: f6fd dd3d 6d6d aa3c da6e 32be cbce 9ebd
00000290: 23a1 d4bd b519 a0bd cb0a 643d 1ae9 903d
000002a0: eb64 0ebd 27f4 6e3d 2750 a2bd 00c0 da3d
000002b0: 313b 9dbd 53b8 55bd 9128 be3d d406 bc3d
000002c0: c611 1f3d 09ca cabc 4e9c d3bc c6e0 cc3a
000002d0: 873b 75bd bebe c1bc 4e9c 2c3d 3021 2abe
000002e0: beea c2bb 0905 78bd f021 b33d db62 0b3e
000002f0: b9f2 023c 1bdd cc3d 1f67 88bd d941 033d
00000300: 7cb7 a93d 6156 cf3d 96c7 0bbd ef11 49bd
00000310: 13fe a93d 0f7b 8d3b edd9 2a3d 0643 78bd
00000320: 89bd 413d 1e32 3b3d a7a4 70bd d087 8fbc
00000330: faec 903d f4d2 133d 10db 9ebd 3444 4bbc
00000340: 809b 573d e313 e0bc 4fc6 823d 03fd 0d3d
00000350: b0e7 0bbe 6f84 2ebd eb82 d03c 70dc 043e
00000360: aadc 3dbd 231d e43d 3ad4 47bd a2ee 21bd
00000370: bd22 353d 3140 493c bb84 cc3c 4d77 ca3d
00000380: 72b0 99bd 016b 93bd ddb2 fbbd 2d3b dfbd
00000390: 36b5 463d 1445 aa3d 657e 833d 79f2 00bd
000003a0: f116 ba3d 9af0 b83d 2ed8 8ebc 4ec0 5ebd
000003b0: 7e4a 473d 22ac d53c 998d e4bc 50cc b63d
000003c0: 47ca 8e3d 041f 34bd ef8f 813d 0e25 6ebd
000003d0: 7d47 3abc 5579 e63d a2c6 55bd ff46 6c3d
000003e0: 4d22 a83d f8ca 0cbd 1efe bd3d e2c9 85bc
000003f0: 6eb9 2ebd 3090 e3bd 9c43 7abd 59ef fe3d

net.2.module.0.bias f4 [32]
-0.027666561 0.043354265 -0.058996804 0.013370402 -0.03204564 -0.09136895 0.059595365 0.01438176
0.049929786 -0.08373265 0.049256444 0.026031345 -0.046716657 0.085738085 0.009058136 -0.052068744
0.07092166 0.01655482 -0.034632742 -0.05652656 0.02454637 -0.027228992 -0.07084637 0.050072804
-0.12143998 -0.0746578 0.03634282 0.04436101 -0.080706045 0.03326982 0.096687354 0.096758984
00000000: fca4 e2bc 3e94 313d a2a6 71bd 880f 5b3c
00000010: 4a42 03bd a51f bbbd 451a 743d 79a1 6b3c
00000020: 2d83 4c3d 067c abbd 20c1 493d b03f d53c
00000030: f759 3fbd 7397 af3d 9368 143c 0946 55bd
00000040: 603f 913d f99d 873c 10db 0dbd 6588 67bd
00000050: 7815 c93c 560f dfbc e717 91bd 2419 4d3d
00000060: 86b5 f8bd 30e6 98bd 35dc 143d e4b3 353d
00000070: 3649 a5bd ef45 083d 0504 c63d 9329 c63d

net.3.module.0.weight f4 [32, 32, 3]
-0.0808945 -0.07526376 -0.08813779 0.013942616 -0.03942234 -0.07129851 -0.06658425 -0.04959801
0.06560576 0.16402678 0.044417657 0.08384681 -0.029638985 0.054971825 0.0154768685 0.1465691
0.027477656 -0.008449181 0.11278652 -0.029318307 0.042691424 -0.042241167 0.099466756 -0.05903494
-0.067528635 -0.15339439 -0.004504344 -0.023659576 0.009053552 -0.017046742 -0.08894765 0.10666729
0.1269404 0.052943166 0.00391718 -0.012219174 0.0035413897 0.059866223 0.08200945 -0.026605792
0.04242137 0.047413353 0.06066786 0.01794566 -0.019562969 -0.0036975197 0.07782313 0.032765962
-0.13776611 0.013677484 0.08340915 0.082667254 -0.09046646 -0.040423688 0.09789835 0.08177276
-0.06682329 0.094139054 -0.04054653 0.0858139 -0.09089616 0.09076968 0.026691893 -0.029476734
0.08226031 0.08268104 -0.013164398 0.045861945 0.04304053 0.06773171 -0.10115958 0.03206753
0.103376925 -0.072370626 0.027199578 -0.0060285362 -0.028482093 0.09272943 0.1079156 0.026305927
-0.03621428 0.15925545 -0.13428241 -0.02874166 -0.06456345 0.015792716 0.046585057 0.0031393692
0.11390364 0.100616924 -0.12123495 -0.006785067 0.123519905 -0.05914501 0.07312738 -0.017596072
0.092458636 0.066542916 0.014181304 0.07108509 0.04277344 0.051628273 -0.08313526 -0.0863001
-0.122909 0.042591326 0.08685148 -0.017612228 -0.081160285 0.0033033679 -0.109482415 0.052132234
0.033769924 -0.08575085 -0.051883426 -0.034176942 0.063243866 0.032223687 0.04071722 0.093096666
-0.028359316 -0.012048982 0.056686234 -0.0013518926 -0.029585399 -0.034160823 -0.12044375 -0.020311331
0.15657155 0.022255052 -0.0060723173 0.01905753 0.14330104 -0.049436156 0.020948749 -0.041901026
0.042088885 0.034397457 -0.12865192 -0.052884046 -0.109169245 -0.010060878 0.027995784 0.039447647
0.057404358 0.03993814 0.10370482 -0.10042884 0.11101863 0.047102742 -0.034763757 0.082022384
0.09447602 -0.04098454 0.036639795 0.0016822205 -0.12486147 0.074425615 0.16462405 0.018422317
0.056489486 -0.045704108 -0.15534934 0.029209506 -0.04342294 -0.051402196 -0.0028192953 -0.02651917
-0.032009445 0.007280846 0.05042556 0.053572547 0.035705894 0.015540644 0.03509516 0.02936922
-0.06961799 -0.108870775 0.10134215 -0.018948732 0.068967305 0.13993078 0.10122978 0.05744587
-0.073742755 0.028718717 -0.012946234 0.0027331903 0.0054157823 0.04827423 -0.07282812 -0.062290296
-0.07161017 0.06180354 0.06564364 0.025674788 -0.062076833 0.06724863 -0.091943 0.07046221
0.14581004 0.13702795 -0.06742538 -0.018571597 0.03916368 0.06308338 -0.087393835 -0.0016662636
0.051199418 -0.015372133 -0.028190255 0.05986803 -0.1412855 0.07125698 0.07795922 0.15472439
-0.15403996 -0.04177204 -0.028372431 -0.1088829 0.0070644324 -0.07361809 0.024248345 0.048440665
0.072319746 0.1344034 -0.01567626 -0.062021747 0.08781541 0.08401846 -0.011795191 0.01514769
-0.04369153 0.042870726 0.04186652 0.123919666 -0.03900089 0.03386674 -0.06427993 0.06743051
-0.050760016 0.06074438 0.05474583 0.018860424 -0.09291158 -0.0898616 -0.06457193 -0.04906955
0.02152644 0.09183228 -0.08864799 -0.08191333 -0.0357372 0.036301762 -0.051727965 0.107447244
00000000: 04ac a5bd e323 9abd 9681 b4bd 926f 643c
00000010: 5279 21bd f404 92bd 535d 88bd 4827 4bbd
00000020: 505c 863d a3f6 273e 4aef 353d e0b7 ab3d
00000030: 75cd f2bc 232a 613d b192 7d3c 3616 163e
00000040: d218 e13c 6f6e 0abc 9efc e63d f22c f0bc
00000050: 34dd 2e3d 1305 2dbd 3ab5 cb3d 9fce 71bd
00000060: 744c 8abd 6b13 1dbe 2d99 93bb bad1 c1bc
00000070: 5955 143c 9ca5 8bbc 2f2a b6bd 6174 da3d
00000080: aafc 013e efda 583d b05b 803b ee32 48bc
00000090: a916 683b 4936 753d 92f4 a73d 64f4 d9bc
000000a0: 08c2 2d3d 8134 423d dd7e 783d c702 933c
000000b0: 8542 a0bc 1652 72bb bc61 9f3d 9a35 063d
000000c0: 8f12 0dbe 8717 603c 6bd2 aa3d 734d a93d
000000d0: 7b46 b9bd 4f93 25bd ee7e c83d 7a78 a73d
000000e0: a6da 88bd facb c03d 1e14 26bd 33bf af3d
000000f0: c427 babd 74e5 b93d f5a8 da3c 3179 f1bc
00000100: 1878 a83d ad54 a93d 7daf 57bc bcd9 3b3d
00000110: 444b 303d ecb6 8a3d c12c cfbd 3e59 033d
00000120: 48b7 d33d 0d37 94bd a6d1 de3c 078b c5bb
00000130: 4753 e9bc ede8 bd3d db02 dd3d 877f d73c
00000140: 6d55 14bd dc13 233e 5481 09be a173 ebbc
00000150: d839 84bd ba5f 813c f9cf 3e3d e0bd 4d3b
00000160: 5046 e93d 3f10 ce3d 084a f8bd 4455 debb
00000170: 01f8 fc3d 0a42 72bd cfc3 953d a325 90bc
00000180: f45a bd3d a747 883d b358 683c 0f95 913d
00000190: 3433 2f3d 2b78 533d d242 aabd 1bbe b0bd
000001a0: b7b7 fbbd 3e74 2e3d 30df b13d 8547 90bc
000001b0: 5d37 a6bd 517d 583b 5138 e0bd 9c88 553d
000001c0: 5552 0a3d 249e afbd b783 54bd 1ffd 0bbd
000001d0: 0086 813d fcfc 033d 1ac7 263d 77a9 be3d
000001e0: cc51 e8bc 1869 45bc d32f 683d fd31 b1ba
000001f0: 145d f2bc 38ec 0bbd 36ab f6bd f363 a6bc
00000200: 4b54 203e 3a50 b63c 4afa c6bb 8a1e 9c3c
00000210: 82bd 123e 917d 4abd b69c ab3c 69a0 2bbd
00000220: 6565 2c3d 59e4 0c3d 54bd 03be f19c 58bd
00000230: 2094 dfbd 61d6 24bc 6a57 e53c db93 213d
00000240: d520 6b3d 2d96 233d 3163 d43d a3ad cdbd
00000250: bc5d e33d ceee 403d 7164 0ebd 5afb a73d
00000260: a57c c13d 68df 27bd 9c13 163d f47d dc3a
00000270: 5fb7 ffbd 756c 983d 3593 283e 66ea 963c
00000280: 8561 673d 3b34 3bbd e613 1fbe c648 ef3c
00000290: 41dc 31bd 1c8b 52bd edc3 38bb bb3e d9bc
000002a0: 561c 03bd 2a94 ee3b 088b 4e3d e36e 5b3d
000002b0: 5840 123d 2f9e 7e3c f1bf 0f3d b897 f03c
000002c0: e093 8ebd a4f7 debd 798c cf3d 5f3a 9bbc
000002d0: bb3e 8d3d 044a 0f3e 8f51 cf3d 5c4c 6b3d
000002e0: 7106 97bd 8443 eb3c 711c 54bc 531f 333b
000002f0: e076 b13b 33bb 453d e926 95bd 1c24 7fbd
00000300: 5aa8 92bd b525 7d3d 2c70 863d ef53 d23c
00000310: 4744 7ebd a6b9 893d 9d4c bcbd 7e4e 903d
00000320: 3a4f 153e 0e51 0c3e 5116 8abd 7623 98bc
00000330: 186a 203d dc31 813d 8afb b2bd 8766 daba
00000340: 7bb6 513d 66db 7bbc 40ef e6bc 2e38 753d
00000350: 25ad 10be 2eef 913d 15a9 9f3d 1270 1e3e
00000360: a7bc 1dbe 2919 2bbd 4d6d e8bc fffd debd
00000370: c17c e73b 15c5 96bd 77a4 c63c b869 463d
00000380: 601c 943d 0ba1 093e 806b 80bc 840a 7ebd
00000390: 91d8 b33d df11 ac3d 9e40 41bc 042e 783c
000003a0: e4f5 32bd 3799 2f3d 3a7c 2b3d 98c9 fd3d
000003b0: 66bf 1fbd dab7 0a3d 32a5 83bd 0219 8a3d
000003c0: bce9 4fbd 19cf 783d 2a3d 603d 2d81 9a3c
000003d0: 6d48 bebd 5c09 b8bd 4a3e 84bd 27fd 48bd
000003e0: 3758 b03c 9012 bc3d 148d b5bd 2dc2 a7bd
000003f0: 2c61 12bd 28b1 143d b4e0 53bd 4d0d dc3d

net.3.module.0.bias f4 [32]
0.06542201 0.05211486 0.06093447 0.11731273 0.049949896 -0.0072391694 0.0028281587 -0.09310545
-0.0873676 0.022263503 0.06662218 0.06156402 -0.075970575 -0.05691106 -0.08069955 -0.07841118
-0.09454425 -0.099257566 0.00234006 0.055023972 -0.00086746813 -0.056143895 0.03409046 0.0068381215
-0.021706037 0.026277699 0.037607733 -0.07336439 -0.10432899 0.039935246 0.03445499 -0.049524706
00000000: fafb 853d 6476 553d 6c96 793d a841 f03d
00000010: 4398 4c3d 8e36 edbb a158 393b 12ae bebd
00000020: c9ed b2bd f361 b63c 3671 883d 8e2a 7c3d
00000030: 7696 9bbd 921b 69bd ce45 a5bd 0a96 a0bd
00000040: 6aa0 c1bd 8d47 cbbd b15b 193b d160 613d
00000050: cd66 63ba 24f7 65bd 70a2 0b3d 5212 e03b
00000060: dcd0 b1bc 5444 d73c 910a 1a3d 1240 96bd
00000070: 70aa d5bd 2493 233d ad20 0d3d 6bda 4abd

net.4.module.0.weight f4 [32, 32, 3]
-0.009167751 -0.0006927601 -0.05543738 0.030926228 0.0066538677 0.079067335 -0.02450038 0.07890757
0.08964315 0.14983283 -0.07071294 -0.092735484 -0.11558141 -0.1113059 -0.04821785 0.02254362
-0.033816006 -0.038683534 -0.041814964 -0.022254927 0.13075645 0.07216309 -0.06420167 0.016454468
-0.0072036195 0.056511093 -0.08316551 0.062624246 -0.054755542 0.019904722 -0.09920143 -0.031868942
0.13628322 -0.070035696 0.049415134 0.093229316 -0.030794686 0.10208888 -0.0026383118 0.1772955
0.022305563 0.14501801 0.061410982 -0.04484542 -0.07209674 0.03788175 -0.10153298 -0.027591052
-0.023052737 -0.04114682 0.10454594 0.02526494 -0.007948109 -0.09023447 0.0025966498 0.07114256
-0.09804336 -0.067028046 0.06971366 -0.0138431955 -0.038099833 0.02357217 -0.059118863 -0.0069453605
-0.027455037 -0.07696188 0.018769924 -0.062148884 -0.18239306 -0.05946769 -0.0021091045 0.004300541
-0.0769844 -0.051519413 -0.0702168 -0.11722823 -0.046330053 -0.017003046 0.18919109 0.06550355
-0.019062188 0.097629055 -0.09199445 0.01711979 0.04398191 0.022831166 0.01257759 -0.0838455
-0.00047656946 0.13662598 0.09139555 0.105164185 0.14311616 -0.027727153 0.07836647 -0.15070513
-0.06808761 0.070279285 0.043937657 0.074017026 0.014592297 0.040315002 0.106631376 0.07969451
-0.06753275 0.14875081 0.13231404 0.029851986 0.038925853 0.022779284 0.091929615 0.080679156
-0.057492543 0.00679454 -0.069448754 -0.046956025 -0.050640065 -0.19581555 -0.15205659 -0.08051806
-0.09611741 -0.024061533 -0.12011872 -0.05412736 -0.07357675 0.02544218 -0.10467592 0.0053016683
0.07591645 0.19321668 -0.0027731343 0.14355206 0.039594468 -0.06602662 0.10509924 0.07335882
0.04798246 -0.058310322 -0.011112669 0.088551015 0.063531496 -0.04133176 0.04357703 -0.10777271
0.047754217 0.08116928 -0.008541651 -0.121982604 0.03038911 0.05892395 0.00072741293 0.024642542
0.087982975 0.039845273 0.13757166 0.10928359 -0.006276087 -0.056316506 0.015223034 -0.032866217
-0.095634684 -0.047833707 -0.15613814 -0.011388402 -0.09980914 -0.05577722 0.020301707 -0.026839653
-0.1540431 -0.06814612 -0.07000227 -0.08356863 -0.078680314 0.09030922 0.030422794 0.12732778
-0.056584235 -0.0011656757 0.057480574 -0.040926367 -0.108289376 0.020839633 -0.026125202 0.05901367
0.06903159 0.044931613 -0.06909408 0.14900404 0.068888195 -0.049815323 0.020300195 0.053633902
0.04049769 0.13071135 -0.0071154633 0.09490246 -0.03549205 0.08879798 0.06968274 0.072262056
0.09657916 0.009290659 0.12423318 -0.07821061 0.04909401 0.074176624 -0.10459496 -0.17075227
-0.056491163 0.08007179 0.056014534 0.0005452128 -0.1551327 -0.050284676 -0.029817255 -0.063591056
-0.10925875 -0.076824196 0.05243616 0.007891694 0.08701268 -0.066595495 -0.0033544963 0.11678255
-0.07617041 0.1669656 0.03614693 -0.062656604 -0.07708415 -0.021363135 -0.070308715 -0.1764641
-0.055233907 -0.072776444 0.007373707 0.037422903 0.089554936 0.14163885 -0.0011505676 -0.045329217
0.03612727 0.025740676 -0.057188373 0.07600421 -0.018153433 0.05873567 0.09557384 0.07480269
-0.07508452 0.08396786 0.08425639 0.032785587 -0.100105226 -0.06777242 -0.04369562 -0.054174818
00000000: 5634 16bc 589a 35ba 4e12 63bd 0059 fd3c
00000010: b008 da3b 0eee a13d 05b5 c8bc 4b9a a13d
00000020: d496 b73d c76d 193e f2d1 90bd 1aec bdbd
00000030: f2b5 ecbd 59f4 e3bd 1580 45bd 66ad b83c
00000040: a782 0abd a072 1ebd 2b46 2bbd f74f b6bc
00000050: 05e5 053e 3eca 933d 2a7c 83bd 85cb 863c
00000060: 570c ecbb 2d78 673d ae52 aabd 2441 803d
00000070: 5947 60bd 3a0f a33c 1f2a cbbd 0289 02bd
00000080: d48d 0b3e e06e 8fbd 8667 4a3d 03ef be3d
00000090: 2345 fcbc fa13 d13d 87e7 2cbb f48c 353e
000000a0: 28ba b63c 9a7f 143e 158a 7b3d d5af 37bd
000000b0: 75a7 93bd e529 1b3d 86f0 cfbd a106 e2bc
000000c0: 18d9 bcbc 9189 28bd 2f1c d63d 6bf8 ce3c
000000d0: c938 02bc dacc b8bd 8e2c 2a3b 31b3 913d
000000e0: f5ca c8bd 0046 89bd 09c6 8e3d 92ce 62bc
000000f0: 920e 1cbd 6c1a c13c 9f26 72bd e895 e3bb
00000100: 63e9 e0bc 319e 9dbd 62c3 993c d48f 7ebd
00000110: 3fc5 3abe 6494 73bd e738 0abb 8deb 8c3b
00000120: ffa9 9dbd 0506 53bd d3cd 8fbd 5b15 f0bd
00000130: 95c4 3dbd f949 8bbc 4fbb 413e ba26 863d
00000140: 4e28 9cbc bef1 c73d 9667 bcbd cd3e 8c3c
00000150: 6026 343d 6d08 bb3c 3c12 4e3c 31b7 abbd
00000160: 12dc f9b9 aee7 0b3e 972d bb3d 5260 d73d
00000170: 0b8d 123e 0e24 e3bc 9a7e a03d 7252 1abe
00000180: 8471 8bbd 96ee 8f3d f9f7 333d 3d96 973d
00000190: 8814 6f3c 5821 253d 8d61 da3d e036 a33d
000001a0: 9c4e 8abd 2252 183e 557d 073e 278c f43c
000001b0: b770 1f3d 9f9b ba3c 9845 bc3d 1d3b a53d
000001c0: 4d7d 6bbd bca4 de3b 263b 8ebd f654 40bd
000001d0: f56b 4fbd df83 48be b9b4 1bbe a7e6 a4bd
000001e0: 34d9 c4bd b11c c5bc ce00 f6bd a7b4 5dbd
000001f0: 68af 96bd 1e6c d03c 5460 d6bd 9eb9 ad3b
00000200: 157a 9b3d 98da 453e 79bd 35bb 50ff 123e
00000210: cf2d 223d f738 87bd 453e d73d 263d 963d
00000220: 4289 443d ced6 6ebd e911 36bc 3c5a b53d
00000230: cd1c 823d 7e4b 29bd d47d 323d f0b7 dcbd
00000240: ed99 433d 143c a63d 48f2 0bbc 04d2 f9bd
00000250: 95f2 f83c 3d5a 713d dbaf 3e3a 28df c93c
00000260: 6b30 b43d cc34 233d 96df 0c3e 13d0 df3d
00000270: a2a7 cdbb 23ac 66bd 086a 793c ba9e 06bd
00000280: 1edc c3bd 47ed 43bd ade2 1fbe 6c96 3abc
00000290: bc68 ccbd a776 64bd c44f a63c d5de dbbc
000002a0: 79bd 1dbe 3190 8bbd 5a5d 8fbd 0826 abbd
000002b0: 2523 a1bd 0af4 b83d 3939 f93c 3762 023e
000002c0: dfc4 67bd 96c9 98ba c070 6b3d 68a2 27bd
000002d0: d2c6 ddbd e1b7 aa3c 8504 d6bc 51b8 713d
000002e0: 6f60 8d3d 360a 383d 3281 8dbd 8494 183e
000002f0: 4115 8d3d 270b 4cbd 984c a63c 39af 5b3d
00000300: e8e0 253d 32d9 053e d528 e9bb 395c c23d
00000310: 1d60 11bd b7db b53d d3b5 8e3d 21fe 933d
00000320: 4bcb c53d d937 183c f76d fe3d e22c a0bd
00000330: cd16 493d eae9 973d e235 d6bd afd9 2ebe
00000340: 4763 67bd aefc a33d 7f6f 653d 9dec 0e3a
00000350: 1bdb 1ebe 4ef7 4dbd 5143 f4bc 073c 82bd
00000360: 0dc3 dfbd 0156 9dbd 4dc7 563d 2a4c 013c
00000370: b433 b23d 3863 88bd 1cd7 5bbb b12b ef3d
00000380: 3bff 9bbd 08f9 2a3e ce0e 143d 1b52 80bd
00000390: 4bde 9dbd be01 afbc 04fe 8fbd 01b3 34be
000003a0: f33c 62bd d10b 95bd 239f f13b c248 193d
000003b0: 9468 b73d c609 113e a4ce 96ba 21ab 39bd
000003c0: 30fa 133d 1cde d23c 5b3e 6abd 18a8 9b3d
000003d0: 82b6 94bc d094 703d 38bc c33d 2732 993d
000003e0: eac5 99bd 57f7 ab3d 9d8e ac3d 2e4a 063d
000003f0: f803 cdbd 44cc 8abd 2efa 32bd 6ae6 5dbd

net.4.module.0.bias f4 [32]
0.08554327 -0.010785474 0.097716585 0.014320277 0.00018429583 0.06587351 -0.07987529 0.05388405
0.030777745 -0.025073694 0.09398254 0.02311832 -0.08287973 0.045195073 -0.03231855 -0.02422554
0.023096442 -0.09813432 -0.075944126 0.043672334 0.02314982 -0.030778397 -0.06142995 0.04951421
-0.105445735 -0.07539725 0.009050364 -0.015900394 -0.06064152 -0.05448793 -0.06416211 0.062248603
00000000: 4f31 af3d 8fb5 30bc a21f c83d 989f 6a3c
00000010: 893f 4139 b1e8 863d a895 a3bd 86b5 5c3d
00000020: 9c21 fc3c 5967 cdbc eb79 c03d a262 bd3c
00000030: d9bc a9bd 781e 393d 7560 04bd a474 c6bc
00000040: c034 bd3c a5fa c8bd 9888 9bbd c3e1 323d
00000050: b1a4 bd3c fa22 fcbc f99d 7bbd 6acf 4a3d
00000060: eff3 d7bd e069 9abd fa47 143c 8b41 82bc
00000070: 3e63 78bd bc2e 5fbd 6d67 83bd 64f8 7e3d

net.5.weight f4 [48, 32, 3]
0.01606833 0.03505602 0.030018054 0.04856371 -0.08470122 -0.05774548 0.09085599 0.018953187
0.07493097 0.01544081 0.03324727 -0.029376509 -0.14325209 0.11656821 0.02045489 0.07790133
0.0525129 -0.020539945 -0.0062916875 0.029756421 0.06980968 -0.021864466 0.0013781444 -0.11193072
-0.13650534 0.040002182 -0.09171713 0.10716788 -0.07842025 -0.042994913 -0.032258414 -0.037593164
0.007362295 -0.048925053 0.02614079 0.095567755 -0.05137046 0.044720534 0.11520439 0.038282264
0.10463563 -0.011249365 0.04880525 0.06313042 -0.07078281 -0.068748385 0.0030795024 -0.018980714
-0.092660494 -0.038441066 0.18233268 -0.071697384 -0.0568587 0.14294948 -0.0033769184 0.022853492
-0.016761327 0.08018383 0.012589426 0.06724756 -0.048926353 0.05289557 -0.05661292 0.073032334
-0.038592458 -0.042703405 -0.011135279 -0.047529906 -0.044887476 0.06446494 -0.08206017 -0.008646081
-0.065364525 0.06698013 0.038724232 -0.09309769 0.091911875 -0.040523853 0.05629621 -0.032495108
0.015855819 -0.07670799 0.04178915 0.0640866 0.003219112 -0.00014713187 -0.0163674 -0.045843657
-0.058828436 -0.07419137 0.0695696 -0.026660373 0.064344235 -0.032159287 -0.06270961 0.08782994
-0.055206787 0.031197097 0.0045920433 -0.07788238 -0.064884834 -0.07879525 -0.050067354 0.03817175
0.08382002 0.013587937 -0.035162326 0.107521094 -0.10236451 -0.013465885 -5.155093e-05 0.10162345
0.015835445 0.05733911 -0.061588768 0.00093813334 0.10061353 -0.045644626 -0.058116674 0.102038905
-0.016380778 -0.034063 0.108477 0.016917825 -0.04499271 0.021492915 -0.011719845 0.054924853
0.014234614 -0.035920646 -0.04282506 -0.024026094 0.04258791 0.028203115 -0.031770244 0.05410087
-0.049692187 -0.09409572 -0.01723466 -0.038570937 0.068440385 0.0052460125 -0.018201895 -0.0089539
0.12276408 0.029244376 0.041850932 0.10601432 -0.092614956 -0.05639901 -0.05590624 0.113822125
-0.07827795 -0.032233573 0.048614807 -0.009477998 0.04626787 -0.15838848 0.01487783 -0.048127305
-0.027672008 0.094764605 0.068576336 0.033014707 0.0033458353 0.04160378 0.024024514 -0.021283602
0.06614641 0.03847186 0.05656239 -0.00571696 0.11928754 0.0639626 -0.048963327 0.03573091
0.03536531 0.012602452 -0.022045378 -0.14757329 -0.02969712 -0.047491882 -0.00833245 -0.074934565
0.033198915 -0.07447181 -0.1163337 0.019016441 -0.08903281 -0.08258038 0.081814945 0.023368267
-0.13536379 0.06838037 -0.0033044526 -0.016704336 0.07969658 0.020531978 -0.105373584 0.02512767
-0.059579294 0.08966672 -0.09838937 0.039619464 -0.053271115 -0.043684095 0.027588308 -0.020542456
0.16249707 0.008600819 0.04055549 0.07414435 -0.082975514 -0.05004629 0.05095151 -0.047431357
0.0042677457 0.01677719 0.07697422 0.09706583 -0.0296612 0.108382896 -0.029082203 0.07269481
0.052386425 0.017245589 -0.09628995 0.0033719253 0.05216629 0.0012550309 0.011986244 -0.046414033
-0.08660958 0.019455804 -0.0060642473 0.03848602 -0.027471125 0.09187209 -0.064460084 -0.0004261235
0.0011075827 0.0014127762 0.08572817 0.0006403975 0.042117648 -0.037848406 0.01656605 0.026218992
0.028001813 -0.026682045 0.01726864 -0.009039404 0.069181226 -0.009427247 -0.009201789 0.0020413753
00000000: bba1 833c e796 0f3d 6ce8 f53c beea 463d
00000010: d577 adbd 8686 6cbd b512 ba3d b743 9b3c
00000020: 6975 993d 73fb 7c3c 4a2e 083d 01a7 f0bc
00000030: adb0 12be 50bb ee3d 0391 a73c bc8a 9f3d
00000040: c417 573d 6343 a8bc 802a cebb bdc3 f33c
00000050: 61f8 8e3d 1c1d b3bc daa2 b43a ef3b e5bd
00000060: 0ec8 0bbe 54d9 233d 31d6 bbbd d57a db3d
00000070: cc9a a0bd 6f1b 30bd 6621 04bd 4afb 19bd
00000080: 683f f13b a365 48bd 3625 d63c 07b9 c33d
00000090: d569 52bd e12c 373d 47f0 eb3d ddcd 1c3d
000000a0: 354b d63d 424f 38bc 04e8 473d 864a 813d
000000b0: 94f6 90bd f4cb 8cbd 7ad1 493b 717d 9bbc
000000c0: c9c4 bdbd 6174 1dbd 6bb5 3a3e 14d6 92bd
000000d0: abe4 68bd 5961 123e 4a4f 5dbb 3f37 bb3c
000000e0: 0d4f 89bc 6b37 a43d e143 4e3c 17b9 893d
000000f0: 0067 48bd 06a9 583d f3e2 67bd fa91 953d
00000100: 2013 1ebd c4e9 2ebd bf70 36bc b8ae 42bd
00000110: eedb 37bd 3206 843d 2a0f a8bd 4ba8 0dbc
00000120: d6dd 85bd e12c 893d 4d9d 1e3d 00aa bebd
00000130: 4b3c bc3d 57fc 25bd db96 663d 9719 05bd
00000140: 10e4 813c 1419 9dbd 1a2b 2b3d d63f 833d
00000150: bdf7 523b 6947 1ab9 ed14 86bc 8fc6 3bbd
00000160: 16f6 70bd a5f1 97bd 827a 8e3d db66 dabc
00000170: e9c6 833d 75b9 03bd e56d 80bd 2fe0 b33d
00000180: 8320 62bd 0e91 ff3c da78 963b cc80 9fbd
00000190: 57e2 84bd 675f a1bd 6d13 4dbd fb59 1c3d
000001a0: d5a9 ab3d f09f 5e3c 5f06 10bd 0534 dc3d
000001b0: 7ca4 d1bd 04a0 5cbc 6438 58b8 f51f d03d
000001c0: 56b9 813c 6adc 6a3d 8144 7cbd 10ed 753a
000001d0: 770e ce3d dcf5 3abd c00b 6ebd c6f9 d03d
000001e0: fb30 86bc a585 0bbd 3029 de3d 4097 8a3c
000001f0: 474a 38bd e911 b03c 9804 40bc e2f8 603d
00000200: 4c38 693c 8721 13bd 5569 2fbd 5fd2 c4bc
00000210: a970 2e3d 380a e73c 8421 02bd e098 5d3d
00000220: 098a 4bbd 42b5 c0bd b42f 8dbc 8ffc 1dbd
00000230: 792a 8c3d bee6 ab3b 241c 95bc 61b3 12bc
00000240: bc6b fb3d e791 ef3c e26b 2b3d 091e d93d
00000250: e9ac bdbd a602 67bd f1fd 64bd 931b e93d
00000260: 3150 a0bd 5a07 04bd 5220 473d 9b49 1bbc
00000270: 6183 3d3d 9730 22be 24c2 733c 2321 45bd
00000280: 68b0 e2bc f213 c23d c071 8c3d 6e3a 073d
00000290: cd45 5b3b ba68 2a3d 0fcf c43c f35a aebc
000002a0: c577 873d ab94 1d3d f7ad 673d 5655 bbbb
000002b0: 074d f43d d3fe 823d c58d 48bd 935a 123d
000002c0: 37db 103d 847a 4e3c 8298 b4bc 741d 17be
000002d0: 6047 f3bc d986 42bd d484 08bc 4b77 99bd
000002e0: 96fb 073d ad84 98bd 5d40 eebd 5ec8 9b3c
000002f0: d556 b6bd e71f a9bd 988e a73d cf6e bf3c
00000300: ce9c 0abe 020b 8c3d 848f 58bb 88d7 88bc
00000310: f637 a33d ae32 a83c 1bce d7bd 8bd8 cd3c
00000320: 6b09 74bd 2fa3 b73d 5e80 c9bd 0548 223d
00000330: d032 5abd 18ee 32bd e000 e23c a748 a8bc
00000340: a265 263e 73ea 0c3c 831d 263d fed8 973d
00000350: 11ef a9bd 57fd 4cbd 88b2 503d 6247 42bd
00000360: 72d8 8b3b 5170 893c a9a4 9d3d 73ca c63d
00000370: 0bfc f2bc daf7 dd3d cd3d eebc 04e1 943d
00000380: 2693 563d 9f46 8d3c aa33 c5bd 85fb 5c3b
00000390: 52ac 553d d97f a43a f361 443c a41c 3ebd
000003a0: 5d60 b1bd c761 9f3c 98b6 c6bb 84a3 1d3d
000003b0: 200b e1bc 6f27 bc3d a603 84bd 5469 dfb9
000003c0: 4f2c 913a e72c b93a 4092 af3d 59e0 273a
000003d0: 8e83 2c3d ee06 1bbd 86b5 873c 36c9 d63c
000003e0: 0f64 e53c 4e94 dabc f776 8d3c 021a 14bc
000003f0: e3ae 8d3d bd74 1abc 1ac3 16bc 98c8 053b

net.5.bias f4 [48]
0.055328794 -0.04853883 -0.043799095 0.025395378 -0.022004142 0.08104598 0.09267719 0.089882255
-0.055339117 0.05656794 -0.018513365 -0.026854228 -0.0064176633 0.043543793 -0.09122964 0.08287742
0.042825744 -0.014857366 0.0038091487 -0.07145926 -0.08761676 0.0360396 0.013223357 -0.036172386
0.01601286 0.014469548 0.07358256 -0.03307382 -0.069397256 -0.01568538 -0.05006189 0.05557737
-0.010433729 0.053062767 -0.0055787656 0.06712543 -0.034707226 -0.013790903 -0.01457883 -0.0473788
0.060884774 0.055185042 0.0023228023 0.016800348 -0.053799264 0.06973927 -0.03963892 -0.0062089977
00000000: 72a0 623d a7d0 46bd ae66 33bd f809 d03c
00000010: 0842 b4bc 6ffb a53d 8acd bd3d 3014 b83d
00000020: 45ab 62bd c9b3 673d 57a9 97bc 66fd dbbc
00000030: 434b d2bb fa5a 323d 9bd6 babd a3bb a93d
00000040: 0c6a 2f3d 4f6c 73bc e9a2 793b 3c59 92bd
00000050: 6a70 b3bd 429e 133d c7a6 583c 7f29 14bd
00000060: 672d 833c af11 6d3c 74b2 963d 6a78 07bd
00000070: 2620 8ebd a07e 80bc b20d 4dbd 19a5 633d
00000080: 3bf2 2abc 5858 593d 14ce b6bb 0f79 893d
00000090: 2a29 0ebd 3df3 61bc 0cdc 6ebc 4610 42bd
000000a0: 5062 793d b609 623d 283a 183b e2a0 893c
000000b0: 9e5c 5cbd 76d3 8e3d 6c5c 22bd d974 cbbb

exp_avg f4 [32, 191, 2]
-0.0044746883 0.00087519793 0.13633882 0.19926046 -0.06309825 -0.023779748 0.06255724 0.03249066
0.011133943 -0.023009976 0.03070881 0.061001096 0.017293828 0.039238807 -0.05036585 0.012550354
-0.05000435 -0.020121904 -0.019986197 0.008191202 0.017276928 0.0863245 0.048577793 0.09938992
-0.075372584 -0.048507903 0.04070873 0.0156447 -0.015604406 0.07444297 0.08923267 0.046017174
0.06794045 0.056669205 0.084019154 0.09996637 -0.018284818 0.0044218297 0.08699137 0.11481533
0.006085013 0.011339005 0.07772307 0.053009816 -0.021189498 -0.047522195 -0.031007227 0.0036286097
-0.07045627 -0.10156674 0.032046575 0.012907995 0.037831202 0.07712766 0.20923562 0.16438068
0.05657192 0.08296525 0.05222793 0.07045144 0.02216985 0.010033789 -0.0004565674 0.0098740095
0.015169693 0.060710274 -0.00077711866 0.024964403 -0.0008074753 0.04668252 0.08274349 0.027998002
0.018734938 0.012304926 0.08991482 0.06579347 0.11897029 0.07786567 0.11155282 0.110372
0.03604618 0.0645275 0.019047763 0.014259076 0.100362934 0.13510793 0.12648307 0.13944045
0.15364379 0.17689179 0.058193095 -0.0048780246 0.022463068 0.08151533 0.13364853 0.18339588
0.056506675 0.04433327 0.064642265 0.0850039 0.09570608 0.13775581 0.051892582 0.08433338
0.11831581 0.0838659 0.071767814 0.044942286 0.09267928 0.066395395 0.07786166 0.10562015
0.0664518 0.03413025 0.06419243 0.055870745 0.13572912 0.06508904 0.13031791 0.15991555
0.0075850575 0.04201816 0.060735885 0.048298866 0.047702353 0.029870484 0.08800206 0.10621074
0.06507691 0.043743543 0.07344238 0.02785809 0.06721956 0.061623417 0.06903817 0.02443064
0.085331015 0.07453221 0.08653893 0.08399747 0.08164446 -0.011057656 0.026610576 0.041125033
0.023328848 0.035717152 0.029682431 0.026543824 0.12500177 0.14342342 0.069374464 0.09341701
0.05244749 0.14403851 0.086140946 0.035701953 -0.024573497 -0.044296257 0.061638948 0.025058428
-0.017350933 0.071139835 0.10950393 0.07739547 -0.051623277 0.008097553 0.049695533 0.060709182
0.08527087 0.09030696 0.06620483 0.07842678 0.20049106 0.24305439 -0.0071200617 -0.016790507
0.16752252 0.14383201 0.11116272 0.1438644 0.0044793617 0.0048170104 0.23972435 0.2948285
0.12995751 0.07250695 0.05410677 0.03744545 0.08478045 0.0726005 0.009238457 0.07669104
0.11656695 0.06744815 0.1050911 0.10008453 0.014659714 0.0059441086 -0.05768475 0.00994379
-0.010473177 -0.025174787 0.22917886 0.15779187 0.08272353 0.10114878 0.10456158 0.13451158
0.15943117 0.1528393 0.13368022 0.09968588 0.28717893 0.16298687 0.017190317 -0.023911811
0.09066243 0.13701758 0.052051567 0.07632487 0.1399673 0.16001897 0.042634014 0.02281741
0.12877549 0.17902079 0.16304912 0.12125678 0.13527063 0.10014924 0.19968674 0.21840493
0.06637954 0.12698974 0.02184992 0.027063109 0.1366909 0.2009114 0.104961336 0.12843987
0.009909291 0.056681834 0.05136308 0.11828501 0.13098146 0.12111448 0.11428682 0.05984345
0.062270544 0.113503724 0.2056882 0.19274999 0.09667588 0.11341195 -0.0016547696 -0.064488165
00000000: 68a0 92bb 8a6d 653a 679c 0b3e ef0a 4c3e
00000010: a839 81bd bfcd c2bc 031e 803d ed14 053d
00000020: 246b 363c 6b7f bcbc 0b91 fb3c 49dc 793d
00000030: c9ab 8d3c dfb8 203d 6c4c 4ebd 00a0 4d3c
00000040: 5cd1 4cbd b1d6 a4bc 18ba a3bc 6434 063c
00000050: 5888 8d3c e6ca b03d 82f9 463d f18c cb3d
00000060: f15c 9abd 39b0 46bd 33be 263d 5029 803c
00000070: 9fa9 7fbc 8e75 983d 9ebf b63d 817c 3c3d
00000080: 5d24 8b3d f81d 683d 3c12 ac3d 2bbb cc3d
00000090: 0bca 95bc ffe4 903b 8828 b23d 4d24 eb3d
000000a0: ca64 c73b 3cc7 393c 462d 9f3d d220 593d
000000b0: 9995 adbc a2a6 42bd de02 febc f8cd 6d3b
000000c0: 604b 90bd 3902 d0bd 4543 033d 0e7c 533c
000000d0: e4f4 1a3d 1bf5 9d3d dd41 563e 6953 283e
000000e0: f5b7 673d afe9 a93d f4ec 553d d848 903d
000000f0: 8c9d b53c c364 243c 705f efb9 99c6 213c
00000100: 4e8a 783c 56ab 783d 8db7 4bba 2682 cc3c
00000110: c0ac 53ba 2c36 3f3d 6b75 a93d 115c e53c
00000120: 037a 993c 9a9a 493c 4325 b83d babe 863d
00000130: b2a6 f33d 0978 9f3d ce75 e43d b70a e23d
00000140: 29a5 133d fe26 843d 0e0a 9c3c e69e 693c
00000150: 158b cd3d bc59 0a3e c784 013e 7ac9 0e3e
00000160: cc54 1d3e 1f23 353e e25b 6e3d d6d7 9fbb
00000170: 7804 b83c 82f1 a63d 29db 083e 21cc 3b3e
00000180: 8b73 673d ce96 353d 2a63 843d 8616 ae3d
00000190: 8d01 c43d dc0f 0d3e 518d 543d fbb6 ac3d
000001a0: 8f4f f23d e3c1 ab3d 01fb 923d 6715 383d
000001b0: a2ce bd3d 4ffa 873d ef75 9f3d 614f d83d
000001c0: e217 883d 29cc 0b3d 5277 833d b9d8 643d
000001d0: 93fc 0a3e 674d 853d 0f72 053e e7c0 233e
000001e0: 138c f83b 3c1b 2c3d 31c6 783d 08d5 453d
000001f0: 8b63 433d f2b2 f43c 6d3a b43d 0485 d93d
00000200: 0b47 853d 6e2c 333d f568 963d a636 e43c
00000210: 69aa 893d d668 7c3d e263 8d3d c422 c83c
00000220: 07c2 ae3d 58a4 983d 533b b13d de06 ac3d
00000230: 3635 a73d 2c2b 35bc 6cfe d93c b972 283d
00000240: 241c bf3c 264c 123d 9228 f33c 6f72 d93c
00000250: 7700 003e 97dd 123e 3314 8e3d 6b51 bf3d
00000260: 2ed3 563d d57e 133e aa6a b03d 363c 123d
00000270: 5c4e c9bc fe6f 35bd 1f79 7c3d 5547 cd3c
00000280: 8b23 8ebc c3b1 913d 9943 e03d 8481 9e3d
00000290: ee72 53bd 99ab 043c 8b8d 4b3d 31aa 783d
000002a0: 7ea2 ae3d dbf2 b83d 6696 873d 389e a03d
000002b0: 874d 4d3e 40e3 783e 684f e9bb 3f8c 89bc
000002c0: 068b 2b3e b348 133e 48a9 e33d 3051 133e
000002d0: 9cc7 923b 03d8 9d3b 4d7a 753e c3f3 963e
000002e0: 9513 053e 867e 943d 0f9f 5d3d 6660 193d
000002f0: 5fa1 ad3d 92af 943d e65c 173c 3110 9d3d
00000300: a7ba ee3d 4122 8a3d 013a d73d 1ef9 cc3d
00000310: 4c2f 703c ccc6 c23b d846 6cbd 47eb 223c
00000320: b097 2bbc 5b3b cebc ddad 6a3e 3194 213e
00000330: f46a a93d 1727 cf3d 6224 d63d 67bd 093e
00000340: ed41 233e e881 1c3e 78e3 083e 1c28 cc3d
00000350: 1e09 933e 08e6 263e b5d2 8c3c b4e2 c3bc
00000360: 39ad b93d 564e 0c3e 0634 553d 3750 9c3d
00000370: 9753 0f3e 03dc 233e 01a1 2e3d 94eb ba3c
00000380: b9dd 033e 3a51 373e 59f6 263e 7a55 f83d
00000390: 6284 0a3e 0b1b cd3d ae7a 4c3e 8ba5 5f3e
000003a0: fff1 873d 9909 023e 9afe b23c 74b3 dd3c
000003b0: b3f8 0b3e b8bb 4d3e f8f5 d63d be85 033e
000003c0: 945a 223c 362b 683d 1862 523d 693f f23d
000003d0: 0120 063e de0a f83d 350f ea3d 681e 753d
000003e0: 660f 7f3d a474 e83d ed9f 523e 4160 453e
000003f0: 01fe c53d 8644 e83d dbe4 d8ba 5f12 84bd

exp_avg_sq f4 [32, 191, 2]
0.0029480087 0.0031018076 0.3880379 0.389469 0.18255417 0.17310283 0.1948178 0.20178126
0.18932119 0.17334497 0.10123693 0.10616654 0.19954337 0.2010159 0.14960033 0.15107934
0.08254861 0.0848284 0.20977893 0.21917784 0.29129547 0.28673834 0.3919167 0.37945694
0.16560014 0.17400768 0.16772206 0.16737574 0.25951478 0.27482626 0.38631707 0.36171076
0.045434367 0.045196876 0.1512099 0.15329015 0.17433083 0.18329848 0.14066873 0.13857044
0.038253557 0.036778007 0.30942154 0.28622904 0.13684504 0.13391553 0.12551229 0.13825782
0.32005212 0.34166268 0.13798381 0.14745492 0.13839424 0.12476085 0.2855286 0.28390536
0.26585189 0.25787345 0.115699984 0.11653238 0.14663422 0.16199899 0.43630582 0.38719708
0.14189176 0.13986637 0.17994331 0.17375489 0.090640604 0.09001166 0.2776099 0.26595867
0.1661604 0.16944435 0.17094672 0.16650145 0.1964996 0.18604484 0.17967774 0.17744286
0.186564 0.19564958 0.16514991 0.17733835 0.24820992 0.24256657 0.14572687 0.14986178
0.27279413 0.25012872 0.1607661 0.15747815 0.42013174 0.42686784 0.3693687 0.36556387
0.120234914 0.115282185 0.20514505 0.20847608 0.37377745 0.37690583 0.17457812 0.16380423
0.4638156 0.45738542 0.11567436 0.120304115 0.16188091 0.16750297 0.20764819 0.20632501
0.22189714 0.22185452 0.28928116 0.26191595 0.36101136 0.3392082 0.326564 0.34489122
0.24096951 0.2519508 0.1401515 0.15216787 0.17247477 0.16649073 0.28998768 0.2972317
0.14809075 0.14411674 0.36490357 0.38902992 0.305982 0.2880848 0.18046163 0.18015109
0.31497955 0.31167772 0.3699482 0.36331153 0.24354838 0.22616011 0.106705874 0.10382497
0.09965313 0.10034869 0.09516241 0.096784405 0.23089394 0.22536336 0.2641989 0.27625397
0.24471729 0.23664016 0.27865678 0.27838552 0.37512404 0.38964537 0.23132342 0.22216542
0.32730672 0.2925231 0.20953868 0.21811803 0.18027318 0.18132159 0.36784673 0.35364938
0.105025336 0.11153443 0.24178192 0.24585488 0.31667084 0.31566474 0.2469307 0.25249863
0.2603858 0.2871214 0.14018674 0.14092398 0.15358393 0.17110397 0.4987476 0.4659836
0.11259401 0.11992947 0.0864387 0.09245012 0.09806599 0.08943873 0.21983533 0.28022796
0.391493 0.39767814 0.29469627 0.2958098 0.25429702 0.24265191 0.21438803 0.2239926
0.28521216 0.25998822 0.35713738 0.3529804 0.33043104 0.33058545 0.42617717 0.40316364
0.30646122 0.3129858 0.25309512 0.24072991 0.3663392 0.36451072 0.43069005 0.41805428
0.2849738 0.29399583 0.34427434 0.30147886 0.19186492 0.19325775 0.2649284 0.2500049
0.47407734 0.36921665 0.47284368 0.4325696 0.21536869 0.20828776 0.4640861 0.39252234
0.33747074 0.3150131 0.48206034 0.46741763 0.3256083 0.31212044 0.21901844 0.21737586
0.4618143 0.41315597 0.38169894 0.3827563 0.26379478 0.25565416 0.48214185 0.3898891
0.15543143 0.14888604 0.2873904 0.23608531 0.32783237 0.29405874 0.14369515 0.14974374
00000000: 6133 413b b247 4b3b e7ac c63e 7b68 c73e
00000010: 7bef 3a3e de41 313e 517e 473e bf9f 4e3e
00000020: 6add 413e 5881 313e 4f55 cf3d d86d d93d
00000030: 1955 4c3e 1dd7 4d3e d430 193e 8bb4 1a3e
00000040: 3f0f a93d 83ba ad3d 4ad0 563e 2870 603e
00000050: ae24 953e 5ecf 923e 4ea9 c83e 2e48 c23e
00000060: 1593 293e 122f 323e 55bf 2b3e 8c64 2b3e
00000070: 1fdf 843e 07b6 8c3e 5acb c53e 2732 b93e
00000080: 6319 3a3d 5c20 393d c5d6 1a3e 18f8 1c3e
00000090: c883 323e 99b2 3b3e 770b 103e 69e5 0d3e
000000a0: c3af 1c3d 89a4 163d 806c 9e3e 9d8c 923e
000000b0: 1b21 0c3e 2721 093e 4b86 003e 7593 0d3e
000000c0: dfdd a33e 69ee ae3e a14b 0d3e 6cfe 163e
000000d0: 38b7 0d3e 9e82 ff3d ce30 923e 0b5c 913e
000000e0: bd1d 883e fd07 843e 1df4 ec3d 87a8 ee3d
000000f0: 4827 163e 10e3 253e 7a63 df3e b23e c63e
00000100: 134c 113e 2139 0f3e 0f43 383e cdec 313e
00000110: c8a1 b93d 0858 b83d e322 8e3e bc2b 883e
00000120: f425 2a3e d282 2d3e a80c 2f3e 5b7f 2a3e
00000130: 3137 493e 8a82 3e3e 71fd 373e 95b3 353e
00000140: a20a 3f3e 5d58 483e 0f1d 293e 2f98 353e
00000150: be2a 7e3e 5f63 783e 6d39 153e 5e75 193e
00000160: acab 8b3e df10 803e de9f 243e f441 213e
00000170: 821b d73e 6c8e da3e e51d bd3e 302b bb3e
00000180: b93d f63d 1119 ec3d 8b11 523e c17a 553e
00000190: c25f bf3e cdf9 c03e 9bc4 323e 4cbc 273e
000001a0: 3d79 ed3e 6c2e ea3e aee6 ec3d 0162 f63d
000001b0: 1cc4 253e e685 2b3e baa1 543e dd46 533e
000001c0: 0139 633e d52d 633e a91c 943e d919 863e
000001d0: 7bd6 b83e b2ac ad3e 6633 a73e 9595 b03e
000001e0: b6c0 763e b2ff 803e e083 0f3e e5d1 1b3e
000001f0: 3a9d 303e 8c7c 2a3e 4479 943e c12e 983e
00000200: 1aa5 173e 5793 133e a4d4 ba3e ee2e c73e
00000210: aca9 9c3e da7f 933e efca 383e 8779 383e
00000220: 0045 a13e 3994 9f3e da69 bd3e f803 ba3e
00000230: bf64 793e 8496 673e 9c88 da3d 30a2 d43d
00000240: f116 cc3d 9d83 cd3d 82e4 c23d e736 c63d
00000250: 766f 6c3e a7c5 663e 1445 873e 2971 8d3e
00000260: 2b97 7a3e cc51 723e 1aac 8e3e 8c88 8e3e
00000270: 4210 c03e 997f c73e 0ce0 6c3e 557f 633e
00000280: bf94 a73e 96c5 953e 4f91 563e 555a 5f3e
00000290: 8899 383e 5eac 393e 6856 bc3e 8811 b53e
000002a0: 8617 d73d 2a6c e43d ae95 773e 62c1 7b3e
000002b0: ae22 a23e cf9e a13e 67db 7c3e 8047 813e
000002c0: 4a51 853e 9301 933e 1d8d 0f3e 604e 103e
000002d0: 1b45 1d3e e135 2f3e d85b ff3e 6795 ee3e
000002e0: b097 e63d 959d f53d c606 b13d 7d56 bd3d
000002f0: d2d6 c83d a72b b73d 831c 613e 0a7a 8f3e
00000300: c571 c83e 789c cb3e 6ee2 963e 6274 973e
00000310: 3833 823e be79 783e 8988 5b3e 515e 653e
00000320: 5407 923e 2d1d 853e b6da b63e d9b9 b43e
00000330: 422e a93e 7f42 a93e e533 da3e 776b ce3e
00000340: 7ce8 9c3e ad3f a03e af95 813e e781 763e
00000350: d090 bb3e 26a1 ba3e 6883 dc3e 360b d63e
00000360: 16e8 913e 9f86 963e ba44 b03e 705b 9a3e
00000370: 3d78 443e 5ce5 453e b2a4 873e a400 803e
00000380: 44ba f23e f709 bd3e 9118 f23e c379 dd3e
00000390: 9c89 5c3e 6349 553e b19c ed3e b0f8 c83e
000003a0: f7c8 ac3e 6649 a13e 9dd0 f63e 5d51 ef3e
000003b0: 22b6 a63e 40ce 9f3e 5f46 603e c797 5e3e
000003c0: ed72 ec3e 2e89 d33e 0b6e c33e a2f8 c33e
000003d0: 1c10 873e 1ae5 823e 4cdb f63e 8b9f c73e
000003e0: 6b29 1f3e 9575 183e d624 933e 59c0 713e
000003f0: a5d9 a73e de8e 963e d224 133e 6c56 193e

exp_avg f4 [32]
0.31208983 0.25912786 0.75970316 0.016035637 0.23368521 0.13687645 -0.23801214 0.18174799
0.059039805 -0.03684495 0.518392 -0.080003515 -0.51702154 -0.5592622 -0.16683403 -0.52375585
0.11540729 -0.048825994 -0.15805519 0.19665547 -0.33903572 -0.05189015 -0.3267857 0.12746218
0.5355887 -0.25120434 -0.32736912 0.024557648 0.4325239 -5.2478e-05 0.105430774 -0.090649486
00000000: 3dca 9f3e 68ac 843e e87b 423f 2b5d 833c
00000010: 2d4b 6f3e 5729 0c3e 74b9 73be 251c 3a3e
00000020: b9d3 713d bbea 16bd 57b5 043f e2d8 a3bd
00000030: 865b 04bf cf2b 0fbf 8ad6 2abe dd14 06bf
00000040: a85a ec3d c4fd 47bd 38d9 21be 0d60 493e
00000050: 1796 adbe c48a 54bd 7550 a7be 7285 023e
00000060: 571c 093f db9d 80be ed9c a7be 1f2d c93c
00000070: c673 dd3e d31b 5cb8 17ec d73d 70a6 b9bd

exp_avg_sq f4 [32]
3.3099399 2.8402457 2.0334744 1.3804841 2.677643 4.164892 4.5746903 2.475646
3.9634597 3.1959426 4.8316426 2.0095541 3.3327224 3.4575815 2.5402102 3.0938613
3.819606 3.5323596 5.2649994 2.843897 3.8879447 4.4514194 3.7167816 3.4347632
2.873294 2.1745083 1.0935119 3.2916799 4.1675143 2.7557979 1.028514 2.3841217
00000000: 0ed6 5340 96c6 3540 7224 0240 b4b3 b03f
00000010: 815e 2b40 cc46 8540 dd63 9240 fc70 1e40
00000020: 53a9 7d40 538a 4c40 d19c 9a40 899c 0040
00000030: 534b 5540 0449 5d40 ce92 2240 d301 4640
00000040: 6d74 7440 2e12 6240 e07a a840 6902 3640
00000050: 16d4 7840 0772 8e40 c0df 6d40 29d3 5b40
00000060: 0de4 3740 252b 0b40 33f8 8b3f e2aa 5240
00000070: 475c 8540 fe5e 3040 59a6 833f 7395 1840
