saved_CEBRA_models/nitschke_20090812_20090819_20090910/CEBRA_models/temperature_0.0014000000000000002_time_offsets_1_dataset1.pt (torch, 531429 bytes, 31 tensors)

net.0.weight f4 [32, 191, 2]
0.0390203 -0.045441646 -0.081846476 -0.06314403 -0.02464876 0.048079323 -0.021438742 -0.017010331
0.033771187 -0.041652083 -0.041143574 -0.035521004 -0.007006417 0.031152558 -0.025984917 0.044853266
-0.040524323 -0.048258256 0.0055733374 0.018869577 0.06458643 -0.0043245335 -0.01775767 -0.023657326
0.018305328 0.045579515 0.024777552 0.030545518 0.016802171 -0.06075848 -0.014490911 -0.037509374
0.088630505 0.0031096465 0.0512024 0.025854092 0.042770952 -0.016000802 -0.02606171 0.06034883
0.04199968 -0.008307387 -0.031433865 0.006660694 -0.02366573 -0.034515202 0.03427056 -0.018445643
-0.011527386 -0.066296354 0.019165551 -0.017354332 -0.00658856 0.045018528 0.032427136 -0.008862137
0.06525831 0.05343372 -0.0074437005 0.069858566 -0.019192994 0.037611037 0.08957538 0.016298423
-0.0016468413 -0.051938865 -0.004068913 0.030013287 0.02568496 0.00037809112 -0.009966326 -0.0068378
-0.03782738 -0.009274526 -0.037454836 -0.0075059426 -0.0635553 0.060174283 0.046529595 0.025911003
0.040817965 0.038698573 -0.007237901 0.0010797731 -0.018910142 -0.016514825 0.02886648 -0.003886573
-0.0029106436 -0.004455826 0.0035148994 -0.016938362 0.01892508 0.03348827 0.029551627 -0.049823757
-0.079000995 0.003011164 -0.0020546254 0.018573778 -0.007494591 -0.0074923276 -0.0066017304 0.004332287
-0.000185467 -0.032571066 0.017761486 -0.01237308 0.06577485 -0.031763725 -0.015165053 0.008102535
-0.0007337812 -0.03213261 -0.014034584 0.05286163 -0.012941436 0.012940326 0.034472894 0.032528475
-0.02123743 -0.02746004 -0.020185981 -0.0051617925 0.0271092 0.026561745 0.0008813068 -0.020426337
0.03637287 0.004514888 -0.05948879 0.01990294 -0.010658478 -0.012828123 0.031011676 0.01881536
-0.009972758 0.020622203 0.00051011227 -0.022662496 0.0724945 0.030760227 -0.033627618 0.028286751
-0.0037403784 -0.0353383 -0.059940375 0.03597957 -0.0046080328 0.022239288 -0.02807815 -0.03509617
-0.0021723444 0.0022489452 0.038415097 -0.009147387 -0.027926777 0.004957286 0.019328142 0.0024807632
-0.03121732 0.0021447975 -0.00057540165 0.013121606 0.049922463 0.06381389 0.05195668 -0.022112574
0.020254025 0.00629369 -0.04654112 0.002010662 -0.029794734 0.05388258 -0.012991326 -0.0070045795
0.02518742 0.027315807 0.06939533 0.011179433 -0.0033784728 0.004279536 0.041685574 -0.006625141
-0.0365905 0.0022990021 -0.009954455 0.008028858 -0.016497873 0.025521489 0.026160637 -0.02617664
-0.035076044 -0.049800586 -0.010715806 0.01789366 0.018775402 0.0045239097 0.015711993 0.026200393
0.032224614 0.020168649 0.020621836 -0.01129327 -0.018468024 0.02904679 0.041397747 0.034459572
0.029017046 -0.015185237 -0.020771587 0.034857716 -0.009908962 0.017517854 0.050370496 -0.029600667
-0.011412735 -0.012232331 0.0023350175 -0.013840545 0.0079719685 0.028527763 0.0064891577 0.015140139
0.0126849 0.03374543 -0.034107774 0.009545005 -0.03067757 -0.018575823 -0.018460983 -0.004018021
0.0030182048 -0.008909821 -0.0028869873 0.034995906 -0.04618396 -0.0049378397 0.012039292 -0.007905252
-0.027870413 0.06086674 -0.008700976 0.040378746 -0.0076049343 -0.008531725 -0.012950726 -0.00025878916
0.014112797 -0.04019448 0.022009324 0.001767361 0.0029035886 0.019090557 0.02653349 -0.027311148
00000000: c0d3 1f3d 0521 3abd 209f a7bd a851 81bd
00000010: 32ec c9bc d3ee 443d 4da0 afbc 4059 8bbc
00000020: a853 0a3d 609b 2abd 2a86 28bd 797e 11bd
00000030: 1696 e5bb a633 ff3c 52de d4bc 0fb8 373d
00000040: d5fc 25bd 73aa 45bd 8ba0 b63b 5f94 9a3c
00000050: e445 843d d1b4 8dbb 8878 91bc 02cd c1bc
00000060: 0ef5 953c 96b1 3a3d 4bfa ca3c 983a fa3c
00000070: b5a4 893c e2dd 78bd 496b 6dbc 6ea3 19bd
00000080: e983 b53d 36cb 4b3b 9cb9 513d f6cb d33c
00000090: 9830 2f3d 1d14 83bc 5e7f d5bc 5630 773d
000000a0: db07 2c3d b51b 08bc ccc0 00bd f341 da3b
000000b0: a2de c1bc d05f 0dbd 495f 0c3d 511b 97bc
000000c0: 5cdd 3cbc 62c6 87bd 1301 9d3c ac2a 8ebc
000000d0: d9e4 d7bb 5965 383d 51d2 043d 7f32 11bc
000000e0: 26a6 853d 51dd 5a3d 49ea f3bb 0212 8f3d
000000f0: a03a 9dbc 080e 1a3d 4c73 b73d 4584 853c
00000100: d3da d7ba d9bd 54bd 8454 85bb 6dde f53c
00000110: 4469 d23c 883a c639 cd49 23bc a00f e0bb
00000120: e2f0 1abd 2ef4 17bc 3e6a 19bd 69f4 f5bb
00000130: 4829 82bd 4f79 763d d195 3e3d 5043 d43c
00000140: bd30 273d 6582 1e3d ea2b edbb 2c87 8d3a
00000150: 71e9 9abc 194a 87bc 6579 ec3c e0b5 7ebb
00000160: 7fc0 3ebb 2d02 92bb 3a5a 663b 52c2 8abc
00000170: c508 9b3c ff2a 093d 4116 f23c ff13 4cbd
00000180: 46cb a1bd f356 453b e5a6 06bb 0928 983c
00000190: 3095 f5bb 3382 f5bb 5453 d8bb dbf5 8d3b
000001a0: eb79 42b9 3d69 05bd 8980 913c 75b8 4abc
000001b0: f7b4 863d ae1a 02bd d876 78bc 7fc0 043c
000001c0: 395b 40ba 7c9d 03bd 50f1 65bc 7085 583d
000001d0: 5108 54bc a903 543c 7333 0d3d 943c 053d
000001e0: 1efa adbc e1f3 e0bc 125d a5bc 4124 a9bb
000001f0: 1d14 de3c 0498 d93c 8007 673a 2255 a7bc
00000200: b8fb 143d a0f1 933b 84aa 73bd 7e0b a33c
00000210: e6a0 2ebc 0c2d 52bc 330c fe3c ab22 9a3c
00000220: c764 23bc e5ef a83c 0eb9 053a b3a6 b9bc
00000230: ff77 943d dffc fb3c 1dbd 09bd 9eb9 e73c
00000240: 2321 75bb e5be 10bd 0a84 75bd 505f 133d
00000250: fbfe 96bb 2b2f b63c 2604 e6bc 00c1 0fbd
00000260: e45d 0ebb 0a63 133b 2659 1d3d ecde 15bc
00000270: b2c6 e4bc bb70 a23b 0d56 9e3c 4d94 223b
00000280: 77bb ffbc bb8f 0c3b 8dd6 16ba 01fc 563c
00000290: 7f7b 4c3d dbb0 823d 87d0 543d 6e25 b5bc
000002a0: c5eb a53c 4c3b ce3b e7a1 3ebd 50c5 033b
000002b0: 1614 f4bc fbb3 5c3d 92d9 54bc ac86 e5bb
000002c0: d955 ce3c 66c5 df3c 241f 8e3d f129 373c
000002d0: 5e69 5dbb 5a3b 8c3b 7ebe 2a3d b617 d9bb
000002e0: ecdf 15bd dbaa 163b 0318 23bc 798b 033c
000002f0: 8c26 87bc 7112 d13c d54e d63c 6570 d6bc
00000300: e6ab 0fbd b3fb 4bbd 5991 2fbc ba95 923c
00000310: dfce 993c 4e3d 943b 70b6 803c 35a2 d63c
00000320: f5fd 033d b938 a53c 20ef a83c 6807 39bc
00000330: 414a 97bc 89f3 ed3c af90 293d 7b25 0d3d
00000340: 28b5 ed3c 80cb 78bc 2d29 aabc f7c6 0e3d
00000350: 3359 22bc 9a81 8f3c 4b51 4e3d 197d f2bc
00000360: 7bfc 3abc 1d6a 48bc 1807 193b 74c3 62bc
00000370: dc9c 023c 0eb3 e93c 00a3 d43b 580e 783c
00000380: 54d4 4f3c a638 0a3d 98b4 0bbd a762 1c3c
00000390: 874f fbbc 532c 98bc 7d3b 97bc 9aa9 83bb
000003a0: 13cd 453b 7ffa 11bc 9c33 3dbb de57 0f3d
000003b0: 642b 3dbd 9acd a1bb 7340 453c 0885 01bc
000003c0: 7e50 e4bc 674f 793d 8a8e 0ebc 2f64 253d
000003d0: d032 f9bb a6c8 0bbc 482f 54bc 18ae 87b9
000003e0: 5c39 673c f8a2 24bd e64c b43c cba6 e73a
000003f0: 224a 3e3b cd63 9c3c c35c d93c a1bb dfbc

net.0.bias f4 [32]
0.0016583469 0.028073628 -0.05513391 -0.009264125 -0.06312548 -0.049373496 0.010183962 -0.012435522
0.06471533 -0.037943836 -0.009651923 0.05137394 0.026784042 -0.04535383 0.035413932 -0.057424203
-0.035696678 -0.028650548 0.04250593 0.023327123 0.049525183 0.030608367 0.026544595 -0.024574012
-0.040734086 -0.00091209094 0.046193678 -0.015050343 0.003363632 -0.01361701 -0.031117564 -0.034125056
00000000: e35c d93a aafa e53c 18d4 61bd 8ec8 17bc
00000010: ef47 81bd dd3b 4abd a2da 263c 5cbe 4bbc
00000020: 7989 843d ff6a 1bbd 1923 1ebc 7b6d 523d
00000030: 356a db3c f0c4 39bd 330e 113d a435 6bbd
00000040: ae36 12bd 8eb4 eabc b31a 2e3d 8618 bf3c
00000050: ebda 4a3d 66be fa3c 0d74 d93c 704f c9bc
00000060: c9d8 26bd 6319 6fba 9535 3d3d b795 76bc
00000070: 6170 5c3b e119 5fbc 43ea febc b7c6 0bbd

net.2.module.0.weight f4 [32, 32, 3]
-0.023547808 -0.06144632 0.26589713 -0.060349897 -0.05758674 -0.057185978 0.07388145 0.09189952
0.0064780265 0.09394575 0.009622058 -0.0095311925 -0.13464858 -0.085759506 -0.17938833 -0.1022101
0.045161497 0.014044158 -0.028936213 -0.003516335 0.17465349 0.032412622 0.12419382 0.037290085
0.018503131 -0.05754831 -0.095232725 0.06769405 -0.074447595 -0.105017975 -0.000996852 -0.119387895
0.013238494 0.013236749 -0.018170437 -0.099426925 0.07791801 -0.05026033 -0.0044298833 -0.040250756
-0.1351295 -0.16259852 -0.054626912 -0.02545588 -0.010713202 -0.08715823 -0.012615255 0.0028887747
0.10409841 -0.09819165 -0.06708749 -0.04136962 0.074714266 0.14972118 0.0864317 0.04225196
0.10774845 -0.057282243 -0.027164318 -0.012020501 -0.036273275 -0.098982446 -0.123463176 -0.09117711
-0.07623821 0.013540914 0.049838252 0.039325044 0.04920625 0.089328595 -0.11652317 -0.04452381
0.10838462 0.04506881 0.07293472 0.10522617 -0.038588505 -0.04391685 0.234558 0.026051998
-0.017139468 -0.07141818 0.033698015 -0.10800849 -0.023834592 -0.03889144 0.045776267 -0.05982798
-0.014455923 0.06678594 0.028643573 0.09342738 -0.20058097 -0.015089219 0.15929534 0.112347804
-0.05663263 0.046686485 -0.08854464 0.08610205 -0.0572146 -0.026079295 0.035402212 0.008845116
0.044568285 -0.14873965 -0.07527837 0.108007856 -0.030042598 -0.13366593 0.02118418 0.0405944
0.17356458 0.13017815 -0.15892896 -0.004268248 0.08842153 -0.0776281 -0.06712286 0.07346932
0.086876355 -0.046186384 -0.02933209 -0.022616826 0.002520551 0.069685 -0.00424688 -0.053579655
0.13721062 -0.07572851 0.031919863 -0.040668085 0.08741549 -0.084115796 0.027757486 0.054130062
0.024692072 -0.0605727 -0.051315222 -0.091762856 -0.12791033 -0.036923412 0.10644217 0.033731572
0.0988296 -0.053671062 -0.088011056 0.03730788 -0.055313226 -0.07213574 -0.08481145 0.013168915
-0.10907765 -0.02541812 0.068339705 -0.048697345 0.09262022 0.04953069 0.10161835 0.009974446
0.020219756 -0.011911822 -0.046437018 -0.109817676 -0.008739118 0.072024316 -0.034450755 0.09805583
-0.023670118 0.025245365 -0.073166564 -0.10732343 -0.010376541 -0.01290478 -0.007299716 -0.12298728
-0.089305714 0.13315442 -0.060386587 -0.09896698 0.024995532 -0.016372059 -0.044849634 0.057044186
-0.0038852685 0.103588395 0.024285251 -0.059378613 -0.028934678 0.030820685 0.01643625 0.031140119
-0.12112074 0.07713233 0.1015835 0.11377181 -0.039809905 -0.16680734 -0.12379186 0.0019599267
0.0817339 -0.011132876 -0.02822323 0.15537831 0.08621381 -0.080778055 -0.04744247 -0.05579622
-0.10615749 -0.0803874 -0.025772715 0.026352677 0.053305287 0.15325381 0.11008983 -0.0850674
0.08276298 -0.051790833 -0.088166445 -0.019754238 0.039147347 -0.13271596 -0.09653773 0.06888543
0.098887786 0.012977913 0.012269015 -0.040658005 0.04662997 -0.11160362 -0.105468184 0.0050051543
0.06420064 -0.12669921 0.05886805 0.100660965 0.08092874 -0.058077067 0.06795357 -0.014408227
0.02475626 -0.09951859 0.094388574 0.02179587 0.014134306 -0.0357281 -0.13444093 -0.113199554
0.079719126 -0.013708361 0.099645235 -0.057830002 -0.0064792535 -0.06067476 -0.007239828 -0.025862727
00000000: 55e7 c0bc 23af 7bbd ab23 883e 7431 77bd
00000010: 13e0 6bbd d83b 6abd 284f 973d d135 bc3d
00000020: a045 d43b a166 c03d d6a5 1d3c b828 1cbc
00000030: 51e1 09be aea2 afbd 93b1 37be 8753 d1bd
00000040: 43fb 383d 7819 663c a30b edbc 5072 66bb
00000050: 5dd8 323e 19c3 043d 5459 fe3d 7dbd 183d
00000060: e193 973c c7b7 6bbd 6009 c3bd 2ea3 8a3d
00000070: fb77 98bd aa13 d7bd cda8 82ba a481 f4bd
00000080: 45e6 583c f3de 583c 2bda 94bc 58a0 cbbd
00000090: 7a93 9f3d c7dd 4dbd 8e28 91bb fadd 24bd
000000a0: 635f 0abe 3a80 26be 78c0 5fbd da88 d0bc
000000b0: 6d86 2fbc 0480 b2bd 37b0 4ebc 9951 3d3b
000000c0: 8c31 d53d b418 c9bd 2a65 89bd 3173 29bd
000000d0: cb03 993d 8250 193e 1a03 b13d 6410 2d3d
000000e0: 38ab dc3d c9a0 6abd b487 debc a3f1 44bc
000000f0: 4993 14bd 4fb7 cabd 43da fcbd 11bb babd
00000100: c722 9cbd b6da 5d3c 3223 4c3d 4c13 213d
00000110: 7e8c 493d e9f1 b63d b3a3 eebd 995e 36bd
00000120: c1f8 dd3d 139a 383d cc5e 953d d180 d73d
00000130: fb0e 1ebd 28e2 33bd f92f 703e 006b d53c
00000140: 1268 8cbc b243 92bd ee06 0a3d 8e33 ddbd
00000150: c340 c3bc a14c 1fbd e57f 3b3d 2f0e 75bd
00000160: 89d8 6cbc 11c7 883d eda5 ea3c db56 bf3d
00000170: 1965 4dbe c638 77bc 511e 233e 9b16 e63d
00000180: 9ef7 67bd 543a 3f3d e456 b5bd 4656 b03d
00000190: db59 6abd 3fa4 d5bc e901 113d 1beb 103c
000001a0: 3c8d 363d 354f 18be 8c2b 9abd 3933 dd3d
000001b0: e51b f6bc b9df 08be 728a ad3c 5046 263d
000001c0: eaba 313e 6c4d 053e 46be 22be a9dc 8bbb
000001d0: 5916 b53d 7bfb 9ebd b677 89bd 1577 963d
000001e0: 3bec b13d ef2d 3dbd da49 f0bc ec46 b9bc
000001f0: d42f 253b 02b7 8e3d 6929 8bbb 5776 5bbd
00000200: f180 0c3e 8d17 9bbd 67be 023d 9493 26bd
00000210: e406 b33d e744 acbd ab63 e33c 7cb7 5d3d
00000220: 0747 ca3c 141b 78bd e92f 52bd 2aee bbbd
00000230: edfa 02be 013d 17bd 5afe d93d 1e2a 0a3d
00000240: 2c67 ca3d 30d6 5bbd 243f b4bd 26d0 183d
00000250: 1f90 62bd e7bb 93bd a0b1 adbd 6fc2 573c
00000260: 1a64 dfbd a939 d0bc b0f5 8b3d de76 47bd
00000270: abaf bd3d b1e0 4a3d 481d d03d dc6b 233c
00000280: e7a3 a53c cd29 43bc be34 3ebd 17e8 e0bd
00000290: 852e 0fbc 7c81 933d 3c1c 0dbd 7fd1 c83d
000002a0: d6e7 c1bc 5ecf ce3c 5ad8 95bd 63cc dbbd
000002b0: 5e02 2abc 926e 53bc 7532 efbb c1e0 fbbd
000002c0: eae5 b6bd a259 083e ed57 77bd 33af cabd
000002d0: 6ec3 cc3c b21e 86bc 40b4 37bd 2aa7 693d
000002e0: fd9f 7ebb 2726 d43d ddf1 c63c fd36 73bd
000002f0: 6b08 edbc a97b fc3c 51a5 863c 9019 ff3c
00000300: 270e f8bd 8ef7 9d3d 030b d03d 3201 e93d
00000310: b60f 23bd 8bcf 2abe 9686 fdbd 1d72 003b
00000320: 1a64 a73d ab66 36bc 6734 e7bc 7e1b 1f3e
00000330: de90 b03d f76e a5bd 0953 42bd 948a 64bd
00000340: 1969 d9bd 26a2 a4bd 4d21 d3bc 92e1 d73c
00000350: a556 5a3d 91ee 1c3e c776 e13d d137 aebd
00000360: a37f a93d a022 54bd 9c90 b4bd a4d3 a1bc
00000370: f858 203d b1e6 07be 93b5 c5bd ce13 8d3d
00000380: ae85 ca3d 50a1 543c fb03 493c 0289 26bd
00000390: 11ff 3e3d 7090 e4bd b4ff d7bd 4702 a43b
000003a0: a07b 833d 70bd 01be a01f 713d 5627 ce3d
000003b0: f8bd a53d 38e2 6dbd 3e2b 8b3d 7c10 6cbc
000003c0: a4cd ca3c 67d0 cbbd cc4e c13d 418d b23c
000003d0: 9493 673c a157 12bd e2aa 09be 2bd5 e7bd
000003e0: c843 a33d 0999 60bc cd12 cc3d 27df 6cbd
000003f0: eb4f d4bb 1986 78bd 143c edbb 12de d3bc

net.2.module.0.bias f4 [32]
-0.06273262 -0.01565782 -0.018517546 0.049361207 0.03561589 0.042249072 0.029260583 -0.008450678
0.015934806 -0.03705586 0.031136826 0.07664884 -0.09714362 -0.020434894 0.09838148 -0.05075698
-0.057627037 0.10302538 0.014455334 0.062333386 -0.014287843 -0.07790087 0.0548518 0.025200222
-0.09317505 0.06092362 -0.01447337 -0.053815454 -0.016920986 0.015677055 0.11986016 0.0836606
00000000: f679 80bd d444 80bc 1cb2 97bc fa2e 4a3d
00000010: f8e1 113d 5d0d 2d3d e4b3 ef3c b674 0abc
00000020: b689 823c e3c7 17bd a812 ff3c 11fa 9c3d
00000030: 3cf3 c6bd 1467 a7bc 3b7c c93d 8de6 4fbd
00000040: 540a 6cbd f8fe d23d 11d6 6c3c 4b51 7f3d
00000050: 8f17 6abc 7e8a 9fbd 48ac 603d b270 ce3c
00000060: 90d2 bebd 0c8b 793d b721 6dbc 986d 5cbd
00000070: e19d 8abc 2b6d 803c 3e79 f53d 4056 ab3d

net.3.module.0.weight f4 [32, 32, 3]
-0.11217832 -0.030878471 0.05738439 -0.07812644 -0.011477706 -0.06250171 0.021897031 -0.012471966
0.011583081 0.15613112 0.1267567 0.048984468 -0.09114541 -0.009914584 0.037339892 -0.029034456
-0.068374 0.07939587 -0.051004093 -0.0103905415 0.085696734 0.08959999 0.0832178 0.08602316
-0.12851903 -0.078193225 -0.02361892 0.03313682 -0.0010969788 0.03417961 0.008808414 -0.024537735
-0.055779807 0.12556154 -0.07999351 -0.1915305 0.10703607 0.027540067 -0.1232156 0.086110055
-0.02213886 -0.0062956726 -0.023834325 -0.09886195 0.016682494 0.11561082 0.08707398 -0.002283833
0.07063774 0.017952157 0.019219762 -0.0008656119 -0.07787171 -0.066262454 -0.1486592 0.025103483
0.06663639 0.09924366 0.124070846 -0.051726088 0.116642594 -0.07684137 -0.029242638 -0.038356874
0.0069749113 0.10486153 0.19621268 -0.0018738844 -0.008215532 0.11794872 -0.061772663 -0.070767775
0.044206046 0.10982498 0.15881017 0.04468914 -0.0960636 -0.016322775 0.012960816 0.031534307
-0.117123604 -0.05190505 -0.044305902 -0.03275884 -0.05110318 -0.03009364 0.13608691 0.07886627
0.09958243 0.06336517 -0.08323058 0.033728037 0.05244422 0.14825222 -0.06264904 0.17430112
-0.051913165 0.06989145 0.023443965 0.16146162 0.043880604 -0.0029982526 -0.044161264 0.041998707
-0.023772767 -0.11484675 -0.082544886 -0.045547377 0.09485591 -0.07049901 0.0527639 -0.08501434
0.009988956 0.0834353 -0.09818375 -0.0994783 -0.00297564 -0.00220202 0.033437196 0.08383439
-0.019351907 -0.09193257 0.018738572 0.099746875 -0.059194174 0.07100981 0.10921037 0.054689217
-0.09000947 -0.054207973 -0.031308357 0.06809352 0.0415829 -0.10376653 -0.052949913 -0.054614145
0.09196933 -0.037874836 0.037186556 -0.03484777 0.054228943 0.05126699 -0.10876909 -0.06308767
-0.010846514 -0.081286624 -0.05430555 -0.045182712 0.025983237 0.080989875 -0.041594744 0.015481004
-0.008504789 -0.022575783 0.07073233 0.039907955 0.026360676 -0.068537556 -0.08125313 0.15572406
-0.10261638 -0.0847555 0.042602286 -0.068772905 0.0300115 -0.05356479 -0.042441934 0.0068489546
-0.04891387 -0.048495766 0.018208304 -0.08200588 0.11374274 0.038182035 0.035530046 0.036741093
0.09150481 0.067155264 0.09257116 -0.008249745 -0.14393014 0.027419338 0.066887915 -0.11036608
-0.017951954 0.053768586 0.099123955 0.030457295 0.07776525 0.14357486 -0.09270624 0.06511665
0.0046944004 -0.03018279 0.06019681 -0.10835096 0.012471532 -0.14819616 -0.08186253 -0.032719124
0.12878953 -0.067558326 -0.005152782 -0.031353354 -0.0029263415 0.042687416 0.05310998 -0.05785244
-0.06517844 0.07954988 0.0035650453 0.040947065 -0.0122476565 -0.009358418 0.032420337 0.10564168
-0.14062965 -0.04618789 0.014203574 -0.059414614 0.051828742 0.00016582942 0.042132195 -0.069974095
-0.04864007 0.05091564 0.022064524 0.0507561 -0.022909956 0.062373526 0.000508134 0.03430102
-0.10133633 -0.13399921 -0.040062062 0.04584207 0.04910514 -0.05118928 -0.06368011 -0.024119621
0.1475965 -0.0031939787 0.011620774 0.10015768 0.047293775 -0.015500203 -0.02166751 0.072560936
-0.0074970936 0.03439602 0.024746394 0.00062859675 -0.08995829 -0.054075394 -0.07236846 -0.09316502
00000000: bfbd e5bd d9f4 fcbc e50b 6b3d c100 a0bd
00000010: fd0c 3cbc e600 80bd 6761 b33c 3857 4cbc
00000020: f7c6 3d3c d6e0 1f3e 82cc 013e f0a3 483d
00000030: 72aa babd c870 22bc b7f1 183d abd9 edbc
00000040: ab07 8cbd 4d9a a23d abe9 50bd 173d 2abc
00000050: c581 af3d 3380 b73d 186e aa3d e92c b03d
00000060: 7e9a 03be c523 a0bd 777c c1bc 79ba 073d
00000070: 80c8 8fba ebff 0b3d 2b51 103c 5c03 c9bc
00000080: 5e79 64bd 3493 003e a3d3 a3bd 9220 44be
00000090: ba35 db3d b59b e13c 7658 fcbd 785a b03d
000000a0: 8e5c b5bc ee4b cebb 3440 c3bc 2278 cabd
000000b0: baa9 883c 5ec5 ec3d d853 b23d 5cac 15bb
000000c0: 85aa 903d 6710 933c c372 9d3c 3bea 62ba
000000d0: 347b 9fbd 9cb4 87bd 1e3a 18be d2a5 cd3c
000000e0: a978 883d 4340 cb3d db18 fe3d bcde 53bd
000000f0: 50e2 ee3d 025f 9dbd 428e efbc 191c 1dbd
00000100: cc8d e43b a4c1 d63d faeb 483e 209d f5ba
00000110: 709a 06bc 198f f13d 5505 7dbd b2ee 90bd
00000120: 6611 353d ebeb e03d 229f 223e f60b 373d
00000130: febc c4bd 57b7 85bc 9a59 543c 1e2a 013d
00000140: 80de efbd 649a 54bd 1b7a 35bd 222e 06bd
00000150: 9151 51bd f086 f6bc 5e5a 0b3e a484 a13d
00000160: e0f1 cb3d 99c5 813d cb74 aabd 6926 0a3d
00000170: c0cf 563d 6ecf 173e 244e 80bd fe7b 323e
00000180: e6a2 54bd 4023 8f3d 8f0d c03c 3256 253e
00000190: 26bc 333d 557e 44bb 71e2 34bd d606 2c3d
000001a0: 1bbf c2bc c634 ebbd 4b0d a9bd e38f 3abd
000001b0: d143 c23d c961 90bd f61e 583d 001c aebd
000001c0: b8a8 233c 20e0 aa3d 9014 c9bd 47bb cbbd
000001d0: f402 43bb c44f 10bb 71f5 083d 5db1 ab3d
000001e0: e487 9ebc 2547 bcbd a281 993c 1748 cc3d
000001f0: 9775 72bd 976d 913d b0a9 df3d cd01 603d
00000200: e356 b8bd 2e09 5ebd 313d 00bd 9e74 8b3d
00000210: d552 2a3d 8c83 d4bd 02e2 58bd 15b3 5fbd
00000220: 6b5a bc3d a522 1bbd ee50 183d 89bc 0ebd
00000230: 2b1f 5e3d 56fd 513d 54c2 debd 1c34 81bd
00000240: 94b5 31bc 9a79 a6bd 7f6f 5ebd 8211 39bd
00000250: ccda d43c 05de a53d 405f 2abd 09a4 7d3c
00000260: ac57 0bbc d9f0 b8bc 1ddc 903d 8676 233d
00000270: 58f2 d73c 6b5d 8cbd 0b68 a6bd 2176 1f3e
00000280: 8928 d2bd 4b94 adbd bc7f 2e3d cfd8 8cbd
00000290: adda f53c c166 5bbd 98d7 2dbd 326d e03b
000002a0: e959 48bd 7fa3 46bd 9529 953c b3f2 a7bd
000002b0: f4f1 e83d c464 1c3d f487 113d d47d 163d
000002c0: e066 bb3d b388 893d f395 bd3d f029 07bc
000002d0: 6c62 13be 859e e03c 88fc 883d 9d07 e2bd
000002e0: fa0f 93bc 733c 5c3d 8001 cb3d 9481 f93c
000002f0: 6343 9f3d 4a05 133e c5dc bdbd e15b 853d
00000300: 7cd3 993b e641 f7bc ee90 763d 1ce7 ddbd
00000310: 6655 4c3c bcc0 17be 8ba7 a7bd 7d04 06bd
00000320: 67e1 033e 055c 8abd abd8 a8bb 606c 00bd
00000330: ddc7 3fbb 00d9 2e3d da89 593d aef6 6cbd
00000340: 467c 85bd 0ceb a23d 89a3 693b 1cb8 273d
00000350: 65aa 48bc 0d54 19bc 30cb 043d aa5a d83d
00000360: 3801 10be 832f 3dbd 1bb6 683c bd5c 73bd
00000370: 604a 543d 7fe2 2d39 cf92 2c3d 944e 8fbd
00000380: cf3a 47bd eb8c 503d a9c0 b43c a1e5 4f3d
00000390: a9ad bbbc 627b 7f3d 4c34 053a 3a7f 0c3d
000003a0: 6c89 cfbd 1737 09be 1e18 24bd e5c4 3b3d
000003b0: 7922 493d daab 51bd b86a 82bd 8396 c5bc
000003c0: 8923 173e 1252 51bb 0f65 3e3c 781f cd3d
000003d0: 1eb7 413d 90f4 7dbc 1080 b1bc d49a 943d
000003e0: 2eaa f5bb d7e2 0c3d f3b8 ca3c 6ac8 243a
000003f0: 0d3c b8bd 297e 5dbd ea35 94bd 4dcd bebd

net.3.module.0.bias f4 [32]
-0.033632874 0.08981038 0.006062761 -0.082209796 -0.06195361 -0.023291675 -0.041156974 0.0028629997
-0.008151597 -0.05121273 0.020764142 0.06504937 0.077650346 -0.060493983 0.058965873 -0.07598713
-0.045579515 -0.049862668 -0.07792896 -0.025907567 -0.04005484 -0.035410557 -0.016479943 0.01318982
0.017348565 -0.0241286 0.10656414 0.030714063 -0.03461901 -0.0051463577 0.019112546 -0.060436413
00000000: a0c2 09bd 81ee b73d 20aa c63b 9c5d a8bd
00000010: 12c3 7dbd 2fce bebc 3794 28bd 2aa1 3b3b
00000020: 478e 05bc 71c4 51bd 9019 aa3c 9b38 853d
00000030: 2507 9f3d 8ac8 77bd 3386 713d 249f 9bbd
00000040: 96b1 3abd cc3c 4cbd 3899 9fbd 1b3c d4bc
00000050: 8b10 24bd a90a 11bd f200 87bc 1d1a 583c
00000060: 941e 8e3c 57a9 c5bc 4d3e da3d 0f9c fb3c
00000070: aacc 0dbd c7a2 a8bb ea91 9c3c 2c8c 77bd

net.4.module.0.weight f4 [32, 32, 3]
0.058289852 0.052743085 0.093933955 -0.12709966 -0.026489919 0.09493407 -0.112279326 0.08057767
-0.02090714 0.041426208 -0.051544797 -0.099567145 -0.0501029 0.10742921 0.058661327 0.0995756
0.04530178 -0.028647993 0.13673075 -0.052885387 0.0940147 0.027248427 0.050529342 -0.025166344
0.031380594 0.10476274 -0.03701255 0.036080223 -0.004957142 0.059118576 0.0037783587 0.07488807
0.097349964 -0.0027849693 -0.040908106 -0.11432132 0.11437311 -0.03500792 0.03240968 -0.061348833
0.006569927 -0.0154802995 0.073172286 0.054550417 0.04060224 -0.0013112847 -0.14109343 -0.052026402
-0.15714088 -0.10647144 0.1682278 -0.026380831 0.040691603 0.0064030085 0.07506461 -0.0658148
0.006100656 -0.0054914122 0.03127047 -0.011505729 0.05066686 0.018936753 -0.036630217 -0.11885162
0.05482267 0.1335954 0.21617788 0.13516827 -0.07253161 -0.08497335 0.035575103 0.16091304
0.02925052 -0.005317632 -0.017083516 0.03537481 0.04779369 0.05385531 0.21260792 0.089646526
-0.054455966 -0.035750784 -0.1279591 -0.25608385 -0.15980066 -0.02864763 0.09375234 -0.013884744
0.0028594513 -0.0017916545 -0.15532431 0.13435492 0.047847424 -0.036189526 0.014646689 0.16422617
-0.031491175 0.026967699 0.040120777 0.11850016 0.05336431 -0.060353246 0.023580465 0.114285365
0.019411916 0.056444716 0.06322908 0.114338025 0.039648645 -0.13270345 0.038156874 -0.1459468
-0.02109752 0.054800447 0.015137784 -0.09409919 0.047375 -0.087702684 -0.032138035 -0.08966646
-0.018879881 -0.10020385 0.061341822 0.031357158 0.07732102 0.077674076 -0.06768709 0.021148006
-0.11290646 -0.04358893 -0.010880428 -0.036323167 0.04110701 -0.12765497 0.0035963862 -0.055547915
0.00084495725 -0.11077215 0.06763162 -0.120013356 0.008336441 0.06552637 -0.10243241 -0.14746137
0.0136017045 0.0321378 -0.073763065 -0.008914205 -0.06754955 -0.026639825 -0.09916438 -0.07208665
-0.07442691 -0.062246047 -0.068711646 -0.07407711 0.033209816 -0.10927093 -0.07328886 0.03572963
0.03948806 0.046652135 0.048100382 -0.050555445 -0.01553729 -0.069066405 0.122453816 0.07415363
-0.03976655 0.020017471 0.030612532 -0.022101074 0.04531525 0.040360227 0.08600952 -0.08014535
0.030621681 0.04576077 -0.0075810337 0.0881889 0.048615217 -0.08327343 0.081381395 0.06268383
-0.03555212 -0.06421138 -0.07736634 0.005971625 0.064342536 -0.022207703 -0.0071528256 -0.026342798
-0.013577621 -0.03563933 0.111241676 -0.092058696 0.076708786 -0.109827876 -0.030088518 -0.0262117
0.095319994 0.013410948 -0.13274603 0.12238896 0.06195738 0.07765688 -0.14185621 0.099749826
-0.00032907655 -0.081951365 0.06513014 -0.017612666 0.03847835 0.046808753 0.0640459 0.101432756
-0.058690023 0.14287579 -0.045585543 0.07967142 -0.04407051 -0.05014797 0.038297668 -0.037233245
-0.014292656 0.023352865 -0.10002788 -0.11522509 -0.08560981 -0.0034801469 0.041547798 0.21158618
-0.09385784 0.015650826 0.011950538 0.12209264 -0.08593828 -0.050492615 -0.010991396 -0.0052675987
0.08711841 0.07942653 0.010279438 -0.020385858 0.06517336 0.011593148 -0.0946246 0.038732316
-0.03950334 -0.07322887 0.044976953 -0.061646853 -0.15305604 0.09565482 -0.006041151 -0.041277066
00000000: 57c1 6e3d 2209 583d 7260 c03d 6a26 02be
00000010: 6301 d9bc cb6c c23d b4f2 e5bd e805 a53d
00000020: 7345 abbc 87ae 293d a320 53bd dce9 cbbd
00000030: b338 4dbd d803 dc3d dc46 703d 4bee cb3d
00000040: 5c8e 393d 32af eabc 2503 0c3e 599e 58bd
00000050: c78a c03d 1838 df3c dbf7 4e3d a629 cebc
00000060: f088 003d d98d d63d 799a 17bd dbc8 133d
00000070: 856f a2bb 5226 723d 579e 773b eb5e 993d
00000080: 6b5f c73d 0884 36bb 428f 27bd 4c21 eabd
00000090: 733c ea3d 7764 0fbd 03c0 043d ea48 7bbd
000000a0: 8b48 d73b 15a1 7dbc 5adb 953d 4270 5f3d
000000b0: 894e 263d 6adf abba cc7a 10be a319 55bd
000000c0: 8ae9 20be b30d dabd e943 2c3e 9d1c d8bc
000000d0: 3dac 263d 54d0 d13b 79bb 993d e9c9 86bd
000000e0: 03e8 c73b 4ef1 b3bb 7715 003d 8682 3cbc
000000f0: 0e88 4f3d 4021 9b3c 9109 16bd 7a68 f3bd
00000100: bc8d 603d 3ccd 083e bc5d 5d3e 8d69 0a3e
00000110: 748b 94bd 8206 aebd 33b7 113d 63c6 243e
00000120: c99e ef3c 883f aebb bbf2 8bbc 2de5 103d
00000130: 51c3 433d 6397 5c3d e4b5 593e 9998 b73d
00000140: 380d 5fbd 6a6f 12bd b607 03be 6c1d 83be
00000150: c9a2 23be 6fae eabc 3a01 c03d d67c 63bc
00000160: a265 3b3b f3d5 eaba 560d 1fbe 5694 093e
00000170: a9fb 433d 783b 14bd abf8 6f3c e82a 283e
00000180: e4fc 00bd 5deb dc3c af55 243d 36b0 f23d
00000190: 8994 5a3d f734 77bd d22b c13c 720e ea3d
000001a0: bd05 9f3c 9332 673d 3f7e 813d 0e2a ea3d
000001b0: 9e66 223d 6ae3 07be 624a 1c3d 1473 15be
000001c0: b5d4 acbc 6f76 603d 7804 783c 13b7 c0bd
000001d0: 4a0c 423d 779d b3bd 2ca3 03bd 0da3 b7bd
000001e0: fba9 9abc ad37 cdbd 9041 7b3d 5d70 003d
000001f0: 7c5a 9e3d 9613 9f3d 879f 8abd 953e ad3c
00000200: 813b e7bd 4e8a 32bd d343 32bc 9ac7 14bd
00000210: d35f 283d fcb7 02be 59b1 6b3b 3686 63bd
00000220: 1f80 5d3a 82dc e2bd 7282 8a3d 90c9 f5bd
00000230: 9195 083c b132 863d 15c8 d1bd 1d00 17be
00000240: afd9 5e3c eda2 033d 1711 97bd e30c 12bc
00000250: 6b57 8abd c33b dabc b216 cbbd 2aa2 93bd
00000260: 236d 98bd b6f5 7ebd b1b8 8cbd bdb5 97bd
00000270: 0407 083d 70c9 dfbd 7818 96bd 3c59 123d
00000280: 3bbe 213d 4f16 3f3d e804 453d 3a13 4fbd
00000290: 1e90 7ebc b072 8dbd 11c9 fa3d dcdd 973d
000002a0: 40e2 22bd aefb a33c 22c7 fa3c 500d b5bc
000002b0: 7c9c 393d c450 253d c225 b03d 3f23 a4bd
000002c0: 52da fa3c a56f 3b3d 526a f8bb 629c b43d
000002d0: c020 473d 438b aabd 4aab a63d 6160 803d
000002e0: 1a9f 11bd 4281 83bd 3e72 9ebd 9fad c33b
000002f0: 05c6 833d eeec b5bc 4062 eabb dacc d7bc
00000300: ac74 5ebc 8cfa 11bd add2 e33d 4589 bcbd
00000310: 7f19 9d3d 70ed e0bd 327c f6bc ebb9 d6bc
00000320: 2137 c33d 98b9 5b3c 93ee 07be 10a7 fa3d
00000330: 06c7 7d3d 920a 9f3d c142 11be a349 cc3d
00000340: e887 acb9 1ed6 a7bd f362 853d 7048 90bc
00000350: 799b 1d3d 89ba 3f3d 7f2a 833d fabb cf3d
00000360: f364 70bd 084e 123e e8b7 3abd c52a a33d
00000370: 4783 34bd f567 4dbd 04de 1c3d e381 18bd
00000380: bf2b 6abc 824e bf3c 6bdb ccbd 22fb ebbd
00000390: 3254 afbd 2d13 64bb 062e 2a3d 0caa 583e
000003a0: 8a38 c0bd 2936 803c 30cc 433c b50b fa3d
000003b0: 6900 b0bd 58d1 4ebd 4215 34bc d29b acbb
000003c0: 236b b23d 60aa a23d 176b 283c 3e00 a7bc
000003d0: 9c79 853d 30f1 3d3c 8bca c1bd c7a5 1e3d
000003e0: 41ce 21bd 05f9 95bd c139 383d 6981 7cbd
000003f0: b9ba 1cbe ade6 c33d d9f4 c5bb 2412 29bd

net.4.module.0.bias f4 [32]
0.05698675 -0.021531556 0.07345981 0.09482711 0.04942766 -0.01694162 0.048354544 0.07275712
0.09894263 0.051366683 0.0941528 -0.048333924 0.031417236 -0.035478476 -0.041357562 -0.086788304
-0.07110382 0.0043337774 0.058141477 -0.09378934 -0.026684111 -0.011371799 -0.06944924 0.100322425
-0.08409849 -0.054097857 0.04999018 -0.0070035527 -0.075537704 0.060295478 0.07908448 -0.029947788
00000000: f06a 693d f262 b0bc 1972 963d b734 c23d
00000010: a874 4a3d 27c9 8abc 6a0f 463d af01 953d
00000020: 6fa2 ca3d df65 523d 2fd3 c03d cbf9 45bd
00000030: 5caf 003d e151 11bd 8c66 29bd 11be b1bd
00000040: e19e 91bd 5c02 8e3b c225 6e3d a014 c0bd
00000050: a398 dabc c850 3abc 673b 8ebd d875 cd3d
00000060: d43b acbd b795 5dbd 81c2 4c3d 0f7e e5bb
00000070: 83b3 9abd 64f8 763d 0bf7 a13d 1055 f5bc

net.5.weight f4 [48, 32, 3]
0.014846182 -0.028017916 0.17020655 -0.09115309 -0.10086358 0.027744994 -0.12126857 -0.09284134
0.044429313 -0.05135222 0.0016184996 0.03126127 -0.010221775 -0.041535936 0.023608383 -0.0051642563
-0.1446147 0.035223257 -0.0422867 -0.016531426 -0.07537514 0.08576691 -0.03332365 -0.115311824
-0.031125968 0.08870388 -0.059550516 0.088162675 0.022907156 -0.07198241 0.078696966 0.0034004024
-0.10966226 -0.017635424 -0.0050341873 0.019542571 -0.00899685 -0.091066584 0.009398726 -0.01959736
0.10003923 -0.12389021 -0.05235898 0.056689166 0.037230052 -0.104601644 -0.09926921 -0.02426715
-0.07808275 0.07219473 -0.036631085 0.08052577 -0.09761251 0.025858153 -0.05733138 0.06531429
-0.0030524784 0.06971227 0.010475877 -0.009782054 -0.094232485 -0.023668334 0.02904433 -0.0155033795
0.13460359 -0.12691016 -0.049131583 -0.0022052855 0.058570936 0.09414986 -0.13089766 0.081583
-0.031309042 0.01080295 0.083537094 -0.019624172 0.07058523 0.1216527 0.03939634 -0.055533234
0.01157349 -0.05169937 0.11084508 0.088838406 0.09688257 -0.15304454 0.087119624 0.077888526
0.085418016 0.065174654 0.021957746 0.04419458 0.092571914 0.10803744 0.03988142 -0.07796434
0.106177576 -0.02422385 -0.093496345 -0.010370766 0.06186148 -0.09025013 -0.058732733 0.08757302
-0.05520927 -0.05492502 -0.034042764 0.0016465286 -0.062733896 0.05728076 -0.009761757 -0.017980967
0.026330017 -0.05974108 -0.07405304 -0.0055077747 0.09948661 -0.075678155 -0.08749813 -0.035074003
-0.042658016 0.10447533 -0.06611234 -0.017513655 0.046131242 -0.03544473 0.049041368 -0.0772392
-0.07397642 -0.021765659 0.0449466 -0.12886035 0.012480891 -0.06641672 0.009701001 -0.09375564
-0.03694635 0.14352043 -0.13415462 -0.09384669 0.037781287 -0.06591597 -0.061674856 0.040593006
0.005987773 -0.06540739 0.0033777428 0.056030847 0.052729882 -0.084522456 0.018016456 0.017081246
0.089900784 0.0444311 -0.100735046 0.12280671 0.09736661 -0.06799693 0.05442411 -0.035626844
-0.06374718 0.040402595 -0.019090138 -0.04159326 0.06889689 0.09469844 0.031322524 0.040077318
0.04484336 0.06115739 0.09188727 -0.015065932 0.08230898 -0.0018826126 -0.10383004 0.029125122
-0.08199454 -0.09710098 0.0359871 -0.13809018 -0.022443341 -0.0773513 -0.050568055 -0.105213836
-0.07958552 0.07546876 0.060464274 -0.025910124 0.14262779 0.10686212 0.015242252 0.08732487
0.04777442 -0.05430457 0.06836586 0.13350011 -0.0016274109 -0.023098322 0.04405794 0.006992388
-0.120785445 0.084401034 0.036855675 -0.0019733817 0.0760336 -0.07190968 -0.0920612 0.012667357
0.027417827 -0.05437804 -0.020997137 0.033885397 -0.05465999 -0.021644382 0.002471173 0.093129784
-0.09007549 0.0028881968 0.08199129 -0.110778496 -0.047751445 0.12261164 0.064555645 0.08794786
-0.0094730435 -0.011425672 0.08054754 -0.06335452 -0.02619568 0.03588874 -0.07237005 -0.066689536
-0.01166396 -0.02695413 0.059109118 0.01274508 0.06872087 0.07693118 0.05433123 -0.06031491
0.01747646 -0.08478032 0.083416976 0.09065045 0.03607854 0.07976976 -0.050582238 0.015152299
-0.09791213 0.09485366 -0.023246974 -0.02834308 -0.09972071 0.03807843 0.050623816 0.06644951
00000000: 673d 733c d485 e5bc a04a 2e3e 79ae babd
00000010: 9191 cebd 7849 e33c a85b f8bd 9a23 bebd
00000020: 83fb 353d b556 52bd d623 d43a d10b 003d
00000030: 3b79 27bc 9621 2abd 5e66 c13c ec38 a9bb
00000040: e015 14be 4346 103d d234 2dbd ea6c 87bc
00000050: 485e 9abd 90a6 af3d 617e 08bd 9b28 ecbd
00000060: e3fb febc 61aa b53d 3eeb 73bd a28e b43d
00000070: caa7 bb3c 846b 93bd e02b a13d 49d9 5e3b
00000080: 9b96 e0bd 2a78 90bc d3f5 a4bb be17 a03c
00000090: 8667 13bc 1e81 babd 1dfd 193c a58a a0bc
000000a0: 5ee1 cc3d 27ba fdbd 5f76 56bd e632 683d
000000b0: 8a7e 183d 6339 d6bd a84d cbbd e7cb c6bc
000000c0: d9e9 9fbd d5da 933d 7a0a 16bd b2ea a43d
000000d0: 11e9 c7bd 7ad4 d33c 4fd4 6abd 80c3 853d
000000e0: 170c 48bb 4ec5 8e3d 03a3 2b3c e944 20bc
000000f0: f6fc c0bd 18e4 c1bc 60ee ed3c e301 7ebc
00000100: 86d5 093e bdf4 01be 333e 49bd 8d86 10bb
00000110: 14e8 6f3d a4d1 c03d 090a 06be fd14 a73d
00000120: e93d 00bd dbfe 303c 7f15 ab3d dfc2 a0bc
00000130: fd8e 903d 0d25 f93d 0e5e 213d d176 63bd
00000140: bc9e 3d3c b8c2 53bd bf02 e33d e9f0 b53d
00000150: 5e6a c63d b5b7 1cbe c66b b23d 0584 9f3d
00000160: a4ef ae3d 4a7a 853d bbe0 b33c 6005 353d
00000170: 5896 bd3d bc42 dd3d b35a 233d c5ab 9fbd
00000180: a173 d93d 1871 c6bc 037b bfbd 25ea 29bc
00000190: 7762 7d3d 0fd5 b8bd bc91 70bd 7c59 b33d
000001a0: 1e23 62bd 0ff9 60bd 6d70 0bbd 55d0 d73a
000001b0: a17a 80bd 3b9f 6a3d c7ef 1fbc d24c 93bc
000001c0: 0cb2 d73c 10b3 74bd 1fa9 97bd 907a b4bb
000001d0: a3bf cb3d 26fd 9abd 3832 b3bd c2a9 0fbd
000001e0: 2cba 2ebd 29f7 d53d e865 87bd cc78 8fbc
000001f0: 1df4 3c3d 7e2e 11bd 9adf 483d 962f 9ebd
00000200: f380 97bd e54d b2bc ed19 383d f8f3 03be
00000210: a77c 4c3c 7d05 88bd f3f0 1e3c f502 c0bd
00000220: 0e55 17bd 05f7 123e d45f 09be b232 c0bd
00000230: 8dc0 1a3d f4fe 86bd c69e 7cbd da44 263d
00000240: 1535 c43b 4ff4 85bd 1f5d 5d3b 9a80 653d
00000250: 4afb 573d 1c1a adbd 3f97 933c f8ed 8b3c
00000260: e71d b83d 63fd 353d 2d4e cebd 1682 fb3d
00000270: 2568 c73d f941 8bbd d1eb 5e3d 74ed 11bd
00000280: e28d 82bd 317d 253d ec62 9cbc b25d 2abd
00000290: d019 8d3d 41f1 c13d 0c4c 003d 1d28 243d
000002a0: acad 373d 2c80 7a3d 652f bc3d 19d7 76bc
000002b0: 9c91 a83d ffc1 f6ba d8a4 d4bd cf97 ee3c
000002c0: c1ec a7bd e1dc c6bd 3667 133d 8367 0dbe
000002d0: 19db b7bc 5c6a 9ebd 7320 4fbd 5a7a d7bd
000002e0: bcfd a2bd 5e8f 9a3d 63a9 773d 7841 d4bc
000002f0: 050d 123e 87da da3d a3ba 793c 62d7 b23d
00000300: 1caf 433d 786e 5ebd 6603 8c3d 41b4 083e
00000310: d94e d5ba b138 bdbc 1976 343d 6720 e53b
00000320: 5c5e f7bd 73da ac3d faf5 163d da53 01bb
00000330: 81b7 9b3d 6245 93bd 958a bcbd bf8a 4f3c
00000340: 5a9b e03c 82bb 5ebd 3002 acbc 6acb 0a3d
00000350: 27e3 5fbd 8f4f b1bc 67f3 213b d4ba be3d
00000360: 8079 b8bd e747 3d3b 0deb a73d d6df e2bd
00000370: 0597 43bd d01b fb3d c035 843d 021e b43d
00000380: d334 1bbc be32 3bbc 1cf6 a43d 04c0 81bd
00000390: 5398 d6bc 1200 133d c036 94bd 8694 88bd
000003a0: 321a 3fbc e8ce dcbc 671c 723d bdd0 503c
000003b0: 87bd 8c3d 188e 9d3d 6d8a 5e3d c40c 77bd
000003c0: cb2a 8f3c 4ea1 adbd 85d6 aa3d f1a6 b93d
000003d0: 17c7 133d 545e a33d 522f 4fbd 5941 783c
000003e0: 2886 c8bd a342 c23d 7070 bebc bf2f e8bc
000003f0: 5f3a ccbd 21f8 1b3d eb5a 4f3d ae16 883d

net.5.bias f4 [48]
-0.018243728 -0.05604222 -0.069507465 0.02118945 -0.0773177 -0.05439826 -0.058531903 0.06480264
-0.053474396 -0.042365354 -0.055326484 -0.02066803 -0.06797678 0.058221534 -0.014337621 -0.019031053
-0.043862637 -0.043119736 -0.07165232 -0.014895513 0.0499269 -0.014023986 0.05825312 -0.0573139
-0.026180124 0.0105067715 0.049229324 0.021819573 -0.077171065 0.07660281 0.02278234 0.0516767
-0.055239744 -0.013920262 -0.042611863 0.042511318 -0.03529744 0.082722366 0.059513595 0.049086075
-0.0049340487 -0.061062273 -0.0174027 -0.025131151 0.019110294 0.08713991 0.06914789 -0.02857488
00000000: df73 95bc 878c 65bd ee59 8ebd 7f95 ad3c
00000010: be58 9ebd b6d0 5ebd 26bf 6fbd 3fb7 843d
00000020: f807 5bbd 4b87 2dbd 069e 62bd 0050 a9bc
00000030: 6937 8bbd b479 6e3d 57e8 6abc 03e7 9bbc
00000040: 4fa9 33bd 529e 30bd 74be 92bd 4f0c 74bc
00000050: 2680 4c3d dcc4 65bc d39a 6e3d fbc1 6abd
00000060: b377 d6bc 9824 2c3c b0a4 493d f6be b23c
00000070: dd0b 9ebd efe1 9c3d 08a2 ba3c f3aa 533d
00000080: 1243 62bd d011 64bc c789 2ebd 5920 2e3d
00000090: 0c94 10bd 586a a93d 87c4 733d 7b0e 493d
000000a0: cdad a1bb 6f1c 7abd 1b90 8ebc d8df cdbc
000000b0: 318d 9c3c 6976 b23d 699d 8d3d de15 eabc

exp_avg f4 [32, 191, 2]
-0.0058088554 -0.006940609 -0.008279192 -0.012053315 -0.03946429 -0.010217471 0.07975678 0.10533727
0.031051995 0.034734458 -0.03890772 -0.07538549 -0.0960355 -0.11180828 0.091453336 0.12689205
-0.041878704 -0.011468637 -0.0930182 -0.09094125 -0.059867356 -0.0981797 0.026302028 0.0231049
-0.035976227 -0.017368142 0.1672095 0.17975108 0.024817098 0.012723026 0.118359014 0.14250474
-0.042975485 -0.06411869 -0.03463529 -0.018831037 0.027189197 0.078163095 -0.010419041 0.002314405
0.045768425 0.016002728 -0.0044590626 -0.012077089 0.04610442 0.031478625 -0.04766648 -0.048104145
-0.014694337 0.031473875 -0.06260373 -0.06383541 -0.039828815 -0.05090978 -0.10562745 -0.07796002
-0.019309008 -0.029178614 -0.044509795 -0.020934556 0.016791679 0.054386623 -0.011180997 0.058003444
0.0135871265 0.07368569 0.089418024 0.07383015 0.02613082 0.04174552 0.08252094 0.093705356
-0.024502583 0.046988945 0.076188505 0.0673895 0.10605135 0.11284202 -0.03519813 0.01256402
0.16307244 0.11572419 0.08493661 0.08727931 0.15838403 0.24883378 0.064221926 0.18212675
-0.040447205 -0.08075149 0.071392216 0.120964 -0.010605997 -0.019287065 0.08456869 0.06277794
0.05463596 0.06104489 0.01567184 0.06081626 0.04567457 0.040121403 0.0153453015 -0.019870821
0.07672557 0.0702186 -0.027601348 0.0060811923 -0.021897614 0.032643516 -0.12137657 -0.08702665
0.020136394 0.04848032 0.010791305 0.019253066 -0.07157586 -0.062104438 -0.09296688 -0.08585659
-0.11634281 -0.044835642 -0.03085755 -0.05077157 -0.018145949 -0.033037506 -0.08868395 -0.07472921
0.08645376 0.13553914 0.13198094 0.18824269 -0.028545706 -0.021719083 0.044562057 0.10848665
-0.05361412 0.023256227 0.051046796 0.02282896 0.0123110125 0.022698004 0.09835158 0.10768339
0.05859061 0.11491026 0.03159947 0.03610612 0.04794179 0.061223134 0.021756306 0.051144768
0.07870755 0.1166595 -0.015490171 -0.00070167804 -0.05200782 -0.015868545 -0.0392569 -0.007654121
0.08998811 0.13633627 -0.012442884 0.024496585 -0.0038224896 0.007545847 0.07048079 0.15013698
-0.026747389 0.0032880574 -0.08570777 -0.07074745 0.041096803 0.070971854 -0.037870597 -0.009508113
0.012686129 0.018166466 -0.03494858 -0.0030972573 -0.04922791 -0.03764685 -0.019967599 -0.090978965
-0.006081046 -0.005262243 0.009057664 0.056274936 0.057482887 0.03039521 -0.027266981 -0.008190682
0.0053892066 0.00072603644 0.025281418 0.0284951 0.042689096 0.10416526 -0.06634974 -0.030348605
0.055282425 0.05890284 0.12545864 0.106392905 0.06769476 0.11324726 -0.010600958 -0.013312404
-0.04580544 0.016665086 -0.025701841 0.027504949 -0.016520761 0.0710849 0.04206769 0.08848515
-0.075597204 -0.030089997 0.025393002 0.059929162 0.02847126 0.063196234 0.027315015 0.052311283
-0.04550517 0.005101307 0.04560186 0.04004681 0.11508327 0.09344957 -0.015402051 0.05248347
0.054516975 0.0851841 0.06899877 0.10097519 0.046784393 0.092494376 -0.0115025705 0.02202223
-0.07825602 -0.102871686 0.008198981 0.031534217 0.042297862 0.085103385 0.0140684005 0.100544184
-0.011919189 0.025012132 0.121919654 0.22831291 0.0010526596 0.06478362 0.06645094 0.003014932
00000000: 3658 bebb 0c6e e3bb 73a5 07bc 447b 45bc
00000010: 4fa5 21bd 2e67 27bc 8657 a33d 11bb d73d
00000020: c160 fe3c b845 0e3d b45d 1fbd b563 9abd
00000030: 43ae c4bd bdfb e4bd e34b bb3d fdef 013e
00000040: 0189 2bbd f3e6 3bbc 5380 bebd 683f babd
00000050: 7937 75bd 7012 c9bd 5a77 d73c 7d46 bd3c
00000060: cf5b 13bd a247 8ebc f838 2b3e ab10 383e
00000070: 3a4d cb3c 3d74 503c 3666 f23d c3ec 113e
00000080: 1007 30bd a950 83bd bcdd 0dbd 8c43 9abc
00000090: e1bb de3c f913 a03d a0b4 2abc 46ad 173b
000000a0: ac77 3b3d 2718 833c 541d 92bb fcde 45bc
000000b0: fdd7 3c3d bbef 003d ed3d 43bd da08 45bd
000000c0: 84c0 70bc c0ea 003d 6236 80bd 24bc 82bd
000000d0: 8a23 23bd c686 50bd 3453 d8bd 81a9 9fbd
000000e0: ed2d 9ebc fd07 efbc e74f 36bd f27e abbc
000000f0: b48e 893c 82c4 5e3d 8030 37bc 0595 6d3d
00000100: 8a9c 5e3c 86e8 963d cc20 b73d 4334 973d
00000110: 4d10 d63c 5afd 2a3d bd00 a93d 98e8 bf3d
00000120: a4b9 c8bc 7b77 403d b808 9c3d 8203 8a3d
00000130: 7331 d93d b819 e73d ea2b 10bd 52d9 4d3c
00000140: 76fc 263e ce00 ed3d 3ff3 ad3d 7fbf b23d
00000150: 6c2f 223e 48ce 7e3e c986 833d 6f7f 3a3e
00000160: f8ab 25bd 0a61 a5bd 1536 923d f9bb f73d
00000170: c7c4 2dbc e8ff 9dbc 5932 ad3d b891 803d
00000180: f5c9 5f3d 350a 7a3d 3b62 803c 781a 793d
00000190: 4215 3b3d 5756 243d dc6a 7b3c 22c8 a2bc
000001a0: 4c22 9d3d c5ce 8f3d 391c e2bc bd44 c73b
000001b0: a062 b3bc 35b5 053d 4794 f8bd 073b b2bd
000001c0: 14f5 a43c 4d93 463d 04ce 303c 9bb8 9d3c
000001d0: 5d96 92bd 3961 7ebd 6b65 bebd 94d5 afbd
000001e0: 2445 eebd 94a5 37bd f9c8 fcbc daf5 4fbd
000001f0: d0a6 94bc 5652 07bd ee9f b5bd a10b 99bd
00000200: ab0e b13d c6ca 0a3e 0326 073e b1c2 403e
00000210: afd8 e9bc 38ec b1bc b486 363d 402e de3d
00000220: 7b9a 5bbd d883 be3c 7216 513d cd03 bb3c
00000230: 21b4 493c 2af1 b93c 8e6c c93d 1c89 dc3d
00000240: b5fc 6f3d 1256 eb3d 726e 013d 03e4 133d
00000250: 9c5e 443d 1cc5 7a3d 483a b23c 2d7d 513d
00000260: 6d31 a13d 2deb ee3d 7cca 7dbc d1f0 37ba
00000270: 2706 55bd c0fe 81bc d8cb 20bd 6ccf fabb
00000280: b04b b83d bc9b 0b3e 3ddd 4bbc 10ad c83c
00000290: bc82 7abb 2743 f73b 3c58 903d 82bd 193e
000002a0: 571d dbbc 737c 573b 8e87 afbd 0ae4 90bd
000002b0: 1f55 283d b159 913d 331e 1bbd ebc7 1bbc
000002c0: 7bd9 4f3c d7d1 943c 3e26 0fbd 5bfb 4abb
000002d0: 34a3 49bd 9533 1abd 1793 a3bc 2e53 babd
000002e0: 8343 c7bb e56e acbb 9966 143c 8c80 663d
000002f0: 2d73 6b3d 60ff f83c 015f dfbc 3632 06bc
00000300: f197 b03b 7b53 3e3a fa1a cf3c 8e6e e93c
00000310: c3da 2e3d 9954 d53d 5fe2 87bd a39d f8bc
00000320: d36f 623d 1b44 713d 3b78 003e 86e4 d93d
00000330: 8da3 8a3d 2eee e73d a4af 2dbc 451c 5abc
00000340: 7c9e 3bbd 3885 883c ab8c d2bc 0f52 e13c
00000350: 8c56 87bc f694 913d 2c4f 2c3d b437 b53d
00000360: b5d2 9abd 4c7f f6bc fc04 d03c 4878 753d
00000370: 8f3c e93c 076d 813d bdc3 df3c 5b44 563d
00000380: a163 3abd dd28 a73b 04c9 3a3d 2008 243d
00000390: c7b0 eb3d 7d62 bf3d e258 7cbc e8f8 563d
000003a0: 314d 5f3d 0075 ae3d 3a4f 8d3d 15cc ce3d
000003b0: fea0 3f3d b16d bd3d 4775 3cbc f767 b43c
000003c0: b144 a0bd 64ae d2bd 0555 063c 062a 013d
000003d0: 8640 2d3d af4a ae3d 267f 663c 1cea cd3d
000003e0: b448 43bc 3ee6 cc3c 03b1 f93d dcca 693e
000003f0: 65f9 893a 46ad 843d 6e17 883d 2a96 453b

exp_avg_sq f4 [32, 191, 2]
0.0075799245 0.007812239 0.19945288 0.19192038 0.15808299 0.1389306 0.21575294 0.22006835
0.19378561 0.17828509 0.07659027 0.079487294 0.11528491 0.11295753 0.13921283 0.1421739
0.09232657 0.09376084 0.12634286 0.13128239 0.17223646 0.17472737 0.28017068 0.25361204
0.10027577 0.10273715 0.16270097 0.15949279 0.166798 0.17352583 0.31241536 0.28039563
0.030618483 0.031088026 0.12783629 0.13679709 0.1353466 0.14181381 0.13344243 0.1281134
0.06445083 0.059916455 0.20462137 0.1906034 0.15620114 0.15004416 0.08640152 0.097956896
0.2124255 0.22289807 0.08458309 0.09052009 0.11968092 0.10402292 0.1567744 0.16010575
0.14295647 0.13447255 0.07996663 0.07993005 0.14718822 0.16719085 0.24288452 0.21830216
0.12460652 0.123252384 0.1497784 0.14059187 0.07317753 0.07689606 0.16159049 0.1530202
0.14943182 0.1538609 0.16495226 0.15981562 0.17562383 0.16290095 0.1357208 0.13629955
0.15803611 0.16105065 0.12426031 0.12491477 0.15502973 0.14885545 0.15127791 0.15165478
0.15209322 0.13804317 0.15188643 0.14567071 0.24210791 0.24169682 0.28444922 0.27184242
0.07553099 0.07338463 0.1388875 0.14357205 0.18818413 0.19617803 0.14080209 0.12995732
0.2658268 0.24661347 0.10168484 0.10605931 0.110432014 0.11860332 0.131473 0.12718269
0.161939 0.16483574 0.17354321 0.15985872 0.20034361 0.18262304 0.20194821 0.21565911
0.15485765 0.16070236 0.11264142 0.115575574 0.10168475 0.095274985 0.22945105 0.23780212
0.15224028 0.15008236 0.23863752 0.24930356 0.26185587 0.24432793 0.16146822 0.16168672
0.20145223 0.19895968 0.21806046 0.20740265 0.2154207 0.19421005 0.13603503 0.1264583
0.08863547 0.08823476 0.09568209 0.09225002 0.20160204 0.18988286 0.18117818 0.18656687
0.16398266 0.1563678 0.18995191 0.1869692 0.19286561 0.20059161 0.1454886 0.13781388
0.16140267 0.1495143 0.13413104 0.13007422 0.13499998 0.13293481 0.23345122 0.22657733
0.08407438 0.08674845 0.16744274 0.17003319 0.16785827 0.16870213 0.15116987 0.15569034
0.2000592 0.20925513 0.114119135 0.11016137 0.122098 0.13458799 0.25623304 0.23530997
0.1008225 0.10146834 0.068131916 0.07049516 0.10058182 0.08609537 0.12756592 0.16389519
0.22965294 0.23092245 0.24048196 0.2367185 0.23808214 0.21942009 0.1336752 0.13915698
0.19648515 0.18206555 0.31856728 0.3248838 0.2614311 0.25905123 0.29444373 0.2803705
0.16446963 0.16515154 0.17150468 0.15857469 0.2419489 0.2518283 0.28612515 0.28496405
0.17886077 0.18367554 0.20416266 0.18288852 0.11892638 0.11827155 0.14343107 0.14168501
0.24847654 0.19942392 0.26422918 0.23410583 0.1787352 0.17277953 0.2462058 0.2011935
0.2052631 0.19415753 0.42696872 0.41024515 0.23955153 0.22385366 0.17548391 0.17674117
0.24771807 0.20956014 0.26055777 0.26126158 0.17117335 0.1637563 0.25225163 0.1962029
0.09390225 0.09433074 0.19091977 0.15609697 0.19363117 0.17239867 0.1019496 0.10896776
00000000: 0461 f83b d0fd ff3b 603d 4c3e c786 443e
00000010: 82e0 213e d343 0e3e 57ee 5c3e 9959 613e
00000020: bc6f 463e 5e90 363e 5cdb 9c3d 3cca a23d
00000030: 7f1a ec3d 4756 e73d cf8d 0e3e 0996 113e
00000040: b615 bd3d af05 c03d 0660 013e e46e 063e
00000050: c15e 303e bbeb 323e 8872 8f3e 70d9 813e
00000060: 625d cd3d db67 d23d 159b 263e 1452 233e
00000070: 18cd 2a3e c1b0 313e e8f4 9f3e 0490 8f3e
00000080: 9dd3 fa3c 51ac fe3c 84e7 023e 8914 0c3e
00000090: 4d98 0a3e a437 113e 22a5 083e 2930 033e
000000a0: ccfe 833d f56a 753d 4488 513e 8a2d 433e
000000b0: 31f3 1f3e 2da5 193e 48f3 b03d a09d c83d
000000c0: 1286 593e 643f 643e e639 ad3d 9962 b93d
000000d0: 451b f53d f809 d53d 7889 203e c3f2 233e
000000e0: 2e63 123e 2cb3 093e 8bc5 a33d 5eb2 a33d
000000f0: 82b8 163e 1434 2b3e b8b6 783e 9a8a 5f3e
00000100: b431 ff3d bf6b fc3d 825f 193e 51f7 0f3e
00000110: 1ade 953d ae7b 9d3d fa77 253e 54b1 1c3e
00000120: a804 193e b68d 1d3e 3fe9 283e b5a6 233e
00000130: bcd6 333e 82cf 263e 65fa 0a3e 1c92 0b3e
00000140: 38d4 213e 76ea 243e 307c fe3d 51d3 ff3d
00000150: 1dc0 1e3e 906d 183e 99e8 1a3e 644b 1b3e
00000160: 53be 1b3e 305b 0d3e 1e88 1b3e b42a 153e
00000170: 23eb 773e 5f7f 773e 54a3 913e ee2e 8b3e
00000180: feaf 9a3d ae4a 963d 8638 0e3e 8d04 133e
00000190: 57b3 403e e5e2 483e 6c2e 103e 8813 053e
000001a0: 731a 883e 3e88 7c3e 2440 d03d a035 d93d
000001b0: 2e2a e23d 4ce6 f23d dca0 063e 2e3c 023e
000001c0: 56d3 253e b3ca 283e 50b5 313e 01b2 233e
000001d0: e026 4d3e 8901 3b3e 83cb 4e3e bed5 5c3e
000001e0: 0193 1e3e 298f 243e 8bb0 e63d e3b2 ec3d
000001f0: 1840 d03d 881f c33d 37f5 6a3e 6682 733e
00000200: e0e4 1b3e 31af 193e 655d 743e 6f49 7f3e
00000210: f911 863e 1a31 7a3e ed57 253e 3491 253e
00000220: 7e49 4e3e 16bc 4b3e 3e4b 5f3e 5c61 543e
00000230: 3e97 5c3e 00df 463e c44c 0b3e 497e 013e
00000240: 8386 b53d 6db4 b43d f9f4 c33d 94ed bc3d
00000250: c470 4e3e a770 423e c686 393e 630b 3f3e
00000260: 12eb 273e e11e 203e c182 423e db74 3f3e
00000270: 907e 453e e367 4d3e f7fa 143e 151f 0d3e
00000280: be46 253e 471a 193e a659 093e 2d32 053e
00000290: 6f3d 0a3e 1020 083e d60d 6f3e e303 683e
000002a0: 302f ac3d 2ca9 b13d 1c76 2b3e 2e1d 2e3e
000002b0: 0ae3 2b3e 40c0 2c3e 46cc 1a3e 4a6d 1f3e
000002c0: 52dc 4c3e fa46 563e 4bb7 e93d 499c e13d
000002d0: 840e fa3d 6fd1 093e fa30 833e 19f5 703e
000002e0: 077c ce3d a2ce cf3d bf88 8b3d c45f 903d
000002f0: d7fd cd3d c552 b03d a4a0 023e 24d4 273e
00000300: 242a 6b3e ef76 6c3e e740 763e 5666 723e
00000310: cecb 733e a9af 603e 27e2 083e 2b7f 0e3e
00000320: 6733 493e 646f 3a3e 401b a33e 2b57 a63e
00000330: 4cda 853e 5da2 843e 54c1 963e b98c 8f3e
00000340: ba6a 283e 7c1d 293e ec9e 2f3e 6761 223e
00000350: 74c1 773e a4ef 803e ff7e 923e cfe6 913e
00000360: 4727 373e 7115 3c3e 0410 513e 2147 3b3e
00000370: ad8f f33d 5b38 f23d 98df 123e e015 113e
00000380: a270 7e3e c935 4c3e 0c49 873e 70b9 6f3e
00000390: 5c06 373e 1eed 303e 601d 7c3e ab05 4e3e
000003a0: 7d30 523e 3bd1 463e a59b da3e a70b d23e
000003b0: ff4c 753e e539 653e 0eb2 333e a3fb 343e
000003c0: cea9 7d3e ef96 563e d467 853e 14c4 853e
000003d0: 1148 2f3e bbaf 273e 2027 813e 6ae9 483e
000003e0: d34f c03d 7a30 c13d 7980 433e e2d7 1f3e
000003f0: 4047 463e 4789 303e f4ca d03d 7d2a df3d

exp_avg f4 [32]
0.0466537 0.13925475 -0.23016672 0.14492579 -0.23562767 -0.03405233 -0.44805655 -0.045982175
-0.4959791 0.20936032 -0.04873858 -0.13555016 -0.52925205 0.01256469 -0.20568757 -0.25075155
0.012716082 -0.23342164 0.057204008 0.23513198 0.006188425 0.25260213 0.19991143 -0.2731182
0.370856 0.54985434 -0.22053474 0.11125744 -0.19816634 0.10147267 -0.3560588 0.5327094
00000000: f317 3f3d cc98 0e3e d3b0 6bbe 6d67 143e
00000010: 6148 71be 757a 0bbd ab67 e5be ce57 3cbd
00000020: f9f0 fdbe 8d62 563e 1ba2 47bd a9cd 0abe
00000030: 107d 07bf 21dc 4d3c c39f 52be 8262 80be
00000040: 1d57 503c 1506 6fbe c04e 6a3d 70c6 703e
00000050: 45c8 ca3b 1155 813e 95b5 4c3e 26d6 8bbe
00000060: d6e0 bd3e 41c3 0c3f dcd3 61be f1da e33d
00000070: 1eec 4abe e7d0 cf3d 574d b6be a55f 083f

exp_avg_sq f4 [32]
2.3694258 1.0410968 1.7523694 2.0247216 1.4252691 2.1469727 1.4062232 1.5357895
1.76016 1.2486506 1.3233622 2.2909086 1.916091 1.5004332 2.0077677 1.6319969
2.1256015 1.772303 1.2949893 1.616031 1.5700396 1.4391314 0.5861514 2.0859208
1.7757798 2.603509 0.43937796 1.6713555 1.6269525 2.3163214 2.1002235 1.6759961
00000000: aca4 1740 a942 853f a44d e03f 0a95 0140
00000010: 386f b63f 0068 0940 1fff b33f c094 c43f
00000020: ec4c e13f c8d3 9f3f ef63 a93f 3f9e 1240
00000030: 7842 f53f 320e c03f 447f 0040 46e5 d03f
00000040: db09 0840 d3da e23f 36c2 a53f 1bda ce3f
00000050: 0ff7 c83f 7535 b83f 050e 163f ba7f 0540
00000060: c14c e33f e49f 2640 26f6 e03e faee d53f
00000070: fb3f d03f 9c3e 1440 106a 0640 0a87 d63f
