saved_CEBRA_models/nitschke_20090812_20090819_20090910/CEBRA_models/temperature_0.0009666666666666668_time_offsets_2_dataset1.pt (torch, 531429 bytes, 31 tensors)

net.0.weight f4 [32, 191, 2]
0	0x3d8c00bf	0.0683608
1	0xbd2034b2	-0.039112754
2	0xbb240f31	-0.002503347
3	0xbc8ac4aa	-0.01693948
4	0x3c59ef1f	0.01330164
5	0x3b2fcd26	0.002682516
6	0xbd0ccb87	-0.034373786
7	0xbcbef78f	-0.023311405
8	0xbcc42ac3	-0.023946172
9	0xbca35f4f	-0.019942908
10	0xbd80b410	-0.06284344
11	0x3ca2af7c	0.019859068
12	0x3d0f82c7	0.03503683
13	0x3cfcddd3	0.030867493
14	0x3c2de136	0.0106127765
15	0xbca3366d	-0.019923413
16	0x3d9c2175	0.07623569
17	0x3ce7bd52	0.028288517
18	0x3d4005ad	0.046880413
19	0x3b2be2c7	0.00262277
20	0xbce9bcca	-0.028532404
21	0x3d841ad9	0.06450433
22	0x3c2d2084	0.010566834
23	0x3d03d995	0.032189924
24	0x3d526e68	0.051374823
25	0xbcd8971f	-0.026439248
26	0xbdaa4765	-0.08314399
27	0xbd69f336	-0.05711671
28	0xbc813015	-0.015769998
29	0xbccd41c9	-0.025055783
30	0xbd07c25d	-0.033144344
31	0x3cc465a6	0.023974251
32	0xbcd7c883	-0.026340729
33	0xbc986a28	-0.018605307
34	0xbc089fef	-0.008338912
35	0x3d3a55cc	0.04549198
36	0xbc74743f	-0.014920293
37	0xbce21783	-0.027599102
38	0x3d007816	0.031364523
39	0x3cd2ff48	0.025756493
40	0xbbd42261	-0.006473825
41	0x3d578915	0.052620966
42	0xbd1ad0f3	-0.037796926
43	0xbc64da50	-0.013968065
44	0xbd19b49d	-0.037525762
45	0x3d0afb61	0.03393114
46	0x3d0a9542	0.03383375
47	0x3c7855a3	0.015157136
48	0x3caf7fca	0.02142324
49	0xbce1fb4b	-0.027585646
50	0xbd3231f5	-0.043504674
51	0xbc91089a	-0.017704297
52	0xbd04fd5c	-0.032468185
53	0xbbce2197	-0.0062906253
54	0x3d328355	0.04358228
55	0x3bb6891f	0.0055705453
56	0xbabb777f	-0.001430258
57	0x3d8b0b28	0.06789237
58	0x3d053752	0.03252346
59	0xbc1cdc3d	-0.009573993
60	0x3d6b5446	0.057453416
61	0xbd7e2fc8	-0.062057287
62	0xbd255ee0	-0.040373683
63	0xbe015256	-0.12629065
64	0x3c4558cf	0.012045099
65	0x3ab19dd9	0.0013551071
66	0xbca344bc	-0.019930236
67	0x3cf880b3	0.030334806
68	0xbbdfd59b	-0.0068308837
69	0x3d371689	0.044699226
70	0x3c49eb84	0.012324218
71	0xb8013460	-3.0804775e-05
72	0x3aa0f7e9	0.0012280914
73	0xbc667250	-0.01406534
74	0x3c335e59	0.010947787
75	0x3c345b2d	0.011008066
76	0x3bd94556	0.00663058
77	0x3cc21d04	0.023695476
78	0x3d9984f4	0.07496062
79	0xbd0f6a8b	-0.035013717
80	0x3bc8d318	0.00612868
81	0xbb8110f9	-0.003938791
82	0x3c35b9ca	0.011091659
83	0xbc811e40	-0.015761495
84	0xbdcae04d	-0.09906063
85	0xbdbba482	-0.09162237
86	0x3d35f5e8	0.044423968
87	0x3d2133a1	0.039355878
88	0x3c7f6a4c	0.015589308
89	0xbd707a98	-0.058710665
90	0xbd18b6ec	-0.037283823
91	0x3d1a8301	0.03772259
92	0x3cae33b6	0.021264892
93	0xbaeaa0f7	-0.0017900754
94	0x3c40e45c	0.011773195
95	0xbcaba988	-0.020954862
96	0xbde5543a	-0.111977056
97	0x3d42f7bf	0.04759955
98	0x3d786029	0.06063858
99	0xbbeac74c	-0.0071648713
100	0xbb3e0d68	-0.002899969
101	0xbc904712	-0.017612014
102	0x3b6e068b	0.0036319818
103	0xbca7ad89	-0.02046849
104	0x3ccb4477	0.02481292
105	0xbd5fbb8c	-0.054622218
106	0x3db31ecf	0.08746111
107	0xbcd803ec	-0.026369058
108	0x3c316a4e	0.010828568
109	0x3c8427c8	0.01613225
110	0x3cbdaadd	0.023152763
111	0x3cfd0e1c	0.030890517
112	0x3cdf533f	0.027261375
113	0xbcc790f4	-0.024361111
114	0x3c842185	0.016129265
115	0xbc6063ba	-0.013695652
116	0x3c0ffda5	0.008788501
117	0xbbf223f7	-0.0073895412
118	0x3a74665b	0.00093231135
119	0xbd52ab31	-0.051432792
120	0xbd0c3a2a	-0.034235157
121	0xbd6ebe94	-0.05828722
122	0x3b362ab3	0.0027796447
123	0xbc847568	-0.016169265
124	0xbb72bfbb	-0.003704055
125	0x3cbb9a56	0.022900742
126	0xbc7c5f99	-0.015403652
127	0x3c6174c8	0.013760753
128	0x3dce0bb7	0.10060828
129	0x3d47995c	0.04873024
130	0xbc610524	-0.013734136
131	0x3d521ac9	0.051295076
132	0xbcb112c5	-0.021615395
133	0xbc7cf5c3	-0.015439454
134	0xbd3a6691	-0.04550797
135	0xbbdbb1e2	-0.006704555
136	0x3ca46a8a	0.020070333
137	0xbbff9e61	-0.0078008627
138	0xbd1ccb54	-0.038279846
139	0xbd01da6f	-0.031702455
140	0xbd27ec5f	-0.040996905
141	0xbc789560	-0.0151723325
142	0x3cef2f3a	0.029197324
143	0x3d94b8e6	0.07261829
144	0xbadef2cd	-0.0017009616
145	0x3d6ede3d	0.05831741
146	0x3be135f8	0.0068728887
147	0x3d07ef3c	0.033187136
148	0xbcf015aa	-0.029307205
149	0xbbba4927	-0.00568499
150	0x3db4a0ea	0.088197544
151	0xbd0d915d	-0.034562457
152	0xbd5adda6	-0.053434037
153	0x3c82ed86	0.0159824
154	0x3d40e44f	0.047092732
155	0x3c539c02	0.012915613
156	0xbc8c001b	-0.017089894
157	0x3c108403	0.008820537
158	0x3cf0c793	0.02939204
159	0xbd7b6cd1	-0.061383072
160	0xbd125173	-0.035722207
161	0xbcaac8e4	-0.020847745
162	0x3b9dadfb	0.004812
163	0x3beb1570	0.0071741864
164	0x3d3c84cd	0.046025086
165	0xbcffaa16	-0.031209033
166	0xbbfba1ee	-0.0076792156
167	0x3c934d54	0.017981209
168	0xbdb58069	-0.08862383
169	0xbc150bbd	-0.009097037
170	0xbc2057f6	-0.0097865965
171	0x3cfc6804	0.030811317
172	0x3cdde3e6	0.02708621
173	0x3d046abb	0.03232835
174	0x3cc66d61	0.024222078
175	0xbc6006c5	-0.013673489
176	0x3d8513bc	0.06497905
177	0x3d25d067	0.04048195
178	0x3cb834ad	0.022486055
179	0x3d0d7a1f	0.034540292
180	0x3bbd2daa	0.005773266
181	0xbc87b249	-0.016564505
182	0xbc80e6ff	-0.015735148
183	0xbc8e6ac2	-0.01738489
184	0x3d3162b6	0.04330703
185	0x3d548b94	0.051890925
186	0x3c4750ca	0.012165258
187	0x3d0c433d	0.03424381
188	0x3cdd00e4	0.026977964
189	0x3cfe7b46	0.03106464
190	0x3cab47ac	0.0209082
191	0x3d1cdf30	0.038298786
192	0x3c2e54e2	0.010640355
193	0x3b6eb3b9	0.003642304
194	0x3c3e8ba7	0.011629975
195	0x3c2d4db1	0.010577605
196	0x3d377238	0.044786662
197	0x3d4ca968	0.049966246
198	0xbd2b0654	-0.04175408
199	0xbccb3cac	-0.024809204
200	0xbcd865d0	-0.026415735
201	0x3a0b5b5c	0.0005316043
202	0xbccbfc63	-0.02490062
203	0x3d2d018e	0.04223781
204	0xbd253157	-0.040330257
205	0xbcac48d5	-0.021030823
206	0xbcfe6ee8	-0.031058744
207	0x3a97bdcb	0.0011576948
208	0x3d1a1d2b	0.037625473
209	0x3b28374f	0.0025667732
210	0x3c2ea0b3	0.010658431
211	0x3d84cae5	0.064840116
212	0xbca0ef0f	-0.019645242
213	0x3c8b4ef3	0.01700542
214	0x3ca62845	0.020282874
215	0x3c47de0d	0.012198937
216	0xbd655362	-0.055987723
217	0x3cf837db	0.030300071
218	0x3c74ae80	0.014934182
219	0xba9c2a79	-0.0011914513
220	0x3d0a4f2c	0.03376691
221	0xbbf880c1	-0.007583708
222	0xbd62564c	-0.05525808
223	0x3d3e5d12	0.046475478
224	0x3ae4cd70	0.0017456245
225	0xbd3e21de	-0.046419017
226	0xbc8a4a02	-0.016880993
227	0x3c389d97	0.011268041
228	0x3daebe70	0.08532417
229	0x3d357829	0.044304047
230	0xbcab2196	-0.020890038
231	0xbc11aeed	-0.008891803
232	0xbd39b1dd	-0.04533564
233	0x3b8afc86	0.004241529
234	0xbd1228f8	-0.035683602
235	0xbd2f8770	-0.042853773
236	0xbc554a6e	-0.013018234
237	0x3a0c61b8	0.00053551374
238	0x3cb25a6c	0.021771632
239	0x3d7825a0	0.060582757
240	0xbd4296fb	-0.047507267
241	0x3c6de1e4	0.014519189
242	0xbb3e36be	-0.0029024328
243	0xbd80aee5	-0.062833585
244	0x3c90d39f	0.017679034
245	0xbcb29f7c	-0.021804564
246	0xbd915f40	-0.070982456
247	0x3cafa1fc	0.021439545
248	0xbd12a4e8	-0.035801798
249	0xbca72f80	-0.020408392
250	0xbc21defc	-0.009879824
251	0x3ce3a71d	0.027789647
252	0xbd4aab4e	-0.049479775
253	0x3d35853a	0.044316508
254	0xbce71597	-0.028208537
255	0x3d045da4	0.032315865

net.0.bias f4 [32]
0	0x3d1f2f76	0.03886362
1	0xbbf8e856	-0.007596056
2	0x3be92d81	0.00711602
3	0xbc33c3fa	-0.010972017
4	0x3d06c2e1	0.032900695
5	0x3b7007e3	0.0036625795
6	0x3ccabcde	0.024748262
7	0x3d9e0402	0.07715608
8	0xbcf0dded	-0.029402697
9	0xba87db82	-0.0010365101
10	0x3d21266e	0.03934329
11	0xbd5882fb	-0.052859288
12	0x3c8a1777	0.016856892
13	0x3d1e7e67	0.038694765
14	0x3bd60949	0.0065318686
15	0xbc9c9ebb	-0.019118657
16	0x3d29e4e9	0.04147807
17	0xbd0dc2f4	-0.03460975
18	0xbc099972	-0.008398401
19	0x3c388260	0.011261553
20	0x3c8b850a	0.017031211
21	0xbd440390	-0.04785496
22	0x3d717202	0.058946617
23	0xbd272bde	-0.04081332
24	0x39bbd3bd	0.00035825177
25	0xbd570e24	-0.05250372
26	0xbd6c4785	-0.057685394
27	0x3d10a850	0.035316765
28	0xbd38ecdf	-0.045147773
29	0xbcfad382	-0.030618433
30	0x3cd184ca	0.025576014
31	0xbcd4107f	-0.025886772

net.2.module.0.weight f4 [32, 32, 3]
0	0x3cae4637	0.021273715
1	0x3d79fcfd	0.061032284
2	0x3e04e669	0.1297852
3	0xbcc4aeca	-0.024009127
4	0xbbf0cba5	-0.007348495
5	0x3d17bd05	0.037045497
6	0xbc8eb0bb	-0.017418256
7	0xbca5fffe	-0.020263668
8	0xbdebf06f	-0.115204684
9	0xbc15df51	-0.009147481
10	0x3d0c202e	0.034210376
11	0xbc2b6b2f	-0.010462566
12	0xbbe20493	-0.006897518
13	0x3da35365	0.079748906
14	0xbbac05c5	-0.005249711
15	0x3d7cd0cc	0.06172256
16	0xbda1115b	-0.078646384
17	0xbd24473c	-0.040106997
18	0xba0ae846	-0.00052988937
19	0xbdb2ab01	-0.08724023
20	0x3d6c355b	0.05766807
21	0x3de7d251	0.113194115
22	0xbcf81686	-0.030284178
23	0xbd4534b2	-0.048145957
24	0xbc7708e9	-0.015077808
25	0x3da06893	0.07832446
26	0xbd06eb3a	-0.032939173
27	0xbc95c271	-0.018281193
28	0xbc971aba	-0.018445361
29	0xbe1504ec	-0.14552659
30	0xbda97fec	-0.08276352
31	0x3ce1ac5d	0.02754801
32	0xbd37dacb	-0.04488639
33	0x3d635730	0.05550307
34	0xbe278b4a	-0.16361728
35	0xbda81942	-0.082079425
36	0xbd2de67d	-0.04245614
37	0xbd854223	-0.06506755
38	0x3d2e60db	0.042572837
39	0xbdb8a497	-0.09015768
40	0xbd885e9b	-0.066586696
41	0xbcfe9b4e	-0.031079914
42	0x3e05a9d5	0.13053067
43	0x3da61bf8	0.08110803
44	0xbd32e0c7	-0.043671396
45	0x3d490229	0.049074326
46	0x3e1ec459	0.15504588
47	0xbd14e6d5	-0.03635295
48	0xbdb6a704	-0.089185745
49	0x3d1368ce	0.03598862
50	0xbd99ac97	-0.07503622
51	0x3d66af6f	0.05631965
52	0xbc3d8666	-0.011567688
53	0x3c99e326	0.01878507
54	0xbb94f176	-0.004545386
55	0xbcd1cc0c	-0.025609992
56	0x3dc85c83	0.0978327
57	0x3d5c999d	0.053857435
58	0x3ce7b40e	0.028284099
59	0xbe04ea36	-0.1297997
60	0x3ddfb28b	0.10922726
61	0xbce1b3e0	-0.027551591
62	0xbd27ee40	-0.040998697
63	0xbd483866	-0.04888191
64	0x3d73ea93	0.05954988
65	0x3d711887	0.05886128
66	0x3e058d56	0.13042197
67	0xbd4a6f48	-0.049422532
68	0xbd2dc8f2	-0.042427965
69	0x3d20363a	0.039114214
70	0x3d9842a9	0.074345894
71	0x3a26ea6c	0.0006367329
72	0xbcc004c4	-0.023439772
73	0x3da06560	0.07831836
74	0xbbe0cd53	-0.006860414
75	0x3d6c98c4	0.057762876
76	0xbd5cfed6	-0.053953968
77	0xbcaf5fa4	-0.02140791
78	0x3d149e12	0.03628356
79	0x3dd5bcef	0.10436427
80	0xbcd7682a	-0.026294786
81	0x3d261587	0.040547874
82	0xbb52a32e	-0.003214072
83	0xbda8624a	-0.08221872
84	0xbc04a16d	-0.0080951275
85	0x3d5f9feb	0.05459587
86	0xbd0763c6	-0.033054136
87	0x3d8bcfff	0.068267815
88	0xbd82bf5a	-0.06384154
89	0xbdff0dcb	-0.12453803
90	0xbd90de07	-0.07073598
91	0x3d90d078	0.07071012
92	0x3d3708bd	0.044686068
93	0x3a83e167	0.0010061682
94	0xbce80377	-0.028321965
95	0x3d618dbe	0.055066817
96	0x3dacec63	0.08443525
97	0xbd4d74de	-0.05016028
98	0x3b2d15aa	0.0026410618
99	0xbcbe7f4b	-0.023254057
100	0x3dd70b01	0.10500146
101	0xbdb1f53a	-0.086893514
102	0x3cb96f22	0.022636
103	0xbdbb3707	-0.09141355
104	0x3d35f615	0.044424135
105	0x3dfd6430	0.12372625
106	0xbcf2dc68	-0.029646114
107	0xbb937ba1	-0.0045008217
108	0x3d49e79b	0.04929314
109	0xbcd623f2	-0.026140187
110	0x3d73531a	0.059405424
111	0xbc9b6814	-0.018970527
112	0xbd17299b	-0.036904912
113	0xbd323835	-0.043510634
114	0xbd65aa8b	-0.056070846
115	0xbceee812	-0.029163394
116	0x3d824c0d	0.06362162
117	0xbd31c4d2	-0.043400593
118	0x3cda4af4	0.026647069
119	0xbca7877c	-0.020450346
120	0x3dcc570a	0.09977539
121	0xbd7b1f89	-0.06130937
122	0xbd8c74f8	-0.068582475
123	0xbd55aa64	-0.05216445
124	0xbd9550cf	-0.07290804
125	0xbd083573	-0.0332541
126	0xbdd7be8e	-0.10534392
127	0x3cba2985	0.022724876
128	0xbd22d75b	-0.03975616
129	0xbcf248e2	-0.029575769
130	0x3d014d32	0.03156776
131	0xbdcddd43	-0.10051968
132	0xbd10cc42	-0.035351045
133	0xbdd79bbc	-0.10527751
134	0x3d6b1651	0.05739433
135	0xb9c05cbc	-0.00036690186
136	0x39fbab96	0.00048002292
137	0x3d93743a	0.07199903
138	0xbd36b702	-0.044608124
139	0x3c751b92	0.014960187
140	0x39b5fc81	0.0003471114
141	0x3ba41a18	0.0050079934
142	0xbc4231cb	-0.011852692
143	0x3ca534e1	0.020166816
144	0x3c95383f	0.018215297
145	0xbc13b69f	-0.009015708
146	0x3c312096	0.010810992
147	0x3d512238	0.051058024
148	0xbc2bdd9f	-0.01048985
149	0xbd64f2da	-0.055895664
150	0xbda1a27b	-0.07892319
151	0xbd872b31	-0.06600035
152	0x3d925add	0.07146237
153	0x3d458f0d	0.048232127
154	0xbc2da141	-0.010597528
155	0x3cd7be7e	0.026335951
156	0xbc7cc2a5	-0.015427266
157	0xbd5b3dd9	-0.05352578
158	0x3cc4188c	0.023937486
159	0xbd816cd5	-0.06319586
160	0xbd1f2958	-0.038857788
161	0x3b9a7687	0.0047138366
162	0xbe0ed35f	-0.13947819
163	0x3d06558b	0.032796424
164	0x3d6da9ce	0.058023266
165	0x3b237f65	0.002494776
166	0x3dd44fbb	0.1036677
167	0xbd27212a	-0.040803112
168	0x3c54ca22	0.012987645
169	0xbd3ea5ba	-0.046544768
170	0x3d4eb57b	0.050466042
171	0x3d6456e7	0.05574694
172	0xbdda710b	-0.106660925
173	0xbd44ba69	-0.048029337
174	0x3bc914c4	0.0061365087
175	0x3d3c5a38	0.045984477
176	0xbd4ea070	-0.050445974
177	0x3dbb203d	0.09137008
178	0xbdf34135	-0.11877672
179	0xbd1cde0f	-0.03829771
180	0xbcbb3dcd	-0.022856617
181	0x3d17fb97	0.03710517
182	0x3c92f783	0.017940288
183	0x3dd165d2	0.10224499
184	0x3d04d4fd	0.032429684
185	0xbd0ab36b	-0.033862513
186	0x3c342c5a	0.010996902
187	0xbd2db33d	-0.042407263
188	0xbd0cbe46	-0.034361146
189	0xba2b1094	-0.00065256027
190	0xbb8ac7ce	-0.0042352444
191	0xbd954eb8	-0.07290405
192	0x3dd26ae1	0.10274292
193	0x3dbd1562	0.09232594
194	0x3dd8051d	0.1054785
195	0xbd1bb4e7	-0.03801432
196	0xbd6e7e8f	-0.058226164
197	0x3e021771	0.12704255
198	0x3d6572c5	0.056017656
199	0xbdad7de4	-0.08471277
200	0x3d284664	0.041082755
201	0xbc439666	-0.011937713
202	0x3d984ef0	0.07436931
203	0xbe2d2761	-0.16909553
204	0x3cf0f362	0.029412929
205	0x3d5194a5	0.05116715
206	0x3dcd1e2d	0.10015521
207	0xbba64ab5	-0.0050748237
208	0xbc9f5b4f	-0.019452719
209	0xbd94ac08	-0.07259375
210	0xbc6b6a35	-0.014368583
211	0xbdaac84f	-0.08338987
212	0x3c85b8ff	0.016323565
213	0x3cf7dfdc	0.030258112
214	0xbda0ef65	-0.07858161
215	0x3dc4b465	0.0960472
216	0x3d5390a2	0.051651604
217	0x3d63f141	0.05565
218	0x3ccff3c7	0.025384797
219	0x3d6709f0	0.05640596
220	0x3d9c4f1d	0.07632277
221	0xbd809499	-0.06278343
222	0x3ad229a5	0.001603414
223	0x3d6d61bb	0.05795453
224	0xbdb48ad7	-0.08815544
225	0x3d667792	0.056266375
226	0x3d52e486	0.05148747
227	0x3d94e9ca	0.07271154
228	0x3cca1b88	0.024671331
229	0x3da3d7a2	0.08000113
230	0xbc81869c	-0.015811257
231	0x3cb53c30	0.022123426
232	0xbdacd5fe	-0.08439253
233	0x3c609d7f	0.013709425
234	0x3c701293	0.014652866
235	0xbc98b981	-0.018643143
236	0x3daec5db	0.08533832
237	0x3d52abf1	0.051433507
238	0x3d9e69c1	0.07735015
239	0xbd89d029	-0.067291565
240	0x3d4e28d1	0.050331894
241	0x3c9f25f5	0.019427279
242	0xbda42798	-0.080153644
243	0xbd7a0d83	-0.061048042
244	0xbbea3230	-0.007147096
245	0xbcfe9fce	-0.03108206
246	0x3cbea146	0.02327026
247	0x3d9e28c8	0.07722622
248	0x3d351e01	0.044218067
249	0xbbe4f780	-0.006987512
250	0x3d020f96	0.031753145
251	0xbd7b017b	-0.06128071
252	0x3db84cde	0.08999036
253	0xbca98de7	-0.020697547
254	0xbdc8c060	-0.098023176
255	0x3d93a82a	0.07209809

net.2.module.0.bias f4 [32]
0	0x3c4b5895	0.012411256
1	0xbdd25048	-0.10269219
2	0xbd537bff	-0.051631924
3	0x3dc28b97	0.09499281
4	0xbdb63143	-0.08896115
5	0xbdc20a7c	-0.09474656
6	0x3d4d4d6e	0.05012267
7	0xbbb5efb9	-0.005552259
8	0xbcddd714	-0.027080096
9	0x3a4f6747	0.0007911813
10	0x3c85cc39	0.016332733
11	0x3d89875c	0.06715271
12	0xbd25f5dc	-0.040517673
13	0xbd176c90	-0.036968768
14	0x3c54a790	0.012979403
15	0xbc24549f	-0.010029941
16	0xbd33f643	-0.043936025
17	0xbd813f57	-0.06310909
18	0x3d74e535	0.0597889
19	0x3c38f0cf	0.011287882
20	0xbd755177	-0.059892144
21	0xbd97c5fd	-0.0741081
22	0x3d0f3ff1	0.03497309
23	0x3dd30f85	0.103056945
24	0x3bfcdb48	0.00771657
25	0xbc1fb898	-0.0097486
26	0xbd84e767	-0.06489449
27	0x3cf7ce61	0.030249776
28	0xbcba8028	-0.022766188
29	0xbd43d0de	-0.047806613
30	0x3dc4faed	0.09618173
31	0xbd02053a	-0.031743266

net.3.module.0.weight f4 [32, 32, 3]
0	0x3d179a80	0.037012577
1	0x3c859066	0.016304206
2	0x3c9f7629	0.019465523
3	0xbdaf216d	-0.08551297
4	0x3d02ca39	0.031931136
5	0x3d88d100	0.066804886
6	0x3d3b1674	0.04567571
7	0xbd2b6651	-0.041845623
8	0xbd6f7258	-0.058458656
9	0x3da0a678	0.078442514
10	0x3d37f371	0.0449099
11	0xbd96d741	-0.07365275
12	0x3dcfd378	0.10147756
13	0xbd60a27b	-0.054842453
14	0xbdeb0f92	-0.11477579
15	0xbdb15b1c	-0.08659956
16	0x3db88d01	0.09011269
17	0x3c4aae50	0.012370661
18	0x3c06e6c3	0.008233729
19	0x3cc7d100	0.024391651
20	0x3daf8dbf	0.08571958
21	0xbc299177	-0.010349623
22	0xbdab6558	-0.08368939
23	0xbd83df47	-0.06439071
24	0xbd98560e	-0.07438289
25	0xbdbad97f	-0.09123515
26	0xbdb08a8c	-0.08620176
27	0x3baadaca	0.00521407
28	0xbe2e576b	-0.17025535
29	0xbcd74920	-0.026279986
30	0x3d0c18e2	0.034203418
31	0xbe0ce063	-0.13757472
32	0xbd3e0e50	-0.04640037
33	0x3de26b99	0.11055679
34	0x3d32aeb7	0.043623652
35	0x3cdf8846	0.02728666
36	0xbe19993f	-0.14999865
37	0x3d3f1d00	0.046658516
38	0x3a49b644	0.0007694701
39	0x3d300611	0.042974535
40	0x3d35748e	0.04430061
41	0xbaba20f2	-0.0014200492
42	0x3e1e3dd1	0.15453269
43	0x3ddadd64	0.10686758
44	0xbd6cc733	-0.05780716
45	0xbd696e8e	-0.0569902
46	0x3e118c73	0.14213733
47	0x3ba43651	0.005011358
48	0x3ca26703	0.01982451
49	0xbd0bdfe6	-0.034149073
50	0xbddb0aa3	-0.10695388
51	0xbc0469a2	-0.008081825
52	0x3db95355	0.090490974
53	0xbd2cd332	-0.0421936
54	0x3cd6f9a7	0.02624209
55	0xbcb8f090	-0.022575647
56	0x3c8754cb	0.016519925
57	0xbe0564bd	-0.1302671
58	0xbd6e625a	-0.058199264
59	0x3d55e347	0.0522187
60	0x3daf8e7b	0.08572098
61	0xbcc690eb	-0.024239024
62	0xbc3238f7	-0.010877839
63	0xbda3714b	-0.07980593
64	0xbda3f3cd	-0.08005486
65	0xbc926e45	-0.017874846
66	0x3dfe2eef	0.124112956
67	0xbd6f47e6	-0.058418177
68	0xbd3d4bc2	-0.046214826
69	0xbd9cb9de	-0.07652639
70	0x3d8b50c4	0.06802514
71	0x3dd9420a	0.10608299
72	0xbcadd350	-0.021218926
73	0xbd486af7	-0.048930135
74	0xbd17e60a	-0.037084617
75	0xbd0ebca9	-0.03484789
76	0xbd1bf0db	-0.038071495
77	0xbcfd8d00	-0.030951023
78	0x3e08f669	0.13375248
79	0x3dd25f13	0.1027204
80	0x3d31c55c	0.043401107
81	0x3c7af4e3	0.015317175
82	0x3d6e8535	0.058232505
83	0xbde31552	-0.11088051
84	0xbcb04bd8	-0.02152054
85	0x3d655787	0.055991676
86	0x3d747e88	0.059690982
87	0xbc007904	-0.007841352
88	0x3d1f6243	0.03891207
89	0xbbc6a626	-0.006062287
90	0xbd4fd58b	-0.05074076
91	0xbd84e735	-0.06489412
92	0xbdd29aa0	-0.10283399
93	0x3d8081b8	0.06274742
94	0x3d6aac04	0.057292953
95	0xbd7799d7	-0.060449447
96	0x3d1ba447	0.037998464
97	0x3e088c3b	0.13334744
98	0xbd34aa68	-0.044107825
99	0x3d83e554	0.06440225
100	0x3c964d69	0.018347459
101	0xbd9970e4	-0.07492235
102	0x3c0fc888	0.008775838
103	0xbc889da8	-0.016676739
104	0xbd9ce786	-0.07661347
105	0x3cbc75c2	0.02300537
106	0x3d5077a5	0.050895352
107	0x3d9d5b5e	0.076834425
108	0x3d33d836	0.043907367
109	0x3dbb19a1	0.09135748
110	0xbdbb00d4	-0.09131017
111	0xbe1c07cf	-0.15237354
112	0xbdb3bf20	-0.087766886
113	0xbc8f8acd	-0.01752224
114	0xbd0148c0	-0.03156352
115	0x3dfc8636	0.12330286
116	0xbd0f0434	-0.034916118
117	0xbd62c830	-0.055366695
118	0xbd0233e3	-0.031787764
119	0x3d9b6888	0.07588297
120	0x3d8e6a66	0.06953888
121	0x3cef0e15	0.02918152
122	0xbdcd7033	-0.10031166
123	0xbdb00d78	-0.08596319
124	0x3d4ad1a1	0.049516324
125	0xbddf2241	-0.10895205
126	0x3dbf154f	0.09330236
127	0x3e0232b9	0.12714662
128	0xbd96d52e	-0.073648795
129	0xbde3ed89	-0.111292906
130	0xbcd0dcaf	-0.025495855
131	0xbc5fb76c	-0.013654571
132	0xbcd7dc7e	-0.026350256
133	0xbdc27e90	-0.09496796
134	0x3d7077a2	0.05870784
135	0x3b2895b6	0.0025724
136	0xbced7bd7	-0.028989716
137	0xbd67d9c2	-0.056604154
138	0x3c3942b4	0.011307407
139	0x3bd1ab5e	0.0063986024
140	0xbd01c3d8	-0.03168091
141	0xbd5eb594	-0.054372385
142	0x3cdfec59	0.027334379
143	0xbe13dfa2	-0.14440778
144	0xbdba1606	-0.09086232
145	0x3ce20ae4	0.027593084
146	0x3d60fe27	0.05492988
147	0x3d6905b7	0.056890216
148	0x3d81719e	0.06320499
149	0x3c2eac30	0.01066117
150	0xbd594f27	-0.053054
151	0xbcf75665	-0.030192563
152	0x3d84da1e	0.06486915
153	0x3ddc7f33	0.10766449
154	0xbc3a566b	-0.011373143
155	0x3dbbd92d	0.09172282
156	0xbc843fdc	-0.016143732
157	0xbdb3d04f	-0.08779966
158	0xbdc9b6a8	-0.09849292
159	0x3d323acb	0.0435131
160	0x3c0cb078	0.008586995
161	0xbca8dcc5	-0.020613084
162	0xbdc3d96f	-0.095629565
163	0x3d435002	0.047683723
164	0x3ca76b47	0.020436896
165	0x3c99ab8d	0.01875856
166	0xbd415598	-0.04720077
167	0x3c36cc80	0.011157155
168	0xbe069a8c	-0.13144892
169	0x3d5853c8	0.052814275
170	0x3e0d5d79	0.13805188
171	0xbdacbae6	-0.084340855
172	0xbdc887e0	-0.09791541
173	0x3d06fdb2	0.032956786
174	0xbc8835d6	-0.016627233
175	0x3dd93026	0.10604887
176	0xbc737953	-0.014860469
177	0xbd00a271	-0.031404916
178	0xbd461d48	-0.04836777
179	0xbc3c95a7	-0.011510289
180	0xbc962db4	-0.01833234
181	0x3ddfa4d2	0.10920109
182	0xbdc2d691	-0.095135815
183	0x3de57f23	0.1120589
184	0xbdefade5	-0.117030896
185	0xbbde0eec	-0.006776681
186	0xbdb61330	-0.088903785
187	0x3db537ba	0.088485196
188	0x3dd9fc32	0.106438056
189	0xbc3d7be1	-0.01156518
190	0x3da1aad9	0.07893915
191	0xbc883b31	-0.016629787
192	0x3d1b95ac	0.037984535
193	0xbd17825b	-0.03698955
194	0xbd9cc7d5	-0.076553024
195	0x3c8a2b9e	0.016866501
196	0xbd484436	-0.048893176
197	0x3cf55b53	0.029950773
198	0x3c1f3c53	0.009718972
199	0x3cc97444	0.024591573
200	0x3b2b0abe	0.0026098932
201	0x3db9701c	0.09054586
202	0x3dd36b8b	0.103232466
203	0xbd0e9a6e	-0.034815244
204	0x3d9cf8f6	0.07664673
205	0x3ca7234c	0.020402573
206	0xbda9a329	-0.082830735
207	0x3d05c38f	0.032657202
208	0xbdeb8ec9	-0.115018435
209	0xbca097d1	-0.019603642
210	0xbda36203	-0.079776786
211	0xbafbc67e	-0.0019208936
212	0x3d68a1df	0.056794997
213	0xbda32025	-0.079651155
214	0xbd84b2e6	-0.06479435
215	0x3d16d48e	0.0368238
216	0xbcb2e66d	-0.021838391
217	0x3ddb18c9	0.10698087
218	0xbdc0ec35	-0.09420053
219	0xbc000ab2	-0.00781505
220	0xbdc0ae95	-0.09408299
221	0x3c8633a4	0.016382046
222	0xbddc497d	-0.10756204
223	0xbda91e90	-0.082577825
224	0x3dd9a7f9	0.10627741
225	0xbe1e5181	-0.15460779
226	0x3d26c09e	0.040711038
227	0xbd10923b	-0.035295706
228	0xbdb1a9a2	-0.08674933
229	0x3cb488ce	0.02203789
230	0x3e1f3b8e	0.15550062
231	0x3d844772	0.064589396
232	0x3c36c081	0.011154295
233	0xbd4e62bb	-0.050387125
234	0xbc842549	-0.01613106
235	0xbcf088bf	-0.02936208
236	0xbd8bbd16	-0.06823175
237	0xbcfa4534	-0.030550577
238	0xbd9eb3b9	-0.07749123
239	0x3d69202f	0.05691546
240	0xbca48124	-0.02008111
241	0x3da31a71	0.07964028
242	0x3afada61	0.0019138568
243	0x3db5f70d	0.08885012
244	0xbd9adf57	-0.0756213
245	0xbc84d496	-0.01621465
246	0x3d2355e3	0.03987683
247	0x3dec9f50	0.11553824
248	0x3cad0bff	0.021123884
249	0xbbe6d6fd	-0.0070446716
250	0xbb32330d	-0.0027191073
251	0xbd620a89	-0.05518583
252	0x3da5cba2	0.080954805
253	0x3d06cf4d	0.03291254
254	0x3d3c7acf	0.046015557
255	0x3de8de2e	0.113705024

net.3.module.0.bias f4 [32]
0	0x3d97debd	0.07415531
1	0xbd7c35dd	-0.061574806
2	0xbd1d00d4	-0.038330868
3	0xbd5f1912	-0.05446727
4	0x3dd5990a	0.104295805
5	0xbd1a3510	-0.03764826
6	0x3deee32c	0.11664423
7	0x3da73006	0.081634566
8	0xbc37d0ad	-0.011219186
9	0x3da8d078	0.08242887
10	0x3dc40e5f	0.095730536
11	0xbdb7e5e9	-0.08979399
12	0x3ca8ea72	0.020619605
13	0x3c8badce	0.01705065
14	0x3cd36966	0.025807094
15	0x3dba8999	0.09108276
16	0x3da434f7	0.08017915
17	0x3dc202e5	0.09473208
18	0x3cdf6a95	0.027272502
19	0x3d7b61c0	0.06137252
20	0x3d378a61	0.044809703
21	0xbdb55eb4	-0.08855954
22	0xbcd119a1	-0.025524916
23	0xbce185c7	-0.02752961
24	0xbd266baf	-0.04063004
25	0xbda6311a	-0.08114834
26	0x3da2d8a1	0.07951475
27	0x3d6b4258	0.057436317
28	0xbd2f08d7	-0.04273304
29	0x3cc498df	0.023998676
30	0x3d95dbe5	0.07317332
31	0x3d8cab95	0.06868664

net.4.module.0.weight f4 [32, 32, 3]
0	0x3c701caa	0.014655272
1	0xbbb0fe00	-0.005401373
2	0x3d29cc45	0.041454572
3	0xbd92791b	-0.07152005
4	0xbd39cbbc	-0.045360312
5	0x3ca17b26	0.019712042
6	0x3d9786bd	0.07398746
7	0xbc813ac4	-0.015775092
8	0xbd89a28d	-0.06720457
9	0xbca1e4ff	-0.019762514
10	0xbd320b80	-0.043468
11	0x3d37e2d5	0.04489406
12	0x3bd34396	0.006447266
13	0x3e0600a4	0.13086182
14	0xbe212cb3	-0.15739708
15	0x3d999b73	0.07500353
16	0x3d8fe6d9	0.070264526
17	0xbbd45ad1	-0.0064805527
18	0xbc8043d6	-0.015657347
19	0x3dc23501	0.09482766
20	0xbc80df45	-0.015731463
21	0x3e06ee6b	0.13176887
22	0xbd0e8a0c	-0.03479962
23	0xbcb0cdd9	-0.02158253
24	0xbd568501	-0.052372936
25	0xbc4f3077	-0.012645832
26	0xbe2779f9	-0.16355123
27	0xbd0f1cd2	-0.034939595
28	0xbdae3af5	-0.08507339
29	0xbd918b94	-0.071067005
30	0x3e1cb28b	0.15302484
31	0x3dbe6a15	0.09297577
32	0xbd03eb4c	-0.03220682
33	0xbd785e0a	-0.060636558
34	0xbdbf8998	-0.09352416
35	0x3d713adf	0.058894034
36	0xbbf724cb	-0.007542228
37	0x3de180b7	0.110108785
38	0xbdf4a7e3	-0.11946084
39	0x3dad04c2	0.08448173
40	0xbb5d95ca	-0.0033811205
41	0xbda6bfaf	-0.081420295
42	0xbd0b50e2	-0.034012683
43	0x3d9da97b	0.076983415
44	0xbde214dd	-0.110391356
45	0x3cd5356d	0.026026452
46	0x3ddae7df	0.10688757
47	0x3d501d41	0.05080915
48	0x3cd41660	0.025889575
49	0xbd5d87b8	-0.05408451
50	0xbd0b09a6	-0.03394475
51	0x3dac9642	0.08427097
52	0x3c80dc82	0.015730146
53	0xbd9fc525	-0.07801274
54	0xbd69c497	-0.05707225
55	0xbcf7404a	-0.030182023
56	0xbd97fad1	-0.07420886
57	0x3d2e2079	0.042511437
58	0x3d414b8d	0.04719119
59	0xbd90626e	-0.07050024
60	0xbb42ba21	-0.0029712992
61	0x3c8e6cb5	0.01738582
62	0x3d9e9a35	0.077442564
63	0xbd6efd40	-0.058346987
64	0xbe2574ba	-0.16157809
65	0xbd92968e	-0.07157622
66	0x3e52c010	0.20581079
67	0xbd317a99	-0.04332981
68	0xbde12219	-0.10992832
69	0xbd0b5376	-0.03401514
70	0xba82a00f	-0.0009965914
71	0xbd8e1225	-0.069370545
72	0x3e2977f8	0.1654967
73	0x3c881893	0.01661328
74	0xbdc80d67	-0.09768181
75	0x3c8b4e0e	0.017004993
76	0x3cf6cc16	0.030126613
77	0x3dbd0e6a	0.09231265
78	0x3dad48dd	0.08461163
79	0x3a81b104	0.0009894674
80	0x3c015960	0.007894844
81	0x3c657ab5	0.014006306
82	0xbd436ec6	-0.047713064
83	0xbd688b77	-0.05677363
84	0x3e13272e	0.14370415
85	0x3d1e57c6	0.038657926
86	0x3ca8ff37	0.020629508
87	0xbe2be452	-0.16786316
88	0x3db7b0e0	0.08969283
89	0xbd90da31	-0.07072867
90	0x3df9fa72	0.12205972
91	0x3d9118a3	0.07084777
92	0x3db365cb	0.0875965
93	0x3d70f47b	0.058826905
94	0xbc5d9e13	-0.013526457
95	0xbc5fb3e4	-0.013653729
96	0x3d9431ef	0.072360866
97	0x3d455bb2	0.04818315
98	0xbd3c837d	-0.046023834
99	0x3d894ed2	0.06704487
100	0x3cd2ddc0	0.025740504
101	0xbdb65114	-0.08902183
102	0xbbe16858	-0.006878894
103	0xbd4d36c4	-0.050101057
104	0xbd152737	-0.03641435
105	0x3d277f6b	0.040893
106	0xbdc42eb2	-0.09579219
107	0x3cd32e7c	0.025779001
108	0xbd00f79a	-0.03148613
109	0x3d89802c	0.067139
110	0x3d94142c	0.0723041
111	0x3cd2ad19	0.025717305
112	0xbc89a81a	-0.01680379
113	0x3b8fd70e	0.00438965
114	0xbd7a6cdf	-0.061138984
115	0xbd3f43c7	-0.046695497
116	0x3d5ee567	0.054417994
117	0xbdd0ff04	-0.1020489
118	0xbca60702	-0.020267013
119	0x3c9aa4d3	0.018877422
120	0x3d233fbe	0.03985571
121	0xbd2a6b6a	-0.041606344
122	0x3d9d0fa4	0.07668999
123	0x3ae29b72	0.0017288758
124	0x3c031585	0.008000736
125	0x3c2da26d	0.010597807
126	0x3cac9a6f	0.021069733
127	0xbd3743e5	-0.044742484
128	0xbdcadf1f	-0.09905838
129	0xbca7aa00	-0.020466805
130	0x3db5d373	0.08878221
131	0x3c9fa942	0.019489888
132	0xbd112efa	-0.03544519
133	0x3d8df1f9	0.06930918
134	0xbd21c3c5	-0.03949334
135	0xbdac04ef	-0.083993785
136	0xbbccc594	-0.006249139
137	0x3de33d5c	0.11095688
138	0xbc788d3e	-0.0151703935
139	0xbd56f6d4	-0.052481487
140	0xbdaa8217	-0.08325594
141	0xbd01f414	-0.03172691
142	0xbd2f389a	-0.04277859
143	0xbdee3916	-0.11631982
144	0xbc27300a	-0.0102043245
145	0x3d972a05	0.073810615
146	0xbd49e734	-0.049292758
147	0xbdaab0cd	-0.08334503
148	0xbd9197d3	-0.07109036
149	0x3dd7f687	0.10545068
150	0xbd37e76b	-0.04489843
151	0x3d129582	0.035787113
152	0xbc178b1b	-0.009249474
153	0x3dccaf9a	0.09994431
154	0xbc2ed9f9	-0.010672086
155	0x3ddfbe59	0.10924978
156	0xbe000d47	-0.12505065
157	0x3b1b60a2	0.002370872
158	0x3c1b2098	0.00946822
159	0xbd0b7d24	-0.03405489
160	0xbdc4ecad	-0.09615455
161	0xbe239768	-0.15975726
162	0xbdf63ddf	-0.1202352
163	0xbd2db312	-0.042407103
164	0x3d752aa7	0.05985513
165	0x3d785530	0.060628116
166	0xbd47ac39	-0.04874823
167	0xbde43ffa	-0.11145015
168	0xbcf6f878	-0.030147776
169	0x3d17bec0	0.037047148
170	0xbd8c0e7d	-0.06838701
171	0x3d70e6d7	0.058813896
172	0x3d180c3d	0.037121046
173	0x3dac0e4b	0.08401164
174	0xbd24aaa5	-0.0402018
175	0xbc83ce26	-0.01608951
176	0x3d168225	0.03674521
177	0x3df479cd	0.11937294
178	0x3d717ca9	0.058956776
179	0xbd8ec2c8	-0.06970745
180	0xbcae1118	-0.021248385
181	0xbd5bc535	-0.05365487
182	0xbdf4bf88	-0.11950594
183	0x3dc59074	0.09646693
184	0xbcd77c98	-0.026304528
185	0x3d35a28d	0.044344474
186	0xbd18b5e0	-0.037282825
187	0x3db6fac7	0.08934551
188	0xbcf4acdc	-0.029867582
189	0xbd417e2d	-0.04723947
190	0xbd4fc655	-0.050726254
191	0x3db2c6e5	0.08729342
192	0x3dc13516	0.094339535
193	0xbcc4325a	-0.02394979
194	0xbd4358c4	-0.047692075
195	0x3e18fc28	0.1493994
196	0x3d8ce029	0.06878693
197	0x3d6636b9	0.05620453
198	0x3d57a697	0.052649107
199	0x3c4e2f20	0.012584478
200	0x3d699ee1	0.057036284
201	0x3db82531	0.08991469
202	0x3cdf634c	0.027269028
203	0xbd666bf0	-0.05625528
204	0xbd9c8323	-0.076422
205	0xbc0cc54c	-0.008591961
206	0xbd0f01b6	-0.03491374
207	0xbde3670a	-0.111036375
208	0x3d71203b	0.058868628
209	0x3d3a7d78	0.045529813
210	0x3cc6965e	0.024241623
211	0xbcb7cac9	-0.022435563
212	0xbe11c0a4	-0.14233643
213	0xbd1110e0	-0.035416484
214	0xbd3aa6ae	-0.045569114
215	0xbd374fde	-0.0447539
216	0x3db9f3ea	0.09079726
217	0xbd7ce0a6	-0.06173768
218	0xbdbfe655	-0.09370104
219	0x3c4f886d	0.012666804
220	0xba925731	-0.0011164901
221	0xbd9b9362	-0.075964704
222	0xbd0f165b	-0.03493343
223	0x3d8ec6c0	0.06971502
224	0x3dac7950	0.08421576
225	0xbd58c862	-0.052925475
226	0x3d623577	0.05522677
227	0x3ce68116	0.028137725
228	0xbdb42e84	-0.08797935
229	0xbcb1a53f	-0.02168524
230	0x3e139454	0.14412051
231	0x3dd9d17f	0.10635661
232	0xbc24be31	-0.010055111
233	0xbb64ce9f	-0.0034913195
234	0x3e0d323c	0.13788694
235	0x3db4e023	0.08831813
236	0xbd150991	-0.036386076
237	0x3d1e5e46	0.038664125
238	0x3e028c60	0.12748861
239	0x3c2242c5	0.009903614
240	0x3dd1aa4f	0.10237562
241	0x3dd68945	0.10475401
242	0xbbb40eba	-0.0054949196
243	0xbd2bdf1f	-0.04196083
244	0xbd44f382	-0.04808379
245	0x3d8b0a05	0.067890204
246	0x3d94c6f9	0.072645135
247	0x3dab7a8b	0.083729826
248	0xbe34a45e	-0.17640826
249	0x3db0836f	0.08618819
250	0x3cd146aa	0.02554639
251	0x3d066709	0.032813106
252	0x3d1fa470	0.03897518
253	0x3d0b9395	0.034076292
254	0x3d26151a	0.040547468
255	0xbd57aa0b	-0.0526524

net.4.module.0.bias f4 [32]
0	0x3dd9b33d	0.1062989
1	0xbc9204b9	-0.017824518
2	0x3d7ac4d1	0.061222855
3	0xbcc9a042	-0.02461255
4	0xbd36bb7a	-0.044612385
5	0xbd3f1669	-0.04665223
6	0x3d816066	0.06317215
7	0x3d84597c	0.0646238
8	0x3d3375c9	0.0438135
9	0xbd4cc3c2	-0.049991377
10	0x3c8169bd	0.01579749
11	0x3c603174	0.013683666
12	0x3c9aeea1	0.018912615
13	0x3d0ffa7e	0.035150997
14	0x3cbc85a5	0.023012945
15	0x3d946878	0.07246488
16	0x3d3364b8	0.043797225
17	0x3d11e0fe	0.03561496
18	0xbd1d1371	-0.03834862
19	0xbcaa0996	-0.020756524
20	0x3d5515a9	0.05202261
21	0x3cfc5ad4	0.030805029
22	0x3d8314d8	0.0640046
23	0xbdb97078	-0.09054655
24	0x3cc29d12	0.023756538
25	0x3da6f951	0.08153022
26	0xbd9c1142	-0.07620479
27	0x3c93ad35	0.018026927
28	0xbd0f74c3	-0.035023462
29	0x3d29fe5f	0.041502353
30	0x3dad13ca	0.0845104
31	0x3d95c4ca	0.07312925

net.5.weight f4 [48, 32, 3]
0	0xbdeae131	-0.11468733
1	0x3d76cf7d	0.06025647
2	0xbcb32e4a	-0.021872658
3	0x3d5ff059	0.054672573
4	0x3da32c87	0.07967477
5	0x3c370b8b	0.011172186
6	0xbdab9e36	-0.08379786
7	0x3c881383	0.016610866
8	0xbbf68875	-0.007523591
9	0xbbd86d06	-0.0066047935
10	0x3c16908c	0.009189736
11	0xbca8e9be	-0.02061927
12	0xbcf7d5fb	-0.030253401
13	0xbd8a86ae	-0.06763969
14	0x3d639a6d	0.055567194
15	0x3c5f735f	0.013638346
16	0x3da225a6	0.07917337
17	0x3d177867	0.03698006
18	0x3d5e2228	0.054231793
19	0x3c8e6c92	0.017385755
20	0x3e278666	0.16359863
21	0xbc837050	-0.016044766
22	0x3d340b89	0.043956313
23	0x3c134e04	0.008990768
24	0x350b2546	5.1835775e-07
25	0x3d4aa813	0.049476694
26	0x3d1677f0	0.036735475
27	0x3e0b2e4d	0.13591881
28	0x3cbbe33e	0.022935506
29	0x3d30f7a0	0.043204904
30	0x3bd4a166	0.0064889668
31	0xbc5a9213	-0.013340491
32	0xbd81a930	-0.06331098
33	0xbd888f88	-0.066680014
34	0xbbe8f597	-0.0071093547
35	0xbc84f074	-0.016227938
36	0xbe00521c	-0.12531322
37	0x3cbb1914	0.022839107
38	0xbc4a927c	-0.012364026
39	0xbd955f24	-0.07293537
40	0x3e046b5e	0.12931582
41	0xbd3b91ba	-0.045793273
42	0x3d67a971	0.056558076
43	0xbc61fbc6	-0.013792938
44	0x3c9e9cb4	0.019361831
45	0xbd6c2916	-0.05765637
46	0xbd80fefe	-0.06298636
47	0x3da90279	0.08252425
48	0xbc0d49b8	-0.008623533
49	0x3db7e7e7	0.08979779
50	0xbd97bbe9	-0.07408888
51	0x3da1b15c	0.07895157
52	0xbd37bf3f	-0.04486012
53	0x3d5d87ec	0.054084703
54	0xbd180b54	-0.03712018
55	0x3d8de20b	0.0692788
56	0x3d44b971	0.048028413
57	0x3cb1209d	0.021621997
58	0x3cdea689	0.02717902
59	0xbda20d38	-0.079126775
60	0xbacf4cf2	-0.0015815778
61	0xbd0c7084	-0.03428699
62	0xbbb25bd8	-0.0054430775
63	0x3ccba92a	0.024860937
64	0x3c58526d	0.013203246
65	0x3da09694	0.078412205
66	0xbdeac47a	-0.11463256
67	0x3bda0ab0	0.006654106
68	0x3d04d349	0.03242806
69	0x3d4b2bec	0.049602434
70	0xbd1eee29	-0.038801346
71	0x3cc2ec44	0.0237943
72	0xbdf8dcb2	-0.12151469
73	0x3a6928d8	0.0008894331
74	0x3d99d87e	0.07511996
75	0xbd96b7e9	-0.07359297
76	0x3dc1ba88	0.09459406
77	0xbd7390d7	-0.059464302
78	0xbcbb4e1f	-0.0228644
79	0xbbfdabf0	-0.007741444
80	0x3bd90929	0.0066234064
81	0x3de0c1f8	0.109744966
82	0x3d938505	0.07203106
83	0x3af64628	0.0018789219
84	0x3c50f42d	0.012753529
85	0x3dac8473	0.084237
86	0xbce25a12	-0.02763084
87	0xbd822b57	-0.06355923
88	0x3d8584f8	0.065195024
89	0x3d6497c1	0.055808786
90	0xbdbc8af3	-0.0920619
91	0xbd68377c	-0.05669354
92	0x3d3b4098	0.0457159
93	0x3d2e551c	0.042561635
94	0x3bad93ba	0.0052971514
95	0x3d7a3b90	0.06109196
96	0xbdbb0b94	-0.09133068
97	0x3de42007	0.11138921
98	0xbb67c0d0	-0.0035362728
99	0x3d886534	0.06659928
100	0xbc390370	-0.0112923235
101	0xbd473bd4	-0.04864104
102	0x3d214bde	0.039378993
103	0x3db3d472	0.08780755
104	0xbd3f7759	-0.04674468
105	0x3d60a340	0.054843187
106	0x3d854a45	0.065083064
107	0xbdc74659	-0.097302146
108	0xbdc74f7a	-0.09731956
109	0xbd5a9aec	-0.0533704
110	0x3d87f1c4	0.0663791
111	0x3c350a07	0.011049754
112	0xbd0ccc5c	-0.03437458
113	0xbd68ff18	-0.0568839
114	0x3df323b6	0.11872046
115	0x3d440d4c	0.047864243
116	0x3d38b9ae	0.045098953
117	0xbd78bf45	-0.060729284
118	0xbcfcc01f	-0.03085333
119	0xbdc42324	-0.09577015
120	0x3dca3bfb	0.098747216
121	0x3ce7ca87	0.028294815
122	0x3cc0e428	0.023546293
123	0x3cde29da	0.027119566
124	0xbda02127	-0.07818823
125	0x3d8fc2b3	0.07019558
126	0x3da1075b	0.07862731
127	0xbc0d2e73	-0.008617031
128	0x3da24f0f	0.079252355
129	0x3d8f45d8	0.069957435
130	0x3ce86730	0.028369516
131	0x3dc80d7d	0.09768198
132	0x3e36ffa6	0.1787096
133	0xbd2d4dd9	-0.04231057
134	0xbc9f10ed	-0.01941725
135	0x3de3a6db	0.111158095
136	0xbe0966bf	-0.13418101
137	0x3ccf4f19	0.025306271
138	0x3df64177	0.12024205
139	0x3cb0d425	0.021585533
140	0xbe1451e2	-0.14484361
141	0xbd218e53	-0.03944237
142	0x3ddba4e5	0.107248105
143	0x3c007a8b	0.0078417165
144	0xbd8c63fa	-0.068550065
145	0xbbb1d11c	-0.005426539
146	0xbb27488f	-0.0025525426
147	0x3d5c5de3	0.053800475
148	0x3da9876a	0.08277781
149	0x3bb573d2	0.0055374885
150	0x3d049afb	0.032374363
151	0xbd4df14e	-0.050278954
152	0x3d8a7a5f	0.06761622
153	0x3d7eb05f	0.06217992
154	0xbd662172	-0.05618424
155	0xbd5b86f2	-0.05359549
156	0xbded2e8c	-0.11581144
157	0x3deff5b1	0.11716784
158	0xbd7f8afe	-0.062388413
159	0x3dc35ba3	0.09538963
160	0xbd9cec0f	-0.07662212
161	0x3baf0e8d	0.0053423108
162	0xbd4c2eda	-0.04984937
163	0x3ca450d3	0.020058071
164	0xbdb60578	-0.08887762
165	0x3d10c3d2	0.035343
166	0x3daa9c47	0.08330589
167	0x3c193d47	0.009352989
168	0xbdff2b64	-0.12459448
169	0x3d8f6b1c	0.07002851
170	0xbade1a7f	-0.0016945152
171	0x3e01a41f	0.12660263
172	0x3bb35e4c	0.0054738875
173	0xbd295679	-0.041342232
174	0xb891acc6	-6.94632e-05
175	0x3d74ae1e	0.059736364
176	0xbca20fa4	-0.019782849
177	0x3dd2152e	0.10257946
178	0xbd79edc5	-0.06101777
179	0x3dc6c357	0.09705227
180	0x3e0971eb	0.13422363
181	0xbdc2f017	-0.0951845
182	0xbda88fbc	-0.0823054
183	0xbdcc1d82	-0.09966566
184	0x3dcd619b	0.100283824
185	0x3c8dce4f	0.01731029
186	0x3d8f81bf	0.07007169
187	0x3d6d85d1	0.057988945
188	0x3d49b6af	0.049246486
189	0xbd09504a	-0.033523835
190	0x3d9cbe12	0.076534405
191	0x3e02d9c5	0.12778385
192	0x3dc8fc43	0.0981374
193	0x3b82b50b	0.003988867
194	0x3da2ca6c	0.07948765
195	0xbdbb6988	-0.09150988
196	0x3d32c20f	0.0436421
197	0xbd6a56d5	-0.057211716
198	0xbdb99d41	-0.09063197
199	0x3cd84ef6	0.026404839
200	0x3d81733b	0.063208066
201	0xbd605d84	-0.054776683
202	0xbca9444c	-0.02066245
203	0x3d72d9c1	0.059289698
204	0x3d8d985e	0.06913827
205	0x3c4e32c9	0.01258535
206	0x3d1dafde	0.0384978
207	0xbd82e454	-0.063912064
208	0x3ce1bcc5	0.027555833
209	0xbd896d53	-0.06710305
210	0xbd303b7c	-0.04302548
211	0x3dbc8f45	0.09207014
212	0xbd1d67ff	-0.038429257
213	0xbd1dc6d2	-0.038519688
214	0x3db32406	0.08747105
215	0xbdf18843	-0.11793568
216	0xbc40e15d	-0.011772481
217	0x3dc2e727	0.09516745
218	0xbd7b3fdd	-0.0613402
219	0x3cf07edb	0.029357364
220	0x3c0ac1f3	0.008469093
221	0xbc9f7fbf	-0.019470094
222	0xbcc6f2ad	-0.024285639
223	0xbe1b8800	-0.15188599
224	0x3e127085	0.14300735
225	0xbc34ecf7	-0.011042825
226	0xbe0c9bfb	-0.13731377
227	0x3dc9e63e	0.09858368
228	0xbcc388de	-0.023868974
229	0x3d9d78c1	0.076890476
230	0xbd645200	-0.055742264
231	0x3d1e9150	0.0387128
232	0xbca44e7d	-0.020056957
233	0x3bc00fd9	0.005861264
234	0x3be1726d	0.0068800957
235	0xbd737fe3	-0.059448134
236	0x3d1f24b3	0.03885336
237	0x3c8049ee	0.015660252
238	0x3cbae838	0.022815809
239	0xbd264a57	-0.04059824
240	0x3c8808d7	0.016605778
241	0x3d8e5f50	0.06951773
242	0x3dc9c6f3	0.098524
243	0xbc155149	-0.009113618
244	0x3d3a0859	0.045418117
245	0x3d8bde17	0.0682947
246	0xbdc5e7b6	-0.09663336
247	0x3d063852	0.032768555
248	0x3d41db41	0.047328237
249	0x3d5fb4e7	0.05461588
250	0xbdc3d14c	-0.095614046
251	0xbdeb7c40	-0.11498308
252	0xbc070717	-0.008241436
253	0xbddeaeb6	-0.10873167
254	0xbc19b26f	-0.009380921
255	0x3e0a5c7b	0.13511841

net.5.bias f4 [48]
0	0xbd7936cc	-0.060843274
1	0xbab93c26	-0.0014132306
2	0xbdb8b893	-0.0901958
3	0x3d3f1274	0.046648458
4	0xbc816297	-0.015794082
5	0xbdc2b79c	-0.09507677
6	0x3d8d5720	0.069013834
7	0xbc8ca894	-0.017170228
8	0x3d9741bc	0.07385585
9	0x3c797547	0.015225715
10	0x3d66260e	0.056188636
11	0xbd2ed381	-0.042682175
12	0x3bacd791	0.005274721
13	0x3d78e0f3	0.060761403
14	0x3d050529	0.032475624
15	0xbdc83002	-0.09774782
16	0x3dab3d4b	0.083613
17	0x3bce592d	0.0062972517
18	0xbd5b19ab	-0.053491276
19	0xbd0bbbcd	-0.034114648
20	0x3d515068	0.051102072
21	0x3c523700	0.012830496
22	0xba1fe420	-0.0006099362
23	0x3d81f8fe	0.063463196
24	0xbbc6ba30	-0.0060646757
25	0xbd17ad0f	-0.037030276
26	0x3d0c1694	0.03420122
27	0xbd39dae4	-0.045374766
28	0xbacfb69f	-0.0015847272
29	0x3b9177fd	0.0044393525
30	0x3d37c968	0.04486981
31	0x3db37b43	0.08763745
32	0x3d8e957d	0.069621064
33	0x3d2cf5bc	0.042226538
34	0xbcf31736	-0.029674154
35	0x3cb0964e	0.021556046
36	0x3d06bc80	0.03289461
37	0xbda8aa7f	-0.082356445
38	0x3ae07afa	0.0017126494
39	0xbcf0aa81	-0.029378178
40	0x3d3d113b	0.04615901
41	0x3d12da72	0.035852857
42	0xbcf79ff2	-0.030227635
43	0xbd964f1f	-0.0733931
44	0x3cdc75ff	0.026911734
45	0xbdac4eb1	-0.08413447
46	0xbcd86ee3	-0.026420062
47	0x3cab6f68	0.020927146

exp_avg f4 [32, 191, 2]
0	0x3ac55771	0.0015055967
1	0x3c2d7cff	0.010588883
2	0xbd98cece	-0.0746132
3	0xbdb6eb69	-0.0893162
4	0x3d7180eb	0.058960836
5	0xbcb4f3d8	-0.02208893
6	0x3c224cd1	0.00990601
7	0x3ca8378e	0.020534303
8	0x3dbb9c39	0.091606565
9	0x3dc474b1	0.095925696
10	0xbcce9b67	-0.025220586
11	0xbbab50f1	-0.005228155
12	0x3d2db671	0.042410318
13	0xbb927a6d	-0.0044701607
14	0x3e01c248	0.12671769
15	0x3d8812fd	0.06644247
16	0x3e090a1f	0.13382767
17	0x3db24e57	0.087063484
18	0xbd8ec8eb	-0.06971916
19	0xbd6723a2	-0.056430466
20	0x3c98d038	0.018653974
21	0x3dc47549	0.09592683
22	0xbc8ebb80	-0.017423391
23	0x3c39f63f	0.011350214
24	0x3bc1f0a4	0.005918579
25	0xbd75f322	-0.060046323
26	0xbd0fc84e	-0.035103135
27	0xbd37af43	-0.044844877
28	0x3c82657a	0.015917528
29	0xbc8e48dd	-0.017368728
30	0x3dba6e5f	0.09103083
31	0x3dad98e5	0.08476428
32	0xbcb37eea	-0.021911103
33	0x3ceb7ef9	0.028747069
34	0x3c490bd4	0.012270886
35	0xbd0d0c83	-0.03443576
36	0x3c84ea5d	0.016225034
37	0x3d82fdee	0.063960895
38	0x3c49a818	0.012308143
39	0x3cab9da8	0.0209492
40	0x3ceaea79	0.028676258
41	0xbbdef20c	-0.0068037566
42	0xbe16af1b	-0.14715235
43	0xbe3208d4	-0.1738618
44	0x3cadd45d	0.021219427
45	0x392ad62c	0.00016292249
46	0x3d0fc2c1	0.03509784
47	0xbd4fa8d2	-0.05069811
48	0xbd705a7d	-0.058680046
49	0xbd92d833	-0.07170143
50	0xbded3ccc	-0.11583862
51	0xbdd440d8	-0.103639305
52	0xbbfe9a9e	-0.0077698966
53	0x3cf26052	0.029586945
54	0xbd4ff46b	-0.050770205
55	0xbd72fbcf	-0.059322175
56	0xbe7023c3	-0.23451142
57	0xbe49f610	-0.19722772
58	0xbcf58818	-0.029972121
59	0x3a98d2aa	0.0011659462
60	0xbd2a63fe	-0.041599266
61	0xbd9b2a9a	-0.07576485
62	0xbbcddbf3	-0.0062823235
63	0x3cfd33a2	0.03090841
64	0xbb580751	-0.0032963345
65	0x3b8f9980	0.0043823123
66	0x3da93d0a	0.082635954
67	0x3c245fa9	0.010032573
68	0xbdceb243	-0.100925945
69	0xbdd4cbef	-0.1039046
70	0x3c5d4cc5	0.013507073
71	0x3d8e1c89	0.069390364
72	0xbceede74	-0.029158808
73	0xbd3ba6fd	-0.04581355
74	0x3d29a649	0.041418348
75	0x3d891e43	0.06695225
76	0xbd8de178	-0.069277704
77	0xbde52121	-0.111879595
78	0x3cd4df16	0.025985282
79	0xbd622be4	-0.05521764
80	0xbd64e7ff	-0.05588531
81	0xbda78111	-0.08178914
82	0xbd0d87cf	-0.034553345
83	0x3b1aaa48	0.002360003
84	0xbe0818fa	-0.13290778
85	0xbe0a7c6f	-0.1352403
86	0xbd5d0cfc	-0.05396746
87	0xbcc1fd35	-0.023680309
88	0xbd92ef35	-0.07174531
89	0xbd51782f	-0.051140007
90	0x3b34b103	0.0027571328
91	0x3cdba003	0.026809698
92	0x3c25d445	0.01012141
93	0xbd6b6e51	-0.057478253
94	0xbbfbda13	-0.0076859086
95	0x394e7b56	0.00019691637
96	0xbc6f9b83	-0.014624479
97	0xbcb77a09	-0.022397058
98	0xbd56eb9f	-0.0524708
99	0xbcdd816a	-0.027039248
100	0xbc19add2	-0.009379821
101	0xbd5c67da	-0.053809978
102	0x3aa11e02	0.0012292268
103	0x3c2744bc	0.010209259
104	0xbe77b743	-0.24191003
105	0xbe550615	-0.20803101
106	0x3d17f6d0	0.037100613
107	0x3cb6a743	0.022296553
108	0xbcb63dd1	-0.022246273
109	0xbdc000a9	-0.09375126
110	0xbe122043	-0.1427012
111	0xbe097323	-0.13422827
112	0xbdb30043	-0.08740284
113	0xbd158e22	-0.0365125
114	0xbdb2816c	-0.087160915
115	0xbcc902ee	-0.02453753
116	0xbd5f9b33	-0.05459137
117	0xbbc0bb6a	-0.0058817165
118	0x3cf26e05	0.029593477
119	0xbc75ef73	-0.015010702
120	0xbe13209b	-0.14367907
121	0xbdcfd0b7	-0.10147231
122	0xbd9d40a7	-0.07678347
123	0xbc50a7bf	-0.012735306
124	0xbe264858	-0.16238534
125	0xbe2c8f61	-0.1685157
126	0xbd418aef	-0.047251638
127	0xbd8114f4	-0.063028246
128	0xbdc5ae4b	-0.09652384
129	0xbd8c5932	-0.0685295
130	0xbd955c92	-0.07293047
131	0xbdcb9212	-0.0993997
132	0xbd97dafb	-0.07414814
133	0xbd32a6fd	-0.043616284
134	0xbd8aab7b	-0.067709886
135	0xbddd418b	-0.10803517
136	0xbd2f6552	-0.042821236
137	0xbddc16a6	-0.10746507
138	0xbe31ced5	-0.17364056
139	0xbd71ed7f	-0.059064385
140	0x3de40753	0.111342095
141	0x3d81c900	0.06337166
142	0x3d8a182d	0.067428924
143	0x3d24b6b7	0.040213313
144	0xbdc9f506	-0.09861188
145	0xbdb1fed3	-0.08691182
146	0xbe06a9f5	-0.13150771
147	0xbdbafb43	-0.091299556
148	0xbe140988	-0.14456761
149	0xbe27ed01	-0.16399004
150	0xbe0bfdd2	-0.13671044
151	0xbe10ea3f	-0.14151858
152	0xbcaf5a49	-0.021405356
153	0x3c5124dd	0.012765137
154	0xbe31bda5	-0.173575
155	0xbe247acb	-0.16062467
156	0xbe148f76	-0.14507851
157	0xbe14163e	-0.1446161
158	0xbd83aed2	-0.06429829
159	0xbd0a3290	-0.033739626
160	0xbd35a02e	-0.044342212
161	0xbd77a1a2	-0.06045688
162	0xbd7f43f0	-0.06232065
163	0xbcee250d	-0.029070402
164	0x3cc69801	0.024242403
165	0xbd5456d8	-0.051840633
166	0xbd11118c	-0.035417125
167	0xbca34a09	-0.019932764
168	0xbdefee7b	-0.117154084
169	0xbe11bc92	-0.1423209
170	0xbe1129da	-0.14176121
171	0xbd9b23d6	-0.075751945
172	0xbe0e7e26	-0.1391531
173	0xbdc55fcc	-0.096374124
174	0xbe2a690e	-0.16641638
175	0xbe27187d	-0.16317935
176	0xbdac9bf9	-0.08428187
177	0xbe3c9d20	-0.18419313
178	0x3dbaeb86	0.09126954
179	0x3d8845eb	0.06653961
180	0xbdc027d5	-0.09382597
181	0xbd60b711	-0.054862086
182	0xbdea3ecc	-0.11437759
183	0xbe01aa4b	-0.12662618
184	0xbd62754b	-0.05528764
185	0xbda1c0c3	-0.078980945
186	0xbc738ae2	-0.014864655
187	0xbbdb73cc	-0.0066971537
188	0xbc7a4e29	-0.015277424
189	0xbbc34871	-0.0059595634
190	0xbd9bc8e6	-0.07606678
191	0xbd37051f	-0.04468262
192	0xbd0f6edf	-0.035017844
193	0x3cdf5044	0.027259953
194	0x3dbaaa36	0.091144964
195	0x3e097d06	0.13426599
196	0xbd4c178c	-0.049827144
197	0x3d0ff6ff	0.035147663
198	0x3d9271c7	0.071506076
199	0x3de480a7	0.11157351
200	0xbd946c74	-0.07247248
201	0xbccf7e36	-0.025328737
202	0xbd82df8f	-0.06390297
203	0x3cd841f3	0.026398635
204	0xbd9e2f9e	-0.07723926
205	0xbe1a8e8c	-0.1509344
206	0x3dac0df5	0.084010996
207	0x3e09b54a	0.13448063
208	0x3d4f3adc	0.050593242
209	0x3d043ec6	0.032286428
210	0xbc0b2868	-0.00849352
211	0x3d1013b6	0.035175048
212	0xbd15b956	-0.036553703
213	0xbd4c8244	-0.04992892
214	0x3be6856a	0.007034947
215	0xbbd0ecb9	-0.006375876
216	0x3d0ecb9b	0.034862142
217	0x3e076576	0.13222298
218	0xbdc3442a	-0.09534486
219	0xbd860a8b	-0.0654498
220	0xbe21079f	-0.15725563
221	0xbdc6cf4b	-0.09707507
222	0xbd93de64	-0.07220152
223	0xbd424d74	-0.047437146
224	0xbd049022	-0.03236402
225	0x3c8737f8	0.01650618
226	0x3d80dc1e	0.06291984
227	0x3dc4bb7f	0.096060745
228	0x3cbff86e	0.02343389
229	0x3df83d93	0.12121119
230	0xbdf164e8	-0.117868245
231	0xbdb3e50c	-0.087839216
232	0x3d80bce3	0.06286027
233	0x3d437587	0.047719505
234	0xbd315f66	-0.04330387
235	0x3c080dfc	0.008304115
236	0xbd3c6154	-0.045991257
237	0xbd8edbb2	-0.06975497
238	0xba9c09a4	-0.0011904729
239	0x3ce5e99c	0.028065495
240	0xbe137e45	-0.14403637
241	0xbdc50cac	-0.096215576
242	0xbe31337f	-0.173048
243	0xbe0c56e2	-0.13705018
244	0xbdcf4b87	-0.101218276
245	0xbd84e81c	-0.06489584
246	0xbe1c96e3	-0.15291934
247	0xbe086c98	-0.13322675
248	0xbd76de43	-0.06027056
249	0xbcb947d0	-0.02261725
250	0xbe43ed64	-0.19133526
251	0xbe455a63	-0.19272761
252	0xbc57bafd	-0.01316714
253	0xbd6bfe42	-0.057615526
254	0x3dd557ef	0.104171626
255	0x3de1a780	0.11018276
