saved_CEBRA_models/nitschke_20090812_20090819_20090910/CEBRA_models/temperature_0.0031333333333333335_time_offsets_1_dataset1.pt (torch, 531429 bytes, 31 tensors)

net.0.weight f4 [32, 191, 2]
0	0x3d8363dd	0.06415532
1	0x3c3d7d55	0.011565526
2	0x3c458cea	0.012057522
3	0xbd09f654	-0.033682182
4	0xbd453651	-0.048147503
5	0x3cf849b8	0.03030859
6	0x3bc254f1	0.005930536
7	0x3d8800a4	0.06640747
8	0x3b6915e0	0.0035566017
9	0xbc82ea18	-0.015980765
10	0x3ccac25d	0.024750883
11	0xbceb2269	-0.028702931
12	0xbd402b4b	-0.046916287
13	0xba6be0dc	-0.0008998045
14	0xbb19a1f4	-0.002344248
15	0x3b51f1f8	0.0032035094
16	0x3d325444	0.043537393
17	0x3d8956a5	0.06705979
18	0xbc8adf27	-0.01695211
19	0x3c89a739	0.01680337
20	0xbae05a25	-0.0017116709
21	0xbc44a790	-0.012002841
22	0xbce2026d	-0.027589047
23	0xbcc2c637	-0.023776157
24	0x3c81b1d2	0.015831862
25	0x3d275b99	0.04085884
26	0x3bc1437d	0.005897938
27	0x3d2d00b1	0.042236988
28	0xbc81a97b	-0.015827885
29	0xbcf7f903	-0.030270105
30	0x3d05e14f	0.032685574
31	0x3c68257b	0.014169092
32	0xbbaa6342	-0.0051998207
33	0x3d33b7c1	0.043876413
34	0xbd195b34	-0.037440494
35	0xbd52c6c9	-0.051459108
36	0xbd08d67e	-0.03340768
37	0xbbc61fee	-0.006046287
38	0x3d3450bf	0.044022318
39	0x3d827b40	0.06371164
40	0x3cf9e920	0.03050667
41	0xbccd4dea	-0.025061566
42	0x3bb9ba82	0.0056679854
43	0xbd4d0160	-0.05005014
44	0xbd116249	-0.035494123
45	0x3c60fe0d	0.013732445
46	0xbd39dc48	-0.045376092
47	0x3c9c598e	0.019085672
48	0xbd3373bd	-0.04381155
49	0xbda2d4cc	-0.07950744
50	0x3ca7ac4c	0.0204679
51	0x3d3f83f5	0.046756703
52	0xbca97b32	-0.020688627
53	0xbca421ce	-0.02003565
54	0xbd84b214	-0.06479278
55	0xbc36656e	-0.011132581
56	0xbcaf4232	-0.02139387
57	0xbd45f49b	-0.048328977
58	0xbd819f3c	-0.063292
59	0x3ca3bfe4	0.019988962
60	0x3c6c87d0	0.014436677
61	0xbc0ca08d	-0.0085832
62	0xbae972ff	-0.0017810761
63	0xbd1afcb9	-0.03783867
64	0xbd45a54f	-0.048253354
65	0xbd42c518	-0.047551244
66	0x3b5ff4a1	0.003417291
67	0xbc42c853	-0.011888581
68	0xbd88cb3b	-0.06679388
69	0xbd00e90f	-0.031472262
70	0xbd43d4d0	-0.047810376
71	0x3aa42a43	0.0012524802
72	0xbc8a07ca	-0.016849417
73	0xbca0393f	-0.019558547
74	0xbd7ec531	-0.062199775
75	0xbd32ef73	-0.043685388
76	0x3ad2951a	0.0016066164
77	0x3ca63873	0.020290589
78	0xbac710f1	-0.0015187544
79	0xbd8296f7	-0.063764505
80	0xbc9be082	-0.019027952
81	0xbc1dcbbd	-0.0096310945
82	0xbc80ee6a	-0.015738685
83	0xbd178c76	-0.03699919
84	0x3bf4fffb	0.0074768043
85	0x3c8a192f	0.016857712
86	0x3d30bf8e	0.04315143
87	0x3cbd9d20	0.023146212
88	0xbb989b38	-0.0046571754
89	0xbcd7a22e	-0.02632245
90	0xbcb61824	-0.022228308
91	0x3d0c4274	0.034243062
92	0x3d699684	0.05702831
93	0xbd275164	-0.040849105
94	0x3dadcd09	0.08486373
95	0x3c5634ea	0.013074139
96	0xbdca35a0	-0.098735094
97	0xbd601dca	-0.05471591
98	0xbc453159	-0.012035691
99	0x3c89518b	0.016762516
100	0x3c3750fe	0.011188744
101	0xbcca6dd2	-0.02471057
102	0x3be0b384	0.0068573374
103	0xbcb7e3b4	-0.022447444
104	0x3c68bb48	0.014204808
105	0xbd5eddbc	-0.05441068
106	0xbd098a5e	-0.033579223
107	0xbd1356f7	-0.035971608
108	0x3d998b3f	0.07497262
109	0xba98d49f	-0.0011660046
110	0xbca78b03	-0.020452028
111	0x3c52b0c5	0.012859528
112	0x3d3d79c1	0.04625869
113	0xbc9378b7	-0.018001897
114	0x3d283f2d	0.041075874
115	0xbc89b27e	-0.016808745
116	0xbb4c45d9	-0.0031169562
117	0xbd21cd4d	-0.03950243
118	0x3d011968	0.03151837
119	0xbcb02526	-0.021502089
120	0x3cf3b523	0.029749459
121	0x3d537546	0.051625513
122	0xbbb6d975	-0.005580122
123	0xbd40ef9f	-0.04710352
124	0xbd06de13	-0.03292663
125	0x3d2cbbd9	0.042171333
126	0x3d4d92d2	0.050188847
127	0xbcc18550	-0.023623139
128	0x3d2c324b	0.04204015
129	0xbd1d696c	-0.038430616
130	0x3d06e765	0.03293552
131	0xbc0665d0	-0.008202985
132	0x3d2077f7	0.039176907
133	0x3a4ad66e	0.0007737641
134	0x3cc7f390	0.024408132
135	0x3cccde70	0.02500841
136	0x3d063c48	0.032772332
137	0x3ccf7196	0.025322717
138	0x3b43f3ad	0.002989988
139	0xbc1681e1	-0.009186239
140	0x3d0bc13c	0.03411983
141	0xbd2d25d8	-0.04227242
142	0x395cb73a	0.00021049092
143	0xbd533339	-0.05156252
144	0x3d56c040	0.052429438
145	0xba9b12af	-0.001183113
146	0xbb97c627	-0.004631776
147	0x3c3a58d7	0.01137372
148	0x3d0f4a15	0.03498276
149	0xbccdb26c	-0.025109492
150	0x3c07c23a	0.008286053
151	0x3ca4f741	0.020137431
152	0x3c54bf61	0.012985081
153	0xbd27f876	-0.041008435
154	0x3d13c0df	0.036072608
155	0xbd164088	-0.036682636
156	0xbce19fb4	-0.027541973
157	0xbc9b2ab2	-0.018941257
158	0x3d1e61d4	0.038667515
159	0xbc9edb2a	-0.019391615
160	0xbd00754f	-0.031361874
161	0x3c3b0b7a	0.01141631
162	0xbd3965ad	-0.04526298
163	0x3d81dc88	0.06340891
164	0xbd16b13b	-0.036790114
165	0x3d3c2619	0.04593477
166	0x3ba40788	0.0050057806
167	0xbbaac6d3	-0.00521169
168	0x3d175c91	0.036953513
169	0x3d2e6cd0	0.04258424
170	0x3d138b41	0.036021475
171	0x3c8ebad0	0.017423064
172	0x3d4fbf99	0.05071983
173	0xbd5782b3	-0.05261488
174	0xbbc4cdae	-0.0060059642
175	0xbcd1b6b1	-0.02559981
176	0x3c301db0	0.010749266
177	0x3c1ac637	0.009446672
178	0x3d5ce200	0.053926468
179	0x36e80ae3	6.915406e-06
180	0x3c3aa416	0.01139166
181	0xbd655c94	-0.055996493
182	0x3d9fad74	0.077967554
183	0x3cf22ff1	0.029563876
184	0x3c5a0508	0.013306864
185	0xbc250f05	-0.010074382
186	0xbb9945a1	-0.00467749
187	0xbd3cefcb	-0.046127122
188	0x3dbcb300	0.09213829
189	0x3d4dcf35	0.050246436
190	0xbc45e424	-0.012078319
191	0x3d60402c	0.0547487
192	0x3b14b512	0.0022690934
193	0x3cab4985	0.02090908
194	0xba82e445	-0.0009986243
195	0xbcbd0e1e	-0.02307802
196	0x3d667f20	0.05627358
197	0x3d0f6366	0.035006903
198	0x3c84ad83	0.016196018
199	0xbcc3bfe1	-0.023895206
200	0xbc86a081	-0.016433956
201	0xbd4caced	-0.049969602
202	0xbc30e3de	-0.010796515
203	0x3d0f6d67	0.035016444
204	0xbce5fe1e	-0.028075274
205	0x3d00af5a	0.03141723
206	0x3c868535	0.01642094
207	0x3d1822c0	0.037142515
208	0x3cf98696	0.030459683
209	0x3d0567c6	0.03256967
210	0x3a428dd8	0.0007421649
211	0xbcdbc620	-0.026827872
212	0x3c861bf6	0.016370755
213	0x3c0cb644	0.008588377
214	0x3c6b4f3d	0.014362154
215	0xbd533e3e	-0.05157303
216	0xbc59940e	-0.013279928
217	0xbd9f2e1d	-0.07772467
218	0xbd2d3f79	-0.04229686
219	0x3c7dbb20	0.015486509
220	0xbb67f914	-0.0035396265
221	0xbd4010b0	-0.046890914
222	0x3cab3eec	0.020904027
223	0x3cc2919d	0.023751074
224	0xbcc40bfb	-0.023931494
225	0xbcf38150	-0.029724747
226	0x3a94fba9	0.0011366504
227	0x3c942e93	0.018088615
228	0x3d7bf5f0	0.06151384
229	0x3d7e29c4	0.06205155
230	0x3cea7b0d	0.028623128
231	0xbc9aa418	-0.018877074
232	0xbc35a507	-0.011086709
233	0xbc18ef21	-0.0093343565
234	0xbd1d4d27	-0.038403656
235	0xbc1c6977	-0.009546629
236	0x3c839685	0.016062984
237	0x3cc918ef	0.024548022
238	0xbd12c410	-0.03583151
239	0x3b0fea54	0.0021959739
240	0x3c7d90bb	0.015476401
241	0xbb3e3a2a	-0.0029026368
242	0xbc1b15b1	-0.009465621
243	0xbc9f7d11	-0.019468816
244	0xbae51430	-0.001747733
245	0xbd72454a	-0.05914811
246	0x3d73c1c7	0.059510972
247	0xbbb0609e	-0.0053826114
248	0xbcc3802a	-0.023864824
249	0xbd22aac2	-0.03971363
250	0x3d5dc64c	0.05414419
251	0x3cf502e2	0.029908601
252	0x3cdf135d	0.027230913
253	0xbd9fae6c	-0.0779694
254	0x3cc01a86	0.023450147
255	0xbd7e7a20	-0.062128186

net.0.bias f4 [32]
0	0x3cd4d697	0.02598123
1	0x3d22c725	0.0397407
2	0x3c5efa0c	0.0136094205
3	0xbc833434	-0.016016103
4	0x3b812b78	0.0039419495
5	0xbcbdbaff	-0.023160456
6	0x3a9b568e	0.0011851357
7	0xbc9a8053	-0.018860018
8	0x3d64ad6e	0.055829458
9	0xbd249529	-0.040181313
10	0x3cc01fbf	0.023452638
11	0x39e25b0a	0.00043173908
12	0x3b7d6a91	0.0038668255
13	0xbc3a2b13	-0.011362809
14	0xbd25477a	-0.04035137
15	0xbd69913d	-0.057023276
16	0xbd1ac2f9	-0.037783597
17	0xbd17d8f0	-0.037072122
18	0xbcbb06d2	-0.0228304
19	0xbb5c2371	-0.003359046
20	0x3cc5c103	0.024139887
21	0x3b9e7d5b	0.004836721
22	0x3c50ba30	0.012739703
23	0x3ae905ac	0.001777818
24	0x3d906298	0.07050055
25	0xbd3ab146	-0.045579217
26	0xba85e700	-0.0010215938
27	0x3ca25d42	0.01981986
28	0x3c9b02a2	0.018922154
29	0xbc16cdc1	-0.009204329
30	0x3c93a456	0.018022697
31	0xbbbadd53	-0.0057026534

net.2.module.0.weight f4 [32, 32, 3]
0	0x3dd96a1f	0.10615944
1	0x3da6a347	0.081366114
2	0xbcadd5f3	-0.021220183
3	0xbd8e3b4e	-0.06944905
4	0xbdedd0df	-0.116121046
5	0x3cd84bd8	0.026403353
6	0x3e003ffe	0.12524411
7	0xbcfdfe5e	-0.03100508
8	0xbd840d40	-0.0644784
9	0xbc188c55	-0.0093108015
10	0x3c85527e	0.016274687
11	0xbd4afc9f	-0.049557324
12	0xbcdea5d0	-0.027178675
13	0xbd7e3f3f	-0.062072035
14	0xbd7a3fc8	-0.061095983
15	0x3d213c72	0.039364286
16	0x3dbc3d0a	0.0919133
17	0x3d9a92ea	0.07547553
18	0xbd2b73db	-0.041858535
19	0xbbef5f56	-0.007305066
20	0x3c6eab7b	0.014567251
21	0x3db28086	0.0871592
22	0x3daee81c	0.08540365
23	0x3d567128	0.052354008
24	0x3d3ae730	0.045630634
25	0xbd529f5c	-0.05142151
26	0xbce61584	-0.028086431
27	0x3d222bc0	0.039592505
28	0xbcad306c	-0.021141253
29	0xbd863a9a	-0.06554146
30	0x3da1af76	0.07894795
31	0x3d77f2ee	0.06053441
32	0xbdadbdf4	-0.08483496
33	0x3dce5b26	0.10075979
34	0xbcdff66e	-0.027339187
35	0x3d91bfc9	0.07116658
36	0x3d73689f	0.059425946
37	0xbc9a34b0	-0.018823951
38	0xbca5b25c	-0.02022665
39	0x3bc609ab	0.006043633
40	0xbcb14792	-0.021640573
41	0x3d36d05c	0.0446323
42	0xbc06d3be	-0.008229194
43	0x3d90cce9	0.070703335
44	0xbda7c788	-0.081923544
45	0xb9bb1c81	-0.00035688656
46	0xbbf69729	-0.007525344
47	0x3e262eca	0.16228786
48	0x3d67f611	0.05663115
49	0x3deb1bce	0.11479913
50	0x3d37d531	0.04488105
51	0xbd2b9c1b	-0.04189692
52	0xbc9378b1	-0.018001886
53	0xbd55dd81	-0.052213196
54	0xbdffa58b	-0.12482747
55	0x3d648b82	0.055797108
56	0xbda52032	-0.080627814
57	0x3e17abe0	0.14811659
58	0xbd87aec7	-0.06625133
59	0x3ce0ea19	0.027455376
60	0xbdbc1fc9	-0.0918575
61	0x3d8f695b	0.07002517
62	0xbcf3222d	-0.029679382
63	0xbc1add03	-0.009452107
64	0xbd8f0c7c	-0.06984803
65	0x3df00d8d	0.117213346
66	0xbd884a83	-0.06654837
67	0xbdb71135	-0.08938829
68	0xbb4406ca	-0.0029911273
69	0x3c68714c	0.014187168
70	0xbc405539	-0.011739069
71	0xbd7f1147	-0.062272336
72	0xbda5fd44	-0.08104947
73	0xbd9ecf23	-0.07754352
74	0xbdbe649c	-0.092965335
75	0x3d99601d	0.07489035
76	0x3b9bc9e4	0.004754292
77	0xbd320f98	-0.043471903
78	0xbd923ce0	-0.07140517
79	0x3e31c023	0.1735845
80	0x3d437fc1	0.047729257
81	0x3bcc2f6d	0.0062312395
82	0xbdedf4fc	-0.11618993
83	0xbd82c243	-0.06384709
84	0xbd64c68a	-0.055853404
85	0xbd4ba6fe	-0.049719803
86	0xbd82098d	-0.06349478
87	0x3de87bd1	0.11351741
88	0xbca376d8	-0.01995413
89	0xbd8048f3	-0.06263914
90	0xbe11a901	-0.14224626
91	0x3c93261b	0.017962506
92	0x3d37b47f	0.04484987
93	0xbdb0b9b3	-0.08629169
94	0x3ac57cbf	0.0015067084
95	0x3c6cb0d7	0.014446459
96	0x3d9f4159	0.07776136
97	0x3c88f183	0.016716724
98	0x3d3a2aea	0.045451082
99	0x3df7929d	0.12088511
100	0xbe0630ac	-0.13104504
101	0x3e07437b	0.13209336
102	0xbdd3cd8c	-0.10341939
103	0xbd2cbb74	-0.042170957
104	0x3cba17ec	0.022716485
105	0x3d7a7e23	0.06115545
106	0xbd9277c9	-0.071517535
107	0x3d520750	0.051276505
108	0xbe00b775	-0.12569983
109	0x3d805f70	0.06268203
110	0xbd977289	-0.07394893
111	0xbdaf3c61	-0.08556438
112	0x3d189257	0.037248936
113	0x3e0e084e	0.13870355
114	0xbdb6f127	-0.08932715
115	0x3d0f3ca1	0.03496993
116	0x3e3b20f0	0.18274283
117	0xbdf48c22	-0.11940791
118	0x3d3f6e9d	0.04673635
119	0x3dca7bdd	0.09886906
120	0x3e078905	0.13235863
121	0xbd54198d	-0.05178218
122	0xbdbb64ec	-0.09150109
123	0x3d9eb359	0.077490516
124	0x3d8a0263	0.067387365
125	0x3d9395d3	0.07206311
126	0x3da7ca95	0.08192936
127	0xbcc1dd07	-0.023664964
128	0xbd9f041d	-0.077644564
129	0xbd12fb13	-0.035883974
130	0xbc8987ce	-0.01678839
131	0xbd4bd8bd	-0.049767245
132	0xbd67b49d	-0.05656873
133	0x3d0af4bf	0.033924814
134	0x3c695a27	0.014242685
135	0x3c8fc9f4	0.017552353
136	0xbc121c36	-0.008917859
137	0xbd3f6ea8	-0.04673639
138	0xba18e382	-0.0005832241
139	0x3e157bfa	0.14598075
140	0xbbe61218	-0.0070212
141	0x3dffee69	0.12496645
142	0xbdf69da3	-0.120417856
143	0xbd1256e0	-0.03572738
144	0x3dd75ebe	0.105161175
145	0xbcdca673	-0.026934838
146	0xbcb9f966	-0.02270193
147	0xbe200b5f	-0.15629338
148	0x3c5b752a	0.013394633
149	0xbc614811	-0.013750092
150	0x3da2b4ca	0.07944639
151	0x3e049e3c	0.12950987
152	0xbdb20c52	-0.08693756
153	0xbd774fa1	-0.060378674
154	0x3ddcb56d	0.10776792
155	0xbd559ec3	-0.05215336
156	0xbc763ccb	-0.015029143
157	0x3bffee37	0.00781038
158	0x3d913345	0.07089857
159	0xbd41739f	-0.047229405
160	0x3cdefe36	0.027220827
161	0xbd609bb4	-0.05483599
162	0x3d8112d7	0.063024215
163	0xbce4f710	-0.02794984
164	0x3d95486e	0.072892055
165	0x3d0a4e1c	0.033765897
166	0x3d3498b5	0.044090945
167	0xbdb82f5e	-0.089934096
168	0xbd0d1271	-0.034441415
169	0xbda4d860	-0.08049083
170	0xbd2125df	-0.039342757
171	0x3d22b04b	0.039718907
172	0xbd88c5e2	-0.06678368
173	0xbb1763b4	-0.00231002
174	0xbd72bb0a	-0.059260406
175	0x3da90ecd	0.08254776
176	0x3d5793ef	0.052631315
177	0xbc2785c6	-0.010224765
178	0x3c0ecbb5	0.00871556
179	0xbdcc2aa8	-0.099690735
180	0xbdd20d3d	-0.10256431
181	0xbd4632c5	-0.04838826
182	0xbd01a1f9	-0.03164861
183	0xbe7264c8	-0.23671257
184	0x3d1cb22a	0.038255848
185	0x3e0a0512	0.13478497
186	0xbdaf314b	-0.08554324
187	0x3d8aece5	0.06783465
188	0xbcbe3fd9	-0.023223804
189	0xbc922f48	-0.017844811
190	0xbd0b2d18	-0.03397855
191	0xbd933305	-0.071874656
192	0x3d88b803	0.066757225
193	0x3db69488	0.08915049
194	0x3db54319	0.088506885
195	0x3e585c08	0.21128857
196	0xbdb4e0ce	-0.088319406
197	0xbcaa3bd2	-0.020780478
198	0xbdb49db0	-0.08819139
199	0xbca026b0	-0.019549698
200	0xbbb29e89	-0.005451028
201	0x3c0655f4	0.008199204
202	0x3da991e5	0.0827978
203	0x3dd1a06b	0.102356754
204	0x3b942f0d	0.0045222105
205	0x3d167546	0.036732934
206	0x3df4cab0	0.11952722
207	0xbdd578cb	-0.1042343
208	0x3b08b97e	0.0020862515
209	0xbb3e7b59	-0.002906522
210	0xbd209141	-0.039201025
211	0x3c2cda56	0.010550102
212	0xbd8885bb	-0.06666132
213	0xbdd0e7e8	-0.102004826
214	0x3bcdc1c7	0.0062792036
215	0x3d88a6ae	0.066724166
216	0x3a92030f	0.0011139828
217	0x3b1a8625	0.0023578492
218	0xbc6bd93c	-0.014395054
219	0xbd40cd55	-0.04707082
220	0x3d0be2f1	0.034151975
221	0xbbcaf951	-0.0061942716
222	0xbd299c8c	-0.04140906
223	0x3d0dc726	0.03461375
224	0x3dc4e506	0.09613995
225	0x3d7dff55	0.06201108
226	0xbccaf70a	-0.024776
227	0x3d5e1546	0.054219507
228	0x3d6b1ccc	0.05740051
229	0x3dc2747e	0.09494875
230	0xbcd07998	-0.025448605
231	0xbd807c95	-0.06273762
232	0x3d4f1f6f	0.050567087
233	0x3dba2ce6	0.09090595
234	0xbdd09284	-0.10184196
235	0x3d73e37f	0.05954313
236	0xbd7794d2	-0.06044466
237	0xbdf13f6b	-0.11779674
238	0x3d48eeb3	0.049055766
239	0xbdd57279	-0.104222246
240	0x3dca4fbe	0.09878491
241	0x3cfb79e3	0.030697769
242	0x3c787adc	0.015166011
243	0x3d850ed6	0.0649697
244	0xbd2442b0	-0.04010266
245	0x3bb1b0db	0.005422694
246	0x3cf91767	0.030406667
247	0x3dc3d4ab	0.095620476
248	0xbc91c516	-0.017794173
249	0xbda4bc7a	-0.080437616
250	0xb944c591	-0.00018765616
251	0x3d6d2207	0.05789378
252	0xbc3a421e	-0.011368303
253	0xbd720261	-0.0590843
254	0x3d82385d	0.06358407
255	0xbd78765c	-0.06065975

net.2.module.0.bias f4 [32]
0	0xbc701fc9	-0.014656016
1	0xbd88b055	-0.06674258
2	0xbb438e51	-0.0029839466
3	0xbd8a9e9f	-0.06768536
4	0xbd27fbf0	-0.04101175
5	0xbd3b05d1	-0.045659844
6	0x3ba0e972	0.0049106413
7	0xbcc66dd4	-0.024222292
8	0xbc77ab9d	-0.015116599
9	0x3c95a28a	0.018265981
10	0xbc0e7140	-0.008693993
11	0x399d622f	0.00030018526
12	0x3d6ea123	0.05825914
13	0x3d8b61d5	0.06805769
14	0x3c66223a	0.014046246
15	0xba970e67	-0.0011524678
16	0xbd1e9d33	-0.038724136
17	0x3d511436	0.051044665
18	0x3de2a929	0.11067421
19	0xbdddf95b	-0.108385764
20	0x3bcca300	0.006245017
21	0xbd11899a	-0.035531618
22	0x3db46ae0	0.08809447
23	0x3d076440	0.03305459
24	0x3da2167f	0.07914447
25	0xbd9f91cd	-0.07791481
26	0x3b91f5da	0.0044543566
27	0x3ce4d095	0.02793149
28	0x3db00bce	0.085960016
29	0x3d2f3468	0.042774588
30	0xbda481df	-0.080325834
31	0x3db3033b	0.087408505

net.3.module.0.weight f4 [32, 32, 3]
0	0xbcf0d3e0	-0.029397905
1	0x3d4b84f1	0.04968733
2	0xbbec5bbc	-0.007213084
3	0x3dadbbee	0.0848311
4	0xbdd46926	-0.10371618
5	0xbdc46ab9	-0.09590668
6	0x3dc5aeba	0.09652467
7	0xbc7976f0	-0.015226111
8	0xbd59bef6	-0.05316063
9	0xbcd2f0a1	-0.025749506
10	0xbe2ea08c	-0.17053431
11	0x3dd5d10b	0.104402624
12	0x3c21565c	0.00984725
13	0xbc76d2e5	-0.01506493
14	0xbdbbf89c	-0.09178278
15	0xbdc2a591	-0.095042355
16	0x3dc37889	0.09544475
17	0x3da338c7	0.07969814
18	0xbe019b62	-0.1265693
19	0xbd04f2ec	-0.03245823
20	0x3da5d6d5	0.080976166
21	0x3d52bb7c	0.05144833
22	0xbdd5c79d	-0.10438464
23	0xbd11eefa	-0.035628296
24	0x3d6184db	0.05505834
25	0xba5c898d	-0.00084128306
26	0x3c4ae8ff	0.012384652
27	0xbda7a420	-0.08185601
28	0x3ccd2592	0.025042329
29	0xbd523de8	-0.05132857
30	0xbcf2d87a	-0.02964424
31	0x3d046172	0.032319494
32	0x3dd52efa	0.10409351
33	0x3dc3fce4	0.095697194
34	0xbd6e2f16	-0.058150373
35	0xbd73c772	-0.059516378
36	0x3d33acc1	0.043865923
37	0x3ca0008c	0.01953151
38	0xbdba8d1a	-0.09108944
39	0xbdcda7d2	-0.10041775
40	0xbd226000	-0.039642334
41	0x3e1e2b03	0.15446095
42	0x3d427592	0.047475405
43	0xbd81935b	-0.06326934
44	0xbd763d53	-0.060117077
45	0xbd1acb81	-0.037791733
46	0xbd907d6c	-0.07055172
47	0xbbe06752	-0.0068482542
48	0xbcdaf765	-0.026729295
49	0x3da1a872	0.078934565
50	0xbbaba8a9	-0.0052386117
51	0xbd18d43e	-0.037311785
52	0xbdc0bd33	-0.09411087
53	0xbd49d224	-0.04927267
54	0xbdf4cb8c	-0.11952886
55	0xbdff84a0	-0.12476468
56	0xbd6b520e	-0.0574513
57	0xbd0d2fe0	-0.034469485
58	0xbd4e1497	-0.050312605
59	0xbda1bae5	-0.078969754
60	0x3ba9b50c	0.005179053
61	0xbdac749d	-0.0842068
62	0x3d994556	0.07483928
63	0x3c8c466d	0.017123425
64	0x3d7942c6	0.060854696
65	0xbc7cc36a	-0.01542745
66	0x3c61751e	0.013760833
67	0xbdb61ade	-0.08891843
68	0xbd7b3ceb	-0.061337393
69	0xbb99014e	-0.004669345
70	0xbd438d08	-0.04774192
71	0xbde3f230	-0.11130178
72	0xbc8830d9	-0.016624855
73	0xbd182af2	-0.03715033
74	0x3d47e441	0.048801664
75	0xbd5b160b	-0.05348782
76	0xbdb71ee5	-0.089414395
77	0xbde85c37	-0.113457136
78	0xbccdfb73	-0.025144314
79	0xbb07f748	-0.0020746756
80	0x3c8a28c2	0.016865138
81	0x3abcce99	0.0014404833
82	0x3d788b5c	0.06067978
83	0x3d9b7444	0.07590535
84	0xbdfbc154	-0.12292734
85	0x3d4ec77f	0.050483223
86	0xbd44911e	-0.047989957
87	0x3ddbc1cb	0.107303225
88	0xbd1442ad	-0.0361964
89	0xbcce5a02	-0.025189403
90	0xbe0502e1	-0.1298938
91	0x3da7f267	0.082005315
92	0xbcc3e352	-0.023912106
93	0xbdbcb820	-0.092148066
94	0x3d00eedd	0.031477798
95	0xbdb0edbf	-0.086390965
96	0xbd1a431f	-0.037661668
97	0xbdbb143e	-0.0913472
98	0x3c8dee10	0.017325431
99	0x3de786b1	0.11304987
100	0x3d928f00	0.07156181
101	0x3e2deca7	0.16984807
102	0xbd859fac	-0.065245956
103	0xbd914d2a	-0.07094796
104	0xbcc3873c	-0.023868196
105	0xbd8dd726	-0.06925802
106	0xbc13ea2e	-0.009028001
107	0x3d0f7b26	0.035029553
108	0xbcada4bc	-0.021196716
109	0xbd5e9d3d	-0.054349173
110	0xbd7edc78	-0.062221974
111	0xbe0bb560	-0.13643408
112	0x3c86ea4f	0.016469149
113	0xbdb3b078	-0.08773893
114	0xbdb766a6	-0.089551255
115	0x3afec2da	0.0019436732
116	0x3db56c7e	0.08858584
117	0x3cce8fd3	0.025215065
118	0x3db820b1	0.089906104
119	0x3de6a50c	0.11261949
120	0x3e0ddac7	0.13852988
121	0xbc4a7ce1	-0.012358875
122	0xbde830bb	-0.113374196
123	0xbb961628	-0.004580278
124	0xbd7246a4	-0.0591494
125	0xbd9c9d25	-0.076471604
126	0x3bfc9d63	0.0077091916
127	0xbc34a278	-0.011025064
128	0xbcb302be	-0.021851894
129	0x3db5a1ac	0.08868727
130	0xbd9e3471	-0.07724846
131	0x3c94ab1d	0.018148
132	0xbdde3152	-0.10849251
133	0xbc87446d	-0.01651212
134	0x3c5bd837	0.013418249
135	0xbd819d28	-0.06328803
136	0x3dd5d4d5	0.10440985
137	0x3d76f83e	0.060295336
138	0x3dac7d81	0.084223755
139	0x3d85c886	0.065323874
140	0xbd8eda12	-0.06975187
141	0xbd523817	-0.051323023
142	0x3d4dccb6	0.050244056
143	0xbd44f7b0	-0.048087776
144	0xbdbc0d20	-0.09182191
145	0x3d68acef	0.056805547
146	0x3d442167	0.047883417
147	0x3c6f4fc6	0.014606422
148	0xbde6ac83	-0.11263373
149	0x3d9ecb47	0.07753616
150	0x3e31211c	0.17297786
151	0xbd803bcb	-0.062614046
152	0xbcfd9f23	-0.030959671
153	0xbd1e41c9	-0.038636956
154	0x3d8b736b	0.068091236
155	0xbd8a2552	-0.067453995
156	0xbdcabbe5	-0.09899119
157	0x3d2c9e18	0.042142957
158	0xbd0ca62a	-0.034338154
159	0x3e20fc54	0.15721256
160	0xbb1255e7	-0.0022329034
161	0x3dc9851e	0.09839843
162	0xbd1861b1	-0.03720254
163	0xbddf6798	-0.10908431
164	0xbda6dda0	-0.0814774
165	0xbcadab31	-0.021199794
166	0xbd308a99	-0.043100927
167	0xbc0c5b2e	-0.008566661
168	0x3d6f0827	0.058357384
169	0x3b8440f9	0.0040360657
170	0xbda450a6	-0.08023195
171	0x3e12dd5c	0.14342254
172	0xbcb83dff	-0.0224905
173	0x3cc988fc	0.024601452
174	0xbb123251	-0.0022307823
175	0xbd548352	-0.05188305
176	0x3bb25970	0.0054427907
177	0x3d41bb3c	0.0472977
178	0x3d10295f	0.035195705
179	0x3d11c5af	0.035588916
180	0x3b9ca0ce	0.0047799116
181	0xbcebcc92	-0.02878407
182	0x3d98e07e	0.074646935
183	0xbd93bf70	-0.07214248
184	0x3d858e60	0.065212965
185	0x3e2b1120	0.16705751
186	0x3cfde8fa	0.030994881
187	0xbcccb6c7	-0.024989499
188	0xbe01f5e6	-0.12691459
189	0x3be77aa3	0.00706418
190	0x3d0836ad	0.033255268
191	0xbdefcef5	-0.11709396
192	0xbddb0cd7	-0.106958084
193	0xbd8e1a12	-0.06938566
194	0xbe07c6cf	-0.13259433
195	0x3da2e880	0.07954502
196	0xbc15a110	-0.009132639
197	0x3dce5d93	0.100764416
198	0xbe467bb5	-0.19383128
199	0xbe23b465	-0.15986784
200	0xbc8b7cee	-0.017027345
201	0xbc2c7274	-0.010525335
202	0xbdf1bd5b	-0.11803695
203	0xbdc76748	-0.09736496
204	0x3afd46eb	0.0019323503
205	0x3d5cadd4	0.053876713
206	0xbd913213	-0.07089629
207	0x3c8769c1	0.01652992
208	0xbdb269a8	-0.087115586
209	0xbb6dd474	-0.0036289962
210	0xbca9f3cf	-0.02074614
211	0x3d17810f	0.036988314
212	0xbd8a67c8	-0.06758076
213	0xbd8be2a7	-0.0683034
214	0xbd66d4cc	-0.056355283
215	0xbcddd792	-0.027080331
216	0x3ccc9ec9	0.024978058
217	0x3c42711a	0.011867786
218	0xbd817e60	-0.06322932
219	0x3cbf388b	0.023342391
220	0xbd3e3883	-0.046440613
221	0xbd4690b2	-0.048477836
222	0xbe1aecf8	-0.15129459
223	0xbd2abc9a	-0.04168377
224	0x3ccce277	0.02501033
225	0x3e176905	0.14786156
226	0x3ddf1fe6	0.10894756
227	0x3e30cb86	0.17265138
228	0xbc0885a7	-0.008332646
229	0xbd220b6e	-0.03956168
230	0x3da432f7	0.08017533
231	0x3b0d752a	0.0021584728
232	0xbdb70ad6	-0.08937614
233	0x3e13b8a4	0.14425904
234	0x3dc47110	0.095918775
235	0xbcff6392	-0.031175409
236	0x3bfd9901	0.0077391868
237	0x3d9f8c40	0.077904224
238	0x3d1f12b1	0.038836185
239	0xbd6a5d67	-0.05721798
240	0xbdedd3b6	-0.11612646
241	0xbe0774a6	-0.13228092
242	0xbdbc839f	-0.09204792
243	0x3d171d66	0.03689327
244	0x3c790256	0.015198311
245	0xbd362608	-0.044469863
246	0xbc127532	-0.008939074
247	0x3d3b0197	0.045655813
248	0xbd64b889	-0.05584005
249	0x3e1f5253	0.15558748
250	0x3e0ccd6e	0.1375024
251	0x3e0f4486	0.13990983
252	0xbd9a8df0	-0.07546604
253	0xbd709c0a	-0.05874256
254	0xbe6ed001	-0.23321535
255	0x3c8a84a4	0.016908951

net.3.module.0.bias f4 [32]
0	0x3dbc86ac	0.09205374
1	0x3dcbe92c	0.099565834
2	0xbc8803fc	-0.016603462
3	0xbd973501	-0.073831566
4	0xbdc0eeb4	-0.09420529
5	0xbd3e5e7f	-0.046476837
6	0xbd1f97e5	-0.038963217
7	0xbd83c1e9	-0.0643347
8	0x3d3b1576	0.045674764
9	0x3d718b3a	0.058970667
10	0x3dcf9c12	0.1013719
11	0x3c538783	0.0129107265
12	0x3b473d19	0.0030401407
13	0x3bb065ff	0.0053832526
14	0x3d9c4124	0.07629612
15	0x3da83856	0.0821387
16	0x3cfa757e	0.030573603
17	0xbd0dd18e	-0.034623675
18	0xbd4c3d60	-0.04986322
19	0x3da4efca	0.08053549
20	0xbd043188	-0.0322738
21	0xbc8cf5a3	-0.017206972
22	0xbd9591c8	-0.07303196
23	0xbd0da518	-0.034581274
24	0xbdb158c6	-0.0865951
25	0xbd8ee480	-0.06977177
26	0x3c7939ab	0.015211503
27	0xbbd378a2	-0.0064535895
28	0xbce5b8b8	-0.028042182
29	0x3d5d4ce7	0.054028418
30	0xbc8d6158	-0.017258331
31	0x3dd6c798	0.10487288

net.4.module.0.weight f4 [32, 32, 3]
0	0xbd1eb67d	-0.038748253
1	0xbd601106	-0.054703735
2	0xbcc88dff	-0.024481772
3	0xbdb5311e	-0.08847259
4	0x3d3a04d3	0.045414757
5	0x3d11d240	0.0356009
6	0xbc9a1283	-0.018807655
7	0x3c0b8080	0.0085145235
8	0xbd89b02e	-0.06723057
9	0xbdf49a62	-0.11943509
10	0xbe3ab2e0	-0.18232298
11	0x3cee74be	0.029108401
12	0xbcee6d53	-0.029104864
13	0x3ce78fb6	0.028266769
14	0xbd9fc6ca	-0.07801588
15	0xbd97a76a	-0.074049786
16	0xbd967815	-0.073471226
17	0xbd8bc974	-0.068255335
18	0xbdc175eb	-0.09446319
19	0x3d994ac8	0.074849665
20	0x3c521bb4	0.012823988
21	0x3d6eba5d	0.0582832
22	0xbda28754	-0.07935968
23	0x3c21d57a	0.009877557
24	0x3e4a1a8e	0.19736692
25	0x3c53d10c	0.012928259
26	0xbcc9a82e	-0.024616327
27	0xbd87319c	-0.06601259
28	0xbc4adf75	-0.012382378
29	0x3c5b7030	0.013393447
30	0xbd89d08d	-0.06729231
31	0x3c855d3d	0.016279811
32	0xbd3ef2ae	-0.046618156
33	0x3b247910	0.0025096573
34	0x3c2f17f9	0.010686868
35	0x3d85229d	0.065007426
36	0x3d0fd9f2	0.03511996
37	0x3d839f4d	0.064268686
38	0xbb38203e	-0.002809539
39	0xbce4360f	-0.027857808
40	0xbdce3ba7	-0.100699715
41	0x3e521cb3	0.2051876
42	0x3d84de40	0.06487703
43	0x3aa4e47d	0.0012580302
44	0xbd861d84	-0.065485984
45	0x3d92ae55	0.071621574
46	0xbad58d58	-0.0016292734
47	0x3d9c966e	0.0764588
48	0x3d6bef3e	0.057601206
49	0x3d3de772	0.0463633
50	0xbe3345ad	-0.17507048
51	0xbd651d12	-0.055935927
52	0x3c0dd8d5	0.008657654
53	0xbd14cb7d	-0.036326874
54	0xbd5f12e3	-0.05446137
55	0xbc6050eb	-0.013691167
56	0xbd52cc77	-0.051464524
57	0x3cf8ca80	0.030369997
58	0xba01ca4b	-0.00049511035
59	0xbda438b2	-0.08018626
60	0x3c1a1b11	0.009405867
61	0xbd77bfc8	-0.06048563
62	0xbc1ac439	-0.009446197
63	0xbdada9eb	-0.08479675
64	0x3d716e3b	0.058943015
65	0xbd72f365	-0.05931415
66	0xbc932c1c	-0.017965369
67	0x3dbc87de	0.09205602
68	0x3db6b377	0.08920949
69	0x3d069940	0.032860994
70	0x3c94a1c7	0.018143548
71	0x3d4b9fc2	0.049712904
72	0x3d5e6800	0.0542984
73	0x3dc4d13e	0.09610222
74	0xbd1b71fd	-0.037950505
75	0xbd653438	-0.055958003
76	0xbd982cf7	-0.07430451
77	0xbd5e0ade	-0.054209583
78	0xbca18a41	-0.019719245
79	0x3d9cc3f9	0.07654566
80	0xbb41e0ba	-0.002958341
81	0x3dd450d3	0.103669785
82	0xbcf6518d	-0.030068183
83	0xbc2c7760	-0.010526508
84	0xbe1764d8	-0.14784563
85	0xbdf8c31a	-0.12146588
86	0xbd8e1719	-0.06937999
87	0xbd7e46eb	-0.06207935
88	0x3bd7966d	0.0065792114
89	0x3d7f5c4e	0.062343888
90	0xbc89175a	-0.016734768
91	0x3e028109	0.12744536
92	0xbe1850e0	-0.14874601
93	0x3e2c39e4	0.16818959
94	0x3dcd9d54	0.100397736
95	0x3d4eed14	0.050519064
96	0xbd64f139	-0.05589411
97	0xbd322b68	-0.043498427
98	0xbd932e18	-0.07186526
99	0x3d784736	0.060614787
100	0xbdef16f3	-0.11674299
101	0x3d9f611f	0.07782196
102	0x3db51b9f	0.08843159
103	0xbb63413f	-0.003467634
104	0xbc97aa36	-0.01851378
105	0xbcf47fe9	-0.029846149
106	0x3c248bae	0.010043068
107	0xbd1b2012	-0.03787238
108	0xbde75057	-0.112946205
109	0x3d845acd	0.064626314
110	0x3e020376	0.12696633
111	0xbddca93b	-0.10774466
112	0xbda74b0a	-0.081686094
113	0x3d885c7e	0.066582665
114	0xbda2ae90	-0.079434514
115	0x3d2b5141	0.041825537
116	0x3dd962b8	0.10614532
117	0xbe123cc6	-0.14280996
118	0xbd425f24	-0.047454014
119	0x3a517f97	0.00079917297
120	0x3e6aa195	0.22913201
121	0xbd1c6178	-0.03817889
122	0xbd9e091a	-0.0771658
123	0xbd8beada	-0.06831904
124	0xbd4d2554	-0.050084427
125	0x3decda95	0.11565129
126	0xbb8d0faa	-0.004304846
127	0xbd5958e8	-0.053063303
128	0xbdd4143c	-0.10355422
129	0x3d61e67d	0.05515145
130	0xbc94f419	-0.018182801
131	0xbd847164	-0.0646694
132	0xbd16dbe8	-0.036830813
133	0x3d946804	0.07246402
134	0x3d5a7a7f	0.053339478
135	0xbdbd099f	-0.09230351
136	0xbd0cbe8e	-0.034361415
137	0x3d5a1d87	0.053250816
138	0xbdc75846	-0.09733634
139	0xbdad47f9	-0.08460993
140	0x3d13f840	0.03612542
141	0xbd42a9dd	-0.047525275
142	0xbd1bb840	-0.03801751
143	0xbd9cd02e	-0.076568946
144	0x3bbbd4e9	0.005732168
145	0xbc81b121	-0.015831532
146	0xbd8d3e93	-0.06896701
147	0x3d0d68e4	0.03452386
148	0xbce52750	-0.027972847
149	0x3d70d1ee	0.058793955
150	0x3d1f6d44	0.038922563
151	0x3cd2b616	0.025721591
152	0x3d4255a4	0.047444955
153	0x3dbbafb4	0.09164372
154	0x3da9dd6c	0.08294186
155	0x3d150876	0.036385022
156	0xbd988058	-0.07446355
157	0x3cbbfc11	0.022947343
158	0x3dcca765	0.099928655
159	0x3c8cf0e0	0.017204702
160	0x3c0080b0	0.0078431815
161	0x3db59e0d	0.088680364
162	0xb78f6345	-1.7093154e-05
163	0xbcaf22c5	-0.021378884
164	0xbdad968b	-0.084759794
165	0xbdad66cf	-0.08466875
166	0x3c8de1b1	0.017319532
167	0x3d319b54	0.043361023
168	0x3d84d71c	0.06486341
169	0x3cb46fc2	0.022025947
170	0x3cdb21b5	0.026749471
171	0x3dc69b5a	0.096976
172	0x3dc2fa3d	0.095203854
173	0xbd3f2b7e	-0.046672337
174	0xbdd65643	-0.10465672
175	0x3da92102	0.08258249
176	0x3ceadde6	0.028670263
177	0x3b9bd2f5	0.0047553726
178	0xbd669b4a	-0.05630044
179	0xbda31b38	-0.07964176
180	0xbe2e92c8	-0.1704818
181	0xbd9c7f79	-0.07641501
182	0xbd6124e9	-0.05496684
183	0xbe59e438	-0.21278465
184	0xbd9a21d9	-0.07525987
185	0xbd6e8a4a	-0.05823735
186	0x3cbc794c	0.023007058
187	0x3d8a1cfa	0.06743808
188	0x3d0d1cc4	0.03445126
189	0x3e0dd9ec	0.13852662
190	0x3d9e40f6	0.07727234
191	0x3d02601b	0.031829935
192	0xbccf050a	-0.025270957
193	0xbde035db	-0.10947772
194	0x3c760157	0.015014968
195	0x3d2afc88	0.04174474
196	0x3ca2654c	0.019823693
197	0x3e38ebac	0.18058652
198	0xbdb94f0a	-0.09048279
199	0xbdb0ce11	-0.08633054
200	0x3d851ce8	0.06499654
201	0xbdd7da2e	-0.10539661
202	0xbd708a60	-0.058725715
203	0x3dcbb1a1	0.099459894
204	0xbddabf9d	-0.106810786
205	0xbd2f8a3d	-0.042856444
206	0x3cf43009	0.029808061
207	0xbdfad79a	-0.12248154
208	0x3d8da315	0.06915871
209	0xbcfab7cb	-0.030605217
210	0xbca31a09	-0.019909875
211	0xbc95d052	-0.018287811
212	0x3da38521	0.07984377
213	0xbe1867a6	-0.14883289
214	0xbd25069d	-0.04028951
215	0x3da37086	0.079804465
216	0x3cd72c91	0.026266368
217	0x3de114f9	0.10990328
218	0x3e43acad	0.1910884
219	0x3b5fb094	0.0034132348
220	0xb869d164	-5.574654e-05
221	0x3e284627	0.16433011
222	0xbcdfe838	-0.02733241
223	0xbdd971d8	-0.10617417
224	0xbdeceead	-0.11568961
225	0x3e23b96e	0.15988705
226	0xbc225873	-0.009908783
227	0x3dd396ef	0.10331523
228	0x3e065053	0.13116579
229	0x3ddb82b7	0.10718291
230	0xbc6fe0db	-0.014641012
231	0x3dd705f1	0.1049918
232	0xba834a16	-0.0010016586
233	0xbcd3181b	-0.02576833
234	0x3c6dc7e8	0.014512993
235	0x3db4b325	0.088232316
236	0x3de1a021	0.1101687
237	0xbd9828a4	-0.074296266
238	0xbda9c54b	-0.08289584
239	0x3d77a0c1	0.06045604
240	0x3dd4d5c5	0.10392336
241	0x3c1e0034	0.009643603
242	0x3c0f4483	0.008744362
243	0xbe1bd86d	-0.15219279
244	0x3d54473c	0.051825747
245	0x3e0c7dd2	0.13719872
246	0x3cc1ddd3	0.023665344
247	0x3d7f63ae	0.06235092
248	0xbdaa7390	-0.08322823
249	0x3c2e73d6	0.010647735
250	0xbd36f6a7	-0.04466882
251	0x3df06b70	0.11739242
252	0xbdc73ec6	-0.0972877
253	0xbd1360b4	-0.035980895
254	0xbd13c075	-0.036072213
255	0xbc1b8540	-0.0094922185

net.4.module.0.bias f4 [32]
0	0xbd984611	-0.07435239
1	0x3dbf2f27	0.093351655
2	0xbc8cde9d	-0.017195994
3	0x3c645698	0.013936661
4	0x3c8ead7b	0.017416706
5	0x3d9911f2	0.07474126
6	0x3c51dd22	0.01280907
7	0x3cce4e93	0.025183951
8	0xbc6ca0fb	-0.014442678
9	0x3d29d9f8	0.041467637
10	0xbcb4386a	-0.021999557
11	0x3dcc6496	0.09980123
12	0x3daa1641	0.08305026
13	0xbca6c956	-0.020359676
14	0xbd40b348	-0.047045976
15	0xbd4feaf5	-0.05076118
16	0xbd669d0d	-0.05630212
17	0x3d07e3b8	0.033176154
18	0xbced7e7b	-0.028990975
19	0xbd60175e	-0.054709785
20	0xbdc5bd18	-0.096552074
21	0xbd97e706	-0.07417111
22	0xbc53d290	-0.01292862
23	0xbdd4b208	-0.10385519
24	0x3d81f01c	0.06344625
25	0x3ac4285e	0.0014965644
26	0x3d4fffe9	0.050781164
27	0x3dc4e150	0.096132874
28	0xbcaf0593	-0.021364963
29	0x3bd75559	0.0065714535
30	0xbd84bc84	-0.06481269
31	0xbda4da7e	-0.080494866

net.5.weight f4 [48, 32, 3]
0	0x3d81bec3	0.06335213
1	0xbd8ae237	-0.06781428
2	0x3d764d09	0.06013206
3	0xbc8b345e	-0.016992744
4	0x3d8046b5	0.06263486
5	0xbcc64a1b	-0.024205258
6	0x3c764548	0.015031166
7	0xbdafb480	-0.085793495
8	0xbdbd1b4e	-0.092337236
9	0x3de13bf6	0.10997765
10	0x3d97d943	0.07414486
11	0xbe306f55	-0.1722997
12	0xbe173f80	-0.14770317
13	0x3da60f78	0.08108419
14	0x3d2897dd	0.041160453
15	0x3dbb1f26	0.091368005
16	0xbd58d37b	-0.05293606
17	0x3db02d45	0.086023845
18	0xbdb4cfaf	-0.08828675
19	0x3c272487	0.01020158
20	0xbd3f88b1	-0.04676122
21	0xbcfcca21	-0.030858101
22	0x3a8f7019	0.0010943442
23	0xbd9bd31b	-0.076086245
24	0xbdb2df54	-0.08734003
25	0xbba8ce9c	-0.005151583
26	0x3e0ee505	0.13954552
27	0xb9d66844	-0.00040894945
28	0xbd41e2f4	-0.04733558
29	0xbd3ea5df	-0.046544906
30	0xbd109f30	-0.035308063
31	0x3dc584cb	0.09644469
32	0x3d2c464e	0.042059235
33	0xbd66e746	-0.056372903
34	0x3d8943e4	0.06702402
35	0xbd2611cd	-0.04054432
36	0xbdaed0f7	-0.08535951
37	0xbd728249	-0.05920628
38	0xbd10a693	-0.035315108
39	0xbc0fe63d	-0.00878292
40	0xbddc5f2a	-0.107603386
41	0x3de5be2b	0.11217912
42	0xbccd3f56	-0.025054615
43	0x3ca6595a	0.020306278
44	0x3cd58e58	0.026068851
45	0xbd43eef1	-0.047835294
46	0x3d33a62a	0.04385964
47	0xbe01d093	-0.12677221
48	0xbcf70e6d	-0.030158246
49	0x3d74db22	0.059779294
50	0xbd94c4df	-0.07264113
51	0xbc1cb60a	-0.009564886
52	0x3d1c1fd5	0.038116295
53	0xbda3b586	-0.07993607
54	0x3d377265	0.04478683
55	0x3d5f0978	0.05445239
56	0xbdd9ff24	-0.10644367
57	0xbcab1ca6	-0.020887684
58	0xbae1e17d	-0.0017233338
59	0x3e11d004	0.14239508
60	0xbe1a74d4	-0.15083629
61	0x3e32e805	0.17471321
62	0xbd81d5ef	-0.06339633
63	0x3daae3b9	0.08344216
64	0xbd45b3bd	-0.048267115
65	0x3d8ee493	0.06977191
66	0x3db69ec7	0.08917003
67	0xbd8bce47	-0.06826454
68	0xbd849136	-0.06473009
69	0xbdbab72c	-0.091169685
70	0x3d2be663	0.04196776
71	0x3db6d9de	0.089282736
72	0x3c9e9bbb	0.019361367
73	0x3d4666d8	0.048437923
74	0x3ca33794	0.019923963
75	0xbdc563e4	-0.09638193
76	0x3d7b461a	0.06134615
77	0xb8b18ba4	-8.466028e-05
78	0x3d46c571	0.04852814
79	0x3d05297e	0.032510273
80	0xbd3d658b	-0.046239417
81	0x3e097853	0.13424806
82	0xbd9aceed	-0.07558999
83	0xbd2d8926	-0.042367123
84	0xb8a494ce	-7.8478464e-05
85	0xbd60f91a	-0.05492506
86	0x3d348a22	0.044077046
87	0xbd9d4a1f	-0.07680153
88	0x3dd04607	0.10169607
89	0x3bace277	0.00527602
90	0xbdee5e8e	-0.116391286
91	0x3b999571	0.0046870043
92	0xbdf9179c	-0.12162706
93	0xbd56b1c5	-0.052415628
94	0x3d8bb806	0.06822209
95	0x3d340ae7	0.04395571
96	0xbd959bf7	-0.073051386
97	0x3d84f657	0.06492298
98	0xbb78b400	-0.0037949085
99	0x3dc8e561	0.098093756
100	0xbd41f936	-0.047356807
101	0xbd6df745	-0.058097143
102	0xbdcdb488	-0.10044199
103	0x3d5a3013	0.053268503
104	0x38c47ffa	9.369846e-05
105	0xbd4f7600	-0.050649643
106	0x3d585312	0.052813597
107	0x3d30de50	0.043180764
108	0x3db208c9	0.08693082
109	0xbdacb790	-0.08433449
110	0xbce3d212	-0.02781013
111	0xbd721719	-0.05910406
112	0xbd4f9d66	-0.050687216
113	0xbd491555	-0.04909261
114	0x3dcdde2e	0.10052143
115	0xbd80a997	-0.06282347
116	0x3bc89b3b	0.0061220205
117	0x3be17812	0.0068807686
118	0xbd29ffb1	-0.041503612
119	0xbcca8c95	-0.024725238
120	0x3d722f6f	0.059127267
121	0x3d733982	0.059381016
122	0xbd9738e1	-0.07383896
123	0xbce38a05	-0.027775774
124	0x3d53a994	0.051675394
125	0x3d9c958f	0.076457135
126	0xbc8be1c7	-0.017075432
127	0x3d6f239d	0.058383573
128	0x3d935cd9	0.07195444
129	0x3a908176	0.001102491
130	0xbd758821	-0.059944276
131	0x3ccc56c6	0.02494372
132	0x3d84be6a	0.06481631
133	0xbde9344c	-0.11386928
134	0x3ca8e7c2	0.020618323
135	0x3d8094d8	0.0627839
136	0xbd18849c	-0.03723584
137	0xbc8aa46b	-0.016924104
138	0x3dbeb933	0.09312668
139	0xbd02d505	-0.031941433
140	0x3cb69cf3	0.022291636
141	0x3d9848b6	0.074357435
142	0xbdf8331f	-0.121191256
143	0x3cd585e9	0.02606483
144	0xbd1aa4bc	-0.03775476
145	0x3b741c18	0.003724819
146	0x3c8ad14a	0.0169455
147	0x3adf4bf4	0.0017036186
148	0x3d26d44e	0.040729813
149	0x3d7d2c0b	0.06180958
150	0xbcdbd661	-0.026835622
151	0xbc661434	-0.014042903
152	0xb9a337c4	-0.0003113133
153	0xbd265ded	-0.04061692
154	0xbd9540b9	-0.072877355
155	0x3cc40fe4	0.023933358
156	0xbc5f1b01	-0.013617278
157	0x3d08a40f	0.033359583
158	0xbdb1dd47	-0.086847834
159	0xbd9665bc	-0.07343623
160	0xbdd2559b	-0.10270234
161	0x3e3168b6	0.173251
162	0xbdbf46fa	-0.093397096
163	0xbba444c7	-0.0050130817
164	0xbd74314a	-0.05961732
165	0x3bca5eac	0.0061758365
166	0x3beda22a	0.0072519975
167	0xbdab7cc1	-0.08373404
168	0x3d4be692	0.049780436
169	0x3bb5f0d0	0.0055523887
170	0x3c531ccf	0.0128852865
171	0x3c560900	0.013063669
172	0xbd8adfa7	-0.067809395
173	0x3db35dad	0.087581016
174	0x3d0df6ca	0.034659185
175	0xbcf9f1c0	-0.030510783
176	0xbd75f1a3	-0.060044896
177	0x3dd7655e	0.10517381
178	0x3d3cc89e	0.04608976
179	0xbde85db1	-0.11345995
180	0x3c940951	0.018070849
181	0x3d8456de	0.06461881
182	0xbdd5b508	-0.104349196
183	0xbc072b3f	-0.008250057
184	0xbd19e1bf	-0.037568804
185	0x3d94bf1a	0.07263012
186	0xbce10165	-0.027466485
187	0xbd9224a7	-0.07135897
188	0xbd60556f	-0.054768976
189	0x3d1144ea	0.035466112
190	0x3d03780e	0.032096915
191	0xbc8ce9cd	-0.017201329
192	0xbd8f6295	-0.07001225
193	0xbdb31d07	-0.08745771
194	0x3c9cc180	0.019135237
195	0xbceea573	-0.029131627
196	0xbd8f6b01	-0.07002831
197	0x3daf81cb	0.08569678
198	0x3c96aa65	0.018391797
199	0x3d270f84	0.04078628
200	0xbd83f5da	-0.06443377
201	0x3d17ecba	0.037090994
202	0x3d8a6b36	0.0675873
203	0xbd08ff11	-0.033446375
204	0xbc8c163e	-0.01710045
205	0xbcf3906a	-0.029731948
206	0xbd80bf4b	-0.06286486
207	0xbdd292cc	-0.102819055
208	0x3c06552c	0.0081990175
209	0xbd7dd198	-0.061967462
210	0x3da7e6cc	0.08198318
211	0xbdb2d852	-0.08732666
212	0x3d9ceb62	0.07662083
213	0x3cb402b4	0.021973945
214	0x3c2f5028	0.010700263
215	0xbdd314ff	-0.10306739
216	0xbda0e1db	-0.078555785
217	0x3de4851b	0.111582
218	0xbbe48ce9	-0.0069748056
219	0xbdbcd65f	-0.092205755
220	0xbd39ca39	-0.04535887
221	0x3d79f4d0	0.061024487
222	0x3cc8313e	0.024437543
223	0x3c22e113	0.009941357
224	0x3d1e976e	0.038718633
225	0xbd7d518e	-0.061845355
226	0xbca0784b	-0.01958861
227	0x3d91b918	0.07115382
228	0x3e018318	0.12647665
229	0x3dfc673d	0.12324379
230	0xbbae2f08	-0.005315665
231	0x3dc74362	0.09729649
232	0x3d7e6146	0.062104486
233	0x3cfddc00	0.030988693
234	0xbbdf4f75	-0.006814892
235	0x3ba3ded0	0.0050009266
236	0xba8ab645	-0.0010582885
237	0x3de32403	0.11090853
238	0xbdfb635b	-0.1227481
239	0x3db9210e	0.09039508
240	0x3b49239e	0.0030691396
241	0xbdf113ce	-0.117713556
242	0xbda23e65	-0.07922057
243	0x3b681dd2	0.0035418165
244	0x3d901317	0.07034891
245	0xbd5fd235	-0.05464383
246	0xbd70305f	-0.05863988
247	0x3d53a130	0.051667392
248	0xbd0161fb	-0.031587582
249	0x3e2110e9	0.15729107
250	0xbd8707d7	-0.06593292
251	0xbdbc9493	-0.09208026
252	0xb9aa0b3f	-0.00032433306
253	0xbdd94942	-0.10609676
254	0x3c95c08b	0.018280288
255	0x3c9a9856	0.018871468

net.5.bias f4 [48]
0	0xbd23ad52	-0.039960213
1	0x3cc6f7f4	0.024288155
2	0xbc800717	-0.01562838
3	0x3d19cde2	0.03754986
4	0x3d273a53	0.040827107
5	0xbc8ed8aa	-0.017437298
6	0xbcaa761d	-0.020808274
7	0x3d38935f	0.04506242
8	0xbd2a0f1b	-0.041518312
9	0xbd29a390	-0.04141575
10	0xbd797655	-0.060903866
11	0x3c2611a7	0.010136045
12	0xbc69fd08	-0.014281519
13	0xbd8768de	-0.06611799
14	0x3c8a1a19	0.016858147
15	0x3c970254	0.018433727
16	0x3ca29672	0.019847129
17	0x3bc25e31	0.0059316386
18	0xbd206a72	-0.039164014
19	0x3d5ed99e	0.054406755
20	0xbc15c9c8	-0.009142347
21	0xbd59b594	-0.053151682
22	0xbd57ce4d	-0.052686978
23	0xbcd34f48	-0.02579464
24	0x3b2d6f0f	0.00264639
25	0xbd02d9d6	-0.031946026
26	0xbd3ae1fd	-0.045625675
27	0x3d1d42d3	0.038393807
28	0xbd9fb2dc	-0.077977866
29	0xbaf3ae09	-0.0018591295
30	0x3d264f19	0.040602777
31	0x3c46c34d	0.012131524
32	0x3cab30aa	0.020897228
33	0x3cf0760e	0.029353168
34	0x3d21e410	0.039524138
35	0xbccb9a7b	-0.024853935
36	0x3b71edb5	0.0036915366
37	0x37cbdb6d	2.4301664e-05
38	0x3c59a7f9	0.013284677
39	0xb981cc92	-0.00024757214
40	0xbd0dad9e	-0.034589402
41	0xbd4690fa	-0.048478104
42	0xbd898710	-0.06715214
43	0x3cd62c4e	0.026144173
44	0xbd13cb0b	-0.03608231
45	0xbd0ad1c9	-0.033891473
46	0xbd32e118	-0.043671697
47	0x3d02cc86	0.03193333

exp_avg f4 [32, 191, 2]
0	0x3afc1d63	0.0019234832
1	0x3aec969a	0.0018050254
2	0x3d35466f	0.044256624
3	0x3d2d5c7c	0.042324528
4	0x3d2a9a28	0.04165092
5	0x3d39be8b	0.04534773
6	0x3d6f5506	0.058430694
7	0x3d6d0233	0.057863425
8	0x3cd8c8f5	0.026463011
9	0x3ce65ed9	0.028121399
10	0x3c84f0cb	0.0162281
11	0x3bf88fb4	0.00758549
12	0x3bd052ec	0.0063575413
13	0xbc1dc2b0	-0.009628937
14	0x3d75510f	0.059891757
15	0x3d5169f7	0.051126447
16	0x3cadaca6	0.02120049
17	0x3c8bbbd2	0.017057333
18	0x3d3d2c2b	0.0461847
19	0x3cadb6fe	0.021205422
20	0x3b796268	0.003805304
21	0x3cf87da6	0.030333351
22	0x3d429a66	0.047510527
23	0x3cbb9fa6	0.022903275
24	0x3d85389d	0.06504939
25	0x3d5795ce	0.0526331
26	0x3d03c1f2	0.032167383
27	0x3cac1357	0.021005316
28	0xbd0e68cf	-0.034767922
29	0xbbc1e15c	-0.0059167575
30	0xbc96b2e7	-0.018395854
31	0x39753e6b	0.00023388273
32	0x3c37ef95	0.011226554
33	0x3c87cffc	0.016578667
34	0x3cb43e00	0.02200222
35	0x3be35784	0.006937923
36	0x3d24156b	0.04005949
37	0x3cb89953	0.022534048
38	0x3c984d99	0.018591689
39	0x3c996cd5	0.018728653
40	0x3d0410ab	0.03224246
41	0x3d479a79	0.0487313
42	0x3d05964f	0.03261405
43	0x3c981c4b	0.018568179
44	0x3c8ec719	0.017428922
45	0x3cfd8349	0.03094639
46	0x3d853910	0.065050244
47	0x3d45c08d	0.048279334
48	0xbb682fca	-0.0035428875
49	0x3c80f8e6	0.015743684
50	0x3d128af2	0.03577704
51	0x3d26430f	0.040591296
52	0x3ab4808f	0.0013771224
53	0x3c894153	0.016754782
54	0xbbab8450	-0.0052342787
55	0xbcc222ef	-0.023698298
56	0xbbf184fc	-0.0073705893
57	0xbbcfdbbf	-0.0063433344
58	0x3a9e2083	0.0012064133
59	0x3b4e9cc0	0.0031526536
60	0x3cbdbd1c	0.023161463
61	0x3d234217	0.03985795
62	0xbc6a89cd	-0.014315081
63	0x3cacb7f1	0.021083804
64	0x3be1763b	0.0068805492
65	0x3c801624	0.015635557
66	0xbcb1af76	-0.021690112
67	0xbd54349d	-0.05180799
68	0x3d2ea659	0.04263911
69	0x3d4d1702	0.05007077
70	0x3c1ec3c8	0.009690233
71	0x3b03205e	0.0020008306
72	0x3d2309e7	0.039804365
73	0x3c9356af	0.01798567
74	0x3c923457	0.017847223
75	0x3c9d4f66	0.0192029
76	0x3d24c479	0.040226433
77	0x3d2d33e5	0.04228582
78	0x3d64e418	0.05588159
79	0x3d6913e9	0.056903753
80	0x3ca84a2e	0.020543184
81	0x3ca0b3dc	0.019617014
82	0xbb81848c	-0.0039525684
83	0xbc3576d9	-0.011075699
84	0x3c94a5fc	0.018145554
85	0xbcd6b93f	-0.02621138
86	0x3d29315c	0.04130684
87	0x3d7d320f	0.061815318
88	0xbd406e1a	-0.04698
89	0xbcd01839	-0.025402175
90	0x3cb58c03	0.02216149
91	0x3d073c98	0.03301677
92	0xb967eeeb	-0.0002211888
93	0x3ba0e34d	0.004909909
94	0x3d11fcb8	0.035641402
95	0x3d84db27	0.064871125
96	0xbbe69ac8	-0.0070374943
97	0xbbda81c8	-0.006668303
98	0xbc5d7525	-0.013516699
99	0x3a27dffd	0.0006403921
100	0xbb7aa8fb	-0.0038247693
101	0x3b162ce0	0.0022914931
102	0x3d06c587	0.03290322
103	0x3d48ce9a	0.049025156
104	0xbc7df437	-0.01550012
105	0xbd034ce3	-0.032055747
106	0xbbc78803	-0.006089212
107	0xbc13f17d	-0.009029743
108	0x3ba0e4c5	0.004910084
109	0x3bbaf316	0.0057052476
110	0xbce86232	-0.028367136
111	0xbbf47527	-0.0074602547
112	0x3cca22ba	0.024674762
113	0x3c875bce	0.016523268
114	0x3caf65d8	0.021410868
115	0x3cda6591	0.026659759
116	0xbd47027f	-0.048586365
117	0xbcc79957	-0.02436511
118	0x3ce062b8	0.027390823
119	0x3d038981	0.032113556
120	0x3ceb4b81	0.028722527
121	0x3cc6e7a5	0.024280379
122	0x3bddd001	0.0067691808
123	0x37f2c566	2.8940569e-05
124	0xbcf8f8fe	-0.030392166
125	0xbc833c2f	-0.016019909
126	0xbca0113c	-0.019539468
127	0xbc6da86b	-0.014505486
128	0x3c8ee105	0.017441282
129	0x3ca97bdc	0.020688944
130	0x3c81449b	0.015779784
131	0x3d0229dd	0.031778205
132	0xbd1fffbe	-0.039062254
133	0xbb3cfe79	-0.00288382
134	0x3aaaef9c	0.001304138
135	0x3d14b721	0.036307458
136	0x3bfba4ea	0.0076795714
137	0x3cc8693b	0.02446424
138	0xbc6a2801	-0.014291764
139	0x3cdf75eb	0.027277907
140	0xbb074158	-0.0020638313
141	0xbc973131	-0.018456073
142	0xbc5258c7	-0.012838549
143	0xbb10f49f	-0.0022118462
144	0x3c2552a2	0.010090502
145	0x3c05c3d2	0.008164363
146	0x3c5f10a0	0.013614804
147	0xbaf203bb	-0.0018464247
148	0x3d1504d9	0.036381576
149	0x3cfe6f55	0.031058947
150	0xbc9c1403	-0.019052511
151	0x3c93704b	0.017997881
152	0x3d231114	0.03981121
153	0x3c50761c	0.012723472
154	0xbcae7ec0	-0.021300673
155	0xbccb4d43	-0.024817115
156	0xbcc7639a	-0.024339486
157	0xbb01ffb0	-0.001983624
158	0xbc966a55	-0.01836125
159	0xbc9dd59b	-0.019266894
160	0xbca896fc	-0.020579807
161	0xbd02b266	-0.031908415
162	0x3c145aa7	0.009054816
163	0x3bcad4a4	0.0061898995
164	0xbc1bb83b	-0.009504373
165	0xbc98c3b8	-0.018648013
166	0xbc0918a1	-0.008367688
167	0xbc9f5c69	-0.019453244
168	0x3b88b538	0.0041719936
169	0xbcc2cb69	-0.023778634
170	0x3cf0b4a7	0.029383017
171	0x3c518c20	0.012789756
172	0xba27e2d9	-0.00064043474
173	0xbc99e103	-0.018784052
174	0xbd1f2bac	-0.038860008
175	0xbd0007d5	-0.03125747
176	0x3cdb6839	0.026783096
177	0xbc8fd021	-0.017555298
178	0x3d94fffb	0.07275387
179	0x3d312c04	0.043254867
180	0x3d032512	0.032017775
181	0x3d633eb1	0.05547971
182	0x3b565b2b	0.003270815
183	0xbcb0e8ab	-0.02159532
184	0x3d25beeb	0.040465277
185	0x3c6d8815	0.0144977765
186	0x3d537b1d	0.05163108
187	0x3d424365	0.047427554
188	0x3c7291ac	0.014805239
189	0x3c88d582	0.016703371
190	0x3d8fc1a7	0.07019358
191	0x3d0c1227	0.034197
192	0x3cfc2af0	0.030782193
193	0x3ca278f2	0.019833062
194	0xbc0a1c6b	-0.008429627
195	0x3c2c79b2	0.010527061
196	0xbce79a1d	-0.02827173
197	0xbc069eb9	-0.008216553
198	0xbc1b516b	-0.009479861
199	0x3bcb8a40	0.006211549
200	0x3b3f2e47	0.002917187
201	0x3b995654	0.0046794806
202	0xbd829c99	-0.06377525
203	0xbcc33125	-0.023827145
204	0xbcec37ae	-0.028835144
205	0xbcef47b4	-0.029208995
206	0xbca3c9e0	-0.019993722
207	0xbc9f8e74	-0.019477107
208	0x3c6a4261	0.0142980525
209	0x3c2cd810	0.01054956
210	0xbd54d4a2	-0.051960595
211	0xbd6084a3	-0.054813992
212	0x3b9f09f7	0.004853483
213	0x3c7a83fc	0.015290257
214	0xbd366f89	-0.044539962
215	0xbcf0b266	-0.029381942
216	0x3cbe0060	0.023193538
217	0x3c6dc4d8	0.014512263
218	0xbc4e1de5	-0.01258037
219	0xbb0eb43a	-0.0021774904
220	0xbcb1d677	-0.02170871
221	0x3c3c2a2b	0.011484663
222	0x3a5ca8d1	0.00084174896
223	0x3cca326b	0.024682244
224	0xbcb7e7d1	-0.022449406
225	0x3c9d0a07	0.01916982
226	0xbccc8609	-0.024966257
227	0xbc206b9a	-0.009791279
228	0xbc413456	-0.011792263
229	0x3b316c44	0.0027072588
230	0xbc91b54c	-0.017786644
231	0xbd310947	-0.04322174
232	0xbc0b87c7	-0.008516259
233	0x3caa8c41	0.020818831
234	0x3cb49dbf	0.022047875
235	0x3cc23f59	0.023711847
236	0x3c65ec99	0.01403346
237	0x3c86efca	0.016471762
238	0x3cc2f8e1	0.023800315
239	0x3c8fa846	0.017536294
240	0xbc17b85e	-0.009260265
241	0x3bc0c20c	0.005882507
242	0x3ccfa96f	0.025349347
243	0x3d02c950	0.031930268
244	0x3d57fd5b	0.052731853
245	0x3d13bc9c	0.036068544
246	0xbd65eb2e	-0.056132488
247	0xbd32c2b8	-0.04364273
248	0xbc23026d	-0.009949309
249	0x3c43d64d	0.011952949
250	0xbcbb9be0	-0.022901475
251	0xbcbd625d	-0.023118192
252	0xbd269dc9	-0.04067782
253	0xbc4cfcb8	-0.012511425
254	0x3c62d3f9	0.0138444835
255	0xbb2ab59b	-0.0026048187
