saved_CEBRA_models/nitschke_20090812_20090819_20090910/CEBRA_models/temperature_0.0035666666666666668_time_offsets_2_dataset1.pt (torch, 531429 bytes, 31 tensors)

net.0.weight f4 [32, 191, 2]
000000 46 4e af bc 6c 1a 1a 3d f4 0b 66 bd 9e c8 2f bb
       -0.021399628 0.037622854 -0.056163743 -0.0026822458
000010 a4 15 a9 3b 5c 71 3f 3d 04 77 4b 3d 25 4e 84 3d
       0.0051600505 0.046738967 0.04967405 0.064602174
000020 b2 cc 65 bd 6c f0 18 bb 88 0f 29 3d b8 27 89 3c
       -0.056103416 -0.0023336662 0.041274577 0.016742572
000030 a1 94 17 3c 8f fe 99 3d d8 e5 22 bc 63 50 9e 3c
       0.0092517445 0.07519256 -0.009942494 0.01932544
000040 de 86 c9 3c 0e 2b 1d 3d f0 8b 7e 3c 89 88 ea bc
       0.024600442 0.03837114 0.015536293 -0.028629558
000050 9e fe 45 3d ca fe d0 3c ab 34 a9 bc 26 f8 19 bd
       0.048338525 0.025512118 -0.020654997 -0.03759017
000060 57 78 69 bd 62 66 0d 3d 37 fd 03 3e 12 97 d9 3d
       -0.05699953 0.034521468 0.12889563 0.106245175
000070 48 98 57 3d 0a a4 da bc 90 23 25 bd d5 57 3b 3b
       0.05263546 -0.026689548 -0.04031712 0.0028586288
000080 2b 36 59 bd 5a 6a 6c bd 94 b5 31 bd 32 41 92 bd
       -0.053030174 -0.057718612 -0.043386057 -0.07141341
000090 93 81 1f 3c 29 45 a9 bd 61 62 92 3b 79 9f b2 3b
       0.009735483 -0.082651444 0.004467294 0.0054511395
0000a0 1b 63 cc bc 12 8b 06 3d c8 76 84 3d 32 df 17 3d
       -0.0249496 0.03284747 0.06467968 0.03707809
0000b0 03 a3 3d ba 0e c0 c0 3a 20 d5 bc 3c 5f fe 5f bc
       -0.00072340685 0.0014705674 0.023050845 -0.013671487
0000c0 ee 8a 10 3d 2c 5c 69 bc 10 b7 5b bc 20 78 00 3d
       0.035288744 -0.014243167 -0.013410345 0.03136456
0000d0 05 7a 4f 3d e0 9a 6d bc ac 75 32 bd 67 a9 08 3c
       0.050653476 -0.014502257 -0.043569252 0.00834117
0000e0 f8 61 aa 3d b1 8f c0 3c af 92 f5 3c fc 2f 33 3c
       0.08319467 0.023506017 0.02997717 0.010936733
0000f0 a8 df b2 bc 7d 56 cb 3b a1 08 90 bd dc 3f 80 3c
       -0.021835163 0.0062053786 -0.07032896 0.01565545
000100 8a c6 ad bc 70 6e 6f 3d 33 96 d8 3c 27 c2 40 bd
       -0.021212835 0.05845493 0.026438808 -0.047060158
000110 9f e4 ac bc 51 85 10 3d 94 3d 5c 3d 21 8e 55 3d
       -0.021105109 0.03528339 0.053769663 0.052137498
000120 c1 a7 68 3b 41 1e e5 3b c7 5a 9b 3c de d5 91 bc
       0.003550038 0.006992132 0.018964184 -0.017802175
000130 c2 53 38 bd 6d 9d 36 38 b8 fd a7 bd a5 f7 ab bd
       -0.045001753 4.3538796e-05 -0.0820269 -0.08396844
000140 d8 64 fb bc e3 4d 4e 3d f4 21 7e 3d e3 45 3d bd
       -0.030687734 0.050367247 0.0620441 -0.046209227
000150 20 ff 45 3d 8d ee 52 3d 1c 25 01 3d 8a b7 b2 3b
       0.04833901 0.05149703 0.03152953 0.0054540085
000160 3e e0 5c bd 3c 50 41 3d 20 71 0d bd b8 12 a2 bd
       -0.05392479 0.047195658 -0.034531713 -0.079137266
000170 80 cf 54 3c 88 42 14 3d 65 e6 60 bc 88 6b 2c 3d
       0.012988925 0.03619626 -0.013726805 0.042094737
000180 a4 8d 45 bd 36 1a cc 3b 93 c7 12 bd 08 57 8e 3d
       -0.048230782 0.0062287105 -0.03583486 0.06950194
000190 d9 98 50 bd 30 e5 4e 3c c3 80 19 3d 8b 1a 60 3d
       -0.050927017 0.012627885 0.037476312 0.054712813
0001a0 23 2b 65 3c 6b 4f 6f 3d 4a 8b 96 bc c9 87 ed bc
       0.013987335 0.05842535 -0.018376965 -0.028995411
0001b0 83 17 ce bb b1 71 36 bd 16 3b 59 bc 9a 71 9d bc
       -0.006289424 -0.04454202 -0.013258716 -0.019219209
0001c0 01 66 19 3c 96 fe ec 3c 62 a4 d1 bc a0 05 dc bb
       0.0093626985 0.02892999 -0.02559108 -0.0067145377
0001d0 0a 89 29 bc 12 3a fd 3c 66 0f 7d 3b bc 26 bc ba
       -0.010347614 0.03091148 0.0038613915 -0.0014354805
0001e0 3e 54 fa 3b 4b 79 5a 3c 4a 2d 56 bc 39 72 53 3c
       0.007639437 0.013334583 -0.013072321 0.012905651
0001f0 2b 2e d2 bd 25 bb ba 3c 34 21 17 bd ba 4b d7 3c
       -0.10262712 0.022794316 -0.0368969 0.026281226
000200 9d 27 46 bc f4 83 57 bc 6b 74 12 3d 68 c4 93 3b
       -0.0120944055 -0.013154019 0.035755556 0.0045094974
000210 01 e8 d0 bc 75 72 d9 bb d6 81 0c 3d 4a 86 3b 3d
       -0.025501253 -0.006635959 0.03430351 0.045782365
000220 07 d5 33 bd fa 25 8b ba 0b 6c 01 bd 18 40 87 bc
       -0.04390433 -0.0010616176 -0.03159718 -0.016510054
000230 9f a9 91 bc d2 1e 4e bd c2 48 7e 3c 54 90 2b 3c
       -0.017781077 -0.05032236 0.0155202765 0.010471422
000240 51 5e 28 3d 32 0d ca 3c 57 27 5c 3d 40 66 09 ba
       0.041105572 0.024664495 0.053748455 -0.00052413717
000250 c0 ac bb 3c 6a fa a4 3c c5 f5 fe 3c 8c 34 c7 3c
       0.022909522 0.020138938 0.031123051 0.024317048
000260 7f 92 10 3c 1d 10 2c 3d eb 9c aa bb b7 60 aa ba
       0.00882399 0.042007554 -0.0052066944 -0.0012998794
000270 0a eb 79 bc 85 a3 6b 3d 91 12 c4 3b 30 ef 8a bd
       -0.015253792 0.05752899 0.0059836586 -0.06783903
000280 c9 1f b5 3c ae f1 fc bc ad 4f 11 3d 1d c4 e6 bc
       0.022109883 -0.03087696 0.035476375 -0.028169686
000290 64 91 54 bc e6 91 ff bc e0 b0 4b 3d 3c 5a 05 bc
       -0.012974117 -0.0311975 0.049729228 -0.008139189
0002a0 50 d3 8e bc b1 aa 27 bb c8 98 d0 bb 9c 8a 67 bc
       -0.017434746 -0.0025583918 -0.006365869 -0.014132168
0002b0 44 fc c0 3c e1 a5 c4 bc 69 27 73 bc 6f 32 95 3d
       0.02355779 -0.024004878 -0.014840939 0.0728501
0002c0 1d 01 9e bd e9 29 80 bd c6 ea f3 bb 3a d5 26 3d
       -0.07715056 -0.06257994 -0.0074437587 0.040730692
0002d0 75 b5 1b bb c2 c6 58 3c 9b 91 13 bd cf c3 6c 3d
       -0.002375928 0.013230981 -0.036027532 0.057803925
0002e0 0d 36 3a 3c 37 33 94 3d 10 64 53 bd aa cc 1a bb
       0.011365426 0.07236331 -0.0516091 -0.0023620524
0002f0 29 54 54 3d 32 9f 9a 3b 44 c9 92 bd 8c 3a 25 3d
       0.051838074 0.0047186846 -0.071672946 0.040339038
000300 b9 62 43 3d a2 f6 67 bc 97 5c a6 3d 2b ca 5f 3d
       0.04770157 -0.014157923 0.08123129 0.05463616
000310 6d 89 42 3c 94 c6 40 3c 2d 1f 16 bc 1d 01 29 bc
       0.011873585 0.011766095 -0.009162706 -0.010315207
000320 b0 51 81 3d 24 cf 01 3d a0 01 e3 3b d0 4d 88 3d
       0.06314409 0.031691685 0.006927684 0.066554666
000330 4f 98 62 3d 15 a0 3f bd 21 61 15 3d c0 b5 e2 3c
       0.055321034 -0.046783525 0.036469582 0.027674556
000340 99 f0 88 3d 91 45 d4 3c fa e8 f8 3b 21 7a 82 3c
       0.06686515 0.025912078 0.0075961323 0.015927376
000350 54 a0 c2 3b ac 09 a5 bc 1d 3b ca 3c b3 3b c5 3c
       0.0059395228 -0.020146213 0.02468639 0.024076318
000360 2b 32 c7 bb cb ba fc 3c 04 18 a5 bc ff ea 24 3c
       -0.0060789785 0.030850789 -0.020153053 0.010065793
000370 22 2a b1 bb 72 96 1e 3d 6f e7 19 3b 1a 94 a4 bc
       -0.005406634 0.038717695 0.0023483892 -0.020090152
000380 64 e2 03 3d 37 33 02 bd eb 09 50 bd cc cd af bc
       0.032198325 -0.031787124 -0.05079071 -0.021460436
000390 f9 a6 36 bd 44 54 48 3d 1b 35 61 3d 2a 36 aa 3d
       -0.04459283 0.048908487 0.054982286 0.08311112
0003a0 47 c9 70 3c 5c bf 62 bd 62 69 76 3b 1a 98 0f 3d
       0.014696426 -0.055358276 0.0037599434 0.035057165
0003b0 2c 0c 43 3d 69 9f 1a bd bd 78 31 bd ba ea 0a bb
       0.04761903 -0.03774968 -0.043328036 -0.0021197037
0003c0 62 f0 15 bc e1 ca 12 bd c0 51 a5 bc a3 64 8a bd
       -0.00915155 -0.03583801 -0.020180583 -0.06757476
0003d0 48 cc d5 3c 3f 45 c0 bc 9a a4 ed 3c 98 1f ce bc
       0.026098385 -0.02347052 0.029009152 -0.02516155
0003e0 24 b7 b6 3c e5 4e 2a 3d 83 da 07 3d 4e b9 90 bc
       0.022304125 0.041579146 0.033167373 -0.017666485
0003f0 5b 64 9b 3d ee 7f 14 bc 5e b4 53 bd 6e 42 0a 3d
       0.07587501 -0.009063704 -0.051685683 0.03375476

net.0.bias f4 [32]
000000 1a 0c 4d bd 55 d4 41 bc 3a 75 cb 3b 14 a7 8c 3c
       -0.05006037 -0.011830409 0.006209043 0.017169513
000010 05 de 4b 3c ab 69 55 bd e8 98 a1 bc 0e 55 19 bd
       0.01244307 -0.052102726 -0.019726232 -0.03743463
000020 3d 1e b1 3d 1b 35 5a 3d 10 dd 11 3d cc 79 cc bc
       0.086483456 0.0532733 0.035611212 -0.024960421
000030 5f b8 c2 bc 25 85 6c 3d b8 1f 03 bd 12 4c 8d 3a
       -0.023769556 0.057744164 -0.03201267 0.0010780117
000040 12 e1 ea bc f8 02 70 bc 50 82 0a bd 70 51 9e bc
       -0.028671775 -0.014649145 -0.033815682 -0.019325942
000050 78 fc 7b 3c 1c e9 ff bc 95 6f 82 3c 26 29 17 3d
       0.015380017 -0.031239085 0.015922347 0.036904477
000060 6c ae a3 3b 30 eb 9e bc 60 35 76 bd a4 f0 08 3d
       0.004995158 -0.019399256 -0.060109496 0.033432618
000070 09 3f 86 39 42 63 3c bd dd 64 44 3c f4 02 31 bd
       0.00025605437 -0.045993097 0.011986938 -0.043215707

net.2.module.0.weight f4 [32, 32, 3]
000000 a8 60 61 bd fb 56 b8 bd f4 f2 dd bd e3 c0 3e bd
       -0.05502382 -0.09000965 -0.10837355 -0.04657067
000010 4e c4 87 bd 8f ea f1 3c 82 17 06 be 7b 3d e3 bd
       -0.06629239 0.029530792 -0.13094905 -0.11095711
000020 37 86 19 be e1 ed cf bd c2 e4 68 bd 1f fa 93 3d
       -0.14992605 -0.10152794 -0.056858785 0.07225441
000030 ac df f9 3d 1a 4e 94 3b 01 c6 f7 3b df 31 39 3e
       0.12200865 0.004525912 0.0075614457 0.1808543
000040 4a 34 e0 3c 64 d0 00 3e ba ab b6 bc 03 d1 c6 3d
       0.027368683 0.12579495 -0.022298682 0.097078346
000050 93 26 82 3d 5c b3 68 bd 18 94 d8 3d db b3 ae 3d
       0.06355014 -0.056811675 0.10575122 0.085303985
000060 ff 41 d7 bd 25 f9 45 3c 35 1f dc ba 02 3d cc 3d
       -0.10510635 0.0120833265 -0.0016793968 0.09972574
000070 18 4d 8e 3d 61 7d a1 bc 75 1b c7 3c 62 b6 6a 3d
       0.06948298 -0.019713106 0.024305085 0.05730284
000080 40 1e 7a 3b d5 fc 00 bd 64 15 8b bd d6 bc a7 bb
       0.0038165003 -0.03149112 -0.06791189 -0.0051189465
000090 0a d6 1a 3e e8 6b b8 bc cb 42 2c 3d 1c 0e 4d 3e
       0.15120712 -0.022512391 0.042055886 0.20024914
0000a0 9c a8 15 3e 1a de 03 3d a7 a5 ca bd a6 d1 e7 bd
       0.146151 0.032194234 -0.09894877 -0.11319284
0000b0 25 f0 d7 bd cf a9 87 3d d9 9b bb bc b0 9c ab 3c
       -0.10543851 0.06624185 -0.022901462 0.020948738
0000c0 09 0b b1 bd bd 02 a4 bd 16 6a 91 bd c4 52 67 bc
       -0.08644683 -0.08008335 -0.071003124 -0.014118854
0000d0 77 a1 a4 bd 3b a5 e6 bc 0f 03 25 bd d2 01 73 bd
       -0.080386095 -0.02815496 -0.04028612 -0.059327908
0000e0 05 3c c0 bd bf ff 46 bc 68 dd c7 bd b2 c3 b3 bd
       -0.09386448 -0.012145936 -0.09759027 -0.0877756
0000f0 a4 27 da 3c d2 c7 8d bd bd 21 80 bc ae ec 9c 3d
       0.02663023 -0.06922878 -0.015641088 0.076623306
000100 a9 d1 a6 3d 16 ac eb 3c ef 82 b9 3d 3c 62 b4 bd
       0.08145458 0.02876858 0.09058177 -0.08807799
000110 92 33 02 be 26 14 79 3d f5 4d 42 3d 1c 4c 7e 3b
       -0.12714985 0.06081023 0.047437627 0.003880269
000120 c5 03 54 be 3b 8e bc 3d c5 80 a1 3c f7 4e 77 3a
       -0.20704563 0.09206816 0.019714722 0.0009434069
000130 b5 46 e8 bd 62 cf cb 3d 87 f6 90 bd 5c 11 50 3d
       -0.11341611 0.099516645 -0.07078271 0.050797805
000140 39 99 fa 3d 2a e8 72 bd bd 4c a9 3d 58 95 f2 bc
       0.12236256 -0.05930344 0.0826659 -0.029612228
000150 04 1e 34 3e 81 3d 13 3e bc e2 71 3c 7f 4e b4 bd
       0.17589575 0.1437893 0.01476353 -0.088040344
000160 5f 3b 1d bd 56 1b 18 bd a4 64 43 bd e2 f5 00 be
       -0.0383867 -0.037135445 -0.0477034 -0.12593797
000170 9c 86 ba bd 83 4a c0 bc d4 c9 47 bd 98 bf cd bd
       -0.09107706 -0.02347303 -0.048776463 -0.10046309
000180 40 1b 35 3d 2a 09 e1 bc 07 76 8a 3d 58 76 ab bd
       0.04421544 -0.02747019 0.06760793 -0.08372182
000190 30 14 8c bd 8d aa 67 bd ff b3 dd bc 63 e3 2c bc
       -0.06839788 -0.056559134 -0.027063368 -0.01055226
0001a0 2a 03 d7 bd a4 9a f1 bc 3f 81 87 3d 3f 98 42 3d
       -0.1049865 -0.029492684 0.066164486 0.047508474
0001b0 4a de 28 bc 4a 06 36 bb c2 c9 dc 3d ff 0a f2 3d
       -0.010306904 -0.0027774745 0.1078067 0.118185036
0001c0 2f 57 4a 3d 5e af d9 3c ac 0b be bd 5f 9e 0e be
       0.04939955 0.02657288 -0.0927957 -0.13927601
0001d0 fd 5a 98 bd 29 fe a5 3d 4a 3b 05 bd 45 8f b4 bd
       -0.0743923 0.08105118 -0.032527246 -0.08816389
0001e0 bd ce c9 ba 81 e5 5f bd 47 c6 1c 3e 3c 13 55 bc
       -0.0015396696 -0.05466223 0.15310012 -0.013005074
0001f0 1b d4 9a 3d 79 67 5b 3e 5a 6f f9 3c e7 31 29 bd
       0.07559987 0.2142619 0.030448604 -0.041307356
000200 9b 6a 8e 3d d5 8e f0 3d c8 78 01 3e 61 69 97 bd
       0.06953927 0.11745993 0.1264373 -0.07393146
000210 b0 96 3c 3e 9b e2 8b 3d a9 a3 5d 3d 9c 36 be 3c
       0.18416858 0.06830331 0.054111157 0.0232194
000220 22 3d 0e bd a9 57 37 3c 34 95 d5 bd b7 db 21 3d
       -0.03472627 0.011190333 -0.10428849 0.039516177
000230 8b 9e a7 bd bc 0c 91 bc 49 a1 ae 3d 8a 94 48 bc
       -0.081845365 -0.017706268 0.085268565 -0.012242446
000240 ef 20 d0 3d 51 78 ac 3d f7 12 e8 bd fc 98 30 3d
       0.101625316 0.08421386 -0.11331742 0.043114647
000250 f3 84 96 3d 45 6d 4d 3d 17 d2 13 bb fd f6 a8 bd
       0.07349577 0.050153036 -0.0022555643 -0.08250234
000260 ce 78 af bb 82 ac 09 bd f0 21 f7 bd d0 06 ca 3c
       -0.005354977 -0.033611782 -0.1206702 0.024661452
000270 27 62 83 3d a4 da 99 3d 89 c0 46 bd 97 cc 69 bc
       0.064152054 0.075124055 -0.04852346 -0.014269969
000280 93 a6 1d 3d 91 10 b3 3d 00 a0 76 3d 51 2e 78 3b
       0.038488936 0.08743394 0.06021118 0.0037869404
000290 7b 17 6b 39 f4 f8 2e 3e 17 5f b3 3d 3d b2 57 3d
       0.00022420094 0.17087156 0.08758371 0.052660216
0002a0 50 f8 e8 3d 51 df ee bc ee 3d 46 3d 57 1e 94 bc
       0.11375487 -0.02915922 0.048398905 -0.018080873
0002b0 aa 80 77 3d 15 eb ab bd 68 b5 ce bd e7 3d c7 bc
       0.060425438 -0.08394448 -0.10093194 -0.02432151
0002c0 07 9d a3 bd 09 c4 0f bd cd 99 71 bd 16 f4 c2 bd
       -0.07988935 -0.035099063 -0.058984566 -0.09519212
0002d0 d5 a4 2a 3e fa 2f 80 ba 9b a3 e8 3d 14 3c 24 be
       0.16664441 -0.0009779923 0.1135933 -0.16038543
0002e0 a9 32 7f bd 7b 37 d0 bb 3a 1d f2 bc 96 2d 7a 3d
       -0.062304173 -0.00635427 -0.029554952 0.06107863
0002f0 a5 4d b1 3c 20 4e 80 3d f7 ce 03 3d 3c 5b c8 bb
       0.02164347 0.06264901 0.0321798 -0.0061143916
000300 82 95 11 be db af a0 3d 80 99 e0 bd ad c8 1c be
       -0.14217189 0.07846042 -0.10966778 -0.15310927
000310 5d 19 22 bd f0 1c 1c be ac a2 68 3d af be e3 3c
       -0.03957497 -0.15245414 0.05679576 0.027800886
000320 ee ee 5f 3c 87 1b 05 3e ef 0f 0c 3d 0b 03 c1 bd
       0.013667805 0.12998782 0.034194883 -0.094244085
000330 11 ca f7 3d c2 06 87 3d e6 4d 22 bd 7a db ce bd
       0.12099088 0.06593086 -0.03962507 -0.101004556
000340 36 0e 15 be 54 b2 08 be a5 b7 3a bc fe 24 b2 3d
       -0.14556202 -0.13349277 -0.011396323 0.08698462
000350 68 4d 3d 3d 51 01 70 3c 3a 74 47 3d 26 05 8f bd
       0.0462164 0.014648751 0.048694827 -0.06983404
000360 25 fd 27 3e 4f 7f 0b 3c 5a cc 1e 3c 37 cf 25 bd
       0.1640516 0.008514239 0.009692276 -0.04048082
000370 6c 8f 87 bd 50 88 55 3d ee 3b e9 bb 7f 89 98 bd
       -0.066191524 0.05213195 -0.00711774 -0.074481
000380 e1 07 30 bc 47 38 24 3e e0 51 b1 3d 1b c8 f9 3c
       -0.010744066 0.16037093 0.086581945 0.030490926
000390 63 98 b8 3d 67 3d 19 3c 92 8a 03 be e2 66 82 be
       0.090134405 0.009353018 -0.12845829 -0.25469118
0003a0 8d ef 8a 3c 2c 80 2b 3e 0e 5a 18 3d 31 37 f2 3d
       0.01695993 0.16748112 0.037195258 0.11826933
0003b0 49 c0 b5 bd da 41 80 3d fb d7 ae bc b6 0c 4d bc
       -0.08874566 0.0626256 -0.021343222 -0.012515238
0003c0 44 c0 a7 bd 4b d4 98 3d ab 87 d6 bb 37 84 42 bd
       -0.08190969 0.07462367 -0.0065469346 -0.04748937
0003d0 4e 14 fa 3c f2 b2 bf 3d 31 62 fe bc db f0 61 3d
       0.03052726 0.09360303 -0.03105268 0.05516134
0003e0 04 19 45 bd a0 cf a1 bc 44 32 69 3c a7 1b 9a bd
       -0.04811956 -0.019752324 0.014233176 -0.075248055
0003f0 84 eb 27 3d b7 25 a4 3d 1f 04 ef bd 59 a8 ea bd
       0.04099609 0.08015006 -0.11670708 -0.11457891

net.2.module.0.bias f4 [32]
000000 4b 97 d6 3c a3 2b 77 bd 47 d4 9f bd cf 3d a6 bd
       0.026195189 -0.06034435 -0.078041606 -0.08117258
000010 d9 de af 3d 31 7e 62 3d d2 f9 a4 bd ca 60 a1 3d
       0.08587427 0.055296127 -0.08055462 0.07879789
000020 30 a1 81 bd 49 00 d8 3d fe 19 99 bd e1 7a 1e bd
       -0.06329572 0.105469294 -0.07475661 -0.038691405
000030 b5 69 a3 3d d5 c5 7e 3d 71 8e c0 bd e4 ed 1b bd
       0.079791464 0.062200386 -0.094021685 -0.038068667
000040 32 f5 8e 3d 90 77 df bb 73 05 5d 3d d4 81 2f 3d
       0.06980361 -0.006819673 0.053960275 0.042848423
000050 76 74 0b 3d 84 e5 be bd d1 d6 55 3d f5 dd e3 3d
       0.034046613 -0.093211204 0.052206818 0.11126319
000060 33 e0 a2 3d 6c 60 32 3d 75 5f db 3c d5 30 56 bd
       0.07952919 0.043548986 0.026778916 -0.052292664
000070 12 f4 03 3d 0d 92 a9 bd 3c d7 24 3c e7 aa 97 bd
       0.032215185 -0.0827981 0.0100610815 -0.07405644

net.3.module.0.weight f4 [32, 32, 3]
000000 2d 57 8e bd 1d 1d 18 bd 26 dd 3f 3d c5 82 2d bd
       -0.06950221 -0.03713714 0.046841763 -0.04236104
000010 b6 1c cf bd 7c a4 dd 3d c6 04 84 bd d3 fe d1 bd
       -0.10112898 0.108223885 -0.06446223 -0.10253682
000020 65 71 88 3b 05 c0 85 bb 62 a0 1d 39 7a 92 b4 bd
       0.0041639083 -0.0040817284 0.00015032434 -0.08817001
000030 60 7d 80 bd 1e ff d4 bc 1a 42 63 3d b7 3a c5 3b
       -0.062739134 -0.026000556 0.05548296 0.0060189622
000040 7d e7 18 bd cd 9b 2e bc 52 24 e9 3d b2 65 8b 3d
       -0.03733014 -0.010657263 0.11383881 0.06806506
000050 43 bb 95 3d da cf c9 bd 1c 97 07 bd ae 92 df 3d
       0.07311108 -0.09854098 -0.033103094 0.10916649
000060 a9 49 05 be 76 c2 62 3d 5e 9e 98 3d 5e c1 b5 bd
       -0.1301638 0.055361234 0.07452081 -0.088747725
000070 b8 bc 12 bc 69 00 73 bd 19 3b 5b 3c 71 9c 7b 3b
       -0.008956127 -0.059326563 0.013380789 0.0038392807
000080 4b 53 5a 3d 86 32 a7 bc e8 cd 14 be b1 7e d9 ba
       0.05330209 -0.020409834 -0.14531672 -0.0016593543
000090 6f dd 97 3c 02 b3 35 bd 6a 6b a1 3c f5 ed 46 3c
       0.018538205 -0.04436017 0.01970454 0.012141694
0000a0 3f 99 45 3d b4 fa 3b bc 31 f7 5c 3d df a6 13 bd
       0.04824185 -0.0114733465 0.053946678 -0.036047813
0000b0 ca 47 8c bd 4d a0 9d bd 5b 4b 7e 3d 45 8f 9b 3c
       -0.0684963 -0.076965906 0.062083583 0.018989215
0000c0 3b 9a b1 3d 20 52 c6 3d fb eb 0b be 38 d3 05 b9
       0.08671995 0.09683633 -0.13664238 -0.00012762554
0000d0 8c b3 73 bd cc 12 47 3d 4a b5 fe bd d3 eb ab bc
       -0.0594974 0.04860191 -0.12436922 -0.020986473
0000e0 d8 77 09 be d5 fa fb 3a 46 99 19 3d d8 3f f4 bd
       -0.13424623 0.0019224534 0.03749969 -0.1192624
0000f0 46 6f 81 ba df b4 47 bd 51 bf 06 be c3 45 44 bc
       -0.0009875081 -0.048756476 -0.13158919 -0.011979523
000100 56 6c 02 3d ae dd 56 bc 3a 19 ab bd 3c a0 a9 3d
       0.0318416 -0.013114376 -0.08354421 0.082825154
000110 8e 81 26 3d 8e c6 23 3d 57 ab 40 bc 00 99 17 3c
       0.040650897 0.03998428 -0.011759601 0.009252787
000120 93 94 e3 3c 5c 80 19 bd e5 cb 0d 3d 6a a4 00 3d
       0.027780807 -0.03747593 0.034618277 0.031406797
000130 51 a3 84 3d 54 4a e7 bb 73 7f 7d bd 4c 95 93 3d
       0.06476463 -0.007058421 -0.061889123 0.072062105
000140 24 99 82 bc f1 50 05 3d 8e 8f 29 bd a6 a1 7c bd
       -0.015942164 0.032547895 -0.04139667 -0.061677597
000150 64 9c e3 3d 61 6f 80 3d 3b 6c 66 bd 0b 1d 90 3c
       0.111138135 0.06271244 -0.05625556 0.017591974
000160 29 7c ba 3d cd 8b cb bd cc f0 81 3d bb 48 b1 bd
       0.09105713 -0.09938774 0.063447565 -0.0865645
000170 b4 cc e6 bc c9 d4 d3 bc a6 a2 7e 3d 3c 4b 52 3d
       -0.028173782 -0.0258583 0.062166832 0.05134128
000180 e3 bd 3b 3d 7f 00 13 3d 6e 3b 5a 3a 9c 12 25 bd
       0.045835387 0.035889145 0.0008324896 -0.04030095
000190 fa 55 62 3d d7 f9 87 bd fd 59 48 3d ca 5b 89 bd
       0.055257775 -0.0663945 0.048913945 -0.067069605
0001a0 79 cb 75 bd ab d3 81 3b e1 c5 ea bd aa 67 1e 3d
       -0.0600085 0.0039620004 -0.11463524 0.03867308
0001b0 69 00 8b bd bb e9 0d 3d 2f d8 99 3d a5 72 44 3d
       -0.067871876 0.03464673 0.07511937 0.047960896
0001c0 0b ad 56 3d 2a 78 3a bc 7f c9 37 3c f1 a3 ea bd
       0.05241112 -0.011381188 0.011217474 -0.114570506
0001d0 89 f8 b6 3d 35 92 a7 3d 87 7f e4 bc d8 33 97 3c
       0.08934123 0.08182184 -0.027892841 0.018457338
0001e0 30 56 40 bc 0a 67 48 3d 54 e2 04 3e 06 ab c2 bc
       -0.011739299 0.04892639 0.12976962 -0.023763191
0001f0 8d e8 db bd d1 78 f7 3d 93 dc 8d bd af cc 4f 3d
       -0.10737715 0.12083591 -0.06926837 0.05073231
000200 12 c5 40 3d e1 18 1d 3d 3b e1 ce 3d 14 6b 8f bd
       0.04706294 0.038353804 0.10101553 -0.070028454
000210 ef de 65 3d 3b e8 8b bc b6 b6 85 bd a5 4f 66 bd
       0.05612081 -0.01707851 -0.0652899 -0.0562283
000220 9a 0b c0 bd 00 4f ac 3d 8c a6 a4 3d 70 3d 31 3d
       -0.09377213 0.084135056 0.08039579 0.043271482
000230 c1 52 bd bd 16 a1 83 3b 6b 34 ac 3c 71 51 86 bd
       -0.092443 0.0040170057 0.021021089 -0.065585025
000240 2b a7 c6 bd 85 92 b9 bd dd be d1 3b e2 87 03 3d
       -0.096998535 -0.090611495 0.0064009265 0.03211201
000250 1f b9 8d 3d 2f e2 8e 3d 18 0b cb bd cd 4c a3 bd
       0.06920075 0.06976735 -0.09914225 -0.07973633
000260 97 5d 73 bd 91 ac c8 bd 6c 89 be 3d 3f 6a d8 bb
       -0.059415426 -0.097985394 0.09303555 -0.0066044624
000270 da 5b 15 3e 08 94 a2 3d 46 54 88 3d ad 4e 04 bd
       0.1458582 0.07938391 0.06656699 -0.032301594
000280 b4 06 8a bd b9 60 75 bd a0 1f c1 bd a5 ec ae bd
       -0.0673956 -0.059906695 -0.0942986 -0.0854123
000290 dd a6 95 3d 9e 2e 5d 3e c2 4d d9 3d ca aa a9 3c
       0.07307217 0.21599814 0.10610534 0.020711321
0002a0 ae 85 40 3d 3b a5 53 3d 04 70 fd bb 50 a5 a1 bd
       0.047002487 0.051671248 -0.0077343006 -0.07892859
0002b0 46 0c 7d bd 3d d5 18 be 82 f6 89 bd 73 d9 78 bd
       -0.061779283 -0.14925094 -0.06736471 -0.06075425
0002c0 07 2b bf 3d 0e 55 15 bd 07 e6 de 3d 21 d6 a1 3c
       0.09334379 -0.036458068 0.10883718 0.019755425
0002d0 79 85 17 3d 0a e1 87 bd 5b b9 82 3b a9 21 9c bd
       0.036992524 -0.0663472 0.0039893812 -0.07623608
0002e0 8b 64 47 3c b8 d6 07 3e 77 d1 48 3d cd b2 07 bd
       0.012169967 0.13265502 0.049027886 -0.033129502
0002f0 4d 72 b7 bd 42 0e 8f bd f8 84 fb bc ab 30 18 bc
       -0.08957348 -0.06985141 -0.030703053 -0.009288947
000300 71 49 16 bc 59 0a c6 3d 13 ec 69 bc 0e f2 a6 bd
       -0.009172783 0.096699424 -0.014277476 -0.08151637
000310 b4 39 aa bd b9 d2 e4 bd 97 fc 00 3e 1e b5 f4 bc
       -0.08311787 -0.11173005 0.12596355 -0.02987152
000320 3f 22 9b bd ac cd ed 3d fc d6 85 bd 9f ce 54 bd
       -0.07574891 0.116114944 -0.06535146 -0.05195486
000330 51 11 de bc 2c 2d 1e 3d 8e f1 85 bc ac 97 e5 bc
       -0.027107866 0.038617298 -0.016350534 -0.028026424
000340 6a 28 b3 3d 6d 3b b4 bd 75 f0 03 3e 24 a2 62 3d
       0.08747943 -0.08800397 0.12884696 0.05533041
000350 1b 9e 9c bd 2a 1d ed 3d 3d 29 ce bd b0 01 fd bd
       -0.07647344 0.11577828 -0.10066459 -0.123538375
000360 0e 55 f8 3a e6 c5 c6 3d 22 93 63 bd fe e8 ba bc
       0.0018946247 0.09705715 -0.05556024 -0.022816177
000370 64 02 9c 3d d2 71 58 bd 08 70 78 ba c2 85 40 3d
       0.076176435 -0.052842923 -0.0009477143 0.04700256
000380 49 b3 85 3d ba 2f f2 3d 88 d8 02 3e 0f 35 0c be
       0.065283366 0.11825509 0.12777913 -0.13692115
000390 6d 69 40 bd 41 87 58 bd bc 61 50 be 34 e0 30 bd
       -0.04697554 -0.052863363 -0.20349783 -0.043182567
0003a0 ea d5 38 3d 02 36 7f 3d c3 e9 5f 3d c5 06 c6 3d
       0.04512588 0.062307365 0.054666292 0.0966926
0003b0 d1 c4 c3 bc c6 6e 6f bd d8 1f 21 3d 14 93 ae bd
       -0.02389756 -0.05845525 0.03933701 -0.08524147
0003c0 1e 02 84 bd a6 2e d4 3d af e4 a0 3c 62 42 d7 bc
       -0.06445716 0.1036046 0.019640295 -0.026276771
0003d0 52 b7 9c bd 38 f7 b2 3d bb 19 1d be 50 d3 a5 bc
       -0.07652153 0.087385595 -0.15341847 -0.020242363
0003e0 70 fb 7a 3d e4 9d d2 3d 49 7b 71 bd e4 08 22 3e
       0.061274946 0.102840215 -0.058955465 0.15823704
0003f0 ff 84 aa bc ad e5 5d bd 51 b4 bd bd c2 71 ee 3d
       -0.02081537 -0.054174114 -0.09262908 0.11642791

net.3.module.0.bias f4 [32]
000000 e0 50 25 3c 3a 23 c1 bc a1 e4 be bc ca 35 ce bd
       0.010090083 -0.023576368 -0.023302378 -0.10068853
000010 8d f0 c1 3d 3d c5 f1 3c 44 a2 4c bd f4 a1 18 bd
       0.094697095 0.029512996 -0.049959436 -0.037263826
000020 cc df e6 3d 72 e7 aa 3d c4 a7 7a 3d ee 08 1e bd
       0.112731546 0.08344926 0.06119515 -0.038582735
000030 27 14 cd bc 37 e4 52 bb a4 3a 5e bc 2e bd e1 3d
       -0.025034023 -0.0032179484 -0.013563786 0.11022411
000040 47 f1 99 bd 89 a9 d2 3d f1 7e 85 bd 4f a0 84 3b
       -0.07516723 0.102862425 -0.06518353 0.0040474306
000050 b4 9d 0f 3d b9 e1 1c bd 71 74 51 bd c9 bf 9e bd
       0.035062507 -0.038301203 -0.051136438 -0.07751424
000060 65 9a cb b9 01 e1 75 bd a0 40 95 3d d6 6e ae bc
       -0.0003883421 -0.060029034 0.07287717 -0.021293085
000070 9e d4 d7 3c fe 5a 7c 3d 26 fe f6 bc b7 b3 b6 3c
       0.026346501 0.061610214 -0.030150484 0.022302492

net.4.module.0.weight f4 [32, 32, 3]
000000 cd 1e 7f bd da 83 c4 3d e2 bc af 3d 8e f7 e2 3d
       -0.062285233 0.09595461 0.085809484 0.110823736
000010 bb 0c 3e bd a1 90 f1 3d 63 bf 02 be 5c a3 0b 3d
       -0.04639886 0.11795164 -0.1276832 0.03409134
000020 be 8f a4 bc e4 7f 0c be b7 f2 db bd fc 6f 76 bd
       -0.020088073 -0.13720661 -0.107396536 -0.06016539
000030 5c 6a 8c 3d 15 8d df 3d 5a bd c3 3d b9 8c 17 bc
       0.06856224 0.10915581 0.095576 -0.0092498595
000040 ad a9 cb bc 3e 9f b2 3d ed ce 62 3d c1 8b 86 39
       -0.024861181 0.08721779 0.05537312 0.00025662596
000050 2f 53 f3 3d cb 0d 4b bc ca 24 bb 3d 0c 05 b2 bd
       0.118811004 -0.012393425 0.09137876 -0.08692369
000060 86 e0 09 be 45 aa e9 3c 32 63 bc bd ef 1c b1 bd
       -0.13464555 0.028523574 -0.091986075 -0.08648097
000070 1d 4a ba 3d 2b 5d 7d bc 76 29 c6 bd 40 f9 00 3e
       0.09096167 -0.0154641075 -0.09675877 0.12595081
000080 91 80 1b bd 74 31 78 3c 36 f4 fe bb f8 5b 23 be
       -0.037964407 0.015148509 -0.007780577 -0.15953052
000090 9d b6 13 3e fe 0e bb 3d 8e 88 09 3d 9d b4 bd 3d
       0.1442513 0.09133719 0.033577494 0.09262965
0000a0 53 b8 aa bd 97 62 a9 bb 25 44 c9 3c d6 a5 9c bd
       -0.08335938 -0.0051692235 0.024568627 -0.07648818
0000b0 6c ec 2a be f9 30 46 be 67 74 03 bc d6 f5 f7 bd
       -0.1669175 -0.19354619 -0.008023358 -0.12107436
0000c0 8e ea 2a bc c0 fb c8 3d fd aa d2 bc 7e aa 3c 3d
       -0.010431899 0.098136425 -0.0257163 0.04606103
0000d0 ce 12 b9 bd 5f d9 1b 3c 66 df b7 3c 39 26 95 bc
       -0.0903679 0.0095122745 0.022445392 -0.018206703
0000e0 75 c9 26 3d 37 bd 6c 3d 6e f7 be bd ea d4 ad 3d
       0.04071947 0.057797637 -0.09324537 0.08487876
0000f0 c6 01 40 bd bc 60 72 bc 71 f8 a5 bd f5 4d b1 3d
       -0.04687669 -0.014793571 -0.08104027 0.08657447
000100 fe f3 5e 3c e5 ff c5 bc 61 2c 22 3d 02 8d 5e bc
       0.013607977 -0.024169872 0.039593104 -0.013583424
000110 2e af 87 bd e8 2f ba 3d 20 e4 86 bd ac 30 b6 bb
       -0.0662521 0.09091169 -0.0658648 -0.0055600014
000120 d4 49 3f bd ae 2e 7d 3d c8 5d cc bc 1e 62 2e bd
       -0.046701267 0.061812095 -0.024947062 -0.04257404
000130 c4 63 b8 bb 32 8e 98 bc 71 a2 0c bd 2a 33 4e 3d
       -0.0056271274 -0.018622492 -0.034334604 0.050341763
000140 2f 3f f1 3b 5c 29 9f bd d1 d0 1b bd 93 fd 0a be
       0.0073622684 -0.077715605 -0.03804094 -0.13573293
000150 c6 40 24 3e 93 48 6d 3b ab 50 88 3c 30 2c 56 bd
       0.16040334 0.0036206588 0.016640028 -0.052288234
000160 fa 64 8e bd 18 68 c3 bd 45 20 82 3c c7 83 0e bd
       -0.069528535 -0.09541339 0.015884528 -0.03479364
000170 24 13 ce 3d 2f 53 89 bd 3d 8d 0a bc 68 86 b6 bd
       0.100622445 -0.06705319 -0.008456525 -0.08912355
000180 5a a0 9c 3d a0 48 44 bd 2d fa df bb d1 66 4c 3d
       0.07647772 -0.047920823 -0.006835243 0.04990274
000190 fa e7 38 3d 18 aa 1e bc b6 ce c1 bd 28 52 b2 3c
       0.045143105 -0.009684108 -0.09463255 0.02176769
0001a0 10 3c 63 bd 8c 0f 2e be a9 b1 98 bd 7b 37 b4 bc
       -0.055477202 -0.16998118 -0.07455761 -0.021999111
0001b0 eb 9f 80 bd 59 61 e1 3d 34 0c 0c bd d5 89 ad bd
       -0.06280502 0.11004896 -0.034191325 -0.08473555
0001c0 a9 73 99 3d 71 b0 b7 bc 53 64 01 3d 49 27 d4 bd
       0.074927635 -0.022423001 0.031589817 -0.103590555
0001d0 ef 68 fd b9 ae 7f 28 bc 61 0e 77 3d 64 ca 3c be
       -0.00048334102 -0.010284347 0.060316447 -0.18436581
0001e0 45 25 a9 bd 08 d0 bd bb 79 c9 58 bd 79 36 00 3d
       -0.08259062 -0.0057926215 -0.052926514 0.03130195
0001f0 0a 7e 91 3d 56 d2 33 3e 0a ea 9f 3d eb bc 25 bc
       0.07104118 0.17560706 0.07808311 -0.010115842
000200 3f 1c 10 bd ef 9f 00 be 65 21 6f 3d b2 fc 2c 3d
       -0.035183188 -0.1256101 0.058381457 0.042233177
000210 73 bd 05 3e bc 1c 06 bd 57 53 e7 bd ea 8e 17 3d
       0.1306055 -0.032742247 -0.11295193 0.037001528
000220 df 4f 02 bd dd 62 04 3d 1f 31 9f 3d f4 9e aa 3d
       -0.031814452 0.032320846 0.07773041 0.08331099
000230 bc 26 94 3d 8a ff bc 3d 39 36 09 3d 9c 27 46 3e
       0.072339505 0.09228428 0.033498976 0.19351047
000240 ff 54 ea 3a 59 6f e1 bc 77 ca 49 3d 48 d9 94 bd
       0.0017878114 -0.027518915 0.04926535 -0.072680056
000250 61 38 d3 3d 32 eb 9b 3d 98 cc 42 bd 8d 79 f9 bc
       0.10313488 0.07613219 -0.047558397 -0.030453468
000260 c3 de 53 bd a6 41 4d bd 8e b1 43 3d bf a8 3b 3d
       -0.051726114 -0.050111435 0.04777675 0.045815226
000270 75 c4 e5 bc 72 a0 c4 bd 02 be d8 3d 68 c2 9d 3d
       -0.02804778 -0.09600915 0.10583116 0.07703096
000280 62 9e 60 3d 7f b9 1f 3d 59 5d 87 bd b7 7c 89 bd
       0.054838546 0.038995262 -0.066096015 -0.067132406
000290 a5 5a 04 3c 2c a8 5f 3e 60 af 9c bc cd 50 03 bd
       0.008078252 0.21841496 -0.019126594 -0.03205948
0002a0 56 1d 9b 3c 63 dc 96 3d 3c c9 21 3e d8 fe a1 bd
       0.018934887 0.07366254 0.15799421 -0.07909936
0002b0 d6 98 a6 bd 9a cc 85 3c b0 f3 74 ba 35 d9 9e bc
       -0.0813462 0.016332913 -0.00093441736 -0.019390682
0002c0 f2 a9 6d bd bd dc d3 3c 85 17 80 bd b8 96 72 3d
       -0.0580234 0.025862092 -0.06254486 0.059225768
0002d0 54 58 c6 3d 29 64 ce 3c 13 d1 d5 3d 14 ab 26 bd
       0.09684816 0.025194244 0.10440268 -0.040690497
0002e0 72 d6 86 bd d0 28 c9 3d 9c ab ce bd 23 36 a1 39
       -0.06583871 0.098222375 -0.10091326 0.00030748648
0002f0 ab 58 82 bd 03 c5 aa bd 67 43 90 3d 25 b7 22 bd
       -0.06364568 -0.08338358 0.07044106 -0.03972544
000300 07 f0 08 be ed c0 ac bd 2e 46 8d bd c8 63 f6 bc
       -0.13372813 -0.08435235 -0.06898151 -0.030076876
000310 13 73 86 3d 89 ed 18 3d 59 04 52 3d cd ad ab bd
       0.065649174 0.037335906 0.051273677 -0.08382759
000320 42 ed e9 bd a6 a0 48 bc 7a 63 bc bc 96 33 20 be
       -0.114222065 -0.012245333 -0.022996653 -0.15644678
000330 48 87 d3 3b e7 88 51 3d 42 32 91 bc 1e 7a b8 bb
       0.0064553358 0.05115595 -0.01772416 -0.005629792
000340 4b a7 36 3c f2 da 0b be 13 51 e0 3a b2 e3 ac 3d
       0.011148284 -0.1365774 0.0017114006 0.08441867
000350 6a aa 97 bd 6a 0a 8d 3d 75 57 ad bc f7 65 f0 3d
       -0.07405551 0.06886752 -0.021159867 0.11738198
000360 63 86 bc bc 08 3e 91 39 31 6f fe bd 8e ab 7d 3d
       -0.0230133 0.00027702772 -0.12423552 0.061931185
000370 77 06 cb bc 59 d6 cc 3d 2b 8c 43 3d 94 55 15 bd
       -0.024783356 0.10001821 0.047741096 -0.036458567
000380 6a 64 94 3d 31 5a d1 bd 86 06 ac 3c 58 c5 40 3c
       0.07245715 -0.10222281 0.020999204 0.0117658
000390 dd c3 ed 3d 4b ca 58 bd 72 c6 86 3d ae 53 1a bd
       0.116096236 -0.052927297 0.06580819 -0.03767746
0003a0 7f 67 53 3d 74 b9 2b bd e7 84 8f bd b6 6a 16 3d
       0.051612373 -0.04192491 -0.07007771 0.03672286
0003b0 85 f4 f0 bd af 60 11 3e 20 a0 13 3c 1b e8 92 3d
       -0.117653884 0.14197038 0.009010345 0.07173177
0003c0 8a cb 89 3d aa ca 44 3d 92 3a 13 3c d6 fe d8 bc
       0.06728275 0.048044838 0.008986132 -0.026488703
0003d0 d7 cc 82 3d 6f 4e f3 bc 20 d1 73 bd 77 ec b7 3d
       0.06386726 -0.029700486 -0.05952561 0.08980649
0003e0 d6 f2 0b bd 00 a6 f6 bc 7f ce 48 bd 81 bc d9 3d
       -0.034167133 -0.030108452 -0.049025055 0.106316574
0003f0 78 3a a1 bd a7 22 a2 bd f2 cb 49 bd b2 83 14 be
       -0.0787248 -0.07916766 -0.049266763 -0.14503363

net.4.module.0.bias f4 [32]
000000 73 19 79 3d be d1 8b 3d b6 d4 30 3b b0 b6 c6 bd
       0.060815286 0.068271145 0.0026982254 -0.097028136
000010 14 a2 16 3d ea f7 57 3d 55 11 9e 3d 46 92 78 bd
       0.036775663 0.052726664 0.077181496 -0.060686372
000020 d6 54 82 3d e0 dc 81 3c 36 44 97 bd 3b 37 9b bd
       0.063638374 0.015852392 -0.07386057 -0.07578894
000030 3b 5b c7 bc 75 85 98 3d f2 d6 92 bd fb 6f 32 3d
       -0.024335494 0.0744733 -0.07169904 0.043563824
000040 62 d8 2c 3c b5 fd 10 3b 1c 15 96 bd ea ea b9 3c
       0.010549637 0.0022123877 -0.07328245 0.022695024
000050 6b d7 98 bd 82 86 b4 b9 7e 11 8d bd 72 a2 87 bd
       -0.07462963 -0.00034432492 -0.06888102 -0.06622781
000060 a2 86 a7 3c 69 f0 b4 bd 24 07 0a be 93 d0 67 bc
       0.02044994 -0.08834917 -0.13479286 -0.014148849
000070 ce 9a 8d bc 91 4f 51 bb da 8e 9e 3d 2b 75 2c 3d
       -0.01728573 -0.0031938294 0.077420905 0.042103928

net.5.weight f4 [48, 32, 3]
000000 b6 62 4d bd 4a 53 85 3d 8f 5e 52 bc 77 02 b7 3d
       -0.050142966 0.06510027 -0.012839927 0.08936017
000010 58 3f 8d bd 76 df 60 3d ba 47 b0 3d 08 eb 13 bd
       -0.068968475 0.05490061 0.08607431 -0.036112815
000020 78 c9 3c bd dc ae 23 3b 16 a2 3b bd e8 8d d2 3d
       -0.046090573 0.002497605 -0.045808874 0.10280973
000030 25 b7 a0 bd ac 7a be 3d 6a 37 cf bd eb 97 80 bd
       -0.07847432 0.093007416 -0.10117991 -0.06278976
000040 57 07 e9 bc 01 96 88 bd 12 cd 8c bd b9 99 07 3d
       -0.028445883 -0.06669236 -0.068750516 0.033105586
000050 c7 90 2d bd c1 bf 00 be 4b da 14 3d a0 fd 1a 3d
       -0.0423744 -0.12573148 0.036340993 0.037839532
000060 cf 8c a6 bd 51 65 c3 3d a6 81 3d bd 8b b0 25 3d
       -0.08132326 0.09540809 -0.04626622 0.040451568
000070 70 66 80 bc 87 ec 71 bd ed 75 e6 3b 7e c3 7d bd
       -0.015673846 -0.05906346 0.007033101 -0.061954014
000080 f1 71 b5 3c 93 11 c8 bc c1 0e 73 3d 9e 42 bd bc
       0.022149058 -0.024422443 0.059340242 -0.023103055
000090 bc 88 60 3d c6 54 ca 3c 66 d3 00 3d 29 42 aa 3c
       0.0548179 0.024698626 0.031451605 0.0207835
0000a0 55 19 7b bd 01 d4 8b bb 32 3e 20 bd 08 74 8b 3d
       -0.061303455 -0.004267216 -0.039121814 0.068092406
0000b0 f2 f5 64 bd ac 1f 8b 3d 32 41 d6 ba 49 94 59 ba
       -0.055898614 0.0679315 -0.0016346334 -0.0008299989
0000c0 0f 15 bd 3d 99 e4 c5 bd ac 6c 97 3d 95 91 88 bd
       0.09232532 -0.09662742 0.073937744 -0.066683926
0000d0 36 40 31 3d 51 13 50 bd 6d 10 86 3d f4 8e ec bc
       0.043274127 -0.05079967 0.06546102 -0.02887676
0000e0 f0 80 14 bd c0 80 cb bd 20 a8 39 3d 01 75 ba 3d
       -0.036255777 -0.099366665 0.045326352 0.09104348
0000f0 75 f9 ce bc a1 19 3d bd d1 fa 81 bd bc 0a 48 bc
       -0.025265435 -0.04616702 -0.063466676 -0.0122095905
000100 be 63 61 bd 24 20 c5 bd 15 60 6a bd da 76 a6 3d
       -0.055026762 -0.09625271 -0.057220537 0.08128138
000110 0a ca de 3b 78 c7 15 3d 2c 51 f3 bc a6 c8 f9 3b
       0.0067989873 0.03656718 -0.029701792 0.007622796
000120 00 4b 22 bc 6a ef 17 3c cc 85 a2 3c bb 5a 07 bd
       -0.009905577 0.009273389 0.01983919 -0.03304551
000130 e3 5b f8 3c cb 37 e2 3d c1 25 a7 ba 81 4b 55 bc
       0.030317253 0.11045798 -0.001275234 -0.01301849
000140 de 6b 0f 3e 62 b6 8a 3c 7d 4f bd 3b c0 5d ab 3d
       0.14005992 0.01693267 0.005777298 0.08367491
000150 14 76 38 bd fe 2d a5 3d fb f2 44 3d b1 ea da bc
       -0.045034483 0.08065413 0.048083287 -0.026723238
000160 f0 2d 04 3e 98 e8 a9 bc 32 52 08 bb 8e a3 fc bc
       0.12908149 -0.020740792 -0.0020800945 -0.030839708
000170 3a 45 a9 bd 84 31 fd 3c e8 55 c4 3a 65 81 c3 bd
       -0.08265157 0.0309074 0.0014979215 -0.095461644
000180 b7 6e 24 bd 4e 6d 60 bd a3 5d 2f bc 78 2e 4e bd
       -0.04014465 -0.05479174 -0.010703477 -0.050337285
000190 ae f3 c0 3d 97 9c 9e bd d9 33 83 bc e2 8b 38 3d
       0.09421478 -0.07744711 -0.016015934 0.045055278
0001a0 8f f4 3d bd 59 a3 9a 3d c6 7f 68 bd c9 c8 9a 3d
       -0.046375807 0.07550687 -0.05676248 0.07557828
0001b0 08 bb 3b bd dc 48 d8 bc 4c 6d b0 bd 32 b4 20 3e
       -0.045832664 -0.02640193 -0.08614597 0.15693739
0001c0 59 7e be bc 0e 63 ab bd 84 97 fa 3c af 60 1e 3c
       -0.023253607 -0.083685026 0.030589826 0.009666606
0001d0 d5 62 7e bd f7 26 28 bc b7 b8 77 3d 37 b9 56 bb
       -0.062105972 -0.010263196 0.060478892 -0.0032764205
0001e0 61 fb e9 3c 3e a3 21 3b 1e 49 62 3d 98 d2 82 bd
       0.02856225 0.002466395 0.05524551 -0.06387824
0001f0 88 4f 9a 3d f8 14 6b 3d 6a a5 21 bd fe 43 50 3d
       0.07534701 0.057393044 -0.03946439 0.050846092
000200 a6 b2 19 3c 7c 30 92 3d 6c ec 1f 3d ef cd 85 bd
       0.009380972 0.07138154 0.03904383 -0.06533419
000210 03 b0 84 bd 13 df 5e bd ec e0 28 bd 86 b9 72 3c
       -0.06478884 -0.05441196 -0.041230127 0.01481474
000220 51 8c cf 3c b0 0f ed bc 67 8b 9a 3d be 9b 8e bd
       0.025335463 -0.028938144 0.0754612 -0.06963299
000230 51 ef 44 3d e5 50 7c bd d7 5c b9 bd 57 30 c8 bd
       0.048079792 -0.061600585 -0.09050911 -0.09774845
000240 d2 21 7f 3c 94 14 39 bd 1e e1 8c 3c f7 f6 d0 bd
       0.015572028 -0.04518564 0.017197188 -0.10203355
000250 26 ca 82 3d d4 4b 24 3c 0e 65 39 3d b7 7e b3 bd
       0.06386213 0.010027844 0.04526239 -0.08764403
000260 6c 06 20 bd 34 ef 56 bd 79 6e e1 3c 27 c3 44 bd
       -0.039068624 -0.052474216 0.027518498 -0.048037674
000270 f5 91 ad bc 31 e8 83 bb 19 53 63 bd f2 86 94 3c
       -0.021187762 -0.004025482 -0.05549917 0.018130753
000280 5b 66 0a 3d 7d 44 21 bd 30 42 ab 39 4e 44 0d bd
       0.03378902 -0.039371956 0.00032664975 -0.03448897
000290 37 40 f1 3c cd 7d ac 3d 9d e7 52 3d e2 97 9b bd
       0.029449565 0.08422432 0.051490415 -0.07597329
0002a0 3f 40 ae 3d cd 32 35 3d d0 c7 75 3d c5 cb a5 3d
       0.08508348 0.0442379 0.06000501 0.080955066
0002b0 b9 7a fa 3d 98 a9 07 3c a9 5f 90 3d cd a0 40 3c
       0.12230439 0.00828018 0.07049496 0.011757088
0002c0 2c be 95 3d 3c 7c 03 3d 1a 31 bb bc 12 2b b2 bb
       0.07311663 0.0321009 -0.022850562 -0.0054372633
0002d0 e0 a9 75 3d dd 29 e2 3c 74 e2 b6 3d 88 12 3a bd
       0.05997646 0.027607853 0.08929911 -0.04542783
0002e0 a0 df 4d bd 8a c5 8a 3d 88 11 ef 3c d8 9e 40 3c
       -0.050262094 0.06775959 0.029183164 0.011756621
0002f0 11 8a bb bd 33 98 97 3d 48 0e 12 3b f6 8e f3 3c
       -0.091571935 0.074020766 0.0022286344 0.029731255
000300 fa 79 a0 3c d8 96 b3 3d d9 04 26 be 0c a0 f5 3d
       0.019589413 0.087690055 -0.16212787 0.11993417
000310 8b f5 a4 bd 49 5b 59 bd f5 49 06 3e 2c 1e 34 3d
       -0.08054646 -0.053065572 0.1311415 0.043974087
000320 94 24 93 bd b5 fc 62 bc 7a 75 ee bc ba ad 35 3d
       -0.07184711 -0.013854195 -0.029108752 0.04435513
000330 2d ff 4c bd 67 b5 64 3d 99 5d 2e bd 73 ae 5d bd
       -0.050048042 0.05583706 -0.04256973 -0.054121446
000340 77 14 b0 bc 55 52 06 3c 5a 28 16 3d 35 6b 26 3d
       -0.021494133 0.00819834 0.036659576 0.040629584
000350 a1 8c 7f bd f0 2f 10 bd d1 4a 8d bc da 30 57 3d
       -0.062389974 -0.035201967 -0.01724759 0.052536823
000360 ea 0f e8 bc b7 a9 98 bd 56 07 f5 3a 8e d9 c9 bd
       -0.0283279 -0.074542455 0.0018694203 -0.098559484
000370 20 35 c8 bb a6 da 57 3d bb 75 2d 3d b5 0c 89 ba
       -0.0061098486 0.052698754 0.042348605 -0.0010456057
000380 30 b0 6f bc 2d d3 82 3d 6c 14 2d 3d d3 b5 2d 3d
       -0.014629409 0.06387935 0.042255804 0.04240973
000390 c8 0b 8f 3d a2 ba cc bd 9b 0d 04 3d 0d 82 8e 3c
       0.06984669 -0.09996535 0.032239538 0.017395997
0003a0 b7 5a 52 bd de 5f c8 bd e3 58 ea bc 53 23 63 bc
       -0.051356044 -0.0978391 -0.028606838 -0.013863402
0003b0 d1 ef 0e 3c 40 8a 52 bd f6 8a 73 3d 86 6a 7f 3c
       0.008724169 -0.051401377 0.059458695 0.015589362
0003c0 22 91 0a 3e 39 f5 29 3d 8d 08 c7 bd 5b b0 a6 bc
       0.13531926 0.04149363 -0.09718428 -0.020347765
0003d0 c7 09 5f bd b5 37 bd bd e0 5f a3 3c 5f e9 e0 3c
       -0.054452684 -0.09239141 0.019943178 0.02745503
0003e0 c9 07 5d bd c8 c4 0a 3c fb 61 ca bc 43 1c 94 bd
       -0.053962503 0.008469768 -0.024704924 -0.07231953
0003f0 ee 16 22 3d e0 27 b4 bd 82 11 bc 3d bc c8 e7 3c
       0.03957265 -0.08796668 0.09183027 0.02829396

net.5.bias f4 [48]
000000 c1 e5 3f 3d f8 78 49 3d 34 2a b6 3d 91 e0 1b 3c
       0.04684997 0.04918763 0.08894768 0.00951399
000010 f7 6b 70 3d 65 7b 6d bd bc 3e 06 bd 49 b0 11 bc
       0.058696713 -0.057979006 -0.032774672 -0.008892127
000020 f4 d5 71 3d bd e3 3a bd 6b 19 9c 3d 12 60 5f 3d
       0.059041932 -0.045627344 0.076220356 0.05453498
000030 1f 95 91 bd a0 50 63 bc 76 de 96 3b 0d e3 dc bc
       -0.07108521 -0.013874203 0.004604156 -0.026963735
000040 27 fc 3f 3d b5 ef 90 3c 3d 6e 5d bd ef 40 5c 3c
       0.04687133 0.017692426 -0.05406021 0.013443216
000050 17 3f 9f 3d ad 3b 6a bc 30 f5 45 bd 0c 1e da bc
       0.07775705 -0.014296454 -0.048329532 -0.026625656
000060 10 3d 8d 3d ea a3 1c bd 18 4a 59 3d 7f 17 f6 bc
       0.068964124 -0.038242258 0.053049177 -0.0300405
000070 88 c2 f4 3c 38 fc b9 bb 62 22 9f 3c 8d 59 33 3c
       0.029877916 -0.005675819 0.019425575 0.010946644
000080 a7 ce 59 bd 02 33 c6 3c 96 b4 a6 bb 90 bc 0d bd
       -0.053175595 0.024194244 -0.0050874455 -0.034603655
000090 a3 6c b6 3b f0 e5 25 3c 8a 5a 58 bd 9e 73 f5 3b
       0.0055671497 0.010125622 -0.05282072 0.0074905893
0000a0 f9 00 9a 3d 77 db 0a bb 62 ef eb 3c 49 ce 3e bd
       0.07519717 -0.002118794 0.02880067 -0.046583448
0000b0 9d 50 99 bd 58 b3 72 bd de 71 a8 3d 99 3d 36 bd
       -0.07486079 -0.059253067 0.082248434 -0.044492338

exp_avg f4 [32, 191, 2]
000000 45 cd dd bb 04 63 77 bb 39 fc dc bc cc 89 0a bd
       -0.006768855 -0.0037748227 -0.026975738 -0.03382282
000010 c8 8f a2 bd 81 33 b1 bd 0d e8 8d bd d5 53 a0 bd
       -0.0793758 -0.08652402 -0.06929026 -0.0782849
000020 b2 2d d0 bd b8 60 c2 bd 64 5e 93 bc ee 2d 14 bd
       -0.10164966 -0.09491104 -0.017989345 -0.036176614
000030 77 00 14 bd a8 7e 2d bd a8 ac ea bd 3d eb d9 bd
       -0.036133256 -0.042357117 -0.11458713 -0.10640571
000040 d3 31 91 bd be d5 cb bd ca 3f 2c bd 23 da de bc
       -0.07089581 -0.099528775 -0.04205302 -0.027203625
000050 8d 9f 14 bd 9c 1d 24 bd f4 d6 a1 bd 04 fc 90 bd
       -0.036284972 -0.0400673 -0.07902327 -0.07079318
000060 4d 67 95 bc 4b 40 03 bd 0c d0 a4 bc 85 ac 9d bc
       -0.018237734 -0.032043736 -0.020118736 -0.019247303
000070 81 3a 11 be aa b7 f7 bd 66 ef e2 bc cb 9e 11 bd
       -0.14182474 -0.12095578 -0.027702045 -0.035551827
000080 84 eb 17 bc 98 22 81 bc 64 19 cb bc 7d 70 24 bd
       -0.00927246 -0.015763566 -0.02479238 -0.04014634
000090 dd ad 1b bc fe dd 8a bc 2f 45 22 bd 5a da 44 bd
       -0.009501901 -0.016951557 -0.03961676 -0.0480598
0000a0 c1 d7 78 bd 01 56 98 bd 32 53 23 bd 08 28 85 bd
       -0.060752634 -0.07438279 -0.039874263 -0.06501776
0000b0 c8 4f ec bd ae b7 de bd 9e 65 28 bc fa 29 0b bd
       -0.115386546 -0.10874878 -0.010278134 -0.03397558
0000c0 c7 8b 6a bc 64 9b 2a bd eb 1f 6c bc 22 1c 6b bc
       -0.014315552 -0.0416521 -0.014411907 -0.014349969
0000d0 5d 26 8a bd 1d 33 c4 bd b5 97 b4 bc 8e cd 8d bc
       -0.067455985 -0.095800616 -0.022044996 -0.01730993
0000e0 25 87 0e bd bc 4b 2a bd ce 26 76 bc 37 8c d9 3a
       -0.034796853 -0.041576132 -0.0150239 0.0016597573
0000f0 41 ba 45 bc e4 0d e2 bc 10 97 53 bd cb 40 82 bd
       -0.012068332 -0.027594514 -0.051657736 -0.063600145
000100 e7 9b 3c bd 75 6d 5c bd 5b 91 94 bd a0 fb a0 bd
       -0.046047118 -0.053815324 -0.07254287 -0.07860494
000110 57 9a 09 bd 27 1f 13 bd 43 8b b7 bc 89 42 41 bc
       -0.033594456 -0.03591838 -0.022405272 -0.011795648
000120 c6 98 48 bd eb 8c 7d bd af a3 bc bd f8 58 bd bd
       -0.04897382 -0.061901968 -0.09210908 -0.09245485
000130 c1 10 a5 bd 45 b1 9e bd fd ad 6f bd 91 c5 c5 bd
       -0.08059836 -0.07748655 -0.058515538 -0.096568234
000140 cf f4 93 bd f7 50 cc bd b3 6e 85 bd 50 22 b0 bd
       -0.07224428 -0.0997638 -0.06515255 -0.086002946
000150 de b6 69 bd 64 67 a4 bd bc bf 9e bc 75 68 4d bd
       -0.05705916 -0.08027533 -0.019378535 -0.050148446
000160 df c1 dd bc cc 86 45 bd 2a 75 b6 bd 5c 1c bc bd
       -0.027069984 -0.048224255 -0.08909066 -0.091850966
000170 cf 7b 4c bc fd fc 3f bc eb e3 f9 bc 3a 3d 88 bd
       -0.01248069 -0.011718032 -0.030504188 -0.06652303
000180 43 36 b5 bc 49 d8 b9 bc fc 7b 1d bd fd cc 76 bd
       -0.0221206 -0.02268614 -0.03844832 -0.060254086
000190 ae bd 54 bd 3e 21 49 bd 21 14 98 bd fd a9 b0 bd
       -0.051938705 -0.049103968 -0.07425714 -0.08626173
0001a0 06 fc 7a bd b4 ab 29 bd ff e4 af bc 29 75 cf bc
       -0.061275505 -0.041423514 -0.021471499 -0.025324421
0001b0 29 73 1e bd f2 22 72 bd f6 ad e1 bb d3 c1 62 bc
       -0.038684044 -0.059115358 -0.006887193 -0.013840157
0001c0 47 ee f6 bc 39 5d 9c bc b1 4e 93 bd 47 91 98 bd
       -0.030142916 -0.01908742 -0.071927436 -0.074495845
0001d0 65 28 81 bd 27 f4 11 bd a0 22 01 3c 5c 5d f6 bc
       -0.06306533 -0.035633232 0.00788179 -0.030073814
0001e0 a3 d4 b6 3c 39 2a fc 3b 78 32 d2 bb e8 5c 01 bd
       0.02231819 0.007695463 -0.0064147078 -0.031582743
0001f0 82 e8 bd 3b 8d 74 9f bc 1e fe 13 bd 57 b3 93 bd
       0.0057955394 -0.019464755 -0.036131017 -0.07211941
000200 5a 52 47 bd 5e 67 09 bd ca 86 3f bc e8 bf 23 bd
       -0.04866252 -0.033545844 -0.011689851 -0.039977938
000210 d9 34 1a bd bf e0 0e bc 28 a9 40 bd 42 50 5b bd
       -0.037648056 -0.008720576 -0.04703632 -0.053543337
000220 04 c6 3d bd de 35 4a bd 70 4b 50 bc 00 4f b9 bc
       -0.04633142 -0.049367778 -0.012713298 -0.022620678
000230 6d 60 8e bd 5e 75 9b bd af 00 93 bd c5 65 94 bd
       -0.069519855 -0.075907454 -0.07177865 -0.072459735
000240 12 32 90 3a 5f b8 f0 bc b4 34 8a bd 20 89 52 bd
       0.001100125 -0.02938479 -0.067483336 -0.051400304
000250 84 12 6c bd 7f 8f 5d bd f8 13 3c bd f3 36 82 bd
       -0.057634845 -0.054091927 -0.04591748 -0.06358137
000260 20 e6 7e bd 83 fd 13 bd fc f0 0f bd 83 29 65 bd
       -0.062231183 -0.03613044 -0.03514193 -0.05594779
000270 bd 4c 05 3d b3 70 29 3d 7c 7a 13 bd d9 cd 05 bc
       0.032543886 0.041367244 -0.036005482 -0.008166754
000280 e3 29 68 bd d2 14 87 bd 4a 81 b2 bd e5 fe be bd
       -0.05668057 -0.06595768 -0.08716066 -0.09325961
000290 56 6e a1 bc 10 76 e6 bc b4 5b 86 3c eb 17 4d bc
       -0.019705933 -0.028132468 0.01640115 -0.0125179095
0002a0 c1 22 88 bd ed 66 ba bd 4c 20 51 bc f7 38 97 bd
       -0.06647254 -0.09101663 -0.012764048 -0.07383912
0002b0 09 ad 02 bd 6c 34 68 bd bf 0e 6a bd 13 7e bf bd
       -0.0319033 -0.05669062 -0.05714297 -0.093502186
0002c0 7d 65 75 bc 72 4a dd bc 3b cf 06 bd 83 0f 83 bc
       -0.01497781 -0.027013037 -0.032912474 -0.015998608
0002d0 97 fd 1c bd 8e eb e2 bc 37 23 4a bd c5 5d 23 bd
       -0.03832778 -0.027700212 -0.04934999 -0.039884347
0002e0 06 be 08 3d cd a1 86 3c f4 bb 1c bd a1 92 02 bd
       0.033384345 0.016434574 -0.038265184 -0.031878117
0002f0 27 87 94 bd 30 ef 97 bd 2a 16 11 3d d3 24 1e bc
       -0.07252341 -0.07418668 0.035421528 -0.009652334
000300 6f ed c1 3c 9d 1c 7b bc 77 77 97 3c 2f 54 a5 bc
       0.023672787 -0.015326646 0.018489582 -0.020181743
000310 4f 4e 41 bd 99 10 db bc cf 0f 94 3c 7c 7e 21 bc
       -0.04719382 -0.026741313 0.018073944 -0.009856816
000320 64 58 86 bd 7c 62 ba bd 77 47 9a bc 27 4c 4f bd
       -0.06559828 -0.09100816 -0.018832905 -0.050609734
000330 25 ef 4f bd 7e b6 b1 bd 19 47 f8 ba 56 2a e5 bc
       -0.050765175 -0.08677386 -0.0018942087 -0.027974289
000340 9f 55 d4 bc b7 ba f9 bc d8 9a af 3a 5a 83 c7 bb
       -0.025919734 -0.03048454 0.0013397587 -0.0060886564
000350 e5 35 f0 bc da 44 b0 bd 4d e6 4d ba 96 d6 c8 bc
       -0.029322574 -0.086068824 -0.0007854447 -0.024516385
000360 3f 6f 51 bd dd d4 5b bd 57 1a 69 ba 0a 15 0e bc
       -0.051131483 -0.0536698 -0.00088921696 -0.008672008
000370 3b f2 4a bd b2 cf 82 bd 3d 07 19 3d d2 56 f0 3c
       -0.049547415 -0.06387271 0.03736042 0.029338274
000380 86 54 bb bd b0 c2 a3 bd 0d b0 4b bd 15 f9 52 bd
       -0.09146981 -0.07996118 -0.049728442 -0.051507074
000390 13 a3 43 bd 6e b7 86 bd d7 c2 bf bd 5e 8b ee bd
       -0.04776294 -0.06577955 -0.093633346 -0.11647676
0003a0 38 23 da bc a2 de 8c bd 28 9c ad bd 8a 1b b1 bd
       -0.026628122 -0.06878401 -0.0847705 -0.08647831
0003b0 88 74 42 bd c9 52 85 bd d1 28 20 bd c8 9f 0d bd
       -0.047474414 -0.06509931 -0.039101426 -0.034576207
0003c0 09 09 f5 bc fc 41 85 bd d3 2e 8e bc 30 a7 b4 bb
       -0.029911535 -0.06506726 -0.017356312 -0.0055130944
0003d0 f5 5d 58 bd a7 f1 b6 bd 54 3c bc bd 72 8c 55 bd
       -0.05282398 -0.0893281 -0.09191194 -0.052135892
0003e0 aa 41 76 bc 8b 6e f1 bb e7 66 90 bd b9 eb 93 bd
       -0.015030304 -0.007367914 -0.07050877 -0.07222695
0003f0 17 d8 47 bd 76 30 8a bd 4a ef 82 3b ab d0 01 bd
       -0.048790064 -0.067475244 0.0039958106 -0.031693142
