saved_CEBRA_models/nitschke_20090812_20090819_20090910/CEBRA_models/temperature_0.004_time_offsets_1_dataset1.pt (torch, 530645 bytes, 31 tensors)

net.0.weight f4 [32, 191, 2]
0	0xbc8cc5c4	-0.017184146
1	0x3d0be312	0.034152098
2	0x3c903a37	0.017605884
3	0xbbedf225	-0.007261532
4	0x3cbc17b6	0.022960525
5	0x3c9f7604	0.019465454
6	0xbb9c4c2e	-0.0047698235
7	0x3cd9c969	0.026585298
8	0xbd612b93	-0.054973196
9	0x3a2f8509	0.0006695544
10	0xbd5bbd91	-0.05364758
11	0xbd07de4c	-0.033170983
12	0xbb0aafcb	-0.002116191
13	0xba4b7958	-0.0007761917
14	0xbc9b355e	-0.018946346
15	0xbd2e89b2	-0.042611785
16	0xbd059d2f	-0.032620605
17	0x3c0f1b6f	0.008734568
18	0x3c1156db	0.008870806
19	0xbce6b358	-0.02816169
20	0x3cfdaba0	0.030965626
21	0x3d21f016	0.039535604
22	0x3b4f5c66	0.0031640767
23	0x3c1540b8	0.009109668
24	0x3a5e3a55	0.000847732
25	0x3d29730e	0.04136949
26	0xbd5eabcc	-0.054363057
27	0x3c9dfca3	0.019285506
28	0xbbf11b9b	-0.007358027
29	0xbb9a937a	-0.0047172876
30	0x398a5068	0.00026381318
31	0x3d0829a6	0.033242844
32	0x3db97ad6	0.09056632
33	0x3d91bcd4	0.07116094
34	0x3d34db58	0.044154495
35	0xbca166ab	-0.019702276
36	0xbc9ab42b	-0.018884739
37	0x3c050e38	0.008121066
38	0xbc1a74c7	-0.009427256
39	0xbd70afbc	-0.058761343
40	0x3ce732bd	0.028222436
41	0x3d15b452	0.03654892
42	0x3c4fe1f6	0.012688151
43	0x3cd7ac5a	0.0263273
44	0xbafe490a	-0.001940043
45	0x3c2199eb	0.009863357
46	0x3b42558b	0.0029653038
47	0xbd4e2fc3	-0.050338518
48	0xbd215c62	-0.039394744
49	0xbbfad0fc	-0.0076543074
50	0x3daeb6ee	0.08530985
51	0xbaf7b72d	-0.0018899195
52	0x3ce1f251	0.027581366
53	0xbd76fc43	-0.06029917
54	0xbc2e09da	-0.010622466
55	0x3c1a830a	0.009430656
56	0xbd3c45fc	-0.04596518
57	0xbd4f6ee5	-0.050642867
58	0x3ad0c6dc	0.0015928405
59	0x3b9ed4a7	0.0048471275
60	0x3bbb3c81	0.0057139997
61	0x3d302aa5	0.04300942
62	0xbd014c8e	-0.03156715
63	0xbcdcd47c	-0.02695679
64	0xbce23a82	-0.02761579
65	0x3c3d0fcf	0.011539414
66	0xbc7b828e	-0.015350951
67	0xbcc2dbd2	-0.02378646
68	0x3d11eb11	0.035624567
69	0x3cee7a18	0.029110953
70	0x3c2b784b	0.010465692
71	0x3d38989f	0.045067426
72	0x3d7da9cb	0.061929505
73	0x3bd59070	0.0065174624
74	0x3c9b6034	0.018966772
75	0xbc99f861	-0.018795194
76	0x3d552617	0.05203828
77	0xbc1076ce	-0.008817388
78	0x3ba4e7a8	0.0050324984
79	0x3d0f2485	0.034946937
80	0x3c1da6d4	0.009622294
81	0x3c00544d	0.007832599
82	0x3d66b4a1	0.056324605
83	0x3bd2c017	0.0064315903
84	0xbd556fd4	-0.0521086
85	0xbd047e48	-0.032346994
86	0xbd2c1147	-0.042008664
87	0xbc8fee44	-0.017569669
88	0xbd1d69ef	-0.038431104
89	0xbb824425	-0.0039754086
90	0x3a0c78e7	0.0005358592
91	0xbaf55747	-0.0018718027
92	0xbd07553b	-0.033040266
93	0x3d92d3d4	0.07169309
94	0xbaf22098	-0.0018472848
95	0xbd7728d3	-0.060341667
96	0xbd3c08e4	-0.045906916
97	0x3cbb4989	0.022862213
98	0xbd963f01	-0.07336236
99	0x3d3b1eea	0.04568378
100	0x3d05d37b	0.032672387
101	0x3c61ab92	0.013773816
102	0xbd142511	-0.03616816
103	0xbcd46b36	-0.025930028
104	0xbd118bfa	-0.035533883
105	0x3d54b5c5	0.05193116
106	0xbcfa3aa5	-0.030545542
107	0x3d8b6721	0.0680678
108	0x3d4d1500	0.050068855
109	0x3d6aea56	0.057352386
110	0xbb9cff31	-0.0047911634
111	0x3cdc6d26	0.026907515
112	0xbc61f106	-0.013790375
113	0xbd1b94ba	-0.037983634
114	0x3cac62a0	0.021043122
115	0x3d0b56ae	0.03401821
116	0x3d30eec9	0.043196473
117	0x3c7f4872	0.015581237
118	0x3d6aab77	0.057292428
119	0xbb5946c1	-0.0033153745
120	0xbb7fb94d	-0.003902036
121	0xba95dcba	-0.001143358
122	0xbc8aede7	-0.016959144
123	0xbd83ea2f	-0.06441151
124	0xbdce7206	-0.10080342
125	0xbe04fe19	-0.12987556
126	0xbb3708eb	-0.00279289
127	0x3d079f67	0.033111002
128	0x3d4fa5bf	0.050695177
129	0x3cf8c845	0.030368933
130	0xbb8eb963	-0.004355596
131	0xbd1f300a	-0.038864173
132	0x3d41f0b5	0.047348697
133	0x3aaa9115	0.0013013209
134	0x3abccf0d	0.0014404968
135	0x3d2f9a56	0.042871796
136	0x3b62e9b1	0.0034624154
137	0x3c341159	0.010990464
138	0x3c996025	0.018722603
139	0x3daa4678	0.08314222
140	0x3d55cf19	0.052199457
141	0xbd567f86	-0.05236771
142	0xbc647d72	-0.013945924
143	0xbc6c67b6	-0.0144290235
144	0xbc224288	-0.009903558
145	0x3c83f545	0.016108165
146	0x3cba851f	0.022768555
147	0x3cfd5a33	0.0309268
148	0xbcf3cd40	-0.029760957
149	0xbd29a5a1	-0.04141772
150	0x3a3b2bd5	0.00071400154
151	0xbd188a53	-0.03724129
152	0xba3ec003	-0.0007276537
153	0x3d463c65	0.04839744
154	0x3c352927	0.011057175
155	0xbd364f76	-0.044509374
156	0xbd24452e	-0.040105037
157	0xbcb60c11	-0.02222255
158	0x3d1846f4	0.03717704
159	0x3c126a42	0.008936467
160	0xbc85282b	-0.016254505
161	0x3c9c0d55	0.019049326
162	0xbc782aa2	-0.015146883
163	0x3c157671	0.009122477
164	0xbc5dd3bf	-0.013539254
165	0xbcbc7e9b	-0.023009589
166	0x3d058312	0.0325957
167	0xbc3ba5e3	-0.011453125
168	0xbd1200ae	-0.03564518
169	0x3c808bc1	0.01569164
170	0xbd1e6c3a	-0.03867743
171	0xbd242738	-0.040076464
172	0x3ca9e6ba	0.020739902
173	0x3d8112d1	0.06302417
174	0x3c2901fc	0.0103154145
175	0x3ce9c1dc	0.028534822
176	0x3cabd115	0.020973722
177	0x3c873e19	0.016509103
178	0xbc96028c	-0.018311761
179	0x3d365122	0.044510968
180	0xbce3b8af	-0.027798025
181	0xbc04c8cf	-0.008104517
182	0x3d72614e	0.05917483
183	0x3be2c678	0.006920632
184	0xbd1ce110	-0.038300574
185	0xbb57c772	-0.0032925275
186	0xbd0f0c45	-0.03492381
187	0xbcbbef31	-0.022941204
188	0x3c53deae	0.012931509
189	0x3dbfefde	0.09371923
190	0x3d4e4741	0.05036092
191	0xbcadd6be	-0.021220561
192	0x3c8f9eed	0.017531836
193	0x3c724a53	0.014788228
194	0xbcbcf5bd	-0.023066396
195	0xbc8d7505	-0.017267713
196	0x3c51fd72	0.012816774
197	0x3cd5b9cd	0.026089573
198	0x3d08b345	0.03337409
199	0x3d830b3e	0.06398629
200	0x3b84ede8	0.004056681
201	0x3d79c43d	0.060978163
202	0x3c9e07f6	0.019290905
203	0x3c2b9162	0.010471674
204	0x3d7f3d5a	0.06231437
205	0xbcfd6c33	-0.030935382
206	0x3d5f09c2	0.054452665
207	0xbce59d95	-0.028029243
208	0x3cd07ce8	0.025450185
209	0x3cb29290	0.021798402
210	0x3d509b73	0.050929498
211	0xbc6de426	-0.014519727
212	0xbc416784	-0.011804465
213	0xbb816b06	-0.0039495258
214	0x3cbe29c7	0.02321328
215	0xbbf9b2ba	-0.007620183
216	0x3b988805	0.0046548867
217	0xbd18f9de	-0.037347667
218	0x3cf3af3c	0.029746644
219	0xbc51a809	-0.01279641
220	0x3c62c0db	0.013839926
221	0xbb60ad0a	-0.0034282827
222	0x3d4c209a	0.04983578
223	0x3d348e21	0.044080857
224	0x3bc16789	0.005902235
225	0x3cf95d8e	0.030440118
226	0x3d7cb035	0.06169148
227	0xbcb143fc	-0.021638863
228	0x3cc1d368	0.023660377
229	0xbcc4e661	-0.024035634
230	0xbc8ad5d8	-0.016947672
231	0xbd47b08c	-0.048752353
232	0xbc6a54b0	-0.014302418
233	0x3cddfa09	0.027096765
234	0x3c12e200	0.008965015
235	0x3c67ff53	0.014159995
236	0xbcc4a246	-0.02400316
237	0x3cbc7062	0.023002807
238	0xbc08b116	-0.008343002
239	0xba169b81	-0.0005745218
240	0xbcba3e9b	-0.02273493
241	0x3c73b711	0.014875189
242	0x3d052cb3	0.03251333
243	0xbc02f5cf	-0.007993176
244	0x3c9f8cb6	0.019476276
245	0xbdb0f696	-0.086407825
246	0xbdbd3c01	-0.092399605
247	0x3ccd3aec	0.02505251
248	0xbcfdd365	-0.03098459
249	0x3c268582	0.010163667
250	0x3d56422d	0.052309204
251	0xbd9cd159	-0.076571174
252	0xbd35d3d4	-0.04439147
253	0x3cd890dd	0.026436264
254	0xbc7af894	-0.015318055
255	0x3ae0be43	0.0017146546

net.0.bias f4 [32]
0	0xbccfb4dd	-0.025354797
1	0x3d200d39	0.03907511
2	0x3d112d8c	0.035443828
3	0xbd75919f	-0.05995333
4	0x3d774fcf	0.060378846
5	0x3c67ea9a	0.014155054
6	0xbd01c39a	-0.03168068
7	0xbb97e164	-0.004635023
8	0x3d72abb6	0.059245788
9	0x3d8434ab	0.06455358
10	0xbd90bece	-0.07067643
11	0x3c3d3d2c	0.011550229
12	0xbc913597	-0.017725749
13	0xbc7ab175	-0.015301098
14	0xbd440399	-0.047854993
15	0xbd0e3eea	-0.03472797
16	0xbd51e4d6	-0.051243626
17	0x3ceddfeb	0.029037436
18	0x3bdb73e0	0.006697163
19	0xbd1dd905	-0.038537044
20	0x3d19107e	0.037369244
21	0xbc833450	-0.016016155
22	0x3c0a1df7	0.008429996
23	0xbd07a672	-0.03311772
24	0x3da476b8	0.08030456
25	0x3d7a21b7	0.06106731
26	0x3bbfba2a	0.00585105
27	0x3cb13c1f	0.021635113
28	0x3d66f1d6	0.056382976
29	0xbca22296	-0.019791882
30	0xbbfa1d35	-0.0076328763
31	0x3d500ce7	0.050793555

net.2.module.0.weight f4 [32, 32, 3]
0	0x3db0f144	0.08639768
1	0xbdcaf7d0	-0.09910548
2	0x3d39f2c7	0.045397546
3	0xbe08d379	-0.1336192
4	0xbdf0c609	-0.11756522
5	0x3db78acd	0.08962021
6	0x3df3eb6a	0.11910136
7	0x3dd64738	0.10462803
8	0x3de4f293	0.1117908
9	0xbe4567ca	-0.19277874
10	0x3c8b9400	0.017038345
11	0xbd5285ed	-0.051397253
12	0xbd86c2ca	-0.06580122
13	0xbd368f3f	-0.044570204
14	0xbc8f9b37	-0.017530067
15	0x3ce4db03	0.027936464
16	0x3e027319	0.12739219
17	0x39191c8a	0.00014601849
18	0xbe454297	-0.19263683
19	0xbdd42543	-0.103586696
20	0xbad893ed	-0.0016523578
21	0x3d22eb01	0.0397749
22	0x3c15ff2c	0.009155076
23	0x3d952046	0.07281546
24	0xbd919dee	-0.07110201
25	0xbdfdc180	-0.12390423
26	0x3d5e5e53	0.054289173
27	0x3cfd3ab3	0.030911779
28	0x3d8db858	0.069199264
29	0xbd551214	-0.052019194
30	0xbd1e77ed	-0.03868859
31	0xbdb8f027	-0.090301804
32	0x3d94524c	0.072422594
33	0xb9ec01c0	-0.00045014732
34	0x3ce1032e	0.027467337
35	0xbdda6ebf	-0.106656544
36	0x3d98512a	0.07437356
37	0xbc7e3932	-0.015516566
38	0xbd3e4edc	-0.046461925
39	0xbc60fa5c	-0.013731565
40	0xbcc8c186	-0.024506342
41	0x3e25a40d	0.16175862
42	0xbca1bbd1	-0.019742878
43	0xbd1c5f75	-0.038176972
44	0xbdcb5524	-0.09928349
45	0x3d18dae5	0.03731813
46	0x3db11571	0.08646668
47	0xbd9a86fa	-0.07545276
48	0x3da1d5ec	0.079021305
49	0xbd7fced9	-0.062453125
50	0xbca07661	-0.019587697
51	0x3da178cb	0.078843676
52	0x3e4daea7	0.20086156
53	0x3e1aaa6d	0.15104075
54	0xbd32cacb	-0.04365043
55	0x3d8049d8	0.062640846
56	0x3e327bb1	0.17429997
57	0xbd5dbdcb	-0.05413608
58	0x3c2dce30	0.010608241
59	0xbd1c9609	-0.038229022
60	0xbd3e5f79	-0.04647777
61	0xbd36a053	-0.04458649
62	0xbd9ba00d	-0.07598887
63	0x3d8fc6fb	0.070203744
64	0xbd83a6ee	-0.06428324
65	0x3a8fd15b	0.0010972427
66	0xbdcbc6e0	-0.09950042
67	0x3d186f61	0.037215594
68	0xbdb65df3	-0.08904638
69	0xbd4e5b22	-0.05037988
70	0xbddcc577	-0.10779851
71	0xbc630ea6	-0.013858473
72	0x3e00ae5d	0.12566514
73	0x381620db	3.5793386e-05
74	0x3d33c411	0.043888155
75	0x3cab43d8	0.020906374
76	0x3b9bd7cb	0.004755949
77	0x3c5754b7	0.013142756
78	0xbcd87668	-0.026423648
79	0xbdd88f64	-0.105742246
80	0x3d8d9fae	0.06915222
81	0x3df40481	0.119149216
82	0xbcefcc09	-0.029272096
83	0x3d1cecdd	0.038311828
84	0x3db952dd	0.09049008
85	0xbd826d1b	-0.063684665
86	0x3b901b29	0.004397769
87	0xbd76291f	-0.06009781
88	0xbdd97a8e	-0.106190786
89	0xbe10b8f2	-0.14133051
90	0xbd305e83	-0.043058883
91	0x3dd3c3f6	0.10340111
92	0x3dc5d298	0.09659308
93	0xbdc756ab	-0.097333275
94	0x3ca0fa23	0.019650524
95	0x3d8076e9	0.0627268
96	0x3d68ef70	0.05686897
97	0xbd19a27e	-0.03750848
98	0x3baf92f5	0.005358095
99	0x3c2cfc23	0.010558161
100	0x3d5900ee	0.052979402
101	0xbc9eca16	-0.019383471
102	0x3e0a6e0a	0.13518539
103	0xbd656f79	-0.05601451
104	0x3d525575	0.05135103
105	0xbe0e8a69	-0.13919987
106	0xbdf67c4b	-0.12035426
107	0xbc85964f	-0.016307024
108	0x3e1457b4	0.14486581
109	0x3cc39235	0.023873428
110	0xbd64a79a	-0.0558239
111	0xbc57401f	-0.013137846
112	0x3df680ae	0.120362625
113	0x3d13bb08	0.03606704
114	0xbe0721b1	-0.13196446
115	0xbe00cc00	-0.1257782
116	0x3d03b73d	0.03215717
117	0x3c50c040	0.0127411485
118	0x3d91461c	0.070934504
119	0xbd40266f	-0.046911653
120	0x3cc97aa6	0.024594616
121	0x3d78fe07	0.060789134
122	0xbdd17a20	-0.102283716
123	0x3d8a3da8	0.06750041
124	0xb8e8ba42	-0.00011097315
125	0x3d09f92f	0.033684906
126	0x3da212e9	0.07913763
127	0xbce7029f	-0.028199492
128	0xbd0a567c	-0.033773884
129	0xbcec08f5	-0.028812865
130	0x3db3e9c2	0.0878482
131	0x3d7df159	0.061997745
132	0x3c7da5db	0.015481438
133	0xbd539f26	-0.051665448
134	0xbd2865f5	-0.04111286
135	0xbe17221f	-0.1475911
136	0xbcdc8708	-0.026919857
137	0x3d3c2e12	0.045942374
138	0xbd88d28d	-0.066807844
139	0xbd825a43	-0.06364872
140	0x3bd22ed6	0.0064142747
141	0xbcbf4bb0	-0.02335152
142	0x3c8983fb	0.016786566
143	0x3c9891ca	0.018624205
144	0x3d87dd41	0.06633998
145	0xbc96b180	-0.018395185
146	0x3df110a8	0.11770755
147	0x3d144c08	0.03620532
148	0x3d9d31a6	0.07675485
149	0x3cd09436	0.025461297
150	0x3daaa270	0.08331764
151	0x3d6439e0	0.055719256
152	0x3dc10a9a	0.0942585
153	0x3d190657	0.03735956
154	0xbce325a0	-0.027727902
155	0xbdca5630	-0.0987972
156	0xba237407	-0.0006235246
157	0xbd6e4ce8	-0.058178812
158	0xbce94571	-0.028475495
159	0xbd1edb07	-0.0387831
160	0xbd3d243f	-0.046177145
161	0x3d7af4ed	0.061268736
162	0x3e2ad8e7	0.16684304
163	0x3e09a959	0.13443507
164	0xbc5dd1fe	-0.013538836
165	0xbd73a2cc	-0.059481427
166	0xbd8bc2b3	-0.06824245
167	0x3d63f350	0.055651963
168	0x3d9aeb61	0.07564426
169	0x3dc7eddb	0.09762164
170	0xbd7165b0	-0.058934867
171	0x3d7edefb	0.06222437
172	0xba2b5ad7	-0.00065366685
173	0x3d6514bb	0.055927973
174	0x3cb02c54	0.021505512
175	0xbd8ed00f	-0.06973278
176	0xbd9f6f2f	-0.077848785
177	0xbcb7af46	-0.022422444
178	0x3dfe3c35	0.12413827
179	0x3dde394a	0.10850771
180	0x3d17acb9	0.037029956
181	0x3dcdb94f	0.100451104
182	0x3a71ef7f	0.0009229108
183	0xbe294482	-0.1653004
184	0xbd06e649	-0.03293446
185	0x3c1fbbed	0.009749395
186	0xbd9922fc	-0.07477376
187	0xbd2f21b6	-0.04275676
188	0xbd88ef13	-0.06686225
189	0x3c637606	0.013883119
190	0x3d946901	0.072465904
191	0x3d2fe112	0.042939253
192	0xbc6298e9	-0.013830402
193	0x3c096b04	0.008387331
194	0xbce76b51	-0.028249415
195	0xbb1838df	-0.0023227257
196	0xbdd0fa3b	-0.10203978
197	0x3d0cf969	0.034417544
198	0x3e1a70af	0.15082048
199	0xbd798340	-0.060916185
200	0xbd0660e4	-0.032807246
201	0xbc943759	-0.018092798
202	0xbe007aad	-0.12546797
203	0x3d21e1f2	0.03952212
204	0xbbcb433f	-0.0062030847
205	0x3d12ca4c	0.035837457
206	0x3dcffc11	0.101555
207	0x3d3d6a25	0.046243805
208	0x3c39a882	0.011331679
209	0xbe1328a5	-0.14370973
210	0xbca569c3	-0.020192033
211	0x3ca0e9d0	0.01964274
212	0x3de328d5	0.110917725
213	0x3d985bd3	0.07439389
214	0x3d4aa4e3	0.049473654
215	0xbdf713a6	-0.120642945
216	0x3dd04f73	0.10171404
217	0x3cc8c80a	0.024509449
218	0xbd4a7673	-0.04942937
219	0xbd9ee7d4	-0.077590615
220	0xbd1d2df9	-0.03837392
221	0xbc97ef79	-0.018546807
222	0xbd9af842	-0.07566883
223	0xbbfdcc9e	-0.0077453395
224	0xbd9eece2	-0.077600256
225	0x3daaaee3	0.08334138
226	0x3b822dbb	0.0039727367
227	0x3c782715	0.015146037
228	0x3cbe645c	0.023241214
229	0xbdbc0189	-0.0917998
230	0x3cb3fb30	0.021970361
231	0xbcd3485d	-0.025791341
232	0xbd1f5997	-0.0389038
233	0xbda6778a	-0.08128269
234	0x3d8a5f1f	0.06756424
235	0x3d926073	0.071473025
236	0xbda353f7	-0.079749994
237	0xbd59754d	-0.053090382
238	0x3d017714	0.031607702
239	0xbda22382	-0.07916929
240	0x3d8dc321	0.069219835
241	0x3d8e0547	0.069346
242	0x3d7c067d	0.061529625
243	0x3c001e4c	0.007819723
244	0x3dcc08ec	0.09962639
245	0x3cad4c4a	0.021154542
246	0xbb82f496	-0.003996442
247	0xbc848009	-0.016174333
248	0xbcc7632c	-0.024339281
249	0x3e139ab2	0.1441448
250	0xbcddd163	-0.027077382
251	0x3c192303	0.009346726
252	0x3b7f0ba7	0.0038916857
253	0xbcab7950	-0.02093187
254	0xbd672662	-0.05643309
255	0xbd0042ef	-0.031313833

net.2.module.0.bias f4 [32]
0	0xbd1edf8b	-0.038787406
1	0xbda431bb	-0.08017298
2	0x3d857780	0.065169334
3	0x3d0443a2	0.032291062
4	0x3d86fbdf	0.06591009
5	0x396ba41d	0.00022472483
6	0xbd27d8f4	-0.040978387
7	0x3d683728	0.056693226
8	0x3dd6cc9d	0.10488246
9	0x3d38b34b	0.045092862
10	0x3b556ef7	0.003256736
11	0x3d1dc930	0.038521945
12	0xbdd6e87f	-0.10493564
13	0xbbd1d740	-0.0064038336
14	0x3d57f27d	0.05272149
15	0xbd249469	-0.040180597
16	0x3cfd1424	0.030893393
17	0xbca86715	-0.020556966
18	0x3d0f67c0	0.035011053
19	0x3d89def0	0.06731975
20	0x3da72af4	0.081624895
21	0xbc6ce99e	-0.014459996
22	0x3c88a811	0.016681703
23	0xbc4fb98b	-0.012678514
24	0x3d9b0dfd	0.075710274
25	0xbd809981	-0.062792785
26	0xbd2117d6	-0.039329372
27	0x3d0b8a28	0.034067303
28	0x3c981408	0.01856424
29	0x3d340e8e	0.043959193
30	0x3d271de5	0.040799994
31	0x3d8be2e1	0.06830383

net.3.module.0.weight f4 [32, 32, 3]
0	0x3e0080e3	0.12549166
1	0xbd6a0794	-0.057136133
2	0xbd7a8cca	-0.061169423
3	0xbbfd2c0b	-0.0077261976
4	0x3d2b353c	0.041798815
5	0x3d6746af	0.056463894
6	0x3db86830	0.09004247
7	0xbd25c3b6	-0.040469848
8	0x3d108925	0.03528704
9	0xbdfe5f44	-0.12420514
10	0x3d845ec2	0.06463386
11	0x3c8db381	0.017297508
12	0x3c3e6b90	0.011622325
13	0xbd1be6a0	-0.038061738
14	0x3cafea80	0.021474123
15	0xbd0ebc05	-0.03484728
16	0x3d59b048	0.05314663
17	0xbc3cedb5	-0.011531283
18	0x3d8fbb84	0.07018188
19	0x3db6145a	0.088906005
20	0x3bf2ab48	0.007405672
21	0xbd5791ea	-0.05262939
22	0x3da0cca0	0.07851529
23	0xbd1b1d04	-0.03786947
24	0xbcbab2ef	-0.0227904
25	0xbd3e4e3d	-0.046461333
26	0xbc80beae	-0.015715923
27	0xbdaf86de	-0.08570646
28	0x3da33a64	0.079701215
29	0x3d10b26a	0.0353264
30	0xbd66b012	-0.056320257
31	0xba8f7de3	-0.0010947551
32	0xbd8c7636	-0.068584844
33	0xbc891f4d	-0.016738558
34	0x3d1176f1	0.035513822
35	0x3880febe	6.150965e-05
36	0x3d75a1ee	0.05996888
37	0xbd545157	-0.051835384
38	0x3d2b409f	0.041809674
39	0x3d674570	0.056462705
40	0x3d7e1f3e	0.062041514
41	0x3cf16fc3	0.029472237
42	0xbdf70dfa	-0.12063213
43	0x3c2dd049	0.010608741
44	0x3d358fe6	0.044326685
45	0xbd16de2e	-0.03683298
46	0xbc89352a	-0.016748983
47	0x3cedc146	0.029022824
48	0xbca29cac	-0.019850098
49	0x3e08ce86	0.13360032
50	0x3e0c4376	0.1369761
51	0xbd75ba41	-0.05999208
52	0x3c67a871	0.014139281
53	0xbddfc4c2	-0.109262004
54	0x3daed811	0.08537305
55	0x3d1361cb	0.035981935
56	0x3dad3a3f	0.08458375
57	0x3d979942	0.074022785
58	0x3d94ea03	0.07271197
59	0x3d6ecb2e	0.058299236
60	0xbdf3fe75	-0.11913768
61	0xbdb5e9ee	-0.08882509
62	0x3d79a433	0.06094761
63	0x3dee04b0	0.11621988
64	0x3c80e1bf	0.015732644
65	0x3c1ce61b	0.009576346
66	0xbd9c5fa3	-0.07635429
67	0xba83fcf0	-0.0010069888
68	0xbbc5c05e	-0.006034895
69	0x3c493960	0.012281746
70	0xbd958b9a	-0.073020175
71	0xbdeaa254	-0.11456743
72	0xbd0a72df	-0.033800956
73	0xbd08eb7c	-0.0334277
74	0xbd4f02bb	-0.050539713
75	0x3dae86a3	0.08521774
76	0x3c273483	0.010205391
77	0x3d95e88b	0.07319745
78	0x3de35aa8	0.11101276
79	0xbd62bc8d	-0.055355597
80	0xbc0d3b73	-0.008620131
81	0xbb92ed65	-0.004483866
82	0xbe1881e5	-0.14893301
83	0xbd67dc69	-0.056606684
84	0xbd8e5f84	-0.06951812
85	0x3c284a6e	0.010271652
86	0x3df062aa	0.11737569
87	0xbb816e1a	-0.0039498927
88	0xbd683f30	-0.056700885
89	0x3e057bee	0.13035557
90	0xbd33ac45	-0.04386546
91	0xbd9a82ef	-0.07544505
92	0xbcb7e30e	-0.022447135
93	0xbd8136fb	-0.06309315
94	0xbd6c6c0d	-0.057720233
95	0x3c797595	0.015225788
96	0x3ddef88e	0.10887252
97	0xbdbd0741	-0.09229899
98	0xbd00d20e	-0.031450324
99	0xbd22fb5c	-0.039790496
100	0x3d899c76	0.06719296
101	0xbd3bdfdc	-0.045867786
102	0x3e179af6	0.14805207
103	0xbdee3938	-0.11632007
104	0x3cf2529f	0.029580412
105	0x3d558ad7	0.05213436
106	0xbdb8970c	-0.09013185
107	0x3c5dba65	0.013533209
108	0x3c87d840	0.016582608
109	0xbc3d8ac2	-0.011568727
110	0xbd0805a0	-0.03320849
111	0xbd0750f6	-0.033036195
112	0x3d9461d4	0.07245222
113	0x3c79cac2	0.015246095
114	0x3d999ea3	0.07500961
115	0xbd70a34b	-0.05874948
116	0x3c1244ac	0.008927505
117	0xbdb4ae23	-0.088222764
118	0x3df4fdef	0.119624965
119	0x3d9e2560	0.077219725
120	0xbd8bad67	-0.06820183
121	0xbd804ac5	-0.06264261
122	0x3c8a642a	0.016893465
123	0x3d31a729	0.043372307
124	0x3dc58227	0.09643965
125	0xbd6df655	-0.05809625
126	0x3d4851f6	0.04890629
127	0xbd7ea942	-0.062173136
128	0x3d15bd0d	0.036557246
129	0x3d3d0f30	0.046157062
130	0x3cbf7d89	0.02337529
131	0x3cfa4d12	0.030554328
132	0x3dc9252c	0.09821543
133	0xbc63ca7c	-0.0139032565
134	0xbca023b8	-0.019548282
135	0xbe383b46	-0.17991361
136	0xbccfc424	-0.025362082
137	0xbd7f1dbe	-0.062284224
138	0xbde1cf11	-0.11025823
139	0xbdcea1de	-0.100894675
140	0xbd3c3f77	-0.045958962
141	0xbda89273	-0.08231058
142	0x3d8e3eed	0.06945596
143	0xbdf7bffa	-0.120971635
144	0xbd40fead	-0.047117878
145	0xbc9a4b9d	-0.018834883
146	0xbde30d73	-0.110865496
147	0x3da29653	0.07938828
148	0xbd8065ab	-0.062693916
149	0x3c4fc03a	0.012680108
150	0x3d9cc871	0.07655419
151	0x3db6cc7d	0.08925722
152	0xbc82784e	-0.015926506
153	0xbb7be7f6	-0.003843782
154	0xbc8c1c2e	-0.01710328
155	0xbd9041f8	-0.070438325
156	0x3b8a9ea2	0.0042303363
157	0x3e13fa47	0.14450942
158	0x3c7674ba	0.015042478
159	0x3cfef2e2	0.031121675
160	0xbd81d8ae	-0.063401565
161	0x3cdfd53e	0.027323361
162	0x3dd08b0f	0.10182773
163	0x3e00ead1	0.12589575
164	0xbcfa55b1	-0.030558439
165	0x3d1123ce	0.035434537
166	0x3cd98b2e	0.026555624
167	0xbe0c07e0	-0.13674879
168	0xbdd81ac7	-0.105519824
169	0xbd1ce1fc	-0.038301453
170	0x3cca3057	0.024681253
171	0x3d91313f	0.07089471
172	0xbd6067d3	-0.054786514
173	0x3de7dcdc	0.113214225
174	0x3de54d11	0.1119634
175	0xbc81443a	-0.015779603
176	0x3cd0890c	0.025455974
177	0xbc7faff4	-0.015605915
178	0xbc07894e	-0.008272482
179	0x3d14b25c	0.03630291
180	0xbb78f46b	-0.0037987481
181	0x3cf6d21e	0.030129489
182	0xbcf13257	-0.02944295
183	0x3ca4195f	0.02003163
184	0x3ddd8ea2	0.10818221
185	0xbd56c2a3	-0.052431714
186	0xbda0d753	-0.0785357
187	0xbc1b804b	-0.009491037
188	0x3ca580dd	0.020203048
189	0x3df86638	0.12128872
190	0xbd8d27e9	-0.06892378
191	0x3ca9c3ad	0.020723188
192	0xbd831064	-0.06399611
193	0x3d6dbdde	0.0580424
194	0xbd903e92	-0.07043184
195	0xbd85981f	-0.065231554
196	0xbd12b44d	-0.03581648
197	0xbd67d0d0	-0.056595623
198	0x3dbb31ad	0.09140334
199	0x3d16090d	0.036629725
200	0xbcf37b36	-0.029721837
201	0x3dd0fb8c	0.10204229
202	0xbd2e6a7c	-0.04258202
203	0x3c84efda	0.016227651
204	0xbe078f20	-0.13238192
205	0x3dae22a6	0.085027024
206	0x3d3065e1	0.04306591
207	0xbc840fb8	-0.016120777
208	0x3ce3629e	0.027756985
209	0xbe00dbac	-0.12583798
210	0x3d122877	0.03568312
211	0xbd9f84de	-0.07789014
212	0x3d998c53	0.07497468
213	0x3e0a50a2	0.13507321
214	0xbde66d77	-0.112513475
215	0x3ba78415	0.005112181
216	0x3d92496c	0.0714291
217	0x3dbfe132	0.093691245
218	0xbd5d14d5	-0.053974945
219	0xbd65d07e	-0.056107037
220	0xbbaa3629	-0.0051944447
221	0x3e0bfe72	0.13671282
222	0xbdee7a54	-0.11644426
223	0x3a61982e	0.00086057454
224	0xbd8f8535	-0.07007829
225	0xbdbefb1f	-0.09325241
226	0x3e01571d	0.12630887
227	0x3d8f08dc	0.06984112
228	0xbd8bddb0	-0.06829393
229	0xbd00af35	-0.03141709
230	0x3e0626e4	0.13100773
231	0xbdbf6dfd	-0.093471505
232	0x3d861957	0.06547802
233	0x3c72d38e	0.014820946
234	0x3d835ce9	0.064142056
235	0xbca2dd4c	-0.019880913
236	0xbd280d33	-0.041028213
237	0x3c862c2f	0.01637849
238	0x3c413cc0	0.011794269
239	0xbd01180a	-0.031517066
240	0x3daf71dd	0.085666396
241	0x3d98e023	0.07464626
242	0x3d0f9910	0.03505808
243	0xbd3cc5a7	-0.046086933
244	0x3c94722e	0.018120851
245	0xbc4ad187	-0.012379057
246	0xbae2ba76	-0.0017298001
247	0x3e0d3c90	0.13792634
248	0x3d754e90	0.059889376
249	0xbc7d2b69	-0.015452244
250	0x3e0052e0	0.12531614
251	0xbbb0f7c1	-0.0054006283
252	0xbdd07d5b	-0.1018016
253	0x3dd2158c	0.10258016
254	0x3d82f1e7	0.063937955
255	0x3d41aeb5	0.047285754

net.3.module.0.bias f4 [32]
0	0x3d6a0eb0	0.057142913
1	0x3d156599	0.036473844
2	0x3d919135	0.07107774
3	0xbd1de2a0	-0.038546205
4	0xbd8431d7	-0.06454819
5	0x3dadf6ea	0.08494361
6	0xbd3066b6	-0.043066703
7	0xbd5a71ab	-0.05333106
8	0xbc178b89	-0.009249576
9	0x3a9b8d19	0.0011867612
10	0x3ce5e066	0.028061103
11	0xbd54076c	-0.05176489
12	0xbdaf921c	-0.0857279
13	0xbacc83c8	-0.0015603239
14	0xbc12a3f3	-0.008950221
15	0xbd8b243f	-0.06794023
16	0xbbb593e5	-0.005541312
17	0x3d0fae93	0.035078596
18	0x3d6fb509	0.058522258
19	0x3ce68ee2	0.028144304
20	0x3d7fcb1d	0.062449563
21	0xbd9f66b4	-0.07783261
22	0x3d6aa8d9	0.057289932
23	0x3cc52695	0.024066249
24	0xbd954419	-0.07288379
25	0xbca0b67c	-0.019618265
26	0xbda71763	-0.081587575
27	0xbdb636d0	-0.088971734
28	0x3c6dd560	0.014516205
29	0xbcfaa127	-0.030594422
30	0xbdca5aeb	-0.098806225
31	0x3dce2f92	0.10067667

net.4.module.0.weight f4 [32, 32, 3]
0	0x3d2d299a	0.042276002
1	0xbc70f55a	-0.014706934
2	0xbd46f6bc	-0.048575148
3	0xbbe40a40	-0.0069592297
4	0xbd1991a2	-0.037492402
5	0x3dcc24e7	0.09967976
6	0x3bf83897	0.0075751054
7	0x3ca16c13	0.019704854
8	0x3cfa9d8e	0.030592706
9	0xbe19b818	-0.15011632
10	0xbb9b6177	-0.0047418433
11	0x3db6c91a	0.08925076
12	0x3cd7869c	0.026309304
13	0xbd48f5ec	-0.049062654
14	0x3db1380c	0.08653268
15	0x3c956fac	0.018241726
16	0x3dc0ebb7	0.09419959
17	0x3d02a339	0.031893943
18	0x3d979116	0.0740072
19	0x3d1a1bdb	0.03762422
20	0x3d8835cb	0.06650885
21	0xbda8fa41	-0.08250857
22	0x3d65479d	0.0559765
23	0x3d8fa8bd	0.07014606
24	0x3d933f50	0.0718981
25	0x3dcd6ea8	0.10030872
26	0xbd10720e	-0.03526502
27	0xbb7ea8b5	-0.0038857881
28	0xbd28b223	-0.04118551
29	0x3dcd13c3	0.10013535
30	0xbd6ddcd0	-0.05807191
31	0xbcdf9e3f	-0.027297137
32	0x3d1fa97e	0.03898
33	0xbdd27ca8	-0.102776825
34	0xba7de99f	-0.00096859963
35	0xbb859823	-0.004076974
36	0x3d743960	0.05962503
37	0x3da30108	0.07959181
38	0x3dce9239	0.100864835
39	0x3e01940b	0.1265413
40	0x3dd291f0	0.102817416
41	0x3cd1cea0	0.025611222
42	0xbda7f063	-0.08200147
43	0xbd0f99c0	-0.035058737
44	0x3cf8062d	0.030276382
45	0xbc219359	-0.009861791
46	0x3dc182b1	0.094487555
47	0x3cd6c6e7	0.02621789
48	0xbd572db9	-0.05253384
49	0xbd68a82c	-0.056801006
50	0x3db11f5b	0.08648559
51	0x3d5f2cec	0.0544862
52	0x3e33311e	0.17499205
53	0x3db505cc	0.08838996
54	0x3d9860d9	0.07440347
55	0xbbdb1681	-0.0066860323
56	0x3df4fd52	0.119623795
57	0xbcb5f9b0	-0.022213787
58	0x3b644b52	0.0034834933
59	0x3d3be036	0.04586812
60	0x390a0b1e	0.00013164847
61	0x3de0cf34	0.10977021
62	0xbd2a45b9	-0.0415704
63	0xbdd05008	-0.10171515
64	0xbcab2d42	-0.020895604
65	0xbdb553bb	-0.08853861
66	0x3d8173ce	0.06320916
67	0xbcb0ee35	-0.021597961
68	0xbd95ba7f	-0.07310962
69	0x3b8098a0	0.0039244443
70	0x3cafe75b	0.021472624
71	0xbdbf2045	-0.09332327
72	0x3d4b0fd5	0.049575645
73	0x3d591a17	0.053003397
74	0x3da7c8f4	0.08192626
75	0xbdcad85a	-0.09904547
76	0xbc6e7ecc	-0.014556598
77	0x3dd94536	0.10608904
78	0x3dd4db4c	0.1039339
79	0xbdbf7b48	-0.09349686
80	0xbd9aac4c	-0.07552394
81	0x3d9d747b	0.076882325
82	0x3d828ff9	0.06375117
83	0x3d8c41c3	0.068484806
84	0x3df47249	0.11935861
85	0x3d814e55	0.06313769
86	0x3d8d87e9	0.069106884
87	0xbd9aa1d4	-0.075503975
88	0xbd410837	-0.047126975
89	0x3db9c6aa	0.09071095
90	0xbddf1e75	-0.10894481
91	0xbd065515	-0.032795984
92	0xbd47c222	-0.048769124
93	0xbd8e6a25	-0.06953839
94	0x3d473bbd	0.048640955
95	0xbd78d3f5	-0.060749013
96	0x3d5c15e7	0.053731825
97	0xbd95a1b3	-0.07306232
98	0xbd5a783e	-0.053337328
99	0x3e0f040a	0.13966385
100	0x3cdd2418	0.02699475
101	0xbda3cea8	-0.07998401
102	0x3d1fc2f0	0.039004266
103	0xbd7bc02b	-0.061462563
104	0x3d74bc75	0.05975004
105	0xbde1e854	-0.11030641
106	0x3d42794d	0.047478963
107	0x3d6cb0c5	0.057785768
108	0x3d90904c	0.070587724
109	0x3c5a3c40	0.013320029
110	0xbac7c743	-0.001524188
111	0x3b846fb4	0.0040416364
112	0x3d5aa45a	0.053379394
113	0xbd98a8bc	-0.074540585
114	0x3dd3fd0c	0.10350999
115	0xbda98ba3	-0.08278587
116	0x3d8e0530	0.06934583
117	0xbdb456a3	-0.08805587
118	0x3d8fb9e7	0.0701788
119	0xbc8b3765	-0.016994188
120	0xbdc9e20a	-0.09857567
121	0x3dbbbf3f	0.09167337
122	0xbc59319e	-0.013256459
123	0x3daad957	0.083422355
124	0x3da0bf62	0.078490034
125	0xbd7cba1b	-0.06170092
126	0xbc84a55d	-0.016192133
127	0xbcbce2c9	-0.023057358
128	0xbd8482cd	-0.06470261
129	0xbd8d977b	-0.06913658
130	0xbd931710	-0.07182133
131	0x3dac382a	0.0840915
132	0xbda5991e	-0.080858454
133	0xbd7476ce	-0.059683613
134	0xbdb91767	-0.09037667
135	0xbd82f1bd	-0.06393764
136	0x3ccc3a1b	0.02493005
137	0x3df8cf12	0.121488705
138	0x3b09a35a	0.0021001906
139	0x3cb56f16	0.022147696
140	0x3d352d3c	0.044232592
141	0x3ae6f902	0.0017621818
142	0x3d9ea82a	0.077469185
143	0x3d44e621	0.04807103
144	0x3afdbfa2	0.0019359479
145	0xbd2c9d1c	-0.04214202
146	0x3c68365d	0.0141731175
147	0x3dd083f4	0.10181418
148	0xbdade3f1	-0.08490742
149	0xbde24dcc	-0.11049995
150	0x3d7c470e	0.0615912
151	0x3cd3654f	0.025805144
152	0xbd2be8cd	-0.041970063
153	0x3cfc5692	0.030802999
154	0x3d25ae7a	0.040449597
155	0xbe2c9f05	-0.16857536
156	0xbcdb1e77	-0.026747925
157	0xbd945252	-0.07242264
158	0x3d7fe974	0.062478498
159	0xbd297ba4	-0.04137768
160	0xbdf5e508	-0.12006575
161	0xbd2479a1	-0.040155057
162	0xbdb166d7	-0.08662193
163	0xbddce9c5	-0.107867755
164	0xbc8f17a1	-0.017467322
165	0xbc3cfaa2	-0.011534365
166	0x3e00c185	0.12573822
167	0xbde3634d	-0.111029245
168	0xbc2f3d96	-0.010695836
169	0xbd847be3	-0.06468942
170	0x3d9785d3	0.07398572
171	0x3cb29c1f	0.02180296
172	0x3d58b101	0.05290318
173	0x3ddbe94b	0.107378565
174	0x3d5b7b5e	0.05358445
175	0x3cd1c0ef	0.025604693
176	0x3d84308e	0.064545736
177	0x3d5544de	0.05206763
178	0xbb114c99	-0.00221709
179	0xbe01f106	-0.126896
180	0x3b678c2d	0.0035331354
181	0xbd552e08	-0.052045852
182	0xbd85e97a	-0.06538673
183	0x3de64377	0.11243337
184	0xbd546372	-0.05185265
185	0xbca8cb0b	-0.020604631
186	0xbd19ca33	-0.037546348
187	0x3d017f5b	0.031615596
188	0xbdde28f4	-0.10847655
189	0x3cd24a8f	0.025670318
190	0xbd11bed7	-0.03558239
191	0xbd971ff5	-0.07379142
192	0x3d252868	0.040321738
193	0x3d23e97b	0.040017586
194	0x3d037d6f	0.032102045
195	0x3c0f8bd1	0.008761362
196	0x3cac2c81	0.021017315
197	0x3d5e5324	0.054278508
198	0x3ca08aa8	0.019597366
199	0xbd8525dd	-0.065013625
200	0xbdb9133c	-0.09036872
201	0xbd99b2ce	-0.075048074
202	0xbc26a20e	-0.010170473
203	0x3bc49867	0.005999613
204	0xbd0916b0	-0.033468902
205	0x3dfa4911	0.122209676
206	0x3ccbc223	0.024872845
207	0xbd8f81ea	-0.07007201
208	0x3d662579	0.05618808
209	0x3daa6a59	0.083210655
210	0xbd48530b	-0.04890732
211	0x3bb4c6e9	0.005516876
212	0x3db89f90	0.09014809
213	0x3da5c0bb	0.08093401
214	0x3e19c4af	0.15016435
215	0xbd2c1726	-0.042014264
216	0xbd058772	-0.032599874
217	0x3d05b15e	0.032639854
218	0x3d85bca2	0.065301195
219	0x3bc5a60a	0.0060317563
220	0xbde08e14	-0.10964599
221	0xbdd4c283	-0.10388663
222	0xbb0d1ebf	-0.0021533219
223	0x3db79df2	0.089656726
224	0x3d3e173b	0.046408873
225	0xbdb95846	-0.0905004
226	0xbd789eb0	-0.06069821
227	0xbdffddd4	-0.12493482
228	0xbdba164f	-0.09086286
229	0x3d7df538	0.062001437
230	0x3cc21101	0.023689749
231	0xbdea8769	-0.11451609
232	0xbdd62228	-0.104557335
233	0xbd65c578	-0.056096524
234	0x39442a10	0.00018707686
235	0xbe0a3abc	-0.13498968
236	0xbd5bafb0	-0.053634346
237	0xbe41e1e5	-0.18933828
238	0x3d8ccf1f	0.06875443
239	0xbd32c154	-0.043641403
240	0x3e11a264	0.14222103
241	0xbca80924	-0.020512171
242	0x3d47247d	0.048618782
243	0xbcfa9190	-0.030586988
244	0xbda0fca4	-0.078606874
245	0xbdd37f5e	-0.10327028
246	0x3d155d9a	0.03646622
247	0x3e25b103	0.16180806
248	0xbda39019	-0.07986469
249	0xbdf61faa	-0.12017758
250	0xbc238cc2	-0.00998229
251	0xbc3d55af	-0.011556073
252	0x3cc06d6e	0.02348968
253	0xbd9f163c	-0.07767913
254	0x3d589884	0.052879825
255	0x3ca4f718	0.020137355

net.4.module.0.bias f4 [32]
0	0x3d1d832d	0.038455177
1	0xbd1a339e	-0.037646882
2	0xbd57666d	-0.052587915
3	0xbcceac1f	-0.025228558
4	0x3de103eb	0.109870754
5	0xbd92343d	-0.0713887
6	0xbdd5683e	-0.10420273
7	0x3cb8dada	0.022565294
8	0xbd9ef366	-0.07761268
9	0x3d952d63	0.072840475
10	0x3b27c230	0.0025597923
11	0x3d2ba986	0.041909717
12	0xbcacb5a0	-0.0210827
13	0xbc7e1ae2	-0.015509339
14	0x3d6bb934	0.05754967
15	0x3d45eacd	0.048319627
16	0x3d934f0a	0.0719281
17	0xbd98c2a9	-0.074590035
18	0x3dac76b8	0.08421081
19	0xbce12089	-0.027481334
20	0xbdc913fb	-0.09818264
21	0x3da87052	0.082245484
22	0x3d9394bc	0.07206103
23	0xbcd6ecfc	-0.02623605
24	0xbd74a43f	-0.05972695
25	0x3d9b9917	0.07597559
26	0x3db5d784	0.08878997
27	0xbc8963d6	-0.016771238
28	0x3db3bce1	0.0877626
29	0x3db243b8	0.087043226
30	0x3b244dcc	0.0025070785
31	0x3c07c87f	0.008287548

net.5.weight f4 [48, 32, 3]
0	0x3d98c870	0.074601054
1	0x3d4d3963	0.050103556
2	0xbcfff076	-0.03124259
3	0x3dc47eb5	0.0959448
4	0xbd8962fa	-0.067083314
5	0x3d42de19	0.04757509
6	0xbd1b3559	-0.037892673
7	0x3d03d9e2	0.03219021
8	0xbbd04abb	-0.006356565
9	0xbdda7fcd	-0.10668907
10	0x3cf62278	0.030045733
11	0x3dbba58e	0.091624364
12	0x3daa7a22	0.08324076
13	0xbcb247b7	-0.021762712
14	0xbb0df3ce	-0.0021660211
15	0x3d8dd736	0.06925814
16	0x3d7a66ff	0.06113338
17	0xb75fbd4b	-1.3335909e-05
18	0x3d85f230	0.06540334
19	0xbdf1ace8	-0.118005574
20	0x3c8a06c6	0.016848933
21	0x3d3b015c	0.045655593
22	0x3d680f65	0.056655306
23	0xbb39b74f	-0.002833802
24	0x3c7e3ac6	0.015516942
25	0xbdb33e75	-0.08752147
26	0xbd59aa21	-0.053140763
27	0xbda22efb	-0.07919117
28	0x3d5ee6c0	0.05441928
29	0x3dd7c8e8	0.10536367
30	0xbdce9517	-0.100870304
31	0xbdc154ed	-0.094400264
32	0xbd155386	-0.036456607
33	0x3d6d4c6d	0.057934213
34	0xbdc701b3	-0.09717121
35	0x3d8c5107	0.06851392
36	0x3d83f10a	0.06442459
37	0xbb4dd5df	-0.0031407995
38	0xbcfc1b21	-0.030774655
39	0xbd0a1104	-0.033707634
40	0x3d3001d1	0.042970482
41	0x3d99eb07	0.07515531
42	0xbc02575c	-0.007955398
43	0x3d82164d	0.0635191
44	0xbb250be0	-0.002518408
45	0xbd297dd6	-0.041379772
46	0xbbfcef87	-0.0077189836
47	0xbdd7a73a	-0.10529943
48	0x3e14c662	0.14528802
49	0x3d0e0941	0.034676794
50	0xbc190b5b	-0.009341086
51	0xbcde3807	-0.027126325
52	0xbd3ab4d2	-0.0455826
53	0x3d1643f6	0.036685906
54	0xbd461dba	-0.048368193
55	0x3cb5a556	0.022173565
56	0x3d417bc2	0.047237165
57	0xba81d090	-0.0009904075
58	0xbbbccf8f	-0.0057620476
59	0x3ca187d8	0.019718096
60	0xbd8da79a	-0.06916733
61	0xbcfcff8d	-0.030883575
62	0x3d7c3475	0.061573464
63	0xbdad3c1d	-0.08458731
64	0x3c9dcac1	0.01926172
65	0x3d97b701	0.07407952
66	0x3bb84dd7	0.0056245136
67	0xbddb3ba0	-0.10704732
68	0x3d83eed4	0.06442037
69	0x3e09b215	0.13446839
70	0x3b42ac86	0.0029704883
71	0xbcbefd5f	-0.023314176
72	0x3d2df170	0.04246658
73	0x3db6aa21	0.08919168
74	0xbda45f55	-0.08025996
75	0xbca1df16	-0.019759696
76	0x3cda52f2	0.02665088
77	0x3dfa6793	0.122267865
78	0x3a6b3a62	0.00089732383
79	0x3a4a4877	0.00077164866
80	0x3c96fdbb	0.018431535
81	0xbbbf1912	-0.005831846
82	0xbdd5241b	-0.10407277
83	0x3e2c8d4c	0.16850775
84	0xbd286bf2	-0.04111857
85	0x3d3d6522	0.046239026
86	0x3cbe0e93	0.023200309
87	0xbd67ad7a	-0.056561925
88	0xbce7cdc3	-0.028296357
89	0xbde08fef	-0.10964953
90	0x3da270b4	0.07931653
91	0x3dafa031	0.08575476
92	0x3d47016e	0.048585348
93	0xbd907bab	-0.07054838
94	0x3db9170e	0.090376005
95	0xbdf66fa8	-0.120330155
96	0x3b280451	0.0025637338
97	0xbd04a1a5	-0.03238072
98	0xbdbbb71b	-0.09165784
99	0xbd3093a0	-0.043109536
100	0x3d018f71	0.031630937
101	0x3d28c70d	0.041205455
102	0x3de6d883	0.11271765
103	0x3d999790	0.074996114
104	0xbddfd38a	-0.1092902
105	0xbca3f9e1	-0.020016612
106	0x3d277117	0.040879335
107	0xbd31a1a6	-0.04336705
108	0xb9c7d2ec	-0.00038113387
109	0x3aca0116	0.0015411701
110	0xbd8c4252	-0.06848587
111	0xbdd7c003	-0.1053467
112	0x3dac81e2	0.08423211
113	0xbce5a8e9	-0.028034644
114	0x3dff5ab1	0.1246847
115	0x3c33426d	0.01094113
116	0xbd0489fc	-0.032358155
117	0x3d14c2f4	0.036318734
118	0xbd88bd7f	-0.066767685
119	0x3d91dc60	0.07122111
120	0xbdf20b58	-0.1181857
121	0x3c5713c4	0.013127271
122	0xbd7e60a2	-0.062103875
123	0xbcefa364	-0.029252715
124	0x3d666a36	0.056253634
125	0x3d77b490	0.060474932
126	0x3d1c646c	0.038181707
127	0x3cd808d3	0.026371395
128	0xbd802fac	-0.06259093
129	0xbdb18626	-0.08668165
130	0x3d60b46a	0.054859556
131	0x3cb01961	0.021496477
132	0x3d1884b0	0.037235916
133	0x3db4fdae	0.08837448
134	0xbd8d8780	-0.0691061
135	0x3dcd038f	0.100104444
136	0xbd7408bf	-0.059578653
137	0x3da52ddd	0.08065388
138	0xbbd60b88	-0.0065321364
139	0x3cd055b2	0.025431488
140	0xbdb50151	-0.08838142
141	0xbdae519c	-0.085116595
142	0x3d867e2c	0.06567034
143	0x3c6bdb99	0.014395618
144	0x3c9dffad	0.019286955
145	0x3d1fa2a5	0.03897347
146	0xbd014031	-0.03155536
147	0x3ce8f9cd	0.028439427
148	0x3d8d7b26	0.06908254
149	0xbd06d7d2	-0.032920666
150	0xbc93a53e	-0.01802313
151	0x3da29e2b	0.079403244
152	0xbd1be2b2	-0.03805799
153	0x3c8e1625	0.017344544
154	0xbd4f40e0	-0.05059898
155	0xbdf23594	-0.118266255
156	0x3d92f9d9	0.07176561
157	0x3cadd4fd	0.021219725
158	0xbd89fb6f	-0.0673741
159	0x3d94857a	0.07252021
160	0xbbe74ec2	-0.007058949
161	0x3bb6d241	0.0055792634
162	0x3d8b7295	0.06808964
163	0xbd62bdfc	-0.055356964
164	0x3c24adba	0.010051185
165	0xbd6f4267	-0.058412936
166	0x3d3cf39b	0.046130758
167	0x3dbc40b9	0.09192032
168	0x3c00a3b7	0.007851533
169	0x3cccf163	0.025017446
170	0x3d9a7cb0	0.075433135
171	0x3d286cc1	0.04111934
172	0x3b238b93	0.002495502
173	0x3d8ab3bc	0.06772563
174	0xbd7ae9a6	-0.06125798
175	0x3dd96fb2	0.10617007
176	0xbe0e9714	-0.13924819
177	0xbd92a78a	-0.07160862
178	0x3dbee737	0.093214445
179	0xbdca8d52	-0.09890236
180	0xbdce3182	-0.100680366
181	0x3d1545cb	0.036443513
182	0x3df755a7	0.12076884
183	0x3d9d348b	0.076760374
184	0xbcc5500d	-0.024086023
185	0xbda027c9	-0.078200884
186	0x3e01f4ff	0.12691115
187	0xbd7383f8	-0.059452027
188	0x3b863df8	0.0040967427
189	0xbe0676e5	-0.13131292
190	0x3d90d57a	0.070719674
191	0xbc365eee	-0.011131031
192	0x3c593b9c	0.013258841
193	0xbcc72930	-0.024311632
194	0xbd9151c0	-0.07095671
195	0xbd84f41d	-0.064918734
196	0x3bdfda37	0.006831433
197	0x3d68b6b0	0.05681485
198	0xbdb7cad9	-0.08974237
199	0xbda9ea6f	-0.08296668
200	0x3d441247	0.047868993
201	0xbd3d19da	-0.046167232
202	0xbc753617	-0.014966509
203	0xbda28ace	-0.07936631
204	0x3db7007f	0.089356415
205	0xbddb94c7	-0.107217364
206	0x3c38f08d	0.0112878205
207	0x3d4e154c	0.05031328
208	0x3d3795ae	0.04482048
209	0x3dccd671	0.10001839
210	0xbd2c94be	-0.04213404
211	0x3d46262b	0.048376244
212	0xbd9e4a69	-0.07729036
213	0x3c896d0b	0.016775629
214	0xbdabca01	-0.083881386
215	0x3dc7b0a8	0.097504914
216	0xbdd04441	-0.101692684
217	0xbd733759	-0.059378956
218	0x3dfc463a	0.12318082
219	0x3d68ab7a	0.056804158
220	0xbceb439e	-0.028718766
221	0x3da4cac7	0.08046489
222	0x3dca8f6a	0.09890635
223	0x3d23b89d	0.039970983
224	0xbdc5110c	-0.09622392
225	0x3d6a1444	0.057148233
226	0xbdadf8d3	-0.08494725
227	0xbda26540	-0.07929468
228	0xbdb424c2	-0.087960735
229	0x3dfa9fc0	0.12237501
230	0xbd1b3c70	-0.037899435
231	0xbc62e955	-0.013849576
232	0xbdf5f4de	-0.12009595
233	0x3d2eb0e1	0.042649154
234	0xbbb6c31d	-0.0055774585
235	0x3cd8af51	0.026450785
236	0x3ce513d5	0.027963558
237	0x3d7b7ca0	0.06139815
238	0xbc9fb6e4	-0.019496389
239	0x3c128c3b	0.008944566
240	0x3d306554	0.043065384
241	0xbdae99e3	-0.08525445
242	0xbc95f431	-0.018304916
243	0xbd687570	-0.056752622
244	0x3c81fa70	0.015866488
245	0xbd15488f	-0.03644615
246	0xbd5f9785	-0.05458786
247	0x3d18f15a	0.037339546
248	0x3cb3950a	0.021921653
249	0xbd599412	-0.053119726
250	0x3d9b5704	0.07584956
251	0x3cbc9a48	0.023022786
252	0xbcc1a39d	-0.023637587
253	0x3d70f95c	0.058831558
254	0xbd52aa71	-0.051432077
255	0x3d849d2c	0.06475291

net.5.bias f4 [48]
0	0xbbb7a7ed	-0.005604735
1	0x3d552ffd	0.05204772
2	0xbcb900c3	-0.022583371
3	0xbd83b35d	-0.06430695
4	0x3da37363	0.07980993
5	0xbca0a321	-0.019609036
6	0x3d55d3c2	0.0522039
7	0xbd77d1ce	-0.06050282
8	0x3d8346c5	0.064099826
9	0x3d887980	0.06663799
10	0xbbc205e9	-0.0059211147
11	0x3c591f1f	0.013252049
12	0xbda94be1	-0.08266426
13	0x3d8dad1d	0.06917784
14	0x3d8a7abd	0.06761692
15	0x3d93a810	0.0720979
16	0x3d8a7766	0.06761055
17	0xbc740003	-0.014892581
18	0x3d00fa49	0.03148869
19	0x3d7304d4	0.059330776
20	0x3da5f5f1	0.0810355
21	0x3d7a2b85	0.06107666
22	0xbc6602e8	-0.014038779
23	0xbc5ddec2	-0.013541879
24	0xbced11fe	-0.028939243
25	0xbd192058	-0.03738436
26	0xbb91b932	-0.004447126
27	0x3d0b59ac	0.034021065
28	0x3d632140	0.05545163
29	0x3d7df864	0.062004462
30	0xbcae4608	-0.021273628
31	0x3d4dca3d	0.050241698
32	0x3d90dee7	0.07073765
33	0x3d1c37c6	0.038139127
34	0x3d0e4c73	0.034740876
35	0xbd0a0b3c	-0.03370212
36	0x3d1e4057	0.038635578
37	0x3c2a6bfd	0.010401723
38	0x3db15f92	0.08660807
39	0x3c72ebcb	0.014826725
40	0xbd3f00b0	-0.046631515
41	0x3d51940b	0.051166575
42	0xbc397f62	-0.011321874
43	0x3aa54ede	0.0012612005
44	0xbd8ac42c	-0.06775698
45	0xbcc50d0e	-0.024054077
46	0x3c6680ae	0.014068766
47	0xbc3e6b19	-0.011622214

exp_avg f4 [32, 191, 2]
0	0xbc5ede47	-0.0136028
1	0xbc4e583e	-0.012594281
2	0x3bf83446	0.007574591
3	0x3d0d6f4f	0.03452998
4	0xbc922ac0	-0.01784265
5	0xbca65fa3	-0.020309275
6	0xbbcc0635	-0.006226326
7	0x3adff4da	0.0017086521
8	0xbc83c194	-0.016083516
9	0xbbdfa69e	-0.0068252822
10	0x3cd46ef9	0.025931822
11	0x3c529b4d	0.012854409
12	0x3be6dbb9	0.007045236
13	0x3ca7ba7b	0.020474663
14	0xb8e7d867	-0.000110552464
15	0xbc4db463	-0.012555215
16	0xbacbb18a	-0.0015540582
17	0x3b2b1b6e	0.0026108879
18	0x3d2fde78	0.042936772
19	0x3d3755dc	0.044759616
20	0x3bba15fb	0.00567889
21	0x3c834997	0.016026301
22	0x3cff8387	0.031190647
23	0x3cb7803c	0.022400014
24	0x3d09aa30	0.03360957
25	0x3c9e7e49	0.019347327
26	0x3c700bb6	0.01465123
27	0x3ba9d775	0.005183155
28	0xbbd017af	-0.0063504796
29	0xbbb18d67	-0.005418468
30	0x3d0bf1ef	0.034166273
31	0x3cb3f160	0.021965683
32	0x3c16bcf8	0.009200327
33	0x3c64d7e8	0.013967492
34	0x3c93a0a7	0.018020941
35	0x3bfe7960	0.007765934
36	0x3d0fe6f4	0.035132363
37	0x3cbfc7a4	0.023410626
38	0xbcfb8a9a	-0.030705739
39	0xbd332f88	-0.0437465
40	0xbd43ca0a	-0.0478001
41	0xbd0d2b46	-0.034465097
42	0xbc989f9a	-0.018630791
43	0xbcfc8a5e	-0.030827697
44	0xbd2c9a69	-0.042139445
45	0xbd85fb6b	-0.06542095
46	0xba6635c9	-0.00087818183
47	0xbb663cac	-0.0035131378
48	0x3d64eb52	0.05588848
49	0x3d5df667	0.054190066
50	0x3bf684e8	0.007523168
51	0x3c4c79c5	0.012480204
52	0xbb44ace8	-0.0030010287
53	0xbd0a67cb	-0.03379039
54	0x3d02419f	0.031800862
55	0x3c06c36a	0.008225301
56	0x3d24ee27	0.040266182
57	0x3d276b27	0.040873673
58	0xbc962a85	-0.018330822
59	0xbce3a70c	-0.027789615
60	0xbce3f7d1	-0.027828129
61	0x3b7a2284	0.0038167546
62	0x3dc34ff6	0.09536736
63	0x3d9d9ea5	0.07696275
64	0x3c46b947	0.0121291345
65	0x3c34a020	0.011024505
66	0x3c51c6fe	0.012803791
67	0x3c441b07	0.011969334
68	0xbd35f23a	-0.04442046
69	0xbd30ec39	-0.04319403
70	0x3cff9706	0.031199943
71	0x3d05ab75	0.032634217
72	0xbc7c65d2	-0.015405135
73	0xbca79e21	-0.020461144
74	0x3c596dfb	0.01327085
75	0x3c506989	0.012720474
76	0x3cafe7c6	0.021472823
77	0x3c665f7a	0.014060849
78	0xbbb7661a	-0.0055968883
79	0xbc10dec2	-0.008842172
80	0x3cccbdff	0.024992941
81	0x3cbf8e39	0.023383247
82	0x3d18b112	0.037278242
83	0x3d2f2609	0.042760883
84	0x3d40103c	0.046890482
85	0x3d5cfd6c	0.05395262
86	0xbc276de9	-0.010219076
87	0xbc04d4a5	-0.008107339
88	0xbc1c21c2	-0.009529533
89	0xbabfc873	-0.0014631882
90	0x3d0f9dea	0.035062708
91	0x3cc49e84	0.024001367
92	0xbb215121	-0.0024615007
93	0x3ca6b0f6	0.020348053
94	0x3a81f330	0.0009914394
95	0xbbb31cf1	-0.0054660966
96	0x3b00a709	0.001963081
97	0x3b4f3ec0	0.0031623095
98	0x3d0400bb	0.03222726
99	0x3c87ef32	0.01659355
100	0x3df9d933	0.121996306
101	0x3dcf15a6	0.10111551
102	0xbc0672a4	-0.008206043
103	0xbc7ed817	-0.0155544495
104	0xbb71bb35	-0.0036885266
105	0xbca10481	-0.019655468
106	0x3c4c0f15	0.012454768
107	0xbb5f9234	-0.0034114243
108	0x3d141e0a	0.03616146
109	0x3cd89fe3	0.026443427
110	0x3d7f0646	0.062261842
111	0x3d96c29b	0.07361337
112	0x3cab943f	0.020944713
113	0x3ce00a92	0.02734879
114	0x3d307424	0.04307951
115	0x3d1f91b1	0.0389573
116	0x3c878d78	0.01654695
117	0xbc084fc0	-0.008319795
118	0x3c4a551c	0.012349393
119	0x39aece2f	0.00033341485
120	0xbb201488	-0.00244263
121	0x3bb71286	0.005586925
122	0x3d371932	0.044701762
123	0x3d2c7a77	0.04210898
124	0x3cde89c9	0.02716531
125	0x3c8d8acb	0.017278096
126	0x3cba0486	0.022707235
127	0x3cd8b7ce	0.026454832
128	0xbb3a3781	-0.002841443
129	0xbcf392de	-0.029733118
130	0x3cc56511	0.024096044
131	0x3d287fa4	0.041137353
132	0x3cea585e	0.02860659
133	0x3c3c10b8	0.011478595
134	0x3c25b62b	0.010114233
135	0x3aa62d19	0.0012678235
136	0x3d2eff83	0.042724144
137	0x3d589181	0.05287314
138	0x3c87090f	0.016483812
139	0x3cc93322	0.024560515
140	0x3ce42d52	0.027853642
141	0x3cdaa637	0.026690586
142	0xba86b5c0	-0.0010277554
143	0xbb14fbbe	-0.0022733058
144	0xba84e821	-0.0010139981
145	0x3ab92eb7	0.0014128302
146	0xbb88247d	-0.0041547404
147	0xbc426d34	-0.011866856
148	0x3cd6c756	0.026218098
149	0x3c85346d	0.01626035
150	0x3bf817f9	0.007571217
151	0x3bc80733	0.006104374
152	0x3c50b91d	0.012739447
153	0x3c88486b	0.016636094
154	0x3d1b44ca	0.0379074
155	0x3d6f8669	0.058477793
156	0x3d10affd	0.035324086
157	0x3ca81a3d	0.020520324
158	0x3c157c7d	0.009123919
159	0x3ca038cd	0.019558335
160	0x3cbf44e5	0.023348281
161	0xba472ca5	-0.00075979
162	0x3cfa9b16	0.030591529
163	0x3d083a5d	0.033258785
164	0x3d252295	0.040316183
165	0x3d9bb4b6	0.07602827
166	0xbcee8a1e	-0.029118594
167	0xbd072023	-0.032989632
168	0x3b61e0d5	0.0034466286
169	0x3b3e7a7c	0.0029064706
170	0xbd47a45f	-0.04874074
171	0xbd59ccdc	-0.053173885
172	0xbbd1861e	-0.006394162
173	0xbca6dc56	-0.020368736
174	0x3d43e085	0.04782154
175	0x3d061bf6	0.03274151
176	0x3c8ff3eb	0.017572364
177	0x3cbb4973	0.022862172
178	0xbd16de07	-0.036832836
179	0xbd015513	-0.031575274
180	0xbce063fa	-0.027391423
181	0xbcee58e0	-0.029095113
182	0x3d843f57	0.064573936
183	0x3d52dfcb	0.051482957
184	0xbc8f938e	-0.017526414
185	0xbcbb0b02	-0.022832397
186	0x3c89021f	0.016724644
187	0x3c73daf3	0.0148837445
188	0xbce20f70	-0.027595252
189	0xbd1cac9d	-0.038250554
190	0x3d7726ae	0.060339622
191	0x3d834103	0.064088844
192	0x3dae6b4c	0.08516559
193	0x3d68c5b9	0.056829188
194	0x3d26385c	0.040581092
195	0x3c8f899a	0.017521668
196	0xbb325669	-0.002721215
197	0xbc1c725a	-0.009548748
198	0x3c959b0e	0.018262412
199	0x3c327688	0.010892518
200	0xbccfefac	-0.02538284
201	0xbc393a1e	-0.01130536
202	0xbca9f8c3	-0.020748502
203	0x3c53931f	0.012913494
204	0x3d63190c	0.05544381
205	0x3d2c12a2	0.042009957
206	0xbb64dba7	-0.0034920962
207	0xbb900dd5	-0.00439618
208	0x3b7061aa	0.0036679306
209	0x3d121837	0.035667624
210	0x3c123618	0.00892403
211	0x3d0be766	0.034156226
212	0x3c8c28bf	0.017109273
213	0x3cc72c46	0.024313103
214	0x3d67feaf	0.05663937
215	0x3d35aa3a	0.044351794
216	0xbc9ab1cf	-0.018883614
217	0xbd156ac2	-0.036478765
218	0x3bc0b508	0.0058809556
219	0x3d2edae5	0.042689223
220	0xbb5d1c14	-0.003373866
221	0xbc0b1749	-0.008489438
222	0x3cfd1f65	0.03089876
223	0x3c9c383c	0.019069783
224	0x3b1d4be9	0.0024001545
225	0xbc957038	-0.018241987
226	0x3d8f6b17	0.07002848
227	0x3d4bbebf	0.049742457
228	0x3d5adfdf	0.053436156
229	0x3d7e024b	0.062013905
230	0x3cddfe3e	0.027098771
231	0x3cd62734	0.02614174
232	0x3cfbb6a9	0.030726748
233	0x3cfe44b0	0.031038612
234	0x3c8c7d3f	0.017149566
235	0x3b130765	0.0022434827
236	0x3c6aac52	0.014323311
237	0xbb0f50d0	-0.0021868236
238	0x3d106482	0.0352521
239	0x3d445098	0.047928423
240	0x3ca00cf0	0.01953742
241	0x3c22e819	0.009943032
242	0xbc81a3a7	-0.015825106
243	0xbc7b383e	-0.015333233
244	0x3d38ec1b	0.045147043
245	0x3d620569	0.05518094
246	0x3c584993	0.013201135
247	0x3aba4fba	0.0014214434
248	0x3cb10b90	0.021611959
249	0x3ccca75c	0.024982147
250	0xbbc6daae	-0.006068549
251	0xbc1b352a	-0.0094731245
252	0x3c801706	0.015635978
253	0x3cd4bce4	0.025968976
254	0x3c398977	0.011324278
255	0x3c4370f9	0.01192879
