saved_CEBRA_models/nitschke_20090812_20090819_20090910/CEBRA_models/temperature_0.0035666666666666668_time_offsets_1_dataset1.pt (torch, 531429 bytes, 31 tensors)

net.0.weight f4 [32, 191, 2]
0.014809325 -0.08814524 0.031263232 -0.10215429 -0.0031413338 0.036231257 0.04066023 0.0006492963
0.043156292 -0.036538698 -0.036061082 0.013677096 -0.011405566 0.027476465 -0.041273512 0.036699444
-0.026682567 -0.014444851 0.01265073 0.013030058 -0.033556137 -0.025374372 0.011202362 0.028553922
-0.035616066 0.013140236 -0.03729408 -0.002828567 0.012436461 0.00065246975 0.024445048 -0.014899241
0.055379823 0.07877902 0.01246544 0.026751054 -0.0015416939 0.025035061 -0.0056195427 0.036771733
-0.061711423 -0.036400206 -0.06633503 -0.029114211 0.012367467 0.012652883 -0.005282494 0.08689945
0.010839183 0.025317317 0.0036407523 -0.038073454 -0.034637205 0.011269799 -0.02067224 0.0020511795
0.062199302 0.10566153 -0.03637251 0.0038563304 0.0061253067 -0.033883825 -0.068033256 0.014633614
-0.012446102 0.05345178 0.005904463 -0.0366593 0.0029740517 -0.0068022334 0.0019096575 -0.0018237241
-0.023956774 -0.022210594 0.03492606 0.014093233 -0.009787582 0.005774835 -0.01844842 -0.027196994
-0.010471106 0.009470482 -0.08477825 0.06250234 0.027330223 0.07180751 0.0015080193 -0.0109826
-0.05866048 0.06533693 0.05767247 0.056265146 -0.062091667 -0.02435649 0.06131678 -0.020674946
-0.033270016 -0.00011238609 -0.069179974 0.055247057 -0.004552429 0.01710219 0.043639164 0.03017665
-0.022288153 0.045970045 0.010837619 -0.0010541158 0.006650439 0.047912244 0.009776446 -0.0268005
-0.01967514 0.014799168 -0.00027369356 0.06388555 -0.028995203 0.06743739 0.036603224 0.0050787823
-0.0006362459 0.012727808 -0.01729594 0.015858157 0.082566455 -0.012729919 -0.0014710258 0.07389897
-0.018262424 -0.00786498 0.0003746355 0.013828976 0.01840065 0.01607603 -0.028470328 -0.028158458
-0.015373123 0.043188367 -0.012506815 0.017971197 -0.06340813 0.007526809 -0.03794487 0.030351663
-0.026868887 0.0682887 -0.012532737 0.00011029377 -0.016522147 -0.056054447 0.019917145 0.012846864
-0.022630136 -0.047279205 -0.005711451 0.018223288 0.027301112 0.015844336 -0.027343145 0.019558204
0.0027413222 -0.024663862 0.0104255965 -0.032862596 0.033922616 0.028281791 0.024828166 0.032411452
0.058745768 -0.08304631 -0.009942442 -0.016917234 -0.033272095 -0.0491563 0.022923045 0.054870203
0.0068555432 0.003317523 -0.017081948 0.015031937 0.0018425043 -0.060290813 -0.06626089 0.018867653
0.0071087796 -0.0019028528 -0.019833298 0.0498007 -0.07983094 -0.08392471 0.0001707129 0.0395114
-0.035364933 0.011472087 0.003759389 -0.021907223 -0.04391564 -0.030357579 0.011043232 -0.007911234
-0.015294997 0.020205472 -0.022690697 0.033581875 0.0084275035 0.025316492 -0.00062214065 0.02549476
0.0024089576 -0.0030127787 0.03302554 0.016940098 0.023580695 0.037519544 0.0025204683 0.051297124
0.022393674 0.003311681 -0.016220968 -0.014524819 -0.030082626 -0.02079581 0.03196996 0.014945924
-0.045918763 0.032651592 0.00050387054 -0.027082043 -0.038725536 -0.01776803 0.010279704 0.07191605
-0.06295657 0.016566439 -0.038881514 0.00036652925 -0.0023526957 0.0037392415 -0.017144246 -0.019937713
-0.055611834 0.026540853 0.0041263546 -0.062079873 -0.00010588706 0.056847624 -0.045352925 0.05296239
0.040425763 0.021722835 -0.09215646 -0.0033890468 -0.01565974 0.0016006308 -0.049534276 -0.01710662
00000000: d0a2 723c 7e85 b4bd e00d 003d 4536 d1bd
00000010: d6de 4dbb 3a67 143d 578b 263d 8935 2a3a
00000020: a7c4 303d 9aa9 15bd c9b4 13bd e615 603c
00000030: 69de 3abc 5316 e13c 6a0e 29bd 2852 163d
00000040: 6695 dabc 19aa 6cbc 0245 4f3c 067c 553c
00000050: 2972 09bd eadd cfbc 1d8a 373c eae9 e93c
00000060: 27e2 11bd 254a 573c adc1 18bd 7b5f 39bb
00000070: 4cc2 4b3c 810a 2b3a fb40 c83c f21b 74bc
00000080: f4d5 623d e556 a13d d83b 4c3c 0725 db3c
00000090: aa12 caba 5416 cd3c 2424 b8bb f59d 163d
000000a0: 1ec5 7cbd 6218 15bd a9da 87bd ed80 eebc
000000b0: eba0 4a3c 0a4e 4f3c c518 adbb 57f8 b13d
000000c0: d496 313c 4366 cf3c b099 6e3b e9f2 1bbd
000000d0: bedf 0dbd f7a4 383c d458 a9bc 156d 063b
000000e0: b2c4 7e3d 1265 d83d 57fb 14bd 7dba 7c3b
000000f0: ccb6 c83b c4c9 0abd 0555 8bbd d3c1 6f3c
00000100: bcea 4bbc 41f0 5a3d 3a7a c13b 1028 16bd
00000110: 4fe8 423b 45e5 debb 794d fa3a 070a efba
00000120: ff40 c4bc fef2 b5bc a10e 0f3d 4ee7 663c
00000130: 185c 20bc d43a bd3b 2421 97bc 3bcc debc
00000140: 008f 2bbc 152a 1b3c 38a0 adbd 3a01 803d
00000150: a2e3 df3c d10f 933d bba8 c53a 5df0 33bc
00000160: f945 70bd 5ecf 853d f839 6c3d 4876 663d
00000170: d553 7ebd 4387 c7bc 4e27 7b3d 815e a9bc
00000180: 2446 08bd d3b0 ebb8 3bae 8dbd bd4a 623d
00000190: 8b2c 95bb e419 8c3c fbbe 323d 0635 f73c
000001a0: a595 b6bc 164b 3c3d 4590 313c 422a 8aba
000001b0: edeb d93b a13f 443d 632d 203c b98c dbbc
000001c0: c22d a1bc 3678 723c 877e 8fb9 6dd6 823d
000001d0: 5987 edbc 9d1c 8a3d 43ed 153d ea6b a63b
000001e0: bdc9 26ba 4c88 503c 37b0 8dbc f7e8 813c
000001f0: 9a18 a93d 2691 50bc 6fcf c0ba 5858 973d
00000200: 149b 95bc 1edc 00bc ba6a c439 ee92 623c
00000210: f6bc 963c e1b1 833c 9b3a e9bc 91ac e6bc
00000220: 8ddf 7bbc 49e6 303d 62e9 4cbc 5538 933c
00000230: 1fdc 81bd 73a3 f63b 146c 1bbd 0da4 f83c
00000240: 241c dcbc f2da 8b3d 1c56 4dbc 844d e738
00000250: 7459 87bc 5999 65bd 4829 a33c a77b 523c
00000260: d662 b9bc d7a7 41bd 2027 bbbb 0149 953c
00000270: 95a6 df3c fbcb 813c bbfe dfbc 8738 a03c
00000280: c1a7 333b de0b cabc 1fd0 2a3c ee9a 06bd
00000290: 71f2 0a3d 37af e73c 7064 cb3c dfc1 043d
000002a0: 679f 703d 2f14 aabd a0e5 22bc 0396 8abc
000002b0: 5248 08bd 1e58 49bd 1cc9 bb3c 94bf 603d
000002c0: 77a4 e03b cd6a 593b 71ef 8bbc 8348 763c
000002d0: 2f80 f13a 80f3 76bd cab3 87bd 5690 9a3c
000002e0: c4f0 e83b 2569 f9ba 7179 a2bc d2fb 4b3d
000002f0: 677e a3bd b8e0 abbd 6501 3339 b5d6 213d
00000300: d2da 10bd 6cf5 3b3c 1560 763b c776 b3bc
00000310: e3e0 33bd 75b0 f8bc acee 343c 1f9e 01bc
00000320: de97 7abc f285 a53c d7e1 b9bc 268d 093d
00000330: 8313 0a3c 8864 cf3c 2717 23ba 63da d03c
00000340: 9adf 1d3b 0a72 45bb ca45 073d f6c5 8a3c
00000350: 4d2c c13c 18ae 193d 712e 253b ef1c 523d
00000360: f072 b73c ca08 593b d6e1 84bc 82f9 6dbc
00000370: d76f f6bc f95b aabc eff2 023d c0df 743c
00000380: 5015 3cbd adbd 053d 2e16 043a 29db ddbc
00000390: ab9e 1ebd 428e 91bc 346c 283c b948 933d
000003a0: 60ef 80bd 57b6 873c 3942 1fbd b92a c039
000003b0: af2f 1abb 100e 753b 1772 8cbc 6a54 a3bc
000003c0: 3cc9 63bd 346c d93c 5f36 873b 7747 7ebd
000003d0: af0f deb8 0ed9 683d fdc3 39bd 17ef 583d
000003e0: 7c95 253d 16f4 b13c 87bc bcbd c51a 5ebb
000003f0: db48 80bc 42cc d13a 74e4 4abd 2f23 8cbc

net.0.bias f4 [32]
0.04686486 -0.0056428844 0.030271152 0.07330766 0.027343052 -0.028817426 0.045062687 -0.019781645
-0.06728381 -0.031074675 -0.04311801 0.03503896 0.027191505 -0.039362226 -0.006340799 -0.014088261
0.017800141 -0.013742867 0.040047146 -0.015200599 0.04105811 0.0062709306 0.012031825 0.009147538
-0.02403838 -0.04878607 0.047782592 -0.04399211 0.073781714 -0.0021655983 -0.043118685 -0.01768711
00000000: 5ef5 3f3d f2e7 b8bb 35fb f73c 5422 963d
00000010: 89fe df3c 8612 ecbc a793 383d 1e0d a2bc
00000020: 18cc 89bd 5190 febc 839c 30bd 0385 0f3d
00000030: b8c0 de3c 493a 21bd 7ac6 cfbb 73d2 66bc
00000040: 9ad1 913c c329 61bc 7a08 243d ef0b 79bc
00000050: 8c2c 283d 617c cd3b 2221 453c 8edf 153c
00000060: 23ec c4bc e7d3 47bd aeb7 433d 1231 34bd
00000070: de1a 973d b6ec 0dbb 389d 30bd 8fe4 90bc

net.2.module.0.weight f4 [32, 32, 3]
0.011910324 0.08175199 0.13107945 -0.036149226 -0.1232363 0.040022954 -0.011779094 -0.064817734
-0.0342065 -0.045814067 -0.07733121 -0.006047235 -0.049622465 0.08460051 0.006258697 -0.07861892
-0.0366246 0.029759115 0.117350765 0.028504588 -0.12904327 -0.08982333 0.03786599 0.085470006
0.03332295 0.10127609 0.022978067 0.03226988 -0.016418023 0.06976899 -0.11363028 -0.00065285695
0.008046067 -0.035658028 0.026888717 -0.033270303 0.089437895 0.10375267 0.14157264 0.078919694
0.069061466 0.017154127 0.032173716 0.12872617 0.067866094 0.08167404 0.0098258415 0.12249099
-0.087113194 0.07256515 -0.017743371 0.081934 0.08962737 0.09926494 -0.1447817 -0.06789157
0.0011179412 0.13315998 0.06580648 -0.1454397 0.058769915 0.074878395 -0.089403875 -0.0129485
-0.030322691 0.104201674 -0.050277904 -0.0119837485 -0.075321734 -0.116983674 0.007210344 0.07212499
0.05186214 -0.0464036 0.07543173 -0.03899057 0.06479789 0.07236084 0.061138973 -0.07371526
0.052828588 0.013212021 0.030600347 -0.042518128 0.14041653 0.08691265 -0.082246386 0.024103684
0.07407036 0.07604664 -0.033076115 -0.07283893 -0.14394628 -0.034135588 0.05324148 0.035577983
-0.06356969 0.15328702 0.18832132 0.14763351 0.109812215 0.17748676 -0.03864177 -0.08277916
0.0015098476 0.13174425 0.09544663 -0.10582026 0.0537881 -0.042939298 -0.08089766 0.09928581
-0.046397887 -0.105532624 -0.06592897 -0.07324228 -0.040105622 0.06824298 -0.08600843 -0.06256162
0.05010779 -0.07731787 0.090457894 0.044221688 0.07147363 -0.01260685 0.034089167 -0.100202896
0.0047252984 -0.07898773 -0.05975866 0.02863524 -0.06428635 -0.0045472947 0.034116033 -0.052293453
0.06609919 0.09637947 -0.05432322 -0.09958147 0.09391884 0.0831959 0.0052413773 -0.1380156
-0.037662502 0.00896835 0.07926531 -0.06553237 0.048735928 0.041612353 0.13622183 -0.016451836
0.06025968 -0.060614157 0.059675287 0.027756996 -0.00028221545 -0.03491157 0.008737541 -0.14197466
-0.009115658 0.04666875 -0.07832432 -0.1026877 -0.03569965 0.01183238 0.007454675 -0.039795864
-0.02487756 -0.052311514 0.11635963 0.06474257 0.012430067 0.004245498 0.036114287 0.11658641
0.14131473 -0.008495591 0.028080154 0.005578802 0.07060558 -0.07275022 -0.13354547 -0.018574521
0.08030771 -0.14848484 -0.07114362 -0.049591072 -0.014973404 -0.029624289 0.023765754 -0.06824796
0.0956775 0.057198517 0.006027662 -0.110531904 0.057583723 0.03921723 0.0060278648 -0.007886777
0.08092394 0.0943107 -0.033182308 -0.14421985 0.10796224 0.05457882 -0.16213061 0.025487518
-0.004698016 0.0685061 0.026430748 -0.06531762 0.06657338 -0.0728881 -0.035827152 -0.10458511
0.08714308 -0.109108955 -0.017581169 0.09353295 0.041670553 -0.032902736 -0.028393386 0.054003876
-0.0662903 0.08040237 0.017492276 0.03858897 -0.06412366 0.042547192 0.047657736 -0.084660076
0.046284582 0.094769575 -0.0044719093 0.0174097 0.0692884 -0.012359857 0.068448596 -0.13122265
0.014560563 0.0187409 -0.07649628 -0.051797442 0.058493193 0.08533471 0.085082024 0.096418165
-0.056745104 0.13859962 0.05463414 -0.09612205 0.17979601 -0.002757049 0.051564287 0.0335153
00000000: 8523 433c 966d a73d b139 063e 3611 14bd
00000010: 5063 fcbd 1cef 233d 1afd 40bc 29bf 84bd
00000020: 1d1c 0cbd 88a7 3bbd d35f 9ebd e227 c6bb
00000030: ed40 4bbd 0843 ad3d c115 cd3b f502 a1bd
00000040: ad03 16bd 63c9 f33c 9955 f03d 7482 e93c
00000050: eb23 04be 4bf5 b7bd 5e19 1b3d e60a af3d
00000060: a57d 083d d769 cf3d 803c bc3c 6c2d 043d
00000070: 177f 86bc 0be3 8e3d feb6 e8bd 7d24 2bba
00000080: a7d3 033c 270e 12bd ba45 dc3c 7146 08bd
00000090: 372b b73d 487c d43d 6bf8 103e a6a0 a13d
000000a0: 1970 8d3d d086 8c3c 96c8 033d cbd0 033e
000000b0: 61fd 8a3d b844 a73d 91fc 203c 8edc fa3d
000000c0: 6768 b2bd 0a9d 943d 8c5a 91bc 03cd a73d
000000d0: 8e8e b73d 6b4b cb3d a741 14be bc0a 8bbd
000000e0: e287 923a 175b 083e 8cc5 863d 25ee 14be
000000f0: b9b8 703d d859 993d 6119 b7bd f225 54bc
00000100: 4b67 f8bc b067 d53d 34f0 4dbd 7c57 44bc
00000110: 4842 9abd 2395 efbd c044 ec3b 44b6 933d
00000120: 656d 543d b411 3ebd f37b 9a3d 93b4 1fbd
00000130: c2b4 843d ec31 943d dc6c 7a3d 07f8 96bd
00000140: ca62 583d 3c77 583c 94ad fa3c 7d27 2ebd
00000150: 5ac9 0f3e 42ff b13d cb70 a8bd 1775 c53c
00000160: 33b2 973d 57be 9b3d d27a 07bd 942c 95bd
00000170: a766 13be c2d1 0bbd bd13 5a3d 38ba 113d
00000180: d330 82bd 46f7 1c3e 4ed7 403e 3d2d 173e
00000190: 3ae5 e03d 17bf 353e d546 1ebd 1f88 a9bd
000001a0: 14e6 c53a f7e7 063e 8679 c33d 4bb8 d8bd
000001b0: e950 5c3d 1ee1 2fbd acad a5bd 5c56 cb3d
000001c0: b60b 3ebd 7d21 d8bd c505 87bd 0c00 96bd
000001d0: cb45 24bd fac2 8b3d 3025 b0bd 4e20 80bd
000001e0: d33d 4d3d d558 9ebd fd41 b93d cd21 353d
000001f0: c460 923d f68c 4ebc 15a1 0b3d 2d37 cdbd
00000200: add6 9a3b 52c4 a1bd 7fc5 74bd 7394 ea3c
00000210: 90a8 83bd 7901 95bb 41bd 0b3d a931 56bd
00000220: 035f 873d 9962 c53d 0682 5ebd 5ff1 cbbd
00000230: 8558 c03d 9d62 aa3d dcbf ab3b f653 0dbe
00000240: ff43 1abd fcef 123c da55 a23d d635 86bd
00000250: 539f 473d b771 2a3d bc7d 0b3e 00c6 86bc
00000260: dbd2 763d 8d46 78bd 136e 743d a462 e33c
00000270: 51f6 93b9 6fff 0ebd e727 0f3c ce61 11be
00000280: d759 15bc bb27 3f3d 8068 a0bd ee4d d2bd
00000290: cc39 12bd 99dc 413c 5946 f43b fd00 23bd
000002a0: 06cc cbbc 9944 56bd f54d ee3d c197 843d
000002b0: 7ba7 4b3c d21d 8b3b 93ec 133d dbc4 ee3d
000002c0: cfb4 103e 1731 0bbc 5a08 e63c 62ce b63b
000002d0: a999 903d 11fe 94bd 25c0 08be 9829 98bc
000002e0: 5e78 a43d 690c 18be bfb3 91bd 0220 4bbd
000002f0: 0253 75bc a3ae f2bc 66b0 c23c 96c5 8bbd
00000300: 91f2 c33d fe48 6a3d b283 c53b 8d5e e2bd
00000310: e9dc 6b3d 3fa2 203d 6585 c53b 8a37 01bc
00000320: 73bb a53d f825 c13d 2cea 07bd 5eae 13be
00000330: 4f1b dd3d 0a8e 5f3d 9105 26be 33cb d03c
00000340: d1f1 99bb ed4c 8c3d 4c85 d83c 3fc5 85bd
00000350: a057 883d 5b46 95bd 7ebf 12bd b830 d6bd
00000360: 1278 b23d 8474 dfbd 6206 90bc 348e bf3d
00000370: beae 2a3d 05c5 06bd 3f99 e8bc 2b33 5d3d
00000380: 35c3 87bd ffa9 a43d f64b 8f3c 780f 1e3d
00000390: 4453 83bd f745 2e3d c234 433d 4362 adbd
000003a0: e794 3d3d 8d16 c23d 1889 92bb ca9e 8e3c
000003b0: 14e7 8d3d ff80 4abc c72e 8c3d 3b5f 06be
000003c0: 6d8f 6e3c 8486 993c 15aa 9cbd 8e29 54bd
000003d0: 8f96 6f3d f7c3 ae3d 7c3f ae3d e376 c53d
000003e0: 8e6d 68bd 0fed 0d3e 0cc8 5f3d a3db c4bd
000003f0: 721c 383e 9baf 34bb 1335 533d 5747 093d

net.2.module.0.bias f4 [32]
-0.020238101 0.009363934 0.04339263 0.04284822 0.031044444 0.03744048 -0.084833786 0.038253
-0.11316974 -0.105725355 0.06653716 0.04570058 0.102568254 -0.02423681 -0.022075154 0.008958839
0.054450717 -0.016594023 -0.073257424 -0.022436582 0.07268721 0.09022001 0.042526186 0.076441474
0.060844105 -0.036875136 0.061838657 -0.011169607 -0.01399436 -0.019597262 0.10598419 -0.028108232
00000000: 60ca a5bc 306b 193c 78bc 313d 9d81 2f3d
00000010: eb50 fe3c 305b 193d 56bd adbd 2daf 1c3d
00000020: 89c5 e7bd 8986 d8bd a244 883d 8830 3b3d
00000030: 4e0f d23d 468c c6bc f4d6 b4bc 18c8 123c
00000040: b707 5f3d 30f0 87bc fd07 96bd eccc b7bc
00000050: 08dd 943d 45c5 b83d f02f 2e3d 598d 9c3d
00000060: ab37 793d 620a 17bd 884a 7d3d ba00 37bc
00000070: 9a48 65bc 708a a0bc 3d0e d93d 3c43 e6bc

net.3.module.0.weight f4 [32, 32, 3]
-0.15111437 0.057641935 -0.062150944 -0.04169933 0.09338565 0.061137285 0.20966089 0.09263228
0.018522538 -0.07322165 0.058504395 0.020423219 0.012738109 -0.07222534 -0.016882803 -0.075190105
-0.037626836 0.119136386 0.048518203 -0.018821182 0.040447645 -0.002369546 -0.1407692 -0.1370939
0.061268106 -0.0877433 -0.05874711 -0.001002858 -0.14455982 -0.052780174 0.03860669 -0.07027363
0.0009973374 -0.028078718 -0.044249047 -0.055930085 0.047366727 0.047288198 -0.038148973 0.042004973
-0.03563877 -0.06259932 -0.03296831 -0.056234084 0.032228805 0.052415464 -0.057040162 0.08848469
0.044185545 0.04558139 0.06431295 -0.09575654 -0.045654584 -0.0821178 0.08389907 -0.024820523
-0.12020137 -0.0127458405 -0.0025531915 -0.079927 0.17338127 0.067476705 0.13698992 0.025671855
0.04921363 0.014460907 -0.115310214 0.028989695 -0.084607296 -0.04085359 0.05037652 0.066103406
-0.108450316 0.068670236 -0.01606265 0.020189075 -0.07635478 -0.07127299 0.14992899 -0.03094426
0.09243638 0.00748567 -0.045287356 -0.11308431 0.123817064 -0.059888948 -0.048607174 0.17123182
-0.036859505 0.051871225 0.06830669 -0.0019932955 -0.036698706 0.021815937 0.066096365 0.03747952
0.062081054 0.05868852 0.18414901 0.033730518 0.044209704 0.0373846 0.0012666 0.09102267
0.030517187 0.075080805 -0.092582755 -0.04026749 0.02648053 -0.03939551 0.08635738 -0.040676426
-0.046011362 -0.04036461 0.09448422 -0.034771025 -0.083171405 0.031951502 -0.07852561 -0.040858224
-0.002575124 -0.06750476 -0.09234012 0.01933032 -0.07172763 -0.054176897 0.01782039 -0.09017689
-0.013097689 0.10412794 0.101414435 -0.08007496 0.097270824 0.054530226 -0.07298042 -0.027728165
-0.0867667 0.09667126 0.03166702 -0.06900364 -0.04122729 0.01653867 -0.023845928 0.029458333
0.056671105 -0.020760262 0.11547141 -0.012784156 0.09068882 0.0005183046 -0.035568915 0.070671715
0.105553314 -0.12426868 -0.05708743 -0.06544622 -0.20040056 -0.046576988 0.04362069 0.12870717
-0.111215055 0.08171026 -0.0327726 0.04951885 0.106103 0.13245036 0.12611477 0.008192988
-0.029586714 -0.05167532 -0.013487825 -0.07757047 0.089488596 -0.0036655038 -0.07740854 0.09015618
-0.056712046 -0.034882914 0.10232056 0.06375903 -0.017591655 0.05533911 -0.05579945 -0.12880349
-0.011120569 0.06721648 0.05834692 -0.10889833 0.043372035 -0.013006413 0.10427661 -0.0012937101
0.15111263 0.07331858 -0.021945601 -0.10655396 0.069174826 -0.10756995 -0.09515769 -0.12259638
0.00773883 0.08376644 -0.065196805 -0.09367422 0.08958159 -0.11143304 -0.10612749 0.111426935
0.06331972 -0.09530178 0.0689813 -0.06383254 -0.032584067 0.098452754 0.044633675 -0.08706248
0.010115884 0.06420178 0.06818758 -0.10112114 -0.06454018 -0.079108976 0.045035876 -0.07317874
0.08848767 -0.02355839 0.021553503 0.051098466 0.0079459855 0.07700074 0.026365476 -0.12471085
0.014475799 -0.030090561 -0.0459999 -0.04351606 -0.02584711 -0.069049865 -0.07466136 -0.017142152
-0.07602029 -0.06787335 -0.054869775 -0.0242325 -0.033750158 0.044871524 -0.0062817824 -0.022992402
0.023132317 -0.020163512 0.009505854 0.096798085 0.0018845889 0.0669383 -0.16774264 0.0038557264
00000000: babd 1abe f319 6c3d fd91 7ebd ebcc 2abd
00000010: fa40 bf3d 176b 7a3d 58b1 563e feb5 bd3d
00000020: 94bc 973c 3cf5 95bd 4ea2 6f3d 984e a73c
00000030: 80b3 503c e1ea 93bd ce4d 8abc 45fd 99bd
00000040: 991e 1abd c7fd f33d 06bb 463d e12e 9abc
00000050: 6eac 253d 634a 1bbb cd25 10be 5862 0cbe
00000060: 44f4 7a3d c2b2 b3bd cfa0 70bd 5572 83ba
00000070: 7d07 14be 0630 58bd 0c22 1e3d 9feb 8fbd
00000080: 17b9 823a 5705 e6bc 7d3e 35bd f216 65bd
00000090: 9d03 423d 45b1 413d 1942 1cbd 680d 2c3d
000000a0: f5f9 11bd 1334 80bd c709 07bd b655 66bd
000000b0: 5a02 043d 99b1 563d f2a2 69bd 7637 b53d
000000c0: e7fb 343d 8db3 3a3d 82b6 833d 011c c4bd
000000d0: 4d00 3bbd 612d a8bd 47d3 ab3d 6954 cbbc
000000e0: 232c f6bd eed3 50bc 7253 27bb c4b0 a3bd
000000f0: dc8a 313e 3a31 8a3d 1647 0c3e c84d d23c
00000100: 3b94 493d 71ed 6c3c c327 ecbd cc7b ed3c
00000110: 9746 adbd 1856 27bd 9c57 4e3d 3961 873d
00000120: 331b debd fba2 8c3d d295 83bc 8f63 a53c
00000130: e55f 9cbd 93f7 91bd fc86 193e d17e fdbc
00000140: 494f bd3d 5a4a f53b 3c7f 39bd bf98 e7bd
00000150: cd93 fd3d 1d4e 75bd 5118 47bd 6557 2f3e
00000160: fef9 16bd ec76 543d 61e4 8b3d f3a1 02bb
00000170: 6251 16bd 56b7 b23c 885d 873d 2084 193d
00000180: b448 7e3d 6063 703d 8f91 3c3e 0329 0a3d
00000190: 3c15 353d 9820 193d 0b04 a63a 186a ba3d
000001a0: 2eff f93c f7c3 993d 079c bdbd 86ef 24bd
000001b0: b2ed d83c 305d 21bd 23dc b03d 539c 26bd
000001c0: 6976 3cbd 5c55 25bd f180 c13d 106c 0ebd
000001d0: c555 aabd 94df 023d 09d2 a0bd f45a 27bd
000001e0: 69c3 28bb f03f 8abd d11c bdbd 9f5a 9e3c
000001f0: f0e5 92bd 98e8 5dbd 11fc 913c a9ae b8bd
00000200: b097 56bc 0841 d53d 5fb2 cf3d 57fe a3bd
00000210: ed35 c73d 165b 5f3d c276 95bd 2d26 e3bc
00000220: bdb2 b1bd 95fb c53d 47b5 013d c851 8dbd
00000230: f2dd 28bd 1b7c 873c 8958 c3bc 9a52 f13c
00000240: f61f 683d 6d11 aabc 467c ec3d a374 51bc
00000250: 0fbb b93d d5de 073a b6b0 11bd 55bc 903d
00000260: 562c d83d 9480 febd 82d4 69bd ab08 86bd
00000270: ce35 4dbe 83c7 3ebd 9cab 323d d0cb 033e
00000280: b8c4 e3bd b557 a73d 903c 06bd 47d4 4a3d
00000290: 884c d93d 11a1 073e 3b24 013e e23b 063c
000002a0: d65f f2bc 80a9 53bd 0afc 5cbc 44dd 9ebd
000002b0: cc45 b73d f338 70bb 5e88 9ebd cea3 b83d
000002c0: e44a 68bd 63e1 0ebd 718d d13d 1894 823d
000002d0: 601c 90bc 43ab 623d f78d 64bd 10e5 03be
000002e0: 0c33 36bc cba8 893d 2efd 6e3d 1606 dfbd
000002f0: e0a6 313d da18 55bc fa8e d53d b591 a9ba
00000300: 45bd 1a3e 0d28 963d 43c7 b3bc f638 dabd
00000310: 88ab 8d3d a24d dcbd 09e2 c2bd d013 fbbd
00000320: 0396 fd3b bd8d ab3d e785 85bd 45d8 bfbd
00000330: 8d76 b73d 0137 e4bd 5f59 d9bd ce33 e43d
00000340: c5ad 813d 942d c3bd 1146 8d3d a2ba 82bd
00000350: df76 05bd 99a1 c93d cdd1 363d d04d b2bd
00000360: 18bd 253c 397c 833d eea5 8b3d 9a18 cfbd
00000370: a42d 84bd e303 a2bd 8a77 383d bcde 95bd
00000380: 0639 b53d 86fd c0bc f990 b03c a04c 513d
00000390: e12f 023c 90b2 9d3d 69fc d73c 6768 ffbd
000003a0: e72b 6d3c 7b80 f6bc 646a 3cbd e53d 32bd
000003b0: 52bd d3bc 046a 8dbd 0ee8 98bd b36d 8cbc
000003c0: 87b0 9bbd 2f01 8bbd 21bf 60bd 3c83 c6bc
000003d0: 9b3d 0abd 34cb 373d 69d7 cdbb 905a bcbc
000003e0: fc7f bd3c f32d a5bc 71be 1b3c 133e c63d
000003f0: 4f04 f73a f316 893d bac4 2bbe 5bb0 7c3b

net.3.module.0.bias f4 [32]
-0.07961182 0.06907073 0.0009953311 0.0050697983 -0.024783958 -0.032187004 -0.008822339 -0.088553704
0.07843506 -0.04680484 0.0122149475 0.055936363 -0.031710897 -0.034574132 -0.08043951 0.007580954
-0.0021708568 -0.031606823 0.08236437 0.06252995 -0.03212847 0.053532112 0.023579445 0.021935048
0.09669566 -0.023432069 0.028779708 0.014829196 -0.060368743 0.04369867 0.07176653 0.013108043
00000000: 860b a3bd f474 8d3d c575 823a 8d20 a63b
00000010: ba07 cbbc 85d6 03bd 928b 10bc a55b b5bd
00000020: 90a2 a03d 6fb6 3fbd 3421 483c 871d 653d
00000030: 49e3 01bd 9b9d 0dbd 78bd a4bd a769 f83b
00000040: ef44 0ebb 2876 01bd a7ae a83d b40f 803d
00000050: 2499 03bd 7d44 5b3d ae29 c13c 21b1 b33c
00000060: 6008 c63d 9cf4 bfbc 6cc3 eb3c 28f6 723c
00000070: 3745 77bd 60fd 323d 55fa 923d 1ec3 563c

net.4.module.0.weight f4 [32, 32, 3]
-0.0012670044 0.099991575 0.0081382 -0.11025471 0.055565353 -0.015384653 0.15999788 0.038893245
-0.09023259 -0.047432106 -0.0280103 -0.10536514 0.07206754 0.005314785 -0.054001287 0.0050549665
-0.02064038 -0.05032534 0.0044412874 0.0929866 -0.00691455 -0.036270067 -0.029051945 0.07610041
-0.0026261273 -0.039760537 0.07088882 0.06657221 0.07338741 -0.05474043 0.059937257 -0.039454464
0.050167985 -0.032296423 0.07636073 0.08404969 -0.082918875 0.0059623336 0.10752078 -0.10539843
0.02657792 -0.10126422 -0.09457722 0.077283986 -0.12818958 0.09660904 -0.071356565 0.11319794
-0.041297156 0.018020466 0.06689805 0.01148758 -0.03698722 0.00049021473 0.022556271 -0.06373
-0.037960574 0.015180934 -0.063696176 0.048565958 0.018946758 0.07786064 0.09559873 0.012632225
0.028060285 0.08127658 0.010697908 -0.109843634 0.08394883 -0.04394849 0.06372854 0.004095863
0.055375967 0.044415455 -0.03861473 0.09388688 0.02205209 -0.07857483 0.20991035 -0.044773966
-0.06217966 0.094214104 0.04827905 0.029434707 0.00771324 0.03269468 -0.059825543 0.13076085
-0.09350241 0.07454485 0.09606812 -0.01595178 -0.13094959 0.08584984 -0.052701704 -0.07312261
-0.05680673 0.011004574 0.03800619 0.049934763 0.004756459 0.078910656 -0.073223576 -0.060507197
-0.08047306 0.0009538551 0.06097142 -0.12154364 0.08714035 -0.037114903 0.014345465 -0.08118738
-0.06483028 0.02351591 -0.038066547 -0.1262775 0.048289087 -0.020200167 0.03436039 0.10026111
0.029030424 -0.037845213 0.09055079 0.09233399 0.06613381 0.085394815 -0.047846586 0.0030624454
0.08688353 -0.10771815 0.04165367 -0.011494135 0.07934588 -0.063299336 -0.013555794 -0.0026923066
0.0031708132 0.05445787 0.030772276 -0.048558783 0.10660069 -0.13169588 0.021821084 -0.09783119
0.01190087 -0.08632112 0.07559748 0.013434834 0.020845057 0.00574056 -0.018248355 -0.110139444
-0.033517268 -0.0021165565 0.14798532 0.11363559 -0.17039876 0.08610632 0.12622176 0.24629115
0.047234397 0.1546342 -0.0336688 0.0094986325 0.14936817 0.056316257 0.040542334 -0.070931755
-0.08064846 -0.08999175 -0.09439916 0.032918114 0.110739455 0.053494487 -0.103766516 -0.039641332
0.09140716 0.010453885 -0.03990922 -0.110955834 0.037754532 -0.009898388 -0.093035065 -0.1458983
-0.10095375 0.07493255 -0.07965043 -0.15617044 0.003939545 -0.02287884 -0.050500195 0.018974788
0.00760827 -0.06686882 0.0119948555 -0.014586817 -0.066580586 -0.11591727 0.056420416 -0.13001347
-0.018155525 -0.08612811 -0.022301288 -0.057989635 0.057153452 -0.1337461 -0.10575413 0.09827387
-0.017847845 0.038980976 -0.06633703 0.02483837 0.02540872 -0.022936946 -0.030838788 0.10449638
0.050470427 0.022814183 0.083124086 0.003213934 -0.06904049 -0.009720365 -0.06052286 0.034257635
0.03133853 -0.05821059 0.040620264 0.014493043 -0.11153612 0.0532856 -0.09548723 0.06514338
0.0397148 -0.0951547 0.1033591 -0.0016926388 -0.06284476 -0.10077481 0.043142423 -0.047489546
-0.004761936 0.018785706 0.12603776 -0.103365116 0.04123947 0.0799214 0.105291545 -0.109041676
0.01920578 0.11277594 -0.034965277 -0.049343083 0.067924716 0.018339088 -0.15543629 -0.13185596
00000000: 9d11 a6ba 62c8 cc3d 1656 053c 39cd e1bd
00000010: 7f98 633d e90f 7cbc 7cd6 233e 864e 1f3d
00000020: ddcb b8bd 2b48 42bd db75 e5bc aec9 d7bd
00000030: 2598 933d a627 ae3b 7430 5dbd 22a4 a53b
00000040: 0416 a9bc f221 4ebd 3888 913b c26f be3d
00000050: 7393 e2bb ec8f 14bd 58fe edbc 88da 9b3d
00000060: 1b1b 2cbb f2db 22bd 282e 913d 0357 883d
00000070: 234c 963d 8037 60bd c580 753d 019b 21bd
00000080: f27c 4d3d 4149 04bd 0463 9c3d 3e22 ac3d
00000090: 5fd1 a9bd ae5f c33b db33 dc3d 22db d7bd
000000a0: f0b9 d93c 9e63 cfbd b4b1 c1bd 1147 9e3d
000000b0: 2144 03be f6da c53d 6423 92bd 52d4 e73d
000000c0: 3527 29bd a89f 933c d801 893d 6736 3c3c
000000d0: e97f 17bd c181 003a eec7 b83c e084 82bd
000000e0: 8c7c 1bbd 74b9 783c 2473 82bd 19ed 463d
000000f0: 3b36 9b3c 6675 9f3d 44c9 c33d 64f7 4e3c
00000100: afde e53c 5674 a63d 4746 2f3c b3f5 e0bd
00000110: 5ded ab3d 5503 34bd 1c84 823d 9736 863b
00000120: e9d1 623d fbec 353d 7b2a 1ebd c447 c03d
00000130: 96a6 b43c d7eb a0bd bdf2 563e e864 37bd
00000140: 19b0 7ebd 53f3 c03d 41c0 453d 0e21 f13c
00000150: 59bf fc3b dbea 053d a10b 75bd 2ce6 053e
00000160: 317e bfbd f8aa 983d 5dbf c43d 4fad 82bc
00000170: a617 06be 0ad2 af3d bedd 57bd 4fc1 95bd
00000180: 2cae 68bd 874c 343c 61ac 1b3d 6588 4c3d
00000190: 12dc 9b3b e99b a13d 3ef6 95bd 65d6 77bd
000001a0: 0fcf a4bd 220c 7a3a 2bbd 793d dfeb f8bd
000001b0: a476 b23d cc05 18bd 3e09 6b3c 9245 a6bd
000001c0: bdc5 84bd 70a4 c03c abeb 1bbd e44e 01be
000001d0: c7ca 453d d27a a5bc 7bbd 0c3d b255 cd3d
000001e0: 36d1 ed3c 9503 1bbd b172 b93d 9a19 bd3d
000001f0: 2a71 873d 7ae3 ae3d c8fa 43bd 4fb3 483b
00000200: feef b13d 559b dcbd 0a9d 2a3d e551 3cbc
00000210: 1880 a23d 15a3 81bd 1f19 5ebc 6971 30bb
00000220: 6bcd 4f3b 370f 5f3d 2416 fc3c 93e5 46bd
00000230: 7651 da3d 49db 06be 21c2 b23c b85b c8bd
00000240: defb 423c 21c9 b0bd dad2 9a3d c71d 5c3c
00000250: 41c3 aa3c 4f1b bc3b 937d 95bc ca90 e1bd
00000260: 6749 09bd edb5 0abb 7789 173e c7b9 e83d
00000270: 037d 2ebe 8358 b03d 4740 013e bf33 7c3e
00000280: db78 413d 6d58 1e3e 4ce8 09bd 27a0 1b3c
00000290: f8f3 183e e0ab 663d b80f 263d ab44 91bd
000002a0: 052b a5bd 984d b8bd 5954 c1bd 25d5 063d
000002b0: 5ecb e23d 091d 5b3d 8a83 d4bd f35e 22bd
000002c0: ad33 bb3d c646 2b3c da77 23bd d03c e3bd
000002d0: 7fa4 1a3d d92c 22bc 2b89 bebd 5d66 15be
000002e0: d7c0 cebd 3d76 993d c41f a3bd 25eb 1fbe
000002f0: 4c17 813b 686c bbbc 4bd9 4ebd 0471 9b3c
00000300: cb4e f93b 85f2 88bd 1286 443c 8bfd 6ebc
00000310: 675b 88bd 0966 edbd 1819 673d 4022 05be
00000320: e5ba 94bc ef63 b0bd 31b1 b6bc 8a86 6dbd
00000330: bd19 6a3d bdf4 08be 9f95 d8bd d043 c93d
00000340: a535 92bc 84aa 1f3d b5db 87bd d679 cb3c
00000350: f325 d03c 43e6 bbbc a0a1 fcbc 3302 d63d
00000360: 14ba 4e3d cfe4 ba3c f63c aa3d dda0 523b
00000370: 1a65 8dbd 2a42 1fbc d2e6 77bd bc51 0c3d
00000380: d55c 003d 3a6e 6ebd 6f61 263d 3a74 6d3c
00000390: 0d6d e4bd 0042 5a3d cf8e c3bd e469 853d
000003a0: fcab 223d 78e0 c2bd f0ad d33d 89db ddba
000003b0: c1b4 80bd 0663 cebd 1cb6 303d 6684 42bd
000003c0: 040a 9cbb 7be4 993c 0b10 013e 17b1 d3bd
000003d0: b8ea 283d d5ad a33d 18a3 d73d 3e51 dfbd
000003e0: 7155 9d3c 12f7 e63d c037 0fbd f91b 4abd
000003f0: 1d1c 8b3d db3b 963c b12a 1fbe 4005 07be

net.4.module.0.bias f4 [32]
0.093382604 -0.061514974 -0.0830762 0.06653953 -0.05334807 0.015605859 0.029150592 0.10827735
-0.08830408 -0.0007603173 -0.015095728 0.04450303 -0.05144714 0.0737882 -0.010913241 -0.05385341
-0.041641444 0.04741411 -0.00477556 0.024047913 -0.061784282 -0.032751583 0.024530118 -0.06264331
0.010098842 -0.06304575 0.015982116 0.082735114 0.09759106 -0.051395446 0.074397184 -0.03548646
00000000: 613f bf3d 20f7 7bbd db23 aabd e145 883d
00000010: 8183 5abd b8af 7f3c 39cd ee3c 84c0 dd3d
00000020: c5d8 b4bd 0850 47ba 1354 77bc cf48 363d
00000030: 3cba 52bd 451e 973d 73cd 32bc 6595 5cbd
00000040: 3890 2abd 4c35 423d 4d7c 9cbb 2100 c53c
00000050: 8411 7dbd 8626 06bd 63f3 c83c 234b 80bd
00000060: 9d75 253c 211e 81bd edec 823c 0771 a93d
00000070: d2dd c73d 0884 52bd 8d5d 983d 405a 11bd

net.5.weight f4 [48, 32, 3]
0.028400235 -0.02778651 0.06917066 -0.09183805 0.0699891 -0.04902175 0.06805873 -0.01051165
0.047305953 -0.04661472 -0.0050781392 0.0073237047 0.09691552 0.041947603 -0.06418171 0.0047688396
0.0040433547 0.059415743 0.055819195 -0.11886364 0.027793596 -0.022120552 -0.05487684 0.07279856
0.020526528 -0.049304094 -0.0049058693 0.06659993 0.0028952549 0.043011606 0.07647232 -0.008196178
0.0869868 -0.067795716 -0.08461446 0.08506374 0.112234786 -0.031463142 0.015224306 -0.03631096
0.08377058 0.10515591 -0.02736841 0.050761025 -0.06191066 -0.036834247 0.061287396 0.0075860443
0.044519015 0.07347901 0.037297264 -0.0801649 -0.0030591388 -0.0057884357 0.032845322 0.07052173
-0.065022916 0.064661995 -0.062270027 -0.0639925 0.043909445 -0.10022194 0.052862283 0.03950904
-0.034451526 -0.07115876 -0.11099203 -0.06101722 0.047226857 -0.070531905 0.008785643 0.08799914
-0.16380017 0.08467313 -0.13229218 -0.07328342 -0.089533985 0.12068924 0.084281966 -0.027534403
-0.059360143 0.0003510861 -0.060663313 0.0822317 -0.061138287 0.063713714 -0.024818875 0.08243476
-0.01426848 0.01668672 -0.07607969 -0.044692174 -0.0637209 0.101216815 0.021989051 -0.041835222
-0.048085928 0.048307326 0.04000719 0.085459724 -0.085678466 -0.03263249 -0.057007648 0.0076371743
-0.017398972 0.11339157 -0.023295365 -0.059717286 -0.026391683 0.01728061 -0.0119902985 -0.025243271
0.046586547 -0.08088536 -0.045338325 0.05765268 -0.090724535 0.10706131 0.046572905 -0.120225534
-0.06816593 0.049547665 -0.089617 0.10400234 -0.04029935 0.019192794 -0.015015727 0.066092364
-0.044982556 -0.06345907 0.103538945 0.02289382 -0.003028583 -0.035141002 0.09801513 0.081863105
-0.022303876 0.19564618 0.030040327 -0.0017734885 0.009745429 0.03918603 0.014567573 0.025853837
-0.11926305 0.1420384 0.07875088 -0.00020148409 -0.055996187 0.06907798 -0.04169952 0.057036135
-0.04447161 0.058105074 0.06161782 -0.078681156 -0.027327655 0.08892936 0.0461858 -0.0089544915
0.04569324 0.034462325 -0.045977976 0.033904184 0.011253789 -0.13136853 0.035016872 -0.10567608
0.008563815 -0.09272038 -0.066553056 0.040886886 -0.058448408 0.1221966 0.09655361 -0.0060540857
0.015992267 0.018655315 0.057731614 0.012339365 0.073404066 0.020615216 0.02813044 0.074532814
-0.055659093 -0.05326932 -0.085185185 -0.01857779 0.018346358 -0.080997914 0.025004571 -0.049320713
-0.00847694 -0.032123927 0.03341653 0.010894409 0.087279424 -0.13149819 0.037196837 0.0003847386
-0.041559644 0.07965516 -0.081169784 -0.06343588 0.00692361 0.023860062 -0.05997914 0.044431318
0.04383356 -0.13025247 -0.0999702 0.07657349 -0.011500267 0.048504364 0.0541987 -0.03955854
0.0061951936 -0.08315635 0.06831321 -0.06121843 -0.049825467 0.08094508 -0.0180591 0.0009660491
0.13499124 0.05507592 0.038190547 0.046852585 0.022863101 0.124469474 -0.065774895 0.1612117
-0.0019287204 -0.0054979315 -0.08588462 0.040908124 0.10361922 -0.057241242 0.07334427 -0.0974328
0.046185408 -0.06146392 0.07546573 0.121011764 -0.029270222 -0.01384773 0.06823837 0.039277893
-0.101901874 -0.009838622 0.018313589 0.018404098 -0.034230836 0.09923498 -0.035099763 0.06349828
00000000: 9ca7 e83c 89a0 e3bc 59a9 8d3d 9615 bcbd
00000010: 7256 8f3d 08cb 48bd 6062 8b3d 0e39 2cbc
00000020: e3c3 413d 14ef 3ebd 8566 a6bb b0fb ef3b
00000030: a57b c63d 40d1 2b3d b371 83bd ed43 9c3b
00000040: 1e7e 843b ec5d 733d aba2 643d c86e f3bd
00000050: 65af e33c 2936 b5bc 8ac6 60bd 6917 953d
00000060: 4027 a83c 17f3 49bd 6ac1 a0bb 8b65 883d
00000070: 51be 3d3b f02c 303d 859d 9c3d 4349 06bc
00000080: 2326 b23d 7bd8 8abd 594a adbd e635 ae3d
00000090: 5adb e53d 7fdf 00bd 5e6f 793c cdba 14bd
000000a0: e98f ab3d fb5b d73d b733 e0bc cbea 4f3d
000000b0: 0896 7dbd 82df 16bd 7e08 7b3d 5a94 f83b
000000c0: 9259 363d 2a7c 963d 04c5 183d 7f2d a4bd
000000d0: d57b 48bb ebac bdbb d188 063d b26d 903d
000000e0: bc2a 85bd 826d 843d db0e 7fbd 800e 83bd
000000f0: 64da 333d 2941 cdbd 1f86 583d 3bd4 213d
00000100: 0b1d 0dbd afbb 91bd ca4f e3bd 31ed 79bd
00000110: f370 413d 0873 90bd a8f1 0f3c e538 b43d
00000120: 3bbb 27be 1b69 ad3d 9a77 07be 9e15 96bd
00000130: 985d b7bd ec2b f73d 069c ac3d d48f e1bc
00000140: 9f23 73bd fb11 b839 187a 78bd 1869 a83d
00000150: 246c 7abd 567c 823d f450 cbbc 8ed3 a83d
00000160: 58c6 69bc 97b2 883c abcf 9bbd 240f 37bd
00000170: 1a80 82bd c34a cf3d 6222 b43c 695b 2bbd
00000180: c0f5 44bd e7dd 453d 94de 233d 8205 af3d
00000190: 3178 afbd a5a9 05bd da80 69bd 4341 fa3b
000001a0: 4a88 8ebc d739 e83d ecd5 bebc 1d9a 74bd
000001b0: 5f33 d8bc 1190 8d3c f572 44bc faca cebc
000001c0: 89d1 3e3d 39a7 a5bd aeb4 39bd 3725 6c3d
000001d0: c9cd b9bd f642 db3d 3bc3 3e3d ce38 f6bd
000001e0: 949a 8bbd 7ef2 4a3d 1e89 b7bd 2eff d43d
000001f0: ee10 25bd 353a 9d3c 8604 76bc 6f5b 873d
00000200: a13f 38bd d4f6 81bd 3a0c d43d d28b bb3c
00000210: 317b 46bb 03f0 0fbd 28bc c83d d8a7 a73d
00000220: 9eb6 b6bc 7957 483e 2217 f63c 6674 e8ba
00000230: 4bab 1f3c 8881 203d d4ac 6e3c 6dcb d33c
00000240: 3040 f4bd 8472 113e 2448 a13d 7945 53b9
00000250: 425c 65bd c278 8d3d 1ecd 2abd b99e 693d
00000260: dd27 36bd 96ff 6d3d f862 7c3d 9623 a1bd
00000270: 3fde dfbc 9920 b63d 522d 3d3d dcb5 12bc
00000280: d628 3b3d 5e28 0d3d 6753 3cbd 1ddf 0a3d
00000290: d061 383c 7985 06be da6d 0f3d b36c d8bd
000002a0: 3e4f 0c3c 2fe4 bdbd f84c 88bd 0279 273d
000002b0: 9967 6fbd 3642 fa3d e6bd c53d 5a61 c6bb
000002c0: 3702 833c 08d3 983c fc77 6c3d 0c2b 4a3c
000002d0: df54 963d 3ee1 a83c cf71 e63c a9a4 983d
000002e0: cafa 63bd ee30 5abd 9275 aebd 7330 98bc
000002f0: 1a4b 963c 3ce2 a5bd 63d6 cc3c 8404 4abd
00000300: dde2 0abc 6194 03bd c5df 083d 777e 323c
00000310: 8ebf b23d 76a7 06be b65b 183d beb6 c939
00000320: 723a 2abd 3f22 a33d 583c a6bd acea 81bd
00000330: 73df e23b 2d76 c33c b0ac 75bd 9dfd 353d
00000340: d28a 333d e760 05be 2dbd ccbd 90d2 9c3d
00000350: 9e6b 3cbc 83ac 463d 75ff 5d3d 2308 22bd
00000360: 0d01 cb3b e04d aabd cce7 8b3d 2dc0 7abd
00000370: ca15 4cbd 89c6 a53d adf0 93bc 753e 7d3a
00000380: 253b 0a3e 4a97 613d b16d 1c3d 7fe8 3f3d
00000390: 664b bb3c dae9 fe3d fdb4 86bd ae14 253e
000003a0: 1ecd fcba fe27 b4bb 47e4 afbd 478f 273d
000003b0: 5036 d43d cb75 6abd 8535 963d d98a c7bd
000003c0: e92c 3d3d 97c1 7bbd c78d 9a3d 04d5 f73d
000003d0: 1bc8 efbc 97e1 62bc 8fc0 8b3d dbe1 203d
000003e0: eeb1 d0bd 2c32 21bc 6106 963c 31c4 963c
000003f0: a235 0cbd b63b cb3d c5c4 0fbd 630b 823d

net.5.bias f4 [48]
0.060572915 0.0013466397 -0.0039557717 -0.016763678 0.00027105404 0.0062631723 -0.03701677 -0.04247843
0.057878062 0.018334663 -0.019310968 0.07036774 0.004462742 -0.048904877 0.037317008 0.033704888
0.0031724914 0.029858446 0.0026172334 -0.021996262 -0.0014060789 -0.0023849064 0.05032268 0.06448152
0.06912836 -0.036784355 0.06895067 -0.054624893 0.06010998 0.034449074 -0.032142103 -0.039563056
0.064627334 -0.025874857 -0.06418592 0.04428838 0.017521603 0.05267208 -0.065866254 0.070190504
0.037719637 -0.06340476 -0.04867877 -0.04352085 0.048208896 -0.029940188 0.0666425 0.016721884
00000000: 4e1b 783d bb81 b03a 6b9f 81bb fb53 89bc
00000010: 421c 8e39 4c3b cd3b e69e 17bd ddfd 2dbd
00000020: 8c11 6d3d 9332 963c 0932 9ebc f61c 903d
00000030: 313c 923b 7b50 48bd b8d9 183d 230e 0a3d
00000040: 93e9 4f3b b399 f43c e485 2b3b 8131 b4bc
00000050: 2e4c b8ba 174c 1cbb 281f 4e3d e30e 843d
00000060: 2b93 8d3d 31ab 16bd 0236 8d3d 5abe 5fbd
00000070: e235 763d 791a 0d3d 70a7 03bd df0c 22bd
00000080: 565b 843d 82f7 d3bc e873 83bd bb67 353d
00000090: 7789 8f3c aebe 573d e3e4 86bd 0ac0 8f3d
000000a0: e87f 1a3d 5bda 81bd 6463 47bd eb42 32bd
000000b0: b176 453d 2045 f5bc dd7b 883d 55fc 883c

exp_avg f4 [32, 191, 2]
0.010177444 0.006366837 0.03279566 0.061573666 0.009403863 0.028333083 0.0412802 0.024532357
-0.018413506 -0.009836365 0.031564474 0.033611946 0.015880981 0.012607914 0.015427287 0.034571443
0.033191666 0.02399985 0.009669936 0.0030205369 0.0029894959 -0.004316968 0.07133013 0.010963074
0.04588086 0.024999715 0.004411749 -0.017593415 0.053602383 0.03935986 0.0705266 0.085692585
0.007831371 0.0037168318 0.006035975 -0.015412353 -0.023556208 -0.034537055 0.052728437 0.054756742
-0.005323804 -0.00502772 0.04020647 0.050872073 -0.014051461 -0.018623939 -0.053533074 -0.012525976
-0.077410646 -0.04093706 -0.027205078 -0.028359056 0.013764476 -0.011967945 0.006568494 0.016059007
-0.04194675 -0.03556893 0.025245583 0.047846172 -0.017228188 -0.030538043 0.033478823 0.062810466
0.005380342 0.015172367 0.06313009 0.026388818 -0.017663212 -0.02429851 0.00039378274 -0.026428204
-0.016044572 -0.03026627 0.0154352505 0.004925839 -0.004241041 0.017344002 0.0039065424 0.0007352817
0.0046262047 0.0049843662 0.015922602 -0.009875973 0.05222358 0.069078565 0.007826699 0.0004659629
-0.012833609 -0.005558073 0.028748183 0.00039646597 0.03689868 0.050617855 0.048176505 0.041714557
0.022127984 0.012825786 -0.0038143224 -0.014391101 0.04508493 0.06769557 0.037925873 0.06722947
0.07413135 0.074917346 -0.02089959 -0.003827333 0.062110595 0.060468055 0.052847125 0.041648224
-0.019598026 -0.015287937 0.05703962 0.052005764 0.061855435 0.05820804 0.033806745 0.053375416
0.010576131 0.014729906 0.03245611 0.0575257 0.028781066 0.02475323 0.033124086 -0.024850896
0.0055618626 -0.009977176 -0.008230676 0.018681675 -0.0054432084 0.002353962 -0.013669845 0.015761692
-0.018991448 -0.03093718 -0.017495003 -0.03232115 0.019232174 0.0110781025 -0.0039414354 -0.009209474
-0.019680168 -0.014824387 0.017439494 0.018020041 0.027231397 0.019315755 0.008153116 0.040954724
-0.016010903 -0.015030974 0.043675672 0.06882303 0.052696146 0.04655156 0.052075252 0.021290261
-0.026646718 -0.025965035 0.03791099 0.040062863 0.039060805 0.052723933 0.0624383 0.029240074
0.01843024 0.015134451 0.045348007 0.03235399 0.08035251 0.06895629 0.04209374 0.09921102
0.009674746 0.031873204 0.048057497 0.059679322 0.007128865 0.0029695106 0.061073657 0.09397036
0.09648578 0.0888812 0.019102637 0.022145065 0.0025741502 0.004843108 -0.032406606 -0.023782417
0.0073749265 0.024420133 0.033395387 -0.00038124825 0.018477537 0.009195184 -0.012700502 -0.01874926
0.10366846 0.054111063 -0.012539181 -0.013533811 -0.027582185 -0.0251625 0.040718075 -0.007729646
0.010600445 -0.020269617 0.008414315 0.0044110836 0.045902684 3.664949e-05 0.055009242 0.008773585
-0.008011732 -0.02959833 0.04761315 0.048592787 0.02676225 0.029593557 -0.016052678 -0.029248608
0.057767086 0.036991622 -0.0042485204 -0.01246536 0.023136683 -0.011205952 0.04092061 0.043666694
-0.019738115 -0.03184826 0.06034257 0.051286332 0.023833962 0.005452703 0.0066966224 0.0017717778
0.024750536 0.061586466 -0.04972783 -0.04244579 0.043194547 0.024266284 0.059302386 0.04580724
0.0115272375 -0.000828065 0.047822297 0.043711044 -0.013944618 -0.010942198 -0.012840826 -0.0031110686
00000000: 4bbf 263c e6a0 d03b be54 063d ab34 7c3d
00000010: a912 1a3c c81a e83c 6d15 293d 15f8 c83c
00000020: ecd7 96bc b428 21bc c049 013d aeac 093d
00000030: d518 823c 6d91 4e3c bbc2 7c3c c99a 0d3d
00000040: fcf3 073d 559b c43c a76e 1e3c 33f4 453b
00000050: 6beb 433b 5a75 8dbb 8815 923d 779e 333c
00000060: 92ed 3b3d 34cc cc3c 6f90 903b 1120 90bc
00000070: 2c8e 5b3d ce37 213d 4070 903d 987f af3d
00000080: 274f 003c 1796 733b 6ec9 c53b 1884 7cbc
00000090: f3f8 c0bc ba76 0dbd c6f9 573d 9b48 603d
000000a0: 4e73 aebb 92bf a4bb 8aaf 243d 3c5f 503d
000000b0: 1938 66bc 3b91 98bc 7f45 5bbd c039 4dbc
000000c0: 7989 9ebd 9ead 27bd 2fdd debc 4051 e8bc
000000d0: 6684 613c 3315 44bc 853c d73b 2e8e 833c
000000e0: 5bd0 2bbd bab0 11bd d3cf ce3c 59fa 433d
000000f0: 2122 8dbc eb2a fabc 1721 093d c6a2 803d
00000100: 944d b03b 8595 783c 594a 813d 5d2d d83c
00000110: 71b2 90bc ab0d c7bc a074 ce39 f67f d8bc
00000120: e86f 83bc f8f0 f7bc 22e4 7c3c ef68 a13b
00000130: 6ef8 8abb 0215 8e3c 7402 803b ebbf 403a
00000140: 6b97 973b e553 a33b 1e70 823c d5ce 21bc
00000150: 65e8 553d 1079 8d3d 8e3b 003c 7b4c f439
00000160: 0f44 52bc 7f20 b6bb 4f81 eb3c c3dc cf39
00000170: 1223 173d ab54 4f3d ba54 453d e2dc 2a3d
00000180: bf45 b53c 3f23 523c b6f9 79bb a7c8 6bbc
00000190: faaa 383d faa3 8a3d 2958 1b3d 9baf 893d
000001a0: 2dd2 973d 446e 993d 9e35 abbc fed3 7abb
000001b0: ae67 7e3d 5aad 773d 3a76 583d 5497 2a3d
000001c0: 0a8c a0bc 417a 7abc 60a2 693d ff03 553d
000001d0: 205c 7d3d 8e6b 6e3d f178 0a3d 2ea0 5a3d
000001e0: 8247 2d3c b455 713c b3f0 043d 12a0 6b3d
000001f0: 45c6 eb3c 49c7 ca3c 1fad 073d 1b94 cbbc
00000200: 4940 b63b 4f77 23bc f5d9 06bc 500a 993c
00000210: f15c b2bb ee44 1a3b 7cf7 5fbc aa1e 813c
00000220: f493 9bbc f86f fdbc ae51 8fbc 2f63 04bd
00000230: cb8c 9d3c ee80 353c 2827 81bb 55e3 16bc
00000240: 4e38 a1bc fce1 72bc 45dd 8e3c c49e 933c
00000250: 6114 df3c 133c 9e3c a694 053c 24c0 273d
00000260: 4c29 83bc 7944 76bc 43e5 323d 17f3 8c3d
00000270: ead7 573d d9ac 3e3d dc4c 553d ea68 ae3c
00000280: 384a dabc a0b4 d4bc 8e48 1b3d f518 243d
00000290: 39fe 1f3d 0df5 573d 4ebf 7f3d e188 ef3c
000002a0: 04fb 963c 7df6 773c d5be 393d 9e85 043d
000002b0: db8f a43d f538 8d3d 7c6a 2c3d 262f cb3d
000002c0: d382 1e3c 7a8d 023d f0d7 443d 4e72 743d
000002d0: 4199 e93b 1f9c 423b 5f28 7a3d 8873 c03d
000002e0: 569a c53d 5907 b63d 227d 9c3c 9169 b53c
000002f0: 13b3 283b efb2 9e3b cabc 04bd 58d3 c2bc
00000300: 5ea9 f13b bb0c c83c 9ac9 083d 46e2 c7b9
00000310: 345e 973c 66a7 163c c415 50bc 0c98 99bc
00000320: 2150 d43d 90a3 5d3d 2371 4dbc ebbc 5dbc
00000330: 09f4 e1bc 9621 cebc ffc7 263d f848 fdbb
00000340: 7dad 2d3c 780c a6bc 32dc 093c da8a 903b
00000350: 7404 3c3d 17b8 1938 5f51 613d 15bf 0f3c
00000360: a443 03bc 3278 f2bc 0206 433d 3b09 473d
00000370: 823c db3c 306e f23c e880 83bc c79a efbc
00000380: 2e9d 6c3d 8784 173d 2c37 8bbb 823b 4cbc
00000390: 2489 bd3c 2b99 37bc 5f9c 273d d9db 323d
000003a0: d4b1 a1bc 5273 02bd c529 773d 9e11 523d
000003b0: 713f c33c 97ac b23b 576f db3b ff3a e83a
000003c0: a3c1 ca3c 1742 7c3d 69af 4bbd a3db 2dbd
000003d0: c4ec 303d 16ca c63c 0fe7 723d 5fa0 3b3d
000003e0: bddc 3c3c 8012 59ba 50e1 433d 5a0a 333d
000003f0: f877 64bc e846 33bc 5462 52bc 12e3 4bbb

exp_avg_sq f4 [32, 191, 2]
0.0020615773 0.00219917 0.09804592 0.099385954 0.073050156 0.067207955 0.09559394 0.09990486
0.08585815 0.07786198 0.03817459 0.041167 0.058262486 0.060255505 0.06279092 0.06483381
0.04341417 0.04539434 0.05755007 0.06312513 0.082200415 0.08778646 0.1292137 0.122301415
0.049601767 0.052787922 0.07298404 0.07316604 0.08303171 0.09191392 0.12882066 0.12070644
0.014800855 0.0151796425 0.05858334 0.06302358 0.06560096 0.07281579 0.064318895 0.0648957
0.027782498 0.025578007 0.09491491 0.0901595 0.07480876 0.07598092 0.043161776 0.053983554
0.10644256 0.113377966 0.040670443 0.045945585 0.057024125 0.052575026 0.076168105 0.08004904
0.07941132 0.07700409 0.038284093 0.039889216 0.072932556 0.08364073 0.116660744 0.10779791
0.061943445 0.063980475 0.07096838 0.067576185 0.03405295 0.03680993 0.07465477 0.071790256
0.068539836 0.07341571 0.079101585 0.079621226 0.085565284 0.080714464 0.07050523 0.07166759
0.0760325 0.07941658 0.066475116 0.06875294 0.07494372 0.07442847 0.07470804 0.07610561
0.076786414 0.072355345 0.07241436 0.06985118 0.11766058 0.121710815 0.12586792 0.12275649
0.037755195 0.036164094 0.06965956 0.073790945 0.09082169 0.0944053 0.06869175 0.06601442
0.127742 0.12845834 0.055504955 0.060732078 0.057557374 0.06405654 0.06936852 0.06649753
0.078869976 0.08162162 0.08582297 0.079734765 0.09878501 0.09648685 0.09683172 0.103953235
0.07607973 0.082260184 0.06305358 0.06582881 0.04934846 0.048677694 0.119408354 0.12704186
0.06957885 0.07047146 0.11613155 0.12477031 0.12705919 0.118959464 0.07572606 0.0762543
0.10295811 0.10112443 0.10646751 0.10470995 0.09633977 0.089424066 0.06278806 0.060190864
0.043919917 0.045434143 0.045147765 0.04587311 0.09724671 0.0959205 0.083986096 0.0899014
0.08229271 0.08023081 0.09671761 0.099813215 0.09744759 0.10515416 0.07331635 0.074250065
0.076793544 0.07221015 0.07635437 0.07651066 0.06985025 0.07235193 0.11859841 0.11814497
0.045908704 0.04837832 0.08646313 0.0899119 0.07795278 0.07894774 0.080094144 0.085184336
0.10745907 0.11691997 0.057965424 0.058169376 0.0630101 0.07083179 0.12503618 0.1184848
0.04685038 0.050939117 0.039301112 0.042979747 0.05048231 0.044533946 0.07229528 0.095875286
0.12387837 0.12730768 0.113068104 0.11474164 0.11236275 0.10472755 0.065658025 0.06982927
0.09449942 0.08874519 0.16104232 0.1654225 0.12982604 0.12908153 0.13270067 0.12697423
0.0831679 0.08759558 0.07962317 0.07473456 0.11825524 0.12020419 0.12840222 0.12705378
0.098039016 0.09995762 0.10142059 0.09279555 0.061657734 0.061234247 0.068933465 0.06873123
0.12235143 0.09824694 0.1245905 0.11723708 0.081429526 0.08125942 0.119471245 0.10025314
0.10015349 0.095572144 0.19562583 0.19025098 0.10307975 0.097128645 0.08349398 0.08363817
0.11885644 0.10432514 0.12353509 0.12464353 0.08372139 0.08098452 0.1297183 0.10409135
0.04459828 0.045110587 0.08435317 0.067427196 0.08931696 0.081063755 0.05090182 0.054606043
00000000: 871b 073b f31f 103b 4dcc c83d dd8a cb3d
00000010: 529b 953d 53a4 893d c1c6 c33d eb9a cc3d
00000020: 66d6 af3d 1a76 9f3d f55c 1c3d ba9e 283d
00000030: a5a4 6e3d 7ace 763d 8798 803d 97c7 843d
00000040: 0fd3 313d 6aef 393d 9fb9 6b3d c047 813d
00000050: b158 a83d 63c9 b33d 9950 043e 2a79 fa3d
00000060: 392b 4b3d 2638 583d a878 953d 14d8 953d
00000070: 870c aa3d 5e3d bc3d 90e9 033e f034 f73d
00000080: 497f 723c 09b4 783c 16f5 6f3d 8212 813d
00000090: cc59 863d 7220 953d a0b9 833d 09e8 843d
000000a0: 1f98 e33c f888 d13c c062 c23d 8ba5 b83d
000000b0: 5635 993d e29b 9b3d 67ca 303d dc1d 5d3d
000000c0: 8ffe d93d b532 e83d 0d96 263d 7031 3c3d
000000d0: 2192 693d e958 573d 06fe 9b3d c0f0 a33d
000000e0: 67a2 a23d 52b4 9d3d c8cf 1c3d e062 233d
000000f0: aa5d 953d d54b ab3d d4eb ee3d 27c5 dc3d
00000100: 69b8 7d3d 3208 833d df57 913d 6265 8a3d
00000110: 1b7b 0b3d 02c6 163d 9ae4 983d c506 933d
00000120: 9d5e 8c3d fa5a 963d 0300 a23d 7410 a33d
00000130: da3c af3d a04d a53d 0c65 903d 75c6 923d
00000140: edb6 9b3d 29a5 a23d 1b24 883d 57ce 8c3d
00000150: 187c 993d f46d 983d 8700 993d 42dd 9b3d
00000160: 3242 9d3d 0a2f 943d fb4d 943d 230e 8f3d
00000170: 08f8 f03d 8543 f93d 85e3 003e c167 fb3d
00000180: 31a5 1a3d cd20 143d aca9 8e3d b51f 973d
00000190: b900 ba3d 9157 c13d 43ae 8c3d 9132 873d
000001a0: cdce 023e 958a 033e 2a59 633d 33c2 783d
000001b0: 48c1 6b3d 1330 833d 1511 8e3d db2f 883d
000001c0: 9586 a13d 3c29 a73d f4c3 af3d fb4b a33d
000001d0: cc4f ca3d e69a c53d b54f c63d 6fe5 d43d
000001e0: b1cf 9b3d 0778 a83d 3c22 813d 41d1 863d
000001f0: 9c21 4a3d 4362 473d 5e8c f43d 4317 023e
00000200: 5b7f 8e3d 5753 903d 61d6 ed3d 9487 ff3d
00000210: ce1b 023e 05a1 f33d 4416 9b3d 372b 9c3d
00000220: b4db d23d 531a cf3d a30b da3d 2c72 d63d
00000230: c94d c53d f723 b73d 0797 803d b28a 763d
00000240: 5fe5 333d 2719 3a3d ddec 383d 71e5 3b3d
00000250: 4829 c73d f871 c43d e700 ac3d 3a1e b83d
00000260: 1589 a83d 0d50 a43d e213 c63d df6a cc3d
00000270: 9a92 c73d 105b d73d e226 963d 6b10 983d
00000280: ef45 9d3d eae2 933d ae5f 9c3d 9fb1 9c3d
00000290: a60d 8f3d 402d 943d b9e3 f23d fdf5 f13d
000002a0: c40a 3c3d 5828 463d 9513 b13d bb23 b83d
000002b0: b5a5 9f3d 5aaf a13d 6608 a43d 2075 ae3d
000002c0: 8013 dc3d bd73 ef3d 276d 6d3d 0343 6e3d
000002d0: 700b 813d 4210 913d 7c09 003e 29a8 f23d
000002e0: 2fe6 3f3d 89a5 503d 34fa 203d 880b 303d
000002f0: 8ac6 4e3d 3a69 363d 8c0f 943d 435a c43d
00000300: f1b3 fd3d f25c 023e 4090 e73d aafd ea3d
00000310: 711e e63d 667b d63d b777 863d a602 8f3d
00000320: e988 c13d 0ac0 b53d 47e8 243e 8464 293e
00000330: 1ef1 043e f32d 043e afe2 073e 8805 023e
00000340: ef53 aa3d 5065 b33d 7911 a33d 6f0e 993d
00000350: ce2f f23d 9d2d f63d df7b 033e 631a 023e
00000360: aec8 c83d 95b6 cc3d 99b5 cf3d 980b be3d
00000370: d28c 7c3d c3d0 7a3d fd2c 8d3d f6c2 8c3d
00000380: 6393 fa3d b135 c93d 4e29 ff3d ff19 f03d
00000390: 86c4 a63d 576b a63d 57ad f43d 8551 cd3d
000003a0: 461d cd3d 54bb c33d 2352 483e 27d1 423e
000003b0: 7a1b d33d 62eb c63d e4fe aa3d 7d4a ab3d
000003c0: 016b f33d 6ba8 d53d f7ff fc3d 1b45 ff3d
000003d0: 1f76 ab3d 36db a53d e0d4 043e d92d d53d
000003e0: b0ac 363d e1c5 383d 5bc1 ac3d 4517 8a3d
000003f0: cfeb b63d c104 a63d 6d7e 503d 96aa 5f3d

exp_avg f4 [32]
0.1951593 0.06682 -0.01760437 -0.07463687 -0.13892862 -0.088953905 -0.07042193 -0.15601629
0.3125671 0.19496162 0.3214802 -0.42538944 -0.22559519 0.3962293 0.2655469 0.028246574
0.26624748 0.03682266 -0.12862442 0.14686325 0.041931983 -0.1104027 -0.24283141 -0.06441999
0.079935424 0.46962857 -0.00399499 -0.19156815 -0.088952504 0.12121676 0.34910378 0.19473931
00000000: d7d7 473e edd8 883d 0a37 90bc 37db 98bd
00000010: 4e43 0ebe 772d b6bd 5f39 90bd bcc2 1fbe
00000020: cc08 a03e 05a4 473e 0e99 a43e a5cc d9be
00000030: 6d02 67be 91de ca3e c3f5 873e 5c65 e73c
00000040: 9751 883e 5cd3 163d 1fb6 03be 5263 163e
00000050: dfc0 2b3d d01a e2bd cca8 78be a1ee 83bd
00000060: 2fb5 a33d 2873 f03e 68e8 82bb 712a 44be
00000070: bb2c b6bd 7e40 f83d bbbd b23e be69 473e

exp_avg_sq f4 [32]
1.2631725 0.74600464 0.45206967 0.37093708 0.5615289 0.4554335 1.1035764 0.8081342
0.9524187 0.7410945 0.9323665 1.2769212 1.1249985 1.066921 1.3204747 0.41295296
0.9168621 1.2903479 0.67332774 0.9093704 0.51720506 0.63914996 1.8109939 1.3058716
0.8747019 1.0817996 0.32900047 0.61840135 0.68896055 1.2269926 0.75477695 0.951595
00000000: a3af a13f 29fa 3e3f ad75 e73e 77eb bd3e
00000010: 5cc0 0f3f 942e e93e fe41 8d3f e2e1 4e3f
00000020: b6d1 733f 5fb8 3d3f 92af 6e3f 2772 a33f
00000030: f3ff 8f3f de90 883f 5105 a93f 926e d33e
00000040: 79b7 6a3f 1f2a a53f 355f 2c3f 80cc 683f
00000050: 8d67 043f 559f 233f a6ce e73f cd26 a73f
00000060: 77ec 5f3f 6978 8a3f c072 a83e 8d4f 1e3f
00000070: b85f 303f 180e 9d3f 1039 413f bb9b 733f
