saved_CEBRA_models/nitschke_20090812_20090819_20090910/CEBRA_models/temperature_0.0027_time_offsets_2_dataset1.pt (torch, 530690 bytes, 31 tensors)

net.0.weight f4 [32, 191, 2]
0.044353995 -0.035456855 0.02673304 -0.06406682 0.054871853 -0.023186224 -0.056849938 -0.076496474
-0.012419484 0.02759464 0.013579273 -0.018698594 -0.063655816 0.05665406 -0.024297524 -0.0043395595
-0.062405564 0.046300463 -0.015284778 0.012875206 0.025884219 -0.00699352 -0.0073627834 -0.010054641
-0.05508969 0.04975359 -0.04123151 0.037047494 -0.0143143535 0.08899062 -0.023620332 -0.02491359
-0.087231904 -0.07739673 -0.031556755 0.04324093 -0.052595295 -0.033787664 0.045043647 -0.029190274
0.033890303 -0.002834699 0.084359646 -2.2807391e-05 -0.026774298 -0.01520105 -0.119151175 0.010802741
-0.042844433 0.008163972 -0.042562537 -0.021324325 -0.02351927 0.06156109 0.042313755 0.020128114
-0.050367005 -0.0114576025 0.024784015 0.037947476 -0.036635183 0.08516852 0.0066668633 0.036645178
-0.011002228 -0.030707266 -0.03367925 -0.0062507554 -0.027538175 0.016729234 -0.055520974 0.04285693
0.033605296 0.0876285 -0.017471245 0.028698038 0.04334702 -0.016785765 -0.028512146 0.04254606
-0.050016664 0.0013970074 0.017076543 0.059740234 -0.016850121 0.06649268 -0.042206164 0.0066261776
-0.045422554 -0.023358569 0.054334864 0.0023163753 0.024632834 0.010382379 0.035527084 0.036621105
0.09780799 0.015146843 -0.034381434 -0.011810668 0.02431983 0.022051519 0.004963069 0.080992185
-0.03735265 0.052436564 -0.0638802 0.019089926 -0.009143078 0.033130173 0.02299294 -0.055083238
-0.022541853 -0.04559834 -0.022077266 -0.037409365 0.025581699 0.05367524 -0.04451037 -0.031068325
0.012499151 0.024594571 -0.06787415 0.0018284327 0.07502455 0.05496863 0.01347318 0.0064970762
-0.0020474864 0.016512418 0.11867944 0.058780987 -0.03362708 0.04247683 0.014238819 -0.0040966105
-0.047502045 0.02665675 0.03437654 0.025045753 -0.014663834 -0.014805942 0.042022683 0.0653865
-0.09147683 -0.04428953 0.05803574 0.040878847 0.00204408 0.06508668 0.02458716 0.011054116
0.0344548 -0.011270152 -0.06139997 0.09352448 0.030878877 -0.014836299 -0.00042250744 -0.0067007914
-0.0032416452 -0.020605613 -0.020592002 -0.0050223684 -0.03186256 0.041489486 0.02405667 -0.04953485
-0.11580112 -0.0033255985 0.02727598 0.0065207155 0.0307313 0.07941744 -0.04010764 -0.016340697
0.04548926 -0.018012607 -0.017244788 0.012351822 -0.024637066 0.0083198445 0.006979553 0.03439977
-0.010469748 -0.0020227055 -0.07362902 -0.0209499 -0.009631215 -0.0006508063 -0.08613626 0.027674759
0.005487573 0.058984578 0.009134383 -0.010842599 -0.0041376487 0.006587499 -0.020996276 -0.026483871
-0.028698701 -0.0096089225 -0.049067162 -0.0006892827 -0.049425688 0.016490325 0.0025501724 0.004285217
-0.0011284394 -0.0045408225 0.039247856 -0.006664138 -0.024845641 0.04964634 0.05324586 0.008465275
0.008579736 -0.01651916 0.017696252 0.027501682 0.009299516 -0.016498808 0.0020445285 -0.028880674
-0.034874495 -0.063114315 -0.019056212 -0.022143474 -0.06705995 -0.06863353 -0.04547025 -0.03869877
0.041105002 -0.0121056205 0.032502163 -0.006084656 0.036384456 -0.032709632 -0.046042934 -0.013171146
0.032947067 0.0002446025 -0.046451025 0.053246185 -0.020056913 0.071124025 0.04121729 -0.04842488
-0.0020762687 -0.0103890095 0.07465912 -0.03255646 -0.026695162 0.014952268 -0.0009910222 0.10805876
00000000: 89ac 353d 353b 11bd 40ff da3c 7735 83bd
00000010: 4fc1 603d 09f1 bdbc 7bdb 68bd 2faa 9cbd
00000020: 177b 4bbc 280e e23c 997b 5e3c cb2d 99bc
00000030: fb5d 82bd 160e 683d 9a0b c7bc dd32 8ebb
00000040: fa9c 7fbd 8ea5 3d3d 016d 7abc 87f2 523c
00000050: 240b d43c e629 e5bb 8143 f1bb 39bc 24bc
00000060: baa5 61bd 6cca 4b3d 5fe2 28bd 1dbf 173d
00000070: c086 6abc b740 b63d 6d7f c1bc 9617 ccbc
00000080: a4a6 b2bd 2d82 9ebd a841 01bd 671d 313d
00000090: 2a6e 57bd ef64 0abd b07f 383d 7120 efbc
000000a0: 8fd0 0a3d 5bc6 39bb c0c4 ac3d 8052 bfb7
000000b0: c655 dbbc d30d 79bc 8805 f4bd fbfd 303c
000000c0: a57d 2fbd 2ec2 053c 0e56 2ebd 5ab0 aebc
000000d0: 7cab c0bc 7b27 7c3d 3051 2d3d b7e3 a43c
000000e0: a24d 4ebd abb8 3bbc d907 cb3c d06e 1b3d
000000f0: c60e 16bd d56c ae3d b475 da3b 4119 163d
00000100: b042 34bc ce8d fbbc 41f3 09bd 23d3 ccbb
00000110: bd97 e1bc bf0b 893c f669 63bd c08a 2f3d
00000120: b5a5 093d 9276 b33d db1f 8fbc 2618 eb3c
00000130: a58c 313d 4d82 89bc 4e92 e9bc c744 2e3d
00000140: 46de 4cbd ca1b b73a 1be4 8b3c 2db2 743d
00000150: 4409 8abc 502d 883d 5fe0 2cbd 6820 d93b
00000160: 000d 3abd 785a bfbc 3c8e 5e3d 54ce 173b
00000170: ccca c93c db1a 2a3c d984 113d 0300 163d
00000180: 8e4f c83d 772a 783c 8cd3 0cbd 8881 41bc
00000190: 613a c73c 63a5 b43c 3ea1 a23b 3bdf a53d
000001a0: 18ff 18bd b9c7 563d 9fd3 82bd 7a62 9c3c
000001b0: d9cc 15bc 81b3 073d b15b bc3c f69e 61bd
000001c0: b1a9 b8bc 53c5 3abd 62db b4bc 903a 19bd
000001d0: b690 d13c 92da 5b3d 8150 36bd 0083 febc
000001e0: 3dc9 4c3c 8e7a c93c 9a01 8bbd 05a8 ef3a
000001f0: 79a6 993d c926 613d 9dbe 5c3c 6de5 d43b
00000200: 1f2f 06bb 0d45 873c 350e f33d 55c4 703d
00000210: 8dbc 09bd 2ffc 2d3d ef49 693c dc3c 86bb
00000220: 8191 42bd 425f da3c 6ace 0c3d c02c cd3c
00000230: 9440 70bc 9f94 72bc fa1f 2c3d 5be9 853d
00000240: 3458 bbbd f068 35bd e2b6 6d3d 9470 273d
00000250: f9f5 053b 2a4c 853d 036b c93c 531c 353c
00000260: 7a20 0d3d 72a6 38bc 897e 7bbd c389 bf3d
00000270: b3f5 fc3c f313 73bc fd83 ddb9 5092 dbbb
00000280: c871 54bb 1acd a8bc 8fb0 a8bc ae92 a4bb
00000290: 5182 02bd e1f0 293d 7e12 c53c 0ee5 4abd
000002a0: 2329 edbd 49f2 59bb e071 df3c baab d53b
000002b0: 35c0 fb3c 9ca5 a23d e947 24bd eddc 85bc
000002c0: f252 3a3d 2d8f 93bc f144 8dbc 4c5f 4a3c
000002d0: acd3 c9bc f54f 083c bcb4 e43b c6e6 0c3d
000002e0: 4e89 2bbc 5e8f 04bb d0ca 96bd 209f abbc
000002f0: 3ecc 1dbc df9a 2aba 3568 b0bd 2db6 e23c
00000300: 19d1 b33b d099 713d 61a8 153c 28a5 31bc
00000310: 1d95 87bb f2db d73b 6200 acbc b4f4 d8bc
00000320: 8a19 ebbc be6e 1dbc a6fa 48bd fbb0 34ba
00000330: 9772 4abd b816 873c cb20 273b 016b 8c3b
00000340: 25e8 93ba 2ecb 94bb 5cc2 203d d75e dabb
00000350: 1689 cbbc f659 4b3d 5518 5a3d f0b1 0a3c
00000360: 0592 0c3c 3053 87bc bbf7 903c 354b e13c
00000370: ff5c 183c 8228 87bc 7ffd 053b 2a97 ecbc
00000380: 8fd8 0ebd 1442 81bd c61b 9cbc 3b66 b5bc
00000390: ba56 89bd bc8f 8cbd 033f 3abd 9a82 1ebd
000003a0: b85d 283d a756 46bc fd20 053d cb61 c7bb
000003b0: de07 153d 89fa 05bd 8497 3cbd cacb 57bc
000003c0: 81f3 063d fe3d 8039 6e43 3ebd ac18 5a3d
000003d0: 654e a4bc 79a9 913d 76d3 283d 2b59 46bd
000003e0: 0212 08bb aa36 2abc e1e6 983d ec59 05bd
000003f0: d0af dabc 5cfa 743c 30e5 81ba e94d dd3d

net.0.bias f4 [32]
-0.023436075 -0.013582833 -0.011024571 -0.018163396 -0.0415729 0.022872804 0.024410898 -0.018650783
-0.009365268 0.034312163 -0.044870615 -0.049648456 0.0040339865 0.05601066 -0.06131299 0.006646117
0.050055884 -0.042952646 -0.049359936 -0.016715953 -0.021152988 -0.0529628 -0.04523341 -0.019654151
0.06208559 -0.00086733414 -0.008505638 -0.01823655 -0.045768254 0.027277468 -0.04301819 0.050527412
00000000: 03fd bfbc 888a 5ebc 67a0 34bc 67cb 94bc
00000010: 5848 2abd bf5f bb3c 5df9 c73c 87c9 98bc
00000020: c870 19bc e98a 0c3d 40ca 37bd 2e5c 4bbd
00000030: 882f 843b 6f6b 653d 5423 7bbd acc7 d93b
00000040: 6607 4d3d 1def 2fbd a52d 4abd e5ef 88bc
00000050: 0849 adbc 85ef 58bd ab46 39bd be01 a1bc
00000060: 764d 7e3d cf5d 63ba 3b5b 0bbc d164 95bc
00000070: 7e77 3bbd ff74 df3c d733 30bd d5f5 4e3d

net.2.module.0.weight f4 [32, 32, 3]
0.0032236027 0.0247312 -0.058096934 0.033422396 -0.11561122 0.037106656 0.067347825 0.11070413
0.01985996 -0.10441592 0.06723862 -0.0723675 -0.06689755 -0.07142846 -0.083941445 0.039722074
0.040921416 -0.028607145 0.00030930134 0.033472285 0.07509318 0.10082797 -0.038055878 -0.05694853
0.042843588 -0.089310534 0.16243474 0.00879697 0.07004693 -0.10712368 0.018347604 0.022612661
-0.06831675 0.09660324 -0.045497924 -0.15541537 0.12702478 -0.054673087 0.076298416 -0.029229427
0.12696214 -0.09778894 -0.0018261564 0.071017705 -0.14176372 -0.0042766496 -0.056562547 -0.07082253
0.090685554 -0.09522515 0.062766165 0.050076894 0.0407811 -0.064069614 -0.027129112 0.07328001
-0.06312509 0.052840833 -0.04486947 0.08810724 0.12157172 -0.05253446 0.006448275 -0.005045318
-0.08688142 -0.116885915 -0.07011286 -0.0032306914 -0.02006903 -0.08330888 0.057386134 -0.0033392138
0.1335162 0.0874928 0.050235976 -0.016830321 -0.076746866 -0.025152793 0.030517278 0.07469752
0.08596152 -0.031506896 -0.093006715 0.049392633 0.09973893 0.051377386 0.015151059 -0.00813183
-0.013243117 0.028281217 0.022241307 0.10290091 0.08512442 0.06018092 -0.08815175 0.05555992
0.078202955 -0.06005799 -0.100080445 -0.013241683 -0.09400158 -0.0069674207 -0.023653597 -0.031385224
-0.05458676 0.09085992 0.051506314 -0.081143744 0.11415596 -0.0809751 -0.018339654 -0.12207923
0.08214539 0.07111909 0.0070833196 -0.06296828 0.0730296 0.09013678 0.09972307 0.016644044
-0.056625206 -0.12378514 -0.03918143 -0.12845263 -0.1287254 -0.07290372 -0.044946108 0.02685488
-0.06668429 -0.029953726 -0.10291926 0.028332384 0.0714343 -0.079964325 0.011322861 0.05697574
-0.038669046 -0.003199615 -0.010545131 0.083720915 0.06650582 -0.064419724 0.0476786 0.0491978
0.024615414 -0.051574245 -0.12107551 0.014617095 0.019113073 -0.15011893 -0.014454305 -0.021960273
0.0032338856 -0.0065269433 0.025499474 -0.004172303 0.09623737 -0.022362545 -0.09347251 0.008812911
0.099895135 -0.045557875 -0.05530957 -0.051764563 0.09863188 0.060155943 -0.007539584 0.02884743
0.055873584 0.0359406 -0.008538841 -0.070073806 -0.012356527 -0.088121496 0.04259895 0.10504814
0.13634546 0.01829467 0.08044066 0.08521651 -0.05041181 -0.007269339 0.027113251 -0.00094900135
-0.090724744 0.049712714 0.040534496 -0.012030839 -0.06771963 -0.08430088 -0.06597324 -0.12527701
-0.13045797 -0.033136614 0.07959896 -0.15319738 -0.011696916 -0.020480596 -0.063416384 0.052609492
0.018782362 -0.047113672 -0.023380784 0.058757663 0.040893555 0.038884018 -0.051370353 0.044324875
-0.02310344 0.044858076 -0.0037173505 -0.0103667015 -0.06881072 -0.012053673 -0.07098723 -0.035357114
0.061318923 0.1447745 0.004691001 0.14752677 -0.0029982498 0.036536746 0.042625744 0.06541961
-0.010239436 0.0040917154 -0.08559613 -0.16074802 -0.07278787 -0.04228226 -0.016163655 -0.009219486
-0.06679217 -0.102717295 0.044073187 -0.02301921 0.1025302 -0.066430956 -0.08248542 0.105622575
0.07367947 -0.013427859 0.0007825212 -0.01469331 -0.050676502 -0.08344544 -0.11454824 0.021765403
0.043485995 0.095975734 -0.023381798 -0.010245639 -0.1336897 -0.038045086 0.031091997 -0.031274147
00000000: 1443 533b 1699 ca3c 0df7 6dbd ece5 083d
00000010: 93c5 ecbd 26fd 173d a8ed 893d d9b8 e23d
00000020: 5bb1 a23c 04d8 d5bd 67b4 893d 6935 94bd
00000030: 9501 89bd 1649 92bd 7ee9 abbd 9db3 223d
00000040: 379d 273d 8859 eabc b929 a239 3c1a 093d
00000050: 74ca 993d e57e ce3d 7be0 1bbd dd42 69bd
00000060: c27c 2f3d 71e8 b6bd 4b55 263e 2b21 103c
00000070: c474 8f3d a963 dbbd b74d 963c 303e b93c
00000080: a7e9 8bbd ebd7 c53d 085c 3abd 3525 1fbe
00000090: c912 023e e3f0 5fbd 5842 9c3d 8d72 efbc
000000a0: 5d02 023e 9145 c8bd a45b efba bb71 913d
000000b0: 822a 11be 2323 8cbb 21ae 67bd 670b 91bd
000000c0: 59b9 b93d 6705 c3bd 8c8b 803d 6e1d 4d3d
000000d0: 150a 273d ee36 83bd df3d debc d413 963d
000000e0: ba47 81bd a16f 583d 0dc9 37bd 9271 b43d
000000f0: 98fa f83d 602e 57bd 0d4c d33b 3253 a5bb
00000100: e3ee b1bd e261 efbd 5597 8fbd 02ba 53bb
00000110: ce67 a4bc d99d aabd b90d 6b3d b6d6 5abb
00000120: 79b8 083e 6d2f b33d 3dc4 4d3d bedf 89bc
00000130: 762d 9dbd 3b0d cebc 5fff f93c 03fb 983d
00000140: 980c b03d 600d 01bd 4e7a bebd ee4f 4a3d
00000150: ed43 cc3d 1871 523d 263c 783c 5e3b 05bc
00000160: a9f9 58bc 03ae e73c 6733 b63c b6bd d23d
00000170: b655 ae3d 4580 763d e888 b4bd cc92 633d
00000180: df28 a03d 5eff 75bd faf6 ccbd a5f3 58bc
00000190: e683 c0bd f64e e4bb 30c5 c1bc cb8d 00bd
000001a0: 5e96 5fbd c414 ba3d 49f8 523d b12e a6bd
000001b0: 9aca e93d 46d6 a5bd 0b3d 96bc ad04 fabd
000001c0: d83b a83d e3a6 913d 311b e83b 83f5 80bd
000001d0: 8b90 953d a299 b83d 9c3b cc3d 1759 883c
000001e0: d5ef 67bd 1083 fdbd b57c 20bd 1689 03be
000001f0: 97d0 03be 8c4e 95bd 6919 38bd c4fe db3c
00000200: c691 88bd 8461 f5bc 55c7 d2bd 5119 e83c
00000210: 254c 923d 56c4 a3bd 8583 393c 655f 693d
00000220: 6f63 1ebd a2b0 51bb 7cc5 2cbc df75 ab3d
00000230: 3434 883d 7dee 83bd a34a 433d a283 493d
00000240: 44a6 c93c 843f 53bd 70f6 f7bd 8a7c 6f3c
00000250: 0593 9c3c c7b8 19be c0d1 6cbc 08e6 b3bc
00000260: 99ef 533b f8df d5bb 46e4 d03c d0b7 88bb
00000270: 1918 c53d a831 b7bc 846e bfbd 0764 103c
00000280: d295 cc3d e59a 3abd 4a8c 62bd 1407 54bd
00000290: 83ff c93d 1466 763d 9d0e f7bb 7251 ec3c
000002a0: b3db 643d 7336 133d 7fe6 0bbc db82 8fbd
000002b0: 0873 4abc 0b79 b4bd 3d7c 2e3d 7b23 d73d
000002c0: 259e 0b3e b4de 953c 13be a43d fe85 ae3d
000002d0: 9d7c 4ebd a333 eebb 9c1c de3c 67c6 78ba
000002e0: e5cd b9bd 8f9f 4b3d 8007 263d ff1c 45bc
000002f0: 97b0 8abd f1a5 acbd fa1c 87bd 9e48 00be
00000300: c696 05be 42ba 07bd c804 a33d c6df 1cbe
00000310: 6ca4 3fbc ecc6 a7bc 73e0 81bd 0d7d 573d
00000320: 78dd 993c 44fa 40bd 0f89 bfbc e0ab 703d
00000330: 0080 273d d944 1f3d b869 52bd 008e 353d
00000340: 6d43 bdbc 1abd 373d cb9e 73bb 19d9 29bc
00000350: a3ec 8cbd c57c 45bc c161 91bd 9fd2 10bd
00000360: 8d29 7b3d c43f 143e f8b6 993b 4211 173e
00000370: 497e 44bb 8ea7 153d 5598 2e3d b7fa 853d
00000380: 4fc3 27bc cc13 863b 064d afbd 219b 24be
00000390: cf11 95bd 2a30 2dbd a469 84bc 540d 17bc
000003a0: 55ca 88bd 725d d2bd 1686 343d c892 bcbc
000003b0: 5afb d13d f40c 88bd 1eee a8bd a650 d83d
000003c0: 43e5 963d 8600 5cbc 1c22 4d3a 35bc 70bc
000003d0: 2a92 4fbd 71e5 aabd 4598 eabd 5c4d b23c
000003e0: 5f1e 323d ed8e c43d 2f8b bfbc 53dd 27bc
000003f0: f4e5 08be 2ad5 1bbd a5b4 fe3c 5219 00bd

net.2.module.0.bias f4 [32]
0.037723742 0.06910079 0.075877406 0.01462708 0.07815605 -0.08491025 -0.041848015 0.02881909
-0.0020668681 -0.034390178 0.007273138 0.050903928 0.07352533 -0.03520074 0.06462265 0.031928364
0.0035322162 0.048203412 0.047318 -0.01588694 -0.017162234 -0.027759181 -0.087724954 0.074033424
0.066404425 0.020262035 0.10517574 0.009717293 0.0652093 0.05521724 0.0834259 -0.04549107
00000000: 3684 1a3d b784 8d3d 9d65 9b3d 6ca6 6f3c
00000010: 4710 a03d 6de5 adbd d368 2bbd 0316 ec3c
00000020: 4b74 07bb b7dc 0cbd 8153 ee3b a380 503d
00000030: 7394 963d a72e 10bd e158 843d 51c7 023d
00000040: c17c 673b f170 453d 85d0 413d 5425 82bc
00000050: d097 8cbc 3967 e3bc 24a9 b3bd d69e 973d
00000060: 0bff 873d 91fc a53c 6166 d73d 4835 1f3c
00000070: 748c 853d 792b 623d 33db aa3d d854 3abd

net.3.module.0.weight f4 [32, 32, 3]
0.06676042 0.10769784 -0.10639061 0.01794076 0.05751594 -0.07411348 -0.06311026 -0.010693683
0.1613913 -0.027726993 -0.047135018 0.022820389 -0.18561698 -0.021723602 -0.049785115 -0.09295181
0.0940717 -0.13516007 -0.09759491 -0.09013619 -0.051318984 -0.01680699 -0.0016298621 0.011409181
0.08808297 -0.024999235 0.09073424 0.018730741 0.020646557 -0.14101909 0.11023265 -0.030901972
-0.08195287 0.03159203 -0.03773047 0.008499012 -0.028196745 0.07608629 -0.04219434 0.012792785
0.061868723 0.033256683 0.08274276 0.038163677 -0.16271412 0.057210926 0.09743154 0.071111165
-0.08826217 0.010892434 0.10229746 -0.049895555 -0.04105652 -0.09461745 -0.089403145 -0.10848154
0.068286635 -0.060712427 0.028359681 -0.055279274 -0.03354111 0.010376324 0.08470646 0.07780572
0.0946291 -0.058574453 -0.039196786 0.09132179 -0.04369352 -0.024975942 0.087005995 -0.07447244
-0.027187303 0.082590915 0.08716373 -0.05880484 0.06707806 -0.0922489 -0.0733792 0.075206324
0.032890186 -0.11907337 -0.03150471 -0.037054665 -0.100381516 0.008259355 -0.03634363 -0.13291797
-0.07542477 -0.021465763 0.1051907 -0.032396425 -0.12462053 -0.006652104 -0.0030707137 0.002428585
0.035927955 0.051916752 -0.10718555 -0.062087364 -0.024264686 0.012259524 0.036790192 0.038269043
0.1685652 0.017100891 0.12875527 -0.04875722 -0.0067212423 -0.056509662 0.034560554 -0.10614765
0.004556899 -0.027227648 0.03779014 0.017878234 0.13984162 -0.019790154 -0.04668844 -0.09149065
0.034916803 -0.034714576 0.012685784 -0.1499354 0.039480545 0.044174638 -0.1452192 0.035474796
-0.023002721 -0.08064013 0.093887374 -0.03826297 0.074043825 -0.10989144 0.043436904 0.016484506
0.03286421 -0.021619972 0.057329096 -0.07989009 0.07809097 -0.0560391 0.086990826 -0.003195706
0.08199229 -0.0734304 -0.013426044 0.025688052 -0.012548308 -0.037904654 0.027997348 0.013739067
0.03160726 -0.06231327 -0.032691818 -0.08202098 0.11591469 0.040993538 0.01164968 -0.11468768
0.019465597 -0.066517845 0.016560672 -0.08007971 0.070560865 0.029755967 0.0269703 -0.055336695
0.11929355 -0.055460095 -0.05249759 -0.08918944 -0.0012825441 0.04830428 0.10482567 -0.053177297
0.116115004 0.16522612 0.07352502 -0.10394507 0.06166057 -0.040071536 -0.08497399 0.033667512
-0.057494596 -0.025978075 -0.045927763 -0.08426272 0.10746647 -0.13042201 -0.00069990585 -0.20072497
0.047818236 -0.05530157 0.085397586 0.057017304 0.05254217 0.030408332 0.019421587 0.002174656
0.005029639 -0.027072659 -0.06198903 0.014080068 -0.06584001 -0.02473764 -0.05843427 -0.012614109
0.009368057 -0.06872532 0.07961619 0.0048283627 0.034393426 -0.02028508 -0.04429776 -0.057854507
-0.07000058 0.08604236 -0.117142856 0.011624809 0.08639014 0.11955694 0.019747615 0.06894901
-0.106924675 0.048410222 -0.065534644 0.032312743 -0.027733516 -0.029450785 0.038682707 -0.03863172
-0.020744227 -0.08380154 -0.026263177 -0.033878893 0.03492158 -0.103160985 0.107525624 0.12011016
-0.09704305 -0.09587712 0.041655112 -0.003807885 -0.022417603 -0.029336926 -0.10547488 0.1001004
0.002596552 -0.013167685 -0.0052321297 -0.074185416 -0.095350474 0.059835162 0.057867642 0.091047704
00000000: b0b9 883d af90 dc3d 52e3 d9bd 80f8 923c
00000010: d695 6b3d cfc8 97bd f43f 81bd 8f34 2fbc
00000020: c343 253e b823 e3bc a610 41bd d3f1 ba3c
00000030: 6112 3ebe b2f5 b1bc 7aeb 4bbd 855d bebd
00000040: aaa8 c03d 6767 0abe d7df c7bd 5399 b8bd
00000050: db33 52bd d0ae 89bc 19a1 d5ba 93ed 3a3c
00000060: d864 b43d 32cb ccbc e0d2 b93d 3671 993c
00000070: f822 a93c 4f67 10be a8c1 e13d 2226 fdbc
00000080: e8d6 a7bd a566 013d 448b 1abd 713f 0b3c
00000090: dcfc e6bc 21d3 9b3d f9d3 2cbd d498 513c
000000a0: 0f6a 7d3d 2938 083d 0975 a93d 8451 1c3d
000000b0: 889e 26be 0156 6a3d 308a c73d bba2 913d
000000c0: ccc2 b4bd 2e76 323c 5581 d13d 485f 4cbd
000000d0: e22a 28bd cbc6 c1bd ff18 b7bd 922b debd
000000e0: ddd9 8b3d 98ad 78bd 9052 e83c 856c 62bd
000000f0: 6762 09bd 7501 2a3c 957a ad3d 9b58 9f3d
00000100: e7cc c13d c4eb 6fbd cf8c 20bd eb06 bb3d
00000110: faf7 32bd 599a ccbc 3330 b23d 0285 98bd
00000120: e8b7 debc 6d25 a93d e682 b23d 58dd 70bd
00000130: 3960 893d feec bcbd d647 96bd c605 9a3d
00000140: dcb7 063d bddc f3bd 150b 01bd a2c6 17bd
00000150: d394 cdbd 3f52 073c 0fdd 14bd a61b 08be
00000160: 4d78 9abd f8d8 afbc 396e d73d 1db2 04bd
00000170: 0c39 ffbd e5f9 d9bb 073e 49bb e528 1f3b
00000180: 3129 133d a9a6 543d 1984 dbbd 524f 7ebd
00000190: bcc6 c6bc 2cdc 483c 50b1 163d 00c0 1c3d
000001a0: 5b9c 2c3e 2b17 8c3c 6cd8 033e a7b5 47bd
000001b0: de3d dcbb ad76 67bd 5e8f 0d3d f063 d9bd
000001c0: 0a52 953b 840c dfbc d5c9 1a3d 6075 923c
000001d0: a432 0f3e f61e a2bc 613c 3fbd 735f bbbd
000001e0: ec04 0f3d df30 0ebd 09d8 4f3c aa88 19be
000001f0: 5ab6 213d 77f0 343d 58b4 14be 054e 113d
00000200: 3470 bcbc a726 a5bd 0648 c03d a2b9 1cbd
00000210: 4aa4 973d c30e e1bd e5ea 313d 840a 873c
00000220: 9f9c 063d 5e1c b1bc ead1 6a3d 6a9d a3bd
00000230: 29ee 9f3d 4189 65bd 3f28 b23d 0d6f 51bb
00000240: 93eb a73d ad62 96bd e9f8 5bbc c06f d23c
00000250: 6b97 4dbc e941 1bbd b25a e53c d319 613c
00000260: 9d76 013d 333c 7fbd dbe7 05bd 9efa a7bd
00000270: ae64 ed3d d7e8 273d 4dde 3e3c 60e1 eabd
00000280: 5176 9f3c 823a 88bd 3faa 873c d500 a4bd
00000290: 3782 903d c9c2 f33c d2f0 dc3c bba8 62bd
000002a0: 2d50 f43d 202a 63bd b707 57bd f4a8 b6bd
000002b0: 0a1b a8ba b5da 453d d7ae d63d 70d0 59bd
000002c0: b4cd ed3d 0931 293e 4994 963d 27e1 d4bd
000002d0: cb8f 7c3d 0d22 24bd d806 aebd f2e6 093d
000002e0: 747f 6bbd f9cf d4bc c01e 3cbd ef91 acbd
000002f0: 6117 dc3d 598d 05be e379 37ba d98a 4dbe
00000300: 0edd 433d e683 62bd eee4 ae3d fa8a 693d
00000310: 7536 573d e51a f93c 051a 9f3c ac84 0e3b
00000320: accf a43b 7bc7 ddbc 36e8 7dbd 16b0 663c
00000330: 21d7 86bd 97a6 cabc c658 6fbd 68ab 4ebc
00000340: 7b7c 193c dcbf 8cbd d00d a33d 3e37 9e3b
00000350: 1fe0 0c3d e52c a6bc 9171 35bd d9f8 6cbd
00000360: 775c 8fbd fa36 b03d 98e8 efbd fc75 3e3c
00000370: 50ed b03d 45da f43d c0c5 a13c 2335 8d3d
00000380: 53fb dabd cc49 463d 0737 86bd 5e5a 043d
00000390: 6631 e3bc c642 f1bc c271 1e3d 4b3c 1ebd
000003a0: ccef a9bc 24a0 abbd e025 d7bc 98c4 0abd
000003b0: ee09 0f3d 1146 d3bd 6536 dc3d 51fc f53d
000003c0: 82be c6bd 395b c4bd 8d9e 2a3d b68d 79bb
000003d0: 1fa5 b7bc fe53 f0bc 3703 d8bd 7001 cd3d
000003e0: ea2a 2a3b 46bd 57bc 4972 abbb 86ee 97bd
000003f0: 1c47 c3bd b715 753d 9f06 6d3d 3877 ba3d

net.3.module.0.bias f4 [32]
-0.10311651 -0.049582276 -0.072032675 0.002186262 0.03525495 -0.09890709 -0.08080782 0.06560321
-0.08845924 0.07636635 -0.06747516 -0.06411013 0.060008217 -0.013843024 -0.08326833 0.09914618
0.045585018 0.07929695 0.03356061 -0.0075879316 0.07433403 -0.09674261 0.06757132 0.03660658
0.026352163 -0.096028455 -0.041071143 0.077088915 -0.033319913 0.0243956 -0.0756056 -0.07268483
00000000: c02e d3bd c916 4bbd de85 93bd 6447 0f3b
00000010: 7f67 103d cd8f cabd 927e a5bd fa5a 863d
00000020: 1e2a b5bd f665 9c3d 6b30 8abd 2c4c 83bd
00000030: 2dcb 753d dacd 62bc 9688 aabd 270d cb3d
00000040: 5bb7 3a3d 7066 a23d da76 093d 2fa4 f8bb
00000050: 713c 983d fd20 c6bd d562 8a3d c8f0 153d
00000060: 7ee0 d73c 91aa c4bd 373a 28bd cbe0 9d3d
00000070: 767a 08bd 48d9 c73c 1cd7 9abd c9db 94bd

net.4.module.0.weight f4 [32, 32, 3]
-0.12353245 0.055781286 -0.064940065 -0.06893863 0.050261594 -0.006794481 -0.02489031 0.017893322
0.0661571 -0.08004618 -0.10812815 -0.0719399 -0.056672074 0.007114315 0.010124346 -0.0964392
0.07634005 0.044099286 0.035183623 0.02647545 -0.03183 -0.10453398 -0.024485765 -0.08052251
0.023096107 -0.01430251 -0.12510519 0.015805757 0.09283483 -0.05504756 0.010488072 0.0824528
-0.08833117 -0.035928454 0.09210915 -0.11311088 0.1326214 -0.073094174 0.05727104 -0.036936432
0.052282065 -0.07601216 -0.05421426 0.033196207 -0.06531514 0.08856912 0.0026268468 0.038258523
0.017892092 -0.08610067 -0.10551944 0.0333249 -0.108975425 -0.055829123 0.064644925 -0.070593655
0.07516898 -0.11706495 -0.06227616 0.03739712 -0.045909975 -0.0704648 0.083015 0.042067755
0.034972053 -0.12876292 0.110059455 -0.002228234 0.02993009 0.0004980065 0.016031045 0.048344087
0.020492448 -0.06773623 0.16257925 -0.08546508 -0.040206045 0.067925915 0.10215667 0.030284919
0.079139136 -0.14686449 0.026939511 0.0571168 0.039573535 0.040443152 0.0061141443 -0.098112375
-0.057592586 0.038498744 0.061784446 -0.022218259 -0.053111244 0.083772376 0.08207664 -0.029758014
0.07053588 0.04609622 0.028457608 -0.046101213 -0.025365373 0.00559517 -0.040491164 0.039257694
0.007800292 -0.12537163 -0.1065422 -0.1252526 -0.068074174 0.055825584 -0.07360407 -0.08423774
-0.045738842 -0.000930411 -0.0138782775 0.12689187 0.011780772 -0.039226633 0.04488821 0.17335662
0.1640971 0.04766294 0.072760284 0.067518696 -0.055506084 0.022703506 -0.15828855 -0.10637102
-0.12145174 -0.059440006 -0.09327301 -0.15759693 0.008766671 -0.049637277 -0.11407453 0.16397387
0.09905241 0.20040375 -0.08561821 -0.09240917 -0.020658283 0.22758938 0.12402051 0.20948884
0.09814887 0.20544232 0.104777694 -0.10467194 -0.071840435 -0.0041643335 -0.11235416 -0.04240803
-0.12456743 -0.22171569 -0.12293992 -0.17241764 0.15810141 0.063989535 -0.10902315 0.0110017955
-0.03858318 -0.09418379 0.14518405 0.076952346 0.1536248 -0.0023464852 -0.028635891 0.014834605
0.08817234 0.028771581 0.06261385 -0.053933658 -0.0810063 -0.08232216 0.014844263 0.03075275
0.13121936 0.007570654 -0.031929657 0.028300673 0.14400187 -0.04695382 -0.08449 0.05273975
0.09072336 0.12267553 0.024162656 0.09323763 0.09868555 -0.085333556 0.11175073 -0.07895887
-0.024603782 0.097011 0.18068527 -0.027053302 0.11141378 -0.0050150305 0.19442157 0.12734315
-0.00812579 0.06463964 0.0124265 -0.08352198 0.03244267 -0.004835703 0.02280052 0.1838512
-0.024685806 -0.10976866 -0.10403006 0.06502812 -0.003972076 -0.02336481 -0.059420213 -0.1615697
-0.036081698 0.07228729 -0.13885473 -0.09138064 0.032558404 0.123470075 0.04975257 0.06524855
-0.06295954 -0.05767948 -0.04078052 -0.09646648 0.101757295 0.00083174324 0.08286709 -0.0805136
-0.08550739 -0.13542634 0.052123524 0.11356326 0.09539598 -0.088529944 0.043929886 -0.055327024
-0.0021442606 -0.06478723 -0.04544225 0.11670771 0.079752676 0.0382031 -0.022099638 0.07611369
-0.08694249 -0.0023336404 -0.10110086 -0.0060242717 0.04715241 0.102225035 0.14157842 0.020363158
00000000: 95fe fcbd eb7a 643d 4cff 84bd b22f 8dbd
00000010: 1adf 4d3d 3da4 debb c3e6 cbbc 0495 923c
00000020: 607d 873d 40ef a3bd 4b72 ddbd 3a55 93bd
00000030: fa20 68bd 331f e93b 96e0 253c ea81 c5bd
00000040: 2c58 9c3d 74a1 343d b41c 103d 0be3 d83c
00000050: 2d60 02bd e915 d6bd 5f96 c8bc fce8 a4bd
00000060: 0c34 bd3c 1355 6abc 931b 00be 137b 813c
00000070: 3020 be3d 8d79 61bd 2ad6 2b3c 03dd a83d
00000080: f9e6 b4bd b729 13bd b9a3 bc3d ada6 e7bd
00000090: e7cd 073e 66b2 95bd 0a95 6a3d a84a 17bd
000000a0: b825 563d 43ac 9bbd c60f 5ebd bff8 073d
000000b0: f2c3 85bd ba63 b53d 2d27 2c3b f8b4 1c3d
000000c0: 7092 923c 8c55 b0bd 931a d8bd b17f 083d
000000d0: 822e dfbd 14ad 64bd 8f64 843d 6893 90bd
000000e0: 32f2 993d c0bf efbd 4915 7fbd b92d 193d
000000f0: 190c 3cbd d94f 90bd c503 aa3d 3d4f 2c3d
00000100: db3e 0f3d 6dda 03be da66 e13d 9007 12bb
00000110: f32f f53c a78c 023a 8a53 833c 7304 463d
00000120: c7df a73c 4bb9 8abd 2d7b 263e 5108 afbd
00000130: 18af 24bd be1c 8b3d 8437 d13d 1418 f83c
00000140: b313 a23d a563 16be 40b0 dc3c 4ef3 693d
00000150: dc17 223d b8a7 253d 2959 c83b 24ef c8bd
00000160: 34e6 6bbd dcb0 1d3d b011 7d3d 1103 b6bc
00000170: 2d8b 59bd da90 ab3d cc17 a83d 14c7 f3bc
00000180: 1e75 903d 64cf 3c3d ee1f e93c a0d4 3cbd
00000190: 0bcb cfbc b057 b73b 10da 25bd adcc 203d
000001a0: 9899 ff3b 6c61 00be cc32 dabd 3842 00be
000001b0: 796a 8bbd 5ea9 643d bbbd 96bd d684 acbd
000001c0: a758 3bbd d3e6 73ba b761 63bc f1ef 013e
000001d0: 2404 413c 1bac 20bd b3dc 373d 6684 313e
000001e0: 1209 283e 373a 433d 5803 953d 3e47 8a3d
000001f0: 595a 63bd b4fc b93c 6516 22be 0dd9 d9bd
00000200: b1bb f8bd 5d77 73bd eb05 bfbd 1761 21be
00000210: 15a2 0f3c 7550 4bbd e89f e9bd c4e8 273e
00000220: fddb ca3d a436 4d3e 9a58 afbd 0541 bdbd
00000230: 8f3b a9bc 310d 693e 77fe fd3d 3e84 563e
00000240: 4602 c93d 795f 523e b095 d63d 3e5e d6bd
00000250: 1421 93bd f674 88bb f019 e6bd 0bb4 2dbd
00000260: 351d ffbd 7009 63be edc7 fbbd 408e 30be
00000270: 56e5 213e f20c 833d 8747 dfbd e040 343c
00000280: 6609 1ebd 6ee3 c0bd 21ab 143e 3199 9d3d
00000290: d24f 1d3e 7dc7 19bb d195 eabc d80c 733c
000002a0: b393 b43d 61b2 eb3c b13b 803d 8ae9 5cbd
000002b0: a2e6 a5bd 8598 a8bd 5a35 733c 31ed fb3c
000002c0: 5e5e 063e 4013 f83b acc8 02bd d0d6 e73c
000002d0: 3a75 133e a652 40bd 1809 adbd a305 583d
000002e0: 2bcd b93d 4f3d fb3d c3f0 c53c 5ff3 be3d
000002f0: a61b ca3d 5cc3 aebd 91dd e43d 30b5 a1bd
00000300: df8d c9bc b4ad c63d 8f05 393e e39e ddbc
00000310: e82c e43d 2055 a4bb 7316 473e 3e66 023e
00000320: 0922 05bc ca61 843d 8598 4b3c 920d abbd
00000330: 9be2 043d d174 9ebb 28c8 ba3c 7d43 3c3e
00000340: e339 cabc 64ce e0bd b60d d5bd 772d 853d
00000350: 3028 82bb 8f67 bfbc 9c62 73bd 8772 25be
00000360: 67ca 13bd 5c0b 943d ef2f 0ebe c625 bbbd
00000370: f65b 053d e1dd fc3d 5ac9 4b3d 08a1 853d
00000380: eef0 80bd 5241 6cbd 7909 27bd 3890 c5bd
00000390: 2166 d03d 5809 5a3a 39b6 a93d 50e4 a4bd
000003a0: 801e afbd 34ad 0abe 7a7f 553d db93 e83d
000003b0: f85e c33d 304f b5bd d3ef 333d 979e 62bd
000003c0: b986 0cbb 2baf 84bd a721 3abd 7404 ef3d
000003d0: 5f55 a33d db7a 1c3d 4d0a b5bc 7fe1 9b3d
000003e0: e70e b2bd fdef 18bb f80d cfbd 4167 c5bb
000003f0: e322 413d 5c5b d13d eff9 103e a3d0 a63c

net.4.module.0.bias f4 [32]
-0.015791062 -0.10760264 -0.026310796 0.09873628 -0.007647723 0.082864664 -0.057143982 0.0809008
0.1031814 0.063666396 -0.030500174 -0.08245095 -0.015330757 0.074576534 -0.058073968 0.067600936
-0.086691655 -0.05755131 -0.094743416 -0.09601845 0.074089974 0.023816934 -0.028975561 -0.0342534
-0.011386818 -0.036270157 -0.061291803 -0.0051114247 0.061702933 -0.10341307 -0.03967549 0.01515016
00000000: 425c 81bc c65e dcbd bd89 d7bc 3f36 ca3d
00000010: c099 fabb f3b4 a93d cf0f 6abd 52af a53d
00000020: c550 d33d 8763 823d 80db f9bc 0bdc a8bd
00000030: db2d 7bbc 95bb 983d f8de 6dbd 5c72 8a3d
00000040: 658b b1bd ecba 6bbd d608 c2bd 52a5 c4bd
00000050: 7cbc 973d bb1b c33c 285e edbc 4b4d 0cbd
00000060: c78f 3abc 0490 14bd 1d0d 7bbd bd7d a7bb
00000070: 37bc 7c3d 3bca d3bd c482 22bd 6038 783c

net.5.weight f4 [48, 32, 3]
-0.005615202 -0.018908396 -0.04052841 -0.020729152 0.07761264 0.022592407 -0.16484876 0.0936626
-0.03517494 0.043510787 -0.04177523 0.07654113 -0.061167646 0.0575763 0.11776661 0.003309974
-0.050090708 0.040348142 -0.02438358 0.014531338 -0.09124276 0.091892466 0.054770496 -0.030653039
0.024817634 -0.07875695 0.0032917403 0.04398066 -0.030621247 0.017871981 -0.19621593 0.13140456
-0.09753801 -0.039915238 -0.07088366 0.049487792 -0.060307086 -0.08350504 0.16657333 0.07324377
-0.05527156 -0.06943452 0.077488914 -0.053422816 0.06424265 0.06969207 -0.052980557 0.031645503
-0.08709138 -0.06367407 0.094468385 0.11386487 0.043792725 -0.15403679 0.06523109 -0.053583454
-0.004104974 -0.10790122 -0.0014741177 0.07977903 0.123551235 -0.12379538 -0.060085516 -0.10465789
0.0739561 0.0050525316 -0.0968106 0.07921559 0.08338693 0.01338927 -0.039797526 0.10079845
-0.089362 -0.07685493 -0.031098777 0.03305097 -0.014344065 -0.08144714 -0.103838176 0.058961257
-0.016255653 -0.08758168 0.09982363 -0.088518746 -0.10606029 0.10662264 -0.012836367 0.023043761
-0.09517569 -0.0013895839 -0.035929095 -0.03898258 0.0669222 0.0032650707 -0.06276619 -0.036229596
-0.010674665 0.011873199 -0.005376945 -0.09893799 -0.003347258 -0.0024724002 0.0035672998 -0.036096964
-0.029988017 -0.13592957 -0.036936168 -0.05566053 0.06512869 -0.10377494 0.13588366 0.04381537
0.05235846 -0.034000415 -0.018194832 -0.08659089 0.047665812 -0.042116534 0.09389869 -0.044845447
0.090181775 -0.06488905 -0.080817774 -0.0542051 0.036514312 0.02407569 0.102981925 -0.03772141
-0.053018868 -0.12264245 0.054509904 0.062292717 0.0015301935 0.00019919933 -0.06971263 -0.120030046
-0.110566884 0.0010157857 0.008523186 -0.0061512515 -0.03198202 -0.0579732 -0.044128332 0.049965616
-0.018110227 0.022244155 0.061505415 -0.028870229 0.053326547 -0.08175875 0.017827807 -0.05648419
0.014350767 0.0011844166 -0.0017562894 0.049864944 0.1036873 -0.09345073 0.003218187 -0.019665267
-0.004781527 -0.059810255 0.07801181 0.117275715 -0.020179983 -0.057262115 -0.055160753 -0.09621897
-0.11310538 0.05832054 -0.0713049 -0.12562335 0.09008747 0.08274792 0.035091218 0.059751943
0.075770564 -0.048543137 0.07584025 0.011897911 -0.01653154 -0.16098864 0.01686292 0.020712437
-0.12741067 0.022439163 -0.050903264 -0.029489042 0.026005104 -0.036543455 0.0058243247 -0.047954917
-0.11190021 0.043811556 0.11911569 0.0023239579 -0.083451144 0.118123606 -0.04601804 0.036929652
-0.028211016 0.11446018 0.036925998 -0.047148168 0.03879137 -0.03005135 0.05208825 -0.025374228
0.024822045 -0.07439482 -0.037007466 0.065044954 0.013443661 0.060330294 -0.008261681 0.03749145
0.0067818374 -0.07853386 -0.03749909 -0.13087046 0.074436575 -0.16153887 -0.06981658 -0.034591544
-0.049419872 0.11760485 -0.08758266 0.036337994 -0.045799784 0.047480177 -0.00855688 -0.16812783
0.051212065 -0.0464742 0.04153106 -0.09234528 -0.14087178 0.050473068 -0.07171617 -0.074720286
0.039627653 -0.011666871 -0.06813221 0.121945396 -0.018848555 -0.093996584 -0.108679935 0.032959033
-0.082022354 -0.13471834 -0.01524432 -0.021874424 -0.06688768 0.010568246 0.091526695 -0.080249816
00000000: baff b7bb c8e5 9abc 1e01 26bd 2fd0 a9bc
00000010: 60f3 9e3d b613 b93c 1dce 28be 2dd2 bf3d
00000020: 9913 10bd 5e38 323d 811c 2bbd 99c1 9c3d
00000030: ed8a 7abd 20d5 6b3d 9f2f f13d 26ec 583b
00000040: ea2b 4dbd 1844 253d 13c0 c7bc d914 6e3c
00000050: 7cdd babd 1e32 bc3d 0757 603d 151c fbbc
00000060: 5a4e cb3c 534b a1bd 3dba 573b 1125 343d
00000070: 69d9 fabc 4368 923c d4ec 48be eb8e 063e
00000080: 02c2 c7bd 297e 23bd 742b 91bd b6b3 4a3d
00000090: 9004 77bd b104 abbd 3392 2a3e d400 963d
000000a0: 6e64 62bd b033 8ebd 82b2 9e3d e2d1 5abd
000000b0: a791 833d b7ba 8e3d 2402 59bd b79e 013d
000000c0: f75c b2bd 8d67 82bd a478 c13d fc31 e93d
000000d0: 0060 333d d2bb 1dbe e197 853d 537a 5bbd
000000e0: 0583 86bb 51fb dcbd 2f37 c1ba 3063 a33d
000000f0: 6e08 fd3d 6f88 fdbd 3b1c 76bd e056 d6bd
00000100: 4c76 973d b58f a53b a344 c6bd c93b a23d
00000110: c4c6 aa3d ab5e 5b3c bb02 23bd 6b6f ce3d
00000120: 6d03 b7bd 1e66 9dbd ddc2 febc 7460 073d
00000130: 5f03 6bbc c2cd a6bd 1ca9 d4bd 5c81 713d
00000140: 932a 85bc 065e b3bd 5570 cc3d 5149 b5bd
00000150: 2336 d9bd f85c da3d a04f 52bc 45c6 bc3c
00000160: 79eb c2bd b322 b6ba 632a 13bd 33ac 1fbd
00000170: 820e 893d ccfa 553b 8f8b 80bd 7c65 14bd
00000180: cae4 2ebc ce87 423c 1531 b0bb 00a0 cabd
00000190: ac5d 5bbb fe07 22bb 5cc9 693b 69da 13bd
000001a0: 6ea9 f5bc 1f31 0bbe 614a 17bd 4cfc 63bd
000001b0: 3162 853d f587 d4bd 1625 0b3e bf77 333d
000001c0: d375 563d 0544 0bbd 540d 95bc 9156 b1bd
000001d0: 3a3d 433d 6382 2cbd f54d c03d dcaf 37bd
000001e0: 39b1 b83d 8de4 84bd ca83 a5bd 2b06 5ebd
000001f0: 0890 153d 623a c53c 30e8 d23d c481 1abd
00000200: 502a 59bd f72b fbbd c745 5f3d a626 7f3d
00000210: c690 c83a 2ae0 5039 7fc5 8ebd 50d2 f5bd
00000220: e470 e2bd 1d24 853a d5a4 0b3c 7090 c9bb
00000230: 94ff 02bd 4e75 6dbd e9bf 34bd bfa8 4c3d
00000240: e65b 94bc 6039 b63c 1aed 7b3d 4281 ecbc
00000250: f06c 5a3d 2271 a7bd 9f0b 923c f75b 67bd
00000260: 7b1f 6b3c 6d3e 9b3a 4b33 e6ba 2f3f 4c3d
00000270: 025a d43d 1963 bfbd 38e8 523b 0e19 a1bc
00000280: 5bae 9cbb 99fb 74bd a8c4 9f3d 402e f03d
00000290: 7e50 a5bc ae8b 6abd 3ef0 61bd 740e c5bd
000002a0: cba3 e7bd 85e1 6e3d 4e08 92bd 68a3 00be
000002b0: c87f b83d be77 a93d cfbb 0f3d 74be 743d
000002c0: 992d 9b3d 2bd5 46bd 2252 9b3d 75ef 423c
000002d0: 276d 87bc 35da 24be 1b24 8a3c 21ad a93c
000002e0: f177 02be 56d2 b73c f17f 50bd 0193 f1bc
000002f0: a808 d53c 97ae 15bd fad9 be3b 606c 44bd
00000300: f02b e5bd bf73 333d edf2 f33d 8b4d 183b
00000310: 6fe8 aabd caea f13d 6a7d 3cbd 8c43 173d
00000320: ca1a e7bc 196a ea3d b73f 173d 701e 41bd
00000330: b3e3 1e3d 402e f6bc 7d5a 553d 9ddd cfbc
00000340: 9a57 cb3c 505c 98bd 2495 17bd 4a36 853d
00000350: cd42 5c3c e61c 773d 005c 07bc a290 193d
00000360: 2d3a de3b 5cd6 a0bd a598 19bd e802 06be
00000370: 3472 983d 726a 25be fffb 8ebd ddaf 0dbd
00000380: 7e6c 4abd d0da f03d 8a5e b3bd 26d7 143d
00000390: 8e98 3bbd 937a 423d 2832 0cbc b429 2cbe
000003a0: bec3 513d bb5b 3ebd 791c 2a3d 861f bdbd
000003b0: b140 10be d9bc 4e3d eddf 92bd f306 99bd
000003c0: 9b50 223d 6726 3fbc e688 8bbd 82be f93d
000003d0: 4968 9abc 4881 c0bd 9693 debd 0d00 073d
000003e0: 56fb a7bd 9bf3 09be 50c3 79bc fe31 b3bc
000003f0: 68fc 88bd 7026 2d3c 5972 bb3d 045a a4bd

net.5.bias f4 [48]
-0.07992337 0.024356553 -0.034808878 0.06793433 0.010216205 0.04915566 -0.048827443 -0.07407384
-0.0012876423 0.0722379 -0.009418264 0.032059424 -0.034266084 0.021516021 0.0026243695 0.030299462
0.047933042 0.05867587 -0.09397689 -0.0116574 -0.01283586 0.04163773 -0.055581074 0.043100882
-0.038306866 0.06181554 0.007670711 0.044114392 0.08207922 -0.07330118 0.060410086 -0.0012357038
-0.03952095 -0.036518708 0.0065317904 -0.041428637 0.07105489 0.07429192 -0.09526289 0.0067848964
0.0857072 0.06924251 -0.0821148 0.056093644 0.049631122 -0.04238555 -0.0538144 -0.015944326
00000000: ddae a3bd 6587 c73c c193 0ebd 2721 8b3d
00000010: df61 273c 7257 493d 49ff 47bd 07b4 97bd
00000020: 1bc6 a8ba 77f1 933d 104f 1abc be50 033d
00000030: 985a 0cbd 5e42 b03c 9dfd 2b3b 9436 f83c
00000040: 7055 443d 1c56 703d f576 c0bd aefe 3ebc
00000050: 804d 52bc 538c 2a3d fba8 63bd 8d8a 303d
00000060: a9e7 1cbd 4b32 7d3d 965a fb3b 4bb1 343d
00000070: 2619 a83d ee1e 96bd 9170 773d 57f7 a1ba
00000080: b8e0 21bd a494 15bd a108 d63b 13b1 29bd
00000090: 3a85 913d 5d26 983d 3119 c3bd d653 de3b
000000a0: 4287 af3d 04cf 8d3d ce2b a8bd 73c2 653d
000000b0: 014a 4b3d 789c 2dbd 7d6c 5cbd ad9d 82bc

exp_avg f4 [32, 191, 2]
0.003888281 0.0051354067 -0.056205515 -0.08595417 0.010872386 -0.03131692 -0.058137763 -0.05700957
-0.018373566 -0.011909141 -0.03345885 -0.05266859 0.012495604 -0.031648558 -0.025968093 -0.004976903
-0.011921306 -0.027038792 -0.013087553 -0.024366658 -0.04417021 -0.060931694 -0.057718694 -0.07313111
-0.0032194012 0.0044064526 -0.07202226 -0.059728954 -0.06512161 -0.05281445 -0.10960323 -0.10724328
0.0032986642 0.008202291 -0.009148121 -0.034431353 -0.041818775 -0.050458033 -0.057969652 -0.0545802
-0.009134071 0.0018482838 -0.07038096 -0.06573393 -0.034424935 -0.019559762 -0.011032019 -0.058036104
0.022319589 0.030364161 -0.032964792 -0.037258103 -0.05549309 -0.049460635 -0.056551926 -0.043978505
-0.017952226 -0.008790368 0.0037300969 -0.012411458 0.038477283 -0.012281894 -0.06613911 -0.09537556
-0.0066968347 -0.022089675 -0.039396692 -0.03918912 0.0009194892 0.0062715015 -0.008753332 -0.056639787
-0.021222709 -0.020546827 -0.014762719 0.0041376553 -0.013716471 -0.013664452 -0.008038337 0.010004668
-0.058466084 -0.044074263 0.003916205 -0.010393993 -0.06683319 -0.0436579 -0.024289012 -0.009301653
0.011391852 0.030011946 0.017926537 0.027365267 -0.047758367 -0.027730813 -0.08290923 -0.08063818
-0.030153483 -0.034548577 0.036386758 0.017792175 -0.081314735 -0.08811797 -0.07452404 -0.038612593
-0.037927963 -0.08892155 -0.01534455 -0.019900996 -0.026280982 0.0007434539 -0.04880994 -0.020995323
-0.011227131 -0.020785054 -0.044015937 -0.020611456 -0.0050049014 -0.0190347 0.0060983608 0.021954741
-0.037443183 -0.09159693 0.030092493 0.06512361 -0.02745853 -0.06186518 0.01756412 0.012184561
0.008483773 -0.028718999 -0.09920376 -0.078966066 -0.042729527 -0.057612553 0.0017826743 -0.038357273
0.0348018 0.017741404 -0.103072226 -0.11342135 -0.013147195 -0.038126085 -0.026046313 -0.017523127
0.012399466 -0.0041495003 -0.020576637 -0.020082578 -0.04604143 -0.051195033 -0.04955361 -0.06873358
-0.06246902 -0.056172766 -0.0016972863 -0.010014014 0.019561747 0.004838049 -0.014303128 -0.017386055
-0.0473916 -0.05516256 -0.008876015 -0.024993716 -0.03889345 -0.050370757 -0.031297665 -0.05106135
-0.031572618 -0.021572787 -0.024233263 0.0056700953 -0.06698386 -0.03809248 -0.016357537 -0.020417085
0.015125706 -0.010708905 -0.037619736 -0.018272504 -0.028495017 -0.024147587 -0.06461338 -0.0349522
-0.005413063 0.009560491 0.009752139 0.02012059 0.01186692 0.007298186 -0.0149054015 -0.025733193
-0.06634427 -0.10147323 -0.03176692 -0.017501468 0.030619573 0.011456512 -0.0041378764 -0.027486663
-0.03913643 -0.071928024 0.05148065 0.03969193 -0.017044706 -0.04323213 -0.0404547 -0.03250028
-0.036206387 -0.0320431 0.011359803 -0.026138946 -0.012244203 -0.023884812 -0.06455259 -0.05346761
0.027080161 -0.0013562895 -0.071971975 -0.061453376 -0.024557773 -0.026632158 -0.027613144 -0.024355175
-0.07941735 -0.056598183 -0.09707656 -0.076150306 -0.033342503 -0.03069404 -0.046989895 -0.030523734
0.027378663 0.024359137 -0.061496425 -0.02361875 -0.059563424 -0.0732341 0.01728976 -0.025022237
-0.07482856 -0.078522526 -0.024577625 0.022989163 -0.11005912 -0.13098022 -0.059588403 -0.056996033
-0.036506236 -0.028611049 -0.1023874 -0.09581405 -0.050028145 -0.072312266 0.009818077 0.0010390655
00000000: 88d2 7e3b ea46 a83b c137 66bd bd08 b0bd
00000010: 1822 323c 2c46 00bd dd21 6ebd de82 69bd
00000020: 2984 96bc 8f1e 43bc 260c 09bd 05bb 57bd
00000030: 5dba 4c3c eba1 01bd 0abb d4bc 4a15 a3bb
00000040: 9551 43bc 7580 ddbc 2d6d 56bc 969c c7bc
00000050: d2eb 34bd 8393 79bd 706a 6cbd c3c5 95bd
00000060: 97fc 52bb 0164 903b 6880 93bd 59a6 74bd
00000070: 7b5e 85bd f753 58bd a977 e0bd 5da2 dbbd
00000080: 672e 583b e762 063c 00e2 15bc e407 0dbd
00000090: 2a4a 2bbd 15ad 4ebd 9671 6dbd 7d8f 5fbd
000000a0: 12a7 15bc 1d42 f23a e523 90bd 839f 86bd
000000b0: 2901 0dbd cb3b a0bc a4bf 34bc 44b7 6dbd
000000c0: 92d7 b63c 43be f83c 1706 07bd f49b 18bd
000000d0: b94c 63bd 3c97 4abd fea2 67bd ce22 34bd
000000e0: 8c10 93bc 7a05 10bc a474 743b 6e59 4bbc
000000f0: 5b9a 1d3d ff39 49bc f173 87bd 4354 c3bd
00000100: 1f71 dbbb 68f5 b4bc 6d5e 21bd c584 20bd
00000110: e009 713a 2b81 cd3b 236a 0fbc 1fff 67bd
00000120: 3fdb adbc d251 a8bc 55df 71bc 2b95 873b
00000130: 0dbb 60bc dee0 5fbc 3bb3 03bc 9eea 233c
00000140: 227a 6fbd 3787 34bd 8253 803b 914b 2abc
00000150: d7df 88bd a0d2 32bd c0f9 c6bc f665 18bc
00000160: e4a4 3a3c 9ddb f53c acda 923c 202d e03c
00000170: 479e 43bd bb2b e3bc 50cc a9bd a125 a5bd
00000180: 7004 f7bc cf82 0dbd 480a 153d e5c0 913c
00000190: 5788 a6bd 3277 b4bd 0fa0 98bd 3d28 1ebd
000001a0: 5a5a 1bbd 801c b6bd b567 7bbc 6a07 a3bc
000001b0: 374b d7bc 59e4 423a efec 47bd 62fe abbc
000001c0: 00f2 37bc 6b45 aabc 0e4a 34bd 5bd9 a8bc
000001d0: 2800 a4bb a9ee 9bbc c2d4 c73b 6eda b33c
000001e0: 065e 19bd 2c97 bbbd 8884 f63c 875f 853d
000001f0: b6f0 e0bc 5866 7dbd a1e2 8f3c c1a1 473c
00000200: 86ff 0a3c 1b44 ebbc 572b cbbd f6b8 a1bd
00000210: 2805 2fbd 24fb 6bbd a0a8 e93a 841c 1dbd
00000220: 558c 0e3d 6c56 913c 8817 d3bd 7449 e8bd
00000230: 5567 57bc 192a 1cbd 145f d5bc a98c 8fbc
00000240: 2127 4b3c 88f8 87bb 5690 a8bc 3884 a4bc
00000250: f095 3cbd e2b1 51bd baf8 4abd 31c4 8cbd
00000260: 84df 7fbd 6a15 66bd 7a77 deba d211 24bc
00000270: f53f a03c 7f88 9e3b ab57 6abc 336d 8ebc
00000280: b21d 42bd 23f2 61bd b56c 11bc 9fbf ccbc
00000290: bd4e 1fbd 9151 4ebd fb31 00bd b525 51bd
000002a0: 4a52 01bd 6ab9 b0bc d684 c6bc 35cc b93b
000002b0: d62e 89bd dc06 1cbd 3e00 86bc bb41 a7bc
000002c0: cfd1 773c 6774 2fbc 2717 1abd 38b0 95bc
000002d0: 626e e9bc 29d1 c5bc 0554 84bd 0a2a 0fbd
000002e0: 1060 b1bb 9ba3 1c3c 70c7 1f3c f0d3 a43c
000002f0: 786d 423c 9f25 ef3b c935 74bc 6bce d2bc
00000300: 81df 87bd 32d1 cfbd 081e 02bd 3d5f 8fbc
00000310: e6d5 fa3c 18b4 3b3c 0697 87bb b62b e1bc
00000320: 854d 20bd 004f 93bd 60dd 523d 0194 223d
00000330: 57a1 8bbc 2d14 31bd d4b3 25bd 031f 05bd
00000340: 264d 14bd a03f 03bd 781e 3a3c 5821 d6bc
00000350: e99b 48bc 15aa c3bc 2634 84bd da00 5bbd
00000360: 37d7 dd3c 86c5 b1ba 0b66 93bd 89b6 7bbd
00000370: 622d c9bc af2b dabc f634 e2bc 8184 c7bc
00000380: 90a5 a2bd 7fd3 67bd 13d0 c6bd b1f4 9bbd
00000390: 2692 08bd 1172 fbbc 7a78 40bd e90c fabc
000003a0: 3849 e03c d08c c73c ade3 7bbd 1c7c c1bc
000003b0: c7f8 73bd c3fb 95bd 41a3 8d3c 6ffb ccbc
000003c0: b73f 99bd 6bd0 a0bd 0457 c9bc c553 bc3c
000003d0: ad66 e1bd ae1f 06be f812 74bd ac74 69bd
000003e0: 9087 15bd b861 eabc 7cb0 d1bd 283a c4bd
000003f0: 50ea 4cbd 7418 94bd 00dc 203c 4131 883a

exp_avg_sq f4 [32, 191, 2]
0.0017701783 0.0018787616 0.083926834 0.086908 0.06652246 0.062244717 0.08064666 0.084948346
0.07545558 0.07144049 0.033030998 0.03625597 0.045978907 0.047993015 0.056716867 0.0584103
0.039131027 0.042090617 0.046636358 0.0502176 0.06771884 0.07294947 0.10567 0.099777326
0.04119981 0.045377154 0.06247738 0.06387894 0.07135275 0.079963505 0.110210665 0.10676853
0.012317748 0.013001557 0.048595134 0.053166687 0.05178632 0.057007927 0.058015697 0.059084907
0.026913995 0.02490007 0.08058985 0.077598915 0.065225355 0.067030035 0.035245683 0.045524392
0.0895625 0.097042896 0.034214746 0.03792932 0.054746933 0.05092008 0.06387928 0.068227075
0.063540794 0.06276077 0.033432417 0.03584631 0.06196406 0.072484925 0.09090785 0.08646128
0.05150606 0.053549822 0.060235493 0.05934027 0.029553914 0.03257613 0.060640726 0.06143382
0.057887297 0.06309906 0.068413764 0.071225606 0.0756926 0.07580538 0.058806997 0.06141472
0.06263634 0.06645339 0.05417195 0.056747314 0.059028663 0.059917193 0.06447866 0.069021165
0.06127186 0.058835495 0.059695043 0.058705743 0.096036285 0.101325035 0.10926764 0.108342595
0.033230938 0.032969844 0.056678675 0.060091324 0.067717984 0.07276504 0.06084161 0.05875506
0.10343762 0.107018664 0.045274362 0.052696783 0.045262665 0.05110199 0.05610777 0.055508606
0.06718459 0.07038169 0.06586004 0.062513284 0.08152477 0.080124244 0.07887212 0.0860273
0.06368104 0.07061935 0.048859913 0.055119395 0.040086564 0.041108612 0.09949698 0.10975077
0.057717655 0.058736324 0.098485656 0.10754201 0.1096723 0.10476228 0.063434474 0.06529227
0.081038825 0.08189204 0.08818702 0.08938698 0.082360536 0.07984288 0.056561902 0.054350443
0.03578478 0.038363367 0.03962844 0.04185918 0.083435744 0.08526743 0.07140363 0.077352844
0.0758716 0.07659749 0.07962079 0.08567798 0.07671628 0.08488526 0.061423898 0.06483168
0.062134825 0.061467856 0.061785553 0.065645576 0.059366025 0.062294863 0.09683459 0.09789591
0.036174033 0.04012141 0.068598114 0.07390114 0.05959415 0.06368446 0.06387149 0.068067186
0.088141195 0.10371453 0.049423106 0.04983304 0.05223929 0.059771046 0.095269285 0.09481024
0.039458454 0.044261497 0.03139733 0.036298323 0.04511541 0.04197244 0.05669026 0.078872934
0.101546474 0.10710945 0.09946134 0.10223851 0.097821094 0.09434111 0.055652052 0.0626091
0.083121 0.07901427 0.13150935 0.13633077 0.108603366 0.11036913 0.11289199 0.10989365
0.06588751 0.070190206 0.07209928 0.06865811 0.098132424 0.10344125 0.10841195 0.10545208
0.082113124 0.08817922 0.087459564 0.08348075 0.048291888 0.050774578 0.058219876 0.058465533
0.10036559 0.08338844 0.0991039 0.092090875 0.07208262 0.07381963 0.09653765 0.08575311
0.08227976 0.08303983 0.17123489 0.16778734 0.08373192 0.08093838 0.07255433 0.072119504
0.09417266 0.08841903 0.1025606 0.10534425 0.07119777 0.07004786 0.11234202 0.09280816
0.035732277 0.035732638 0.07205252 0.060169004 0.0745683 0.069990404 0.04654227 0.05213912
00000000: 5405 e83a c740 f63a d5e1 ab3d d2fc b13d
00000010: ed3c 883d 51f4 7e3d 132a a53d 66f9 ad3d
00000020: 7588 9a3d 644f 923d 834b 073d 2481 143d
00000030: 6154 3c3d 5394 443d f24f 683d a43f 6f3d
00000040: db47 203d 3667 2c3d c405 3f3d f8b0 4d3d
00000050: 2db0 8a3d 8866 953d 8369 d83d 0e58 cc3d
00000060: 22c1 283d 65dd 393d 48e8 7f3d f6d2 823d
00000070: 6421 923d e8c3 a33d 21b6 e13d 76a9 da3d
00000080: 61d0 493c 7c04 553c b10b 473d 50c5 593d
00000090: e41d 543d 2581 693d dea1 6d3d 0403 723d
000000a0: bd7a dc3c 3bfb cb3c 4b0c a53d 2eec 9e3d
000000b0: df94 853d 0b47 893d c75d 103d c977 3a3d
000000c0: 8b6c b73d 6dbe c63d c324 0c3d c65b 1b3d
000000d0: 523e 603d 9391 503d 24d3 823d a3ba 8b3d
000000e0: ad21 823d b888 803d 6ef0 083d 95d3 123d
000000f0: 07ce 7d3d fa72 943d e52d ba3d 9d12 b13d
00000100: 05f8 523d 0f57 5b3d 7eb9 763d c80e 733d
00000110: 0d1b f23c 8c6e 053d 6962 783d 07a2 7b3d
00000120: 3b1b 6d3d 143a 813d 841c 8c3d bbde 913d
00000130: b904 9b3d da3f 9b3d 9bdf 703d 008e 7b3d
00000140: 7b47 803d b718 883d 68e3 5d3d df6f 683d
00000150: 0ac8 713d bb6b 753d 630d 843d f85a 8d3d
00000160: 34f8 7a3d 7dfd 703d ca82 743d 6f75 703d
00000170: acae c43d 8083 cf3d b6c7 df3d b9e2 dd3d
00000180: 2a1d 083d 630b 073d e627 683d 5222 763d
00000190: baaf 8a3d d605 953d 0d35 793d 25a9 703d
000001a0: 1ad7 d33d 9a2c db3d 9c71 393d 95d8 573d
000001b0: 5865 393d 5250 513d 43d1 653d fe5c 633d
000001c0: 1398 893d 4724 903d a1e1 863d f706 803d
000001d0: 75f6 a63d 2e18 a43d b587 a13d 152f b03d
000001e0: 356b 823d e1a0 903d 5521 483d e0c4 613d
000001f0: cf31 243d 8161 283d 13c5 cb3d 03c5 e03d
00000200: 5969 6c3d 8095 703d d9b2 c93d fc3e dc3d
00000210: df9b e03d 9b8d d63d efe9 813d f4b7 853d
00000220: aff7 a53d 04b7 a73d 659b b43d 8510 b73d
00000230: a4ac a83d aa84 a33d 74ad 673d 929e 5e3d
00000240: 1093 123d e822 1d3d 6e51 223d 8874 2b3d
00000250: 5ce0 aa3d b1a0 ae3d 113c 923d 2b6b 9e3d
00000260: 9262 9b3d 25df 9c3d 3a10 a33d f077 af3d
00000270: 6d1d 9d3d 53d8 ad3d a097 7b3d 79c6 843d
00000280: 1681 7e3d b8c5 7b3d d912 7d3d 3071 863d
00000290: ca29 733d e628 7f3d 3751 c63d a77d c83d
000002a0: 392b 143d 5956 243d 2b7d 8c3d 7b59 973d
000002b0: ff18 743d 006d 823d 0ecf 823d cf66 8b3d
000002c0: 5f83 b43d 4968 d43d e26f 4a3d bb1d 4c3d
000002d0: def8 553d 7cd2 743d 8b1c c33d df2b c23d
000002e0: 309f 213d 8b4b 353d 7d9a 003d 8dad 143d
000002f0: f0ca 383d 4beb 2b3d 0c34 683d 2288 a13d
00000300: 99f7 cf3d 335c db3d 63b2 cb3d 6d62 d13d
00000310: 6d56 c83d e935 c13d 68f3 633d 3339 803d
00000320: 583b aa3d 3cd2 a13d 63aa 063e 4b9a 0b3e
00000330: 716b de3d 3609 e23d ea33 e73d ec0f e13d
00000340: 08f0 863d e2bf 8f3d caa8 933d a09c 8c3d
00000350: a7f9 c83d 02d9 d33d 1607 de3d 43f7 d73d
00000360: ed2a a83d 4f97 b43d 001e b33d f5f7 aa3d
00000370: b7cd 453d 01f9 4f3d f777 6e3d 8e79 6f3d
00000380: 798c cd3d 8fc7 aa3d fcf6 ca3d 249a bc3d
00000390: 0da0 933d bf2e 973d 88b5 c53d 549f af3d
000003a0: 4a82 a83d c910 aa3d 3358 2f3e 72d0 2b3e
000003b0: a47b ab3d 05c3 a53d 5d97 943d 64b3 933d
000003c0: 98dd c03d 0915 b53d 4b0b d23d babe d73d
000003d0: 23d0 913d 4175 8f3d 9313 e63d 3412 be3d
000003e0: 025c 123d 635c 123d 4690 933d c673 763d
000003f0: 44b7 983d 2157 8f3d 1ba3 3e3d d48f 553d

exp_avg f4 [32]
-0.12943915 -0.2226398 0.03595222 -0.09944162 -0.00023538577 -0.05709913 -0.1661615 0.018065711
0.39648548 0.29017776 0.07505657 0.10877783 0.16913071 -0.083268575 0.2709181 -0.08809512
0.055723414 0.11147849 -0.3317174 0.20996661 0.31084782 -0.0007020114 0.25198886 0.16630258
-0.17217112 0.09660506 0.106742404 -0.050322507 -0.2024646 -0.025747504 -0.15742022 -0.015423244
00000000: b28b 04be b0fb 63be a342 133d 0ca8 cbbd
00000010: e3d1 76b9 c7e0 69bd 3e26 2abe 8bfe 933c
00000020: 2500 cb3e 2e92 943e 42b7 993d e9c6 de3d
00000030: 9a30 2d3e b788 aabd c7b5 8a3e 376b b4bd
00000040: 3c3e 643d d64e e43d ddd6 a9be 7d01 573e
00000050: 7227 9f3e 3007 38ba af04 813e 394b 2a3e
00000060: a04d 30be e0d8 c53d c39b da3d f91e 4ebd
00000070: e152 4fbe 6eec d2bc c432 21be c6b1 7cbc

exp_avg_sq f4 [32]
1.1779432 1.2847317 0.65869576 0.9043287 0.87907034 1.0410753 1.0053431 0.75712055
0.90088224 0.652289 1.1310999 0.692635 0.982459 0.41574085 0.99147654 0.40869814
0.50943136 1.1966537 0.72579813 0.868827 0.6753727 1.3757813 1.0671889 0.96814984
0.8723184 1.1277405 0.3341675 0.46810696 1.0468694 0.92673373 0.78672606 0.4225048
00000000: d8c6 963f 1772 a43f 49a0 283f 1682 673f
00000010: c10a 613f f541 853f 15af 803f a7d2 413f
00000020: 38a0 663f 69fc 263f e2c7 903f 8750 313f
00000030: 6f82 7b3f fcdb d43e 68d1 7d3f e240 d13e
00000040: 186a 023f f32b 993f e8cd 393f 726b 5e3f
00000050: 3ae5 2c3f 9a19 b03f a599 883f abd8 773f
00000060: 4250 5f3f cd59 903f 0118 ab3e b7ab ef3e
00000070: d1ff 853f 6c3e 6d3f e166 493f 8d52 d83e
