saved_CEBRA_models/nitschke_20090812_20090819_20090910/CEBRA_models/temperature_0.0018333333333333335_time_offsets_2_dataset1.pt (torch, 531429 bytes, 31 tensors)

net.0.weight f4 [32, 191, 2]
00000000: e0e2 a4bd 9e92 c5bc 22a9 e5bc ecc3 e7bc
00000010: be00 5f3c e229 533c 1527 8a3d a18d 003b
00000020: 84b7 e9bc e706 833c a209 33bb c6f0 15bd
00000030: 632c 0fbd 5066 7e3d afbf babc 0a98 613d
00000040: 91f4 b93b 6d4f be3c d38e 90bd eefb 61bc
00000050: aed8 933c 336e 03bd 41a5 a63c 1845 e7b9
00000060: d34e a1bc 15b5 af3b b829 a4bb 841c 3d3d
00000070: 2885 70bb 6b0f 363c a723 fa3c 0718 9b3b
00000080: 77ab d3bc 6f57 91bd 4f17 4e3c 76f3 b3bc
00000090: 780b 82bc b4d3 a4bc d949 d1bc 9cf8 d03c
000000a0: 15a6 2b3c f13f 083d a578 113d 6ca8 09bd
000000b0: 2493 483d 6db6 66bd a10b 0fbc bff8 153d
000000c0: 94e3 313d 774f c83d 0595 cb3c 39c7 8fbd
000000d0: c92d 26bd 588d 763d 87b4 ffbc 51c8 18bd
000000e0: a1ef 023d 9583 473d c1d8 68bc cd29 373d
000000f0: 74d5 9fbd 7526 20bd 7bc5 13bc 8044 fcbc
00000100: e25b fa3c 0159 333d a889 fa3c b744 023c
00000110: 4e18 babc c7d3 62bc 64a0 46ba 5041 d7bc
00000120: 354a 44bc 6bd4 7b3c 89b9 873c d40d 653b
00000130: 38fe 14bd 63ea e43c 82ec 553d 242c 1c3d
00000140: 1725 8c3d ea45 2c3d 916c 9fbc b7f3 1bbd
00000150: 8f3e c43b 513b c23c 03bf 803c dd3f 9a3d
00000160: 389e 9ebc ab3b 42bd 06e7 53bc 4452 3dbc
00000170: 1665 c63c 59ba 3ebc be99 c2bc a949 c4bc
00000180: 9d35 e93c 5e79 853c 9b05 d7bc 5d07 463d
00000190: 8223 0bbd a477 91bc 3f17 233d f645 1c3d
000001a0: 3281 4e3d 20f4 143c a303 8c3d c374 243d
000001b0: 4298 9fbc b08f 25bc 9681 5d3d e6ea f33b
000001c0: db91 d0bc 525b 90bd 9f78 49bd 8ca9 77bc
000001d0: 66e8 813d 67ac 1a3c 4453 07bd d01b 623d
000001e0: 228d a4bc 06c5 22bd 29fe 743c b755 4d3d
000001f0: c09c 1fbc d697 7bbb 18ae 443a dd7f 893d
00000200: e605 0cbd 0c63 e2bc 9701 143d 78ae d1bb
00000210: 6d63 2d3d ec28 16bb a993 18bd 7005 13bd
00000220: f442 213d 7f59 5cbd b779 e2bb c0b1 363c
00000230: 3726 9f3c c496 163a cf7c 583d 5824 c33c
00000240: cd11 bcbc dfd8 a43c 59cb 3f3a 2241 02bd
00000250: 4fa5 40bc 3ae8 713d 1baf a03c cd61 973c
00000260: 953c 0bbd 043b 953c 28ad 613d 42c5 453a
00000270: 356f e3bc da31 4f3d f5dc 223d 2a99 63bc
00000280: 0374 69bc 2a90 d6bc 1610 acba 5ff5 843c
00000290: ac31 cebc 3dbe 8fba bccd 373c c4ee 3fbc
000002a0: 6b52 493c 2a75 f0bc c4f9 5b3c b960 543d
000002b0: 44ab 91bd b40d 223d ebb2 b73c 6dd2 183d
000002c0: 50f0 01bd e63d e0bb a870 9f3c 21c0 a83c
000002d0: e509 3c3c 1606 5f3c 9a8b a9bd 249f 513c
000002e0: 39c2 6dbd 226c 1bbd 5721 71bd f1d0 653c
000002f0: 6c38 1ebd 98b6 553b 2377 c2bc af6c f5bc
00000300: 3ee2 1cbd 056a d83b a1b4 a5bb ab38 e33c
00000310: 904e 10bc 5b9a dc3b d256 d83c 39e0 0bbd
00000320: e629 2b3d b2a3 24bc 98ea c4bc a089 153c
00000330: 82b6 82bb 70bb bc3a 2a95 433d 4ecc 9b3c
00000340: 0e14 86bc 87e6 b6bc d414 fdbc ef8a 053d
00000350: e729 843d 99a1 21bd a667 5f3d b31b ad3c
00000360: 7ed3 4f3d 60ec 423d 886b 243c 0bed e33c
00000370: b02a 3a3c 7ce1 7a3d cfe1 233d dc08 7ebd
00000380: 55ac 6c3b 153c 2f3b 51aa 5cbd ddaf 163c
00000390: 5a14 883c afb0 c3bd d33c ca3d d24f 083c
000003a0: fd91 273d 4fd0 d63b bd0d 9d39 ea53 293d
000003b0: 4222 8f3c c77a 75bc a85f 27bc 21ff a83c
000003c0: 9a5f 38bd a4b1 d43c 19f5 e5bc 0f47 b4bc
000003d0: ec65 40bc d7e4 e73b 06d8 063a 358f 07bd
000003e0: 7c8b 06bc 0a54 c43c 0913 ca3c c1dc a63d
000003f0: 55c5 74bc 65b9 8d3d 84a4 763d e8b2 153d
-0.080510855 -0.024117764 -0.02803475 -0.028291665 0.013611017 0.012888404 0.067457356 0.0019615667
-0.02852989 0.015994502 -0.0027318974 -0.036606573 -0.03495444 0.06210929 -0.02279648 0.055076636
0.0056749065 0.023231233 -0.070584916 -0.013792975 0.018047657 -0.032087516 0.020342471 -0.00044111232
-0.019690907 0.005362163 -0.005009856 0.046169773 -0.003670046 0.011112074 0.030534578 0.004733089
-0.025838597 -0.07096755 0.012578799 -0.021966677 -0.01587461 -0.02012048 -0.025547909 0.025509171
0.010476609 0.033264104 0.035515446 -0.033607885 0.04896845 -0.05632632 -0.0087308 0.036614176
0.043429926 0.09780782 0.024851331 -0.070204206 -0.040571008 0.06019339 -0.031214012 -0.03730041
0.03196681 0.04870947 -0.014211834 0.0447176 -0.07804385 -0.039099175 -0.009019251 -0.030794382
0.030561391 0.043786053 0.030583218 0.007950953 -0.022716668 -0.013844437 -0.00075770007 -0.02627626
-0.011980583 0.015370469 0.016567962 0.003495087 -0.036375254 0.027943796 0.052227505 0.038128033
0.06843012 0.042058863 -0.019460948 -0.03807422 0.005988903 0.023709925 0.015716081 0.07531712
-0.019362554 -0.047420185 -0.012933498 -0.011555258 0.024218123 -0.011641108 -0.02375495 -0.023960905
0.028467948 0.016293224 -0.02624779 0.048346866 -0.03396941 -0.017757244 0.03981709 0.038152657
0.05041618 0.009091407 0.06836631 0.040150415 -0.019481782 -0.010105059 0.05407866 0.0074437736
-0.025460174 -0.07048668 -0.0491873 -0.015116107 0.063431546 0.009440518 -0.033038393 0.055202305
-0.020086829 -0.039738677 0.014953175 0.050130572 -0.009741962 -0.0038390062 0.00075027486 0.06713841
-0.034185313 -0.02763512 0.03613433 -0.006398972 0.042331148 -0.0022912575 -0.037250195 -0.035893857
0.039370492 -0.053796288 -0.006911482 0.011150777 0.019427402 0.0005744512 0.0528534 0.023821041
-0.022957707 0.020122943 0.0007316373 -0.031800397 -0.011758163 0.05905936 0.019614747 0.018479252
-0.033993322 0.018216617 0.055096775 0.00075443473 -0.027762989 0.05058465 0.039761502 -0.013891498
-0.014248851 -0.02619179 -0.0013127353 0.016230283 -0.02517017 -0.001096673 0.0112184845 -0.011714641
0.012287716 -0.029352743 0.013426248 0.051850054 -0.071127445 0.03956385 0.022424182 0.037310053
-0.03172332 -0.0068433164 0.019462898 0.020599427 0.011476968 0.013612291 -0.0827858 0.01279429
-0.058046553 -0.03794492 -0.058869686 0.014026866 -0.038628027 0.0032610055 -0.02373845 -0.029959051
-0.0383017 0.0066044354 -0.005056933 0.027736982 -0.008807793 0.006732268 0.026408587 -0.034149382
0.041788004 -0.010048794 -0.024037644 0.009127051 -0.003989042 0.0014399122 0.047749676 0.019018319
-0.016366985 -0.02232672 -0.03089372 0.0326032 0.06453305 -0.039460752 0.054542206 0.021131372
0.050738804 0.047588706 0.010035403 0.027822992 0.011362717 0.061250195 0.04001027 -0.062020168
0.003611346 0.0026738693 -0.053873364 0.0091972025 0.016611267 -0.09555184 0.098748825 0.008319812
0.04091071 0.006555594 0.0002995561 0.041339792 0.01747239 -0.014982886 -0.010215677 0.020629467
-0.045013048 0.025963612 -0.028070973 -0.02200654 -0.01174305 0.0070768404 0.00051438843 -0.033095557
-0.008211967 0.023965854 0.02466728 0.08147574 -0.014939626 0.06920127 0.060215488 0.03654757

net.0.bias f4 [32]
00000000: 0ce6 87bc 32fd 38bd a703 f9bc 52ca 5939
00000010: c3f0 b2bb e72a 8dbc 0744 b2bc fd11 11bd
00000020: eb44 e93c ddf3 8a3a 413d 843c bf74 183d
00000030: 55d0 103d eb50 123d 31a7 38bd 7ebc 16bd
00000040: 12b2 103d 405f 43bd 6e8e 7d3d 6dd7 363c
00000050: dbf2 6dbc 380c 733d a934 d3bc 544a c5bc
00000060: 4234 ff3c f21f 3c3d 56c7 fdbc 76ac 52bc
00000070: e85d a03d 1ec5 353d 1e4b 3fbc 1861 063c
-0.016589187 -0.04516334 -0.03039725 0.00020770103 -0.00546083 -0.017232371 -0.021760954 -0.035417546
0.028475245 0.0010601241 0.01614249 0.037220713 0.03535493 0.0357217 -0.04508132 -0.036800854
0.03532607 -0.04769826 0.06190341 0.01115976 -0.014523233 0.059337825 -0.025781946 -0.024083294
0.031152848 0.045928903 -0.03097884 -0.012858501 0.07830411 0.04437744 -0.011675624 0.00820186

net.2.module.0.weight f4 [32, 32, 3]
00000000: 7dce ffbd 7e6b e6bd dbec 543d 2a64 1abe
00000010: 8430 8cbc 60c1 01bd ba90 3e3d eec8 d1bd
00000020: e7f9 c5bc b9ff b5bd 9c9f bb3d 083a 103d
00000030: a00c 2f3e a3b3 21be e895 7ebd 2630 07bd
00000040: 179b f4bd f5a1 0738 537d 853d d113 48bd
00000050: e475 083d c5ec a1bd c92e 1e3d dbb7 2bbe
00000060: 87a1 853d 5a1d ecbd c76c ddbd 28ee 43bc
00000070: e0ce ad3d dd8c bd3d d35c 5a3c 745f 563d
00000080: d106 fe3d 0329 dd3b 6816 bb3d dd86 533e
00000090: b70c 5cbd 1db6 02be b541 dfbd 2fca 98bd
000000a0: 2335 6fba c230 c03c b1e3 a43d 5f8a c1bd
000000b0: 0bae 70bd e3b0 debc 8e89 633d 09db d53c
000000c0: ef6f 9d3b 2610 e4bb 927d b0bd cc1f fa3d
000000d0: c3ba 78bd 2f8b 0abd b62e f43d 892d b6bb
000000e0: 2e5d 6b3c 1c93 6fbd 6de4 8a3c 964a f9bc
000000f0: 3eb6 9f3d c049 803d 28dd eebd 7418 1cbd
00000100: f57c 843c add6 183e 5b97 1fbd 9071 483d
00000110: 9c82 0a3e 368f 823d f658 cbbd d2f5 273d
00000120: 2534 0cbd b782 4abd c5f8 0d3d dfe7 16bd
00000130: 3719 11be e2de aebd 4d6b 033e 90eb 5fbd
00000140: 9734 10be bcc0 75bc 6c44 5cbc 0594 da3c
00000150: 2bf9 10be 8618 39bd 644c 95bd 4ce7 c23d
00000160: 129f ee3c 13b0 da3c 659f 4abb 6c81 06bd
00000170: d426 cb3d c35a 1e3d 94eb f5bd 2930 eebd
00000180: 17c2 73bd 131c 7d3d a1ba 6dbd d61f 563c
00000190: e243 aabd 8ad9 8fbc df7f b3bd 0849 bc3c
000001a0: ce52 c33c 15a5 b53d d933 2f3d 17b9 56bd
000001b0: f10a 4c3d 75cf bdba 0975 c83c dba4 83bd
000001c0: d339 0ebd 0dfd f0bd 0985 8d3d dce5 cebc
000001d0: 4d9a 233c 4bd8 d5bd e163 41bd bba3 02bb
000001e0: f311 b3bd 2cde 553d 4adc 6d3d bdb2 a73d
000001f0: b2cf 133d 34ff e0bc 2238 db3d 2c97 fb3b
00000200: 100d 323d f1a2 113e 0e09 663c bc27 843c
00000210: 2f60 1fbc 5922 9a3d dfa5 a1bd 47b2 cc3b
00000220: 0b8a 133d aebe 88bb 2d40 2abd 464b 26bd
00000230: dccb d9bd eb6f cebd c31f debd 2ad6 b83d
00000240: b89b 19bd d36f 94bc 8b6e 3bbd 64ec df3c
00000250: 12b5 c6bc a68e 073e f0ad 753d 3e6f c1bd
00000260: 1163 4e3d 3450 00bd d300 ba3b 32d1 873d
00000270: 8422 c13d 6802 623d 89fc 9cbd 5f8b 5d3d
00000280: b1e8 563e 5760 103e c8e2 4c3d 71db f7bc
00000290: 3b7d 073d 04bb 2fbd 8ec5 0b3d c72a c03d
000002a0: 83a4 03bd e736 c13b deb7 c6bc a92d 5abd
000002b0: 910b 56bd f616 c8bd 6735 e4bd a4ea a5bd
000002c0: 5276 24bd 03df c5bb 3b32 74bd db23 1e3e
000002d0: 29ea 0d3d e614 943c e1d0 abbc f2d1 4bbd
000002e0: 6051 04bd 4e29 69bd 2707 d13d 26f2 42bd
000002f0: fe33 1dbe 0187 c2bd bfc3 16bd 6e9a 1ebe
00000300: bfd0 5d3d 7082 94bd 7ece e3bd 186b e1bc
00000310: e87c eabd e1eb 5dbd 6784 4a3d 59b7 423c
00000320: 4dd3 253d a9ae 13bc 4512 bdbc efec ca3d
00000330: a19f df3d 610b e23d a229 f4bc 99ef 9b3d
00000340: 52d6 ecbb 6aeb 08bc 9772 523c 8597 8f3b
00000350: 0b3c 353d 715c 8abd ba8a 71bd bad0 b0bd
00000360: 2378 9ebd 9ceb 633d 71be f0bd dedb aa3d
00000370: 3b4c 5f3d 1bac acbc 4de3 363e 5004 c33c
00000380: 82e6 f13d bd01 90ba df9b 95bb 34fa 8fbd
00000390: cda9 06bd 0c0a 56bd adb0 f5bd ed37 123c
000003a0: 9bec 0a3d 2d4d e13d e2c1 f2bd 868e 3c3d
000003b0: 0155 56bd 61a7 9e3d e3d2 9cbc 7a04 acbc
000003c0: c816 43bd 0807 873d 024f a73c 2bdf 9bbd
000003d0: ab0d ea3d d276 c7bb 680d cd3a 1075 b4bd
000003e0: 8b36 c13c f7bc 23be 7d22 573d a9f7 063d
000003f0: 6ac1 8c3c a3ab a2bc 65bb 7e3d 266c 2c3b
-0.124905564 -0.11250971 0.051983695 -0.15077272 -0.017112978 -0.031678557 0.04652474 -0.102434024
-0.024167014 -0.08886666 0.091613024 0.035211593 0.1709466 -0.15791182 -0.06215468 -0.033004902
-0.119436435 3.2337342e-05 0.06518044 -0.048847023 0.033315554 -0.07906488 0.038618837 -0.16769354
0.065249495 -0.11529036 -0.10811763 -0.011958636 0.08486724 0.09255383 0.013327795 0.052337125
0.12403644 0.0067492737 0.09135133 0.20656915 -0.053723063 -0.12764783 -0.109012045 -0.074604385
-0.00091250445 0.02346075 0.08051241 -0.0945022 -0.05875973 -0.027183956 0.055551104 0.02610542
0.0048046033 -0.006959933 -0.08617701 0.12213096 -0.060724985 -0.033824142 0.11922972 -0.0055596274
0.0143654775 -0.058489904 0.016954625 -0.030431073 0.07798432 0.06264067 -0.11663276 -0.038109258
0.016172865 0.14925642 -0.038962703 0.048936427 0.13526386 0.063749716 -0.09929077 0.041005917
-0.034229416 -0.049441066 0.034661073 -0.036842223 -0.14169775 -0.08538605 0.12833901 -0.05466801
-0.14082561 -0.014999565 -0.013444047 0.02668191 -0.1415755 -0.045189403 -0.07289961 0.09516773
0.029128585 0.026695287 -0.003091776 -0.03283827 0.09919515 0.038660776 -0.120078236 -0.116302796
-0.05951127 0.06179435 -0.05803931 0.013069114 -0.08313729 -0.017559785 -0.08764624 0.022984043
0.023843195 0.088693775 0.042774055 -0.05242261 0.049815122 -0.0014481383 0.02446987 -0.06427928
-0.034723114 -0.117670156 0.0691014 -0.02525609 0.009985519 -0.10441645 -0.047214393 -0.0019934017
-0.08743658 0.052213833 0.058071412 0.081883885 0.036086746 -0.02746544 0.10704066 0.007677933
0.04346949 0.14222313 0.014040245 0.016132228 -0.009727522 0.075260825 -0.078929655 0.0062468383
0.03602032 -0.0041731214 -0.04156511 -0.04059913 -0.10634586 -0.100799404 -0.10845902 0.090252236
-0.03750202 -0.018119728 -0.04575972 0.0273344 -0.024256263 0.1323801 0.059980333 -0.09445046
0.050387446 -0.031326488 0.005676368 0.06631698 0.094304115 0.055178076 -0.07665355 0.054087993
0.20987202 0.1409925 0.050020963 -0.030256005 0.033078413 -0.04290296 0.03412395 0.09383159
-0.032139312 0.0058964374 -0.024257597 -0.0532662 -0.052257124 -0.097700045 -0.11142998 -0.08101395
-0.0401519 -0.006038548 -0.059618216 0.15443365 0.03464714 0.018076371 -0.020973625 -0.049760766
-0.032304168 -0.056924157 0.10206442 -0.047594212 -0.15351865 -0.09498406 -0.03680777 -0.15488598
0.054154154 -0.072514415 -0.1112337 -0.027516887 -0.11449605 -0.05418003 0.049442675 0.011884534
0.040484715 -0.00901381 -0.02308 0.09908473 0.10919119 0.110373266 -0.029805008 0.07614059
-0.0072276974 -0.008356908 0.012844703 0.004382076 0.044246715 -0.06755913 -0.05897019 -0.086335614
-0.07737758 0.055644616 -0.11755074 0.083427176 0.05451606 -0.02107816 0.17860146 0.023805767
0.11811544 -0.0010986846 -0.0045657004 -0.07030144 -0.03287678 -0.052255675 -0.11996589 0.008924467
0.03391705 0.11001048 -0.118533865 0.04603436 -0.05232716 0.07746769 -0.019143527 -0.020998228
-0.047629148 0.06593138 0.020423416 -0.07610925 0.11428388 -0.0060871625 0.0015644254 -0.088113904
0.023585578 -0.15990053 0.052523125 0.03295103 0.01718207 -0.019857233 0.062190432 0.0026309579

net.2.module.0.bias f4 [32]
00000000: 38df b53c 0688 0e3d 6b58 edbc 430d 773d
00000010: 24ce 81bd cda4 36bc 3a5b 373d f2e4 6ebd
00000020: cb98 a83c 56d1 4bbd e3f5 a93d ffe3 543d
00000030: df1c c4bd 3682 9fbd f8b3 12bd 8bae 923d
00000040: 5542 6bbd 1851 02bd 2ed5 0c3e 9770 97bd
00000050: 17a1 a33d 8fcb ce3c d4f1 9b3d 5fb1 95bd
00000060: 1b33 953d 8c47 8fbd 407f b33d ab12 7c3d
00000070: 161d 6b3d 450e a53d d324 f23c f2a3 44bd
0.022201166 0.03479769 -0.028972825 0.06031538 -0.06338146 -0.01114769 0.044764735 -0.058323808
0.02058067 -0.049760185 0.08298852 0.051975247 -0.09575819 -0.07788508 -0.035816163 0.07162198
-0.057436306 -0.03181562 0.13753197 -0.07394522 0.0798971 0.025243549 0.076144844 -0.073092215
0.07285138 -0.06996068 0.087645054 0.06154124 0.057400785 0.08059362 0.029558575 -0.048007913

net.3.module.0.weight f4 [32, 32, 3]
00000000: 65d4 98bd 0eeb 393d 9b4c 4d3e e1dc 1dbe
00000010: f2d0 b7bd f9b0 1b3d 8c08 2d3e 9711 bf3d
00000020: 9ed8 c9bd 1975 133c 5e05 d0bd 31e8 9ebd
00000030: c29d 763d bd20 98bd f523 0dbe fbf6 103d
00000040: f2c7 01be a176 24bd c8f3 63bd d6b8 dfb9
00000050: 42f1 b4bd edf3 cdbd deba 49bd 39ee 4ebe
00000060: 2b7c d1bc 1320 ac3d f3f4 fe3d 1a39 183e
00000070: 2d2b 0a3d 2e84 9b3d 2bf6 5d3d a966 82bc
00000080: 6d3a 033d 2d68 263d 4398 d43b dee2 6a3e
00000090: 0ac3 d3bd 7aca 48be ea81 b23c 1ee5 05be
000000a0: 221b 90bd 74e0 04bd 88aa 16be d8df b3bd
000000b0: 30d5 d13c 5b10 96bc 6127 debc 77be 2abd
000000c0: 8749 8c3d f5f5 483d 5cb6 05be 5bd9 e33d
000000d0: 7d68 d53d 7494 13bd a6a8 043d fa68 f03c
000000e0: 3a5d c7bd d151 58bd 9959 89bd 6ade 10be
000000f0: ee1d 9abd 46a5 43bd d962 9bbd 625d dcbd
00000100: c54a de3c d380 8d3d 74e2 283d 1265 63bc
00000110: cf65 153d 7fe1 9abd 5490 fdbd a6e2 e6bd
00000120: 999c da3d 5f5f 46bd 463c 733d d1e2 1abe
00000130: b805 44bd 5802 833d 75b3 113e 83a8 753d
00000140: e6d1 acbd 7066 28bd 095b 9abd 68c6 7cbd
00000150: 9f29 26be 8d10 07be 59ab 2ebd 942a 023d
00000160: 1d30 cf3d 94a0 063e 97cc 71bd bda8 6a3d
00000170: 5ce4 34bd afe6 ae3d 290c 283c 1829 7dbd
00000180: e0af 9fb9 c746 9abb 71c7 bcbd 7b82 ddbb
00000190: d94d c33d 07c9 b03d 53f8 1b3c 8213 9a3d
000001a0: 51ad 953d a896 ab3d 9d1d f93c e43a afbd
000001b0: 1246 74bb e342 f43d 56eb 8b3d 4fe4 ca3c
000001c0: 2eb6 813d 5eb3 c6bd a915 313d c720 c33d
000001d0: 75f9 9fbd 06a5 463c 860f c73d ca3f fa3d
000001e0: 96f0 8cbd 503e 4f3d 9c49 a7bd b848 153e
000001f0: f7c0 b0bd 075b 02bd 9197 8abd 8d52 c7bd
00000200: f30b abbd ad0f 423e d028 3d3d 5ed1 c6bb
00000210: f0ec 65bd 2ae7 a83b 8554 ec3d fd6e 29bd
00000220: c873 fc3c 2bc7 debb 1a92 64bd ef2d 9d3d
00000230: d4b1 0abd 1bd6 83bb 697b 8e3c ce3a 8fbd
00000240: ac23 613d 4d0a ba3d ec6f 1cbd 3d25 8d3d
00000250: caa7 a43d df75 9bbd 8c76 913d bce4 ae3c
00000260: 04aa 8b3c 733f ec3b 5781 a93d 4c65 2139
00000270: 4f17 10bd d24c b53c 6219 49bd b097 aabc
00000280: 3f18 ddbc 83e5 2cbd e44b a5bd 70e4 84bd
00000290: 1f6a 153d b891 a1bc 74d0 e53c 4b79 d1bd
000002a0: 1964 75bd 51d0 22be 8e40 08bb 58e5 8cbd
000002b0: 9163 bb3d 135e 4c3d a1f1 4ebc ce66 b83d
000002c0: a890 323e 3bbb 583d b14d 1dbd 4b1c 7c3c
000002d0: 9bd5 ffbd ebda 81bd a852 8abd a111 ca3d
000002e0: 829c c3bd 5d79 1d3c 5f37 123e d621 aabc
000002f0: ea4d 36be 9ceb 183b 34bd 873c 771f 1fbd
00000300: a91a b7bd 8c03 fc3c 69d8 113e e7b3 c5bc
00000310: 2f92 96bd 251b 2b3d 7793 973d f5fb cabc
00000320: e295 ab3d a1d7 2a3d 1a76 913c ff69 7b3d
00000330: 2335 b6bd e87f 85bd 27e0 953c f547 23bd
00000340: d05c 663c d596 dabd 8436 18be 9ac1 dbbd
00000350: 3d2d debd 5fdd 09bd 1e65 0dbc 1169 db3c
00000360: dd0f 09be a928 eebc 1219 8e3d 9ea1 88bd
00000370: f3af 32bd e5ae c43d 28d0 b4bd 8b53 903d
00000380: be8a 423d c430 bdbd a879 41bd 0bc3 89bd
00000390: 49cd 31bc 7d02 a1bd 1bdf 673d 2f69 813d
000003a0: a4ab cabd 2d6b a33d 48f6 893b 7859 153e
000003b0: 8a0e bb3d 147b 353d 1df9 a0bd a2a2 b3bd
000003c0: e2b1 4e3d 7801 0cbc bd61 cc3d 7c16 413c
000003d0: b6b1 2ebd 6416 40bd d550 e03c 7380 b8bd
000003e0: ee33 a33d 3956 d3bc 9e9f c83d 2968 563d
000003f0: f417 b53b ce05 a2bd 467d 8f3d eada f73d
-0.07462386 0.04539018 0.20048754 -0.1541629 -0.089754 0.03801057 0.16897792 0.09329527
-0.098557696 0.009000086 -0.10157274 -0.07759131 0.060209043 -0.07428119 -0.13783248 0.03539179
-0.1267393 -0.040152196 -0.05565241 -0.00042671588 -0.08835079 -0.10056291 -0.049250476 -0.20208062
-0.025571903 0.08404555 0.12449064 0.14865533 0.033732582 0.07593571 0.054189842 -0.015918093
0.03203814 0.040626694 0.0064878776 0.22938105 -0.10339935 -0.19608489 0.021790463 -0.13075683
-0.07036425 -0.032440618 -0.1471349 -0.08782929 0.025614351 -0.018318346 -0.027118387 -0.041685548
0.06849962 0.049062688 -0.13057846 0.11125442 0.1042032 -0.036030248 0.0323874 0.029346932
-0.097345784 -0.0528124 -0.067065425 -0.14147344 -0.0752524 -0.04776504 -0.07587213 -0.10759999
0.027135262 0.06909337 0.041231588 -0.0138790775 0.036474045 -0.07562541 -0.12381044 -0.112736985
0.106744 -0.048430797 0.059383653 -0.15125586 -0.047857016 0.063969314 0.14228614 0.05997516
-0.084384724 -0.041113317 -0.07536895 -0.061712652 -0.16226815 -0.13189907 -0.04264388 0.031778887
0.10116599 0.13147193 -0.059033003 0.057289828 -0.044163093 0.08540093 0.010256805 -0.06180677
-0.0003045788 -0.0047081443 -0.09217728 -0.0067599392 0.09536333 0.08632093 0.009519654 0.07523252
0.07308448 0.08378345 0.030409629 -0.08556154 -0.003727321 0.1192682 0.06831996 0.02476707
0.06333576 -0.0970218 0.043233547 0.09527736 -0.07811252 0.012124306 0.09719758 0.12219198
-0.068818256 0.050596535 -0.08168337 0.14578521 -0.08630555 -0.03182509 -0.0676719 -0.09732542
-0.083518885 0.18951292 0.0461815 -0.006067439 -0.056134164 0.00515451 0.11539558 -0.041365612
0.030816928 -0.006798645 -0.055803396 0.07674777 -0.033860996 -0.004023326 0.01739283 -0.06993638
0.05496566 0.09083996 -0.038192675 0.06891868 0.08039816 -0.075908415 0.07102689 0.021349303
0.017048843 0.007209712 0.08276623 0.00015391893 -0.03517848 0.022131357 -0.049096473 -0.020824283
-0.0269891 -0.042211067 -0.080711156 -0.064888835 0.036478158 -0.019722804 0.0280535 -0.10228213
-0.059909914 -0.15899779 -0.002079043 -0.06879681 0.0914985 0.049894404 -0.012630851 0.090039834
0.17437994 0.052912932 -0.03840417 0.015387605 -0.12491914 -0.063405834 -0.06754047 0.09866644
-0.09551336 0.009611455 0.14278935 -0.020768087 -0.1780316 0.0023333794 0.016569711 -0.038848367
-0.08940632 0.03076341 0.1424271 -0.024133636 -0.07352101 0.041773934 0.074011736 -0.024778346
0.08378197 0.041709546 0.01775651 0.061380383 -0.08896854 -0.06518537 0.01829536 -0.039863545
0.014060214 -0.106733 -0.14864546 -0.10730286 -0.10848472 -0.03365838 -0.008630065 0.026783498
-0.13384958 -0.029072123 0.069383755 -0.06671451 -0.04362483 0.09603671 -0.08828765 0.070471846
0.047495596 -0.09237817 -0.04723516 -0.067266546 -0.010852166 -0.07861803 0.056609254 0.0631889
-0.09896019 0.079794265 0.004210267 0.14584911 0.091336325 0.04430683 -0.078600146 -0.08771254
0.05046261 -0.008545272 0.099795796 0.011785146 -0.042649947 -0.046896353 0.027382294 -0.09008875
0.07968889 -0.02579795 0.097960696 0.05234543 0.005526537 -0.079112634 0.07006316 0.121023014

net.3.module.0.bias f4 [32]
00000000: b860 643d a4ed bdbd 1e84 cebd bd71 9bbc
00000010: c99a 373d e43c 843b efd0 83bc de22 c7bc
00000020: aff1 a43d a080 9dbd b976 d1bc 6a9a de3d
00000030: 7aa4 94bd 6713 d7bb cef6 12bd d448 b03d
00000040: 8f84 183d 865d cbbc cac9 9bbb a27a 6d3d
00000050: 30dd 5a3c 36fe 4cbd 3c1d 91bd 7f6d e3bc
00000060: 29d1 c03d 4b1c 1ebd a0b4 1b3c 6fa5 0bbc
00000070: a258 a9bd cef8 c93d 81d5 85bd dbe7 22bb
0.0557563 -0.09273842 -0.10083793 -0.018975133 0.04482535 0.004035579 -0.016090838 -0.024308618
0.0805391 -0.07690549 -0.025569307 0.10869296 -0.07257934 -0.0065635922 -0.035879903 0.08607641
0.037235793 -0.024824869 -0.0047542797 0.05797828 0.013358399 -0.050047122 -0.07085654 -0.027762173
0.09414894 -0.0386012 0.009503514 -0.008523329 -0.082688585 0.09861909 -0.06534863 -0.0024857435

net.4.module.0.weight f4 [32, 32, 3]
00000000: 97ac 34be 4c93 8bbd 6c73 0abe d1fb 063e
00000010: aed6 cb3d b2ce 68ba 820a 313d 43c5 b6bd
00000020: d8ab d23c db7d 9ebd bd0c 6c3d e91a 76bc
00000030: 3c0e 153c 2a8a 8b3b 9fc8 b23d af34 86bc
00000040: 489b 653d f56a 0c3e 137d 403e 6eba 4c3c
00000050: 1659 29be b2a8 19bd c50c 633e 54b5 ef3d
00000060: 5e60 e6bd efbb cd3c 3f20 623d 2976 39bd
00000070: 7da7 12bd 6e07 783d 2f25 46be 466b 58be
00000080: 5a3a 79bd 5e13 363d 8ffa 99bd 352f 80bd
00000090: 8cd8 c23c fde7 343e 63a5 253e e176 073d
000000a0: 4ec0 f43d edb5 4f3d e91d 2e3e ea8e 433c
000000b0: 8c71 e73d 553a 30bc d277 873c b7a7 b9bd
000000c0: 809c a2bd 6d97 c4bd b89f a93a 2a80 cbbd
000000d0: e182 013d 830f 8f3d 56dc 67bd 09f6 643d
000000e0: 294f d4bd a9c3 083e fca9 813d ea63 723c
000000f0: 7eee 803d 2a8f 123d 8c43 023e a694 273d
00000100: 9e2c b5bc 7c2b 03bd 8e47 82bc e83c 363e
00000110: 5e41 443d 7e2e 7a3e 8d22 1d3e f596 623d
00000120: 8744 67bc 4f9e 01be 73c8 5fbd 78de a5bb
00000130: 08f5 023d 30af 19bc aa02 8fbc 8d07 d3bd
00000140: be36 92bb 3526 e63d 63e0 9b3c 9cd6 633d
00000150: 3d92 283d 1161 c5bc 46f6 9cbd 79d1 8cbc
00000160: ac53 a23c 5abe de3c f1a2 19be 25fa b9ba
00000170: 30ae b7bc 443f c63d 6134 023e 3c65 e2bd
00000180: 7ee2 943d 4c5c 6f3b aeff 4a3c f120 603d
00000190: 12af 093d e0a5 83bd f9f8 103d 6056 59bd
000001a0: 6df0 973d 7d2c d4bc 6840 44bd af14 753d
000001b0: f97e ac3d 68b8 abbd fa12 85bd 160a e33d
000001c0: 1002 843c 5ef9 cdbc 3272 61bc 0f7a d6bd
000001d0: 091b e9bd a4ec 50bd a00a 14bd e3e0 653d
000001e0: 0bf7 0cbe d569 98bd ffc7 41bb 498e 17bc
000001f0: 1178 83bd 464a 523d 2d5b 65bd 950a aabc
00000200: 510a 873d 1804 f43d 1350 b03c 3710 16bd
00000210: e5b9 a73d a57b 5fbd 2ba1 81bc 4a28 e6bb
00000220: be7a 7bbc 45d9 47bd 2e9f 333c ce9d 883b
00000230: 3b7e a63d ce5a 08be 443c ff3b 09e9 7cbc
00000240: f840 743d bd88 c93d db78 373d d901 d5bc
00000250: 9d36 e93c 70dc e83d f642 d13c 91e1 50bd
00000260: 56f0 973d e5a0 0cbd f64c 29bd 9c27 ef3b
00000270: 0043 b4bb e712 6abc 4c0e 243c 409e 9dbd
00000280: 077c 28bc 68b8 34bd b87b 7ebd 5bc6 263d
00000290: fc04 cc3d 486b 3fbd 7daa d8bc 3fe2 933d
000002a0: 09c0 943d 5060 31bd a9c6 ddbb 72a5 e53c
000002b0: 2f7a 923d b65f 6bb6 4cd0 05be 8409 87bd
000002c0: 6130 673d 331d fd3c 4803 93bc 4771 173d
000002d0: f6a7 93bd 98a3 de3b f896 7ebd 26a2 933d
000002e0: 5982 aa3b 2602 d5bd a970 a03d 6829 6c3c
000002f0: 1d8b dfbd c447 b13d 4abf b03d b7ba 85bd
00000300: 23bf c83b e789 263d 6af1 9abc a6b7 c3bc
00000310: 3b4e d5bc 84da 01bc e850 11bd e85a 4b3d
00000320: 7165 bf3d 37dd 183c 4be1 b33d a0cf c63d
00000330: 463d 04bd 87d5 b03d 24b9 4a3d 927f b33d
00000340: bf4d ad3b e020 06bd cdfc fabd bf0e 89bd
00000350: cb79 b13d ddc5 563d eec8 833d a3b2 87bd
00000360: c5bb aebd 8c30 a1bd ea60 ef3c 7d42 d53d
00000370: a35e cb3c 0bad d83d 8d64 bd3c 3f22 92bd
00000380: 7e71 33bd 6f88 f23c 19f8 cb3d 7313 2a3d
00000390: 7ab0 003d 1b1a 06be 49a9 a3bd c15e 28bd
000003a0: 6c8d 963d 859a a4bd 8146 6fbd ca3d 0fbd
000003b0: 8381 c4bd ffab b73d c514 9fbd 9e43 da3c
000003c0: 3c42 873c 85ff 613b ff03 0b3d 52d4 c13b
000003d0: e502 88bd 8d54 8a3d edbc c9bd 5e41 a83d
000003e0: 70c5 0abd 556a e1bd 7af6 a93d 06de 883d
000003f0: 5592 103e 35d2 3cbd c452 9a3b 82ed c03d
-0.17643963 -0.06815204 -0.13520592 0.13181998 0.09953056 -0.00088808977 0.04322291 -0.089243434
0.025716707 -0.07738849 0.057629336 -0.015021064 0.009097632 0.004258414 0.08729672 -0.016382543
0.05605629 0.13712676 0.18797712 0.01249562 -0.1653789 -0.037514396 0.2217284 0.117045075
-0.11248849 0.025114028 0.055206534 -0.045278702 -0.03580426 0.06055396 -0.19350122 -0.21134672
-0.060846664 0.044452064 -0.075184934 -0.06259004 0.023784898 0.17666622 0.16176371 0.033072356
0.11950742 0.050710607 0.17003597 0.011935929 0.11300954 -0.010756095 0.016536627 -0.09065192
-0.07940006 -0.09599195 0.0012941277 -0.09936555 0.031618956 0.069853805 -0.056606613 0.0558987
-0.10366661 0.13355888 0.0633125 0.014794329 0.06295489 0.035781063 0.1272108 0.040913247
-0.022116002 -0.03202389 -0.01590326 0.17796671 0.0479139 0.24431798 0.15345211 0.055319745
-0.014115459 -0.12658046 -0.054634523 -0.0050619207 0.03197196 -0.009380147 -0.017457325 -0.103041746
-0.004462092 0.11237756 0.019027894 0.05562459 0.04115509 -0.024094136 -0.076641604 -0.017189728
0.019815288 0.027190376 -0.15003563 -0.0014188929 -0.022421926 0.09680036 0.12715293 -0.11054465
0.072697625 0.003652352 0.01239006 0.054718915 0.033614226 -0.064281225 0.03539369 -0.05306089
0.074189045 -0.02590012 -0.047912985 0.05983418 0.084226556 -0.08384782 -0.0649776 0.11085908
0.016114265 -0.025143322 -0.013760136 -0.104724996 -0.1138211 -0.051006928 -0.036142945 0.05612267
-0.13766114 -0.07442061 -0.002956867 -0.009250232 -0.06419385 0.051340364 -0.055995155 -0.020756999
0.065937646 0.11914843 0.021522557 -0.036636557 0.081897534 -0.054561276 -0.015823921 -0.007023846
-0.015349088 -0.04879119 0.010963244 0.0041692024 0.08129545 -0.13315889 0.0077891666 -0.015436419
0.05963227 0.09840534 0.04479299 -0.026001858 0.028468424 0.1137017 0.025544625 -0.050996367
0.07418887 -0.03433313 -0.04133316 0.007298423 -0.005501151 -0.014286733 0.010013174 -0.076961994
-0.010283477 -0.044121176 -0.062129706 0.04071651 0.09961888 -0.04673317 -0.026448483 0.072208874
0.0726319 -0.04330474 -0.006768067 0.028032992 0.07152211 -3.507344e-06 -0.1306774 -0.06593612
0.056442622 0.030897712 -0.0179459 0.036973264 -0.072097704 0.0067944042 -0.062155694 0.07208662
0.005203527 -0.104008004 0.07833988 0.014414169 -0.10915206 0.08656266 0.086302355 -0.06529754
0.006126301 0.040658858 -0.018913943 -0.023891281 -0.02603828 -0.007925633 -0.03547755 0.04964724
0.0934552 0.0093300855 0.087832056 0.0970757 -0.032284997 0.08634477 0.04949297 0.087645665
0.005288809 -0.032746196 -0.12255249 -0.06692266 0.08665808 0.05243479 0.06434809 -0.06625869
-0.08531908 -0.07870588 0.029221017 0.10413072 0.0248254 0.1057988 0.023119235 -0.07135438
-0.043809406 0.029606072 0.0995943 0.041522454 0.0314183 -0.13095896 -0.07991273 -0.04110599
0.07351193 -0.08037285 -0.058416847 -0.034971036 -0.09595015 0.089683525 -0.07767633 0.02664357
0.016511075 0.0034484577 0.033939358 0.005915203 -0.06641177 0.06754408 -0.09850488 0.08215593
-0.033879697 -0.11006609 0.08298965 0.066829726 0.14118321 -0.046098907 0.0047095735 0.09420301

net.4.module.0.bias f4 [32]
00000000: c815 80bd acd2 81bd a2a2 60bd 68ca 48bc
00000010: 5c4b 493b 1b95 4abd 600d 37bd 7bd6 b23d
00000020: f282 7abc 9ed6 f43c 4d3a f13c 6d7f 74bc
00000030: 0c80 d8bd ccbc c43c b719 97bd d234 6e3d
00000040: c4f4 a73d 8d2c bf3d 49aa 8bbd 56b8 a0bd
00000050: 7db2 fc3c e5bd 75bd f24b 4c3d 7031 bb3d
00000060: 2400 483d 7b78 a9bd 4da5 3fbc 7ed8 f4bb
00000070: 145d 57bd eb72 8fbd e9b6 8abc cf10 693c
-0.062541544 -0.063390106 -0.0548426 -0.012255289 0.0030715084 -0.049458604 -0.04469049 0.08732315
-0.015290009 0.029887494 0.029446745 -0.014922959 -0.10571298 0.024015807 -0.073779516 0.058155842
0.08200982 0.09334669 -0.06819589 -0.07847659 0.030846829 -0.05999555 0.049877115 0.09140289
0.04882826 -0.08274933 -0.011697126 -0.007472097 -0.052579 -0.07004341 -0.016932921 0.014225199

net.5.weight f4 [48, 32, 3]
00000000: c259 bc3c d140 01bd 8f1c a7bc 6384 3b3d
00000010: 0981 b63b b230 943c 2640 df3d eeb3 c73d
00000020: ff6f 25bc b88b b1bc 1f96 8cbd 06f8 a7bd
00000030: ab54 913d 7e92 88bd 711f 1abd 4846 503d
00000040: 0189 bf3d 30a8 803d 342f d4bd 715b 83bc
00000050: bf35 c93c 1f49 c8bd 70b5 1b3e 0683 70bd
00000060: 9677 923c 9e8f 91bc b225 00be 344f 5fbd
00000070: 1dd5 0c3d dc58 51bd db74 f2bd b49d a73d
00000080: aa13 39bd 1812 afbd 12da c7bc a178 303d
00000090: 9556 2dbd 5fe1 3a3d dbf3 b6bc 499e 623d
000000a0: 4860 c3bd d724 353d 37b6 e1bd 0cd4 9b3d
000000b0: 4ac3 7fbb c01e 15bd 6351 913d 29b0 8f3d
000000c0: ae60 3d3d 04ff 53bd 7a24 9f3d 5401 533c
000000d0: ff98 cabd 8650 913d 79ac a83c e17d 1abe
000000e0: e116 4a3d 4373 3dbc 1572 853d e783 abbd
000000f0: 8329 f83d 5e9a 8dbc 89d9 b03d f726 aebd
00000100: 91b6 61bd 8a67 b2bd 05dd 123d 9257 953d
00000110: 182c b13b c0d6 943d 34e6 a23c c3a6 d4bc
00000120: 5bee 883d c4f5 333c 64cf 863d dc55 2a3c
00000130: 916f 563d 968a 213d 9e42 90ba c3cf f2bd
00000140: a56d 8e3d 5400 3f3d d90d 403d 7086 b33d
00000150: eaf9 ed3c 3cca 8fbd 48ba 943d 8711 5fbc
00000160: 2576 10bc 5341 a5bd 19fe 0cbe e60a 473d
00000170: fd60 0c3e 8566 2e3b bf3c 1c3c cf85 76bc
00000180: fe3a a43c 394d 3abd 2f24 f53c c1e1 253d
00000190: 632d 093e 3e5d fa3d 2a39 8dbd 0461 95bc
000001a0: f4ef e9bc 715b 923d ab86 0cbd f0d4 30bc
000001b0: fccf 1cbc a843 93bc 8400 883d fcdb 913d
000001c0: 7f5d fcbd 59a0 8a3d 3e6c 2cba 2833 2a3d
000001d0: 418d 9abc 2159 a3bd 9c98 d83c 2a5e 1f3d
000001e0: b503 e1bc d75a 2d3d 4301 50bd c028 5ebd
000001f0: ce71 dcbd f485 f9bc 9145 3b3d 58c1 b4bd
00000200: 41a7 ae3c 7c59 cdbb 0584 afbc 8c97 7ebd
00000210: d034 c63a 8495 3fbd 1abe 633d 9219 4e3c
00000220: 9b39 3dbd 51cf abbb 4421 37bd 1933 c8bc
00000230: 5e63 d13d 9996 a4bc c753 0dbd 5080 fe3d
00000240: 8418 a23d 1819 903c 0099 ecbc 33c3 9e3c
00000250: f6f7 94bd acc6 02be 5ce2 e13c ab52 89bd
00000260: 65ed 953d 381d 883d 0710 ee3d 3b84 77bc
00000270: 9b81 8cbd e8d4 ff3c 9f37 a6bd 8331 dcbd
00000280: 3924 2cbc 55c5 b7bc eca1 853d 72dd 47bd
00000290: f0bd f93d fd64 ef3c 1671 7dbd 7303 463b
000002a0: 5a07 0b3d 38c9 9bbc 29c9 493c 30f1 c83d
000002b0: 2dc4 57bd eb96 1cbd bc27 a3bc 52ac 85bc
000002c0: 7692 1c3e 2977 c9bc 5bc1 293d 505c fdbb
000002d0: 36f2 02bc 7dc6 e1bd 3953 843c ae75 383c
000002e0: 366e b3bd 9fff d03d 73d2 7abd 1bd8 f93c
000002f0: b1cb 923d b21c 533d 8aef dcbc 1c7b 343d
00000300: 45db 733d dd4d f03c 06b3 a13c d395 e6bc
00000310: 257a 9c3d 8954 4bbd 349a 493d 94e4 1dbd
00000320: 6f27 7bbd c9bf c83d b9f2 69bd a77c 233d
00000330: ff57 1abd 375c 20ba 8e04 02bd fad5 0abb
00000340: edb9 123d 6997 8dbd 3012 41bd d471 233d
00000350: 9bd8 a6bd 9f1b 653b 3b63 5f3d 35c3 aebd
00000360: edec 9fbd f46b 0a3d e429 33bc 7f31 c33d
00000370: 07aa a5bc 5f6d 143e c04f 88bc 4ed1 9bbd
00000380: ef62 023e 24b0 993d f1e3 943c 7701 513d
00000390: 0ca4 8b3c dc6e 7cbc bada f03d c2f8 0a3d
000003a0: 1e99 4bbd c84a 97bc cef6 32bc bf4c fa3b
000003b0: 408d 94bd ec1f fdbd 9c91 9d3d c40f cd3c
000003c0: 2d4d a73d ba4e 3c3d 1479 57bd 0489 8fbd
000003d0: eff3 aebd bc1a 643c 4504 f5bd a9c4 71bd
000003e0: 169e 323c 43b4 e9bd ebc1 e6bc 5579 ea3d
000003f0: 7367 aa3d 21cf e83d a72c 44bd a3bc e8bd
0.022992019 -0.031555954 -0.02039936 0.04578055 0.0055695814 0.018089626 0.10900907 0.09751116
-0.010097503 -0.021673068 -0.06864571 -0.082016036 0.07096227 -0.06668566 -0.03762764 0.050848275
0.09352303 0.06282079 -0.10360566 -0.016034814 0.024561761 -0.09779572 0.15205932 -0.058718704
0.017879289 -0.017768677 -0.1251438 -0.054518893 0.03438293 -0.051110134 -0.11838695 0.08184376
-0.04518477 -0.08548373 -0.024395976 0.04308379 -0.0423189 0.045625087 -0.022333076 0.055326734
-0.095398486 0.044224586 -0.11021083 0.07608804 -0.0039026313 -0.03640628 0.070956014 0.07016022
0.04623478 -0.051756874 0.07770629 0.012878735 -0.09892463 0.07095437 0.020590054 -0.15087081
0.049338225 -0.011563125 0.065159 -0.08374768 0.12117293 -0.017285522 0.086352415 -0.08503526
-0.05510575 -0.08711155 0.035855312 0.07292093 0.0054068677 0.07267523 0.01988516 -0.025958424
0.06686088 0.010983888 0.06582525 0.010396447 0.05235249 0.039438806 -0.0011006182 -0.11856034
0.06954507 0.046631172 0.046888206 0.08765876 0.029049832 -0.07020995 0.07262093 -0.013615019
-0.00881723 -0.080691 -0.13768806 0.048594378 0.13708873 0.00266114 0.009535967 -0.015046551
0.02004766 -0.0454838 0.02992448 0.0404985 0.1339622 0.12224816 -0.06895669 -0.018234737
-0.028556801 0.07146347 -0.034308117 -0.010792956 -0.009571072 -0.017976597 0.06640723 0.07122037
-0.123225205 0.06768865 -0.00065774086 0.041552693 -0.018866183 -0.07975984 0.026439957 0.03890816
-0.027467588 0.04232296 -0.050782453 -0.05423808 -0.10763894 -0.030459382 0.04572064 -0.0882594
0.021319987 -0.006266771 -0.021425257 -0.062156245 0.001512194 -0.04677345 0.055601217 0.012579339
-0.046197515 -0.00524322 -0.04470946 -0.024438428 0.10224031 -0.020091342 -0.034503724 0.124268174
0.07914832 0.01759009 -0.02888155 0.019380188 -0.07273857 -0.127711 0.027573757 -0.06705221
0.0732067 0.06646198 0.11624151 -0.01510721 -0.06860658 0.031229451 -0.08116078 -0.10751631
-0.010506683 -0.022432962 0.06525025 -0.04879517 0.12194431 0.02922296 -0.061875425 0.0030214458
0.033942558 -0.019016847 0.012316027 0.09811628 -0.052677322 -0.038229864 -0.019916408 -0.01631752
0.15290245 -0.024592953 0.041444164 -0.007731952 -0.007992318 -0.11024187 0.016152965 0.011258526
-0.087612554 0.10205006 -0.061235856 0.030498555 0.07167757 0.051541038 -0.02696969 0.04406272
0.059535284 0.029334003 0.019738685 -0.028147614 0.07640485 -0.049641166 0.049219325 -0.038548067
-0.061316904 0.09802205 -0.057116244 0.0399138 -0.037681576 -0.00061172567 -0.031742625 -0.002118467
0.035821844 -0.06913645 -0.047136486 0.039903477 -0.08146783 0.003495909 0.054537993 -0.085333265
-0.07808862 0.03379436 -0.0109352805 0.09530925 -0.020222677 0.14494847 -0.01663959 -0.07608281
0.12733053 0.07504299 0.018175097 0.051026788 0.017045997 -0.01540729 0.11760469 0.03392864
-0.04970657 -0.018468276 -0.010923101 0.0076385434 -0.07253504 -0.12359604 0.076937884 0.025031932
0.08169017 0.045973517 -0.052605703 -0.070085555 -0.085426204 0.01392239 -0.11963705 -0.05902544
0.010901948 -0.11411335 -0.02816864 0.114489235 0.083205126 0.11367632 -0.047894146 -0.113641046

net.5.bias f4 [48]
00000000: 8930 edbc d64f 28bd 4117 c03b cb43 943d
00000010: cef4 423d 6b20 a33c 68ca 8cbd bbc5 8cbd
00000020: 1856 423d a0da 46bd dffc 50bd 5908 183d
00000030: 06c7 663c 9c5a 80bd 0f90 043c b7de f5ba
00000040: 333f 1f3d 9131 a4bd 2fba 42bd aed5 e6bb
00000050: 4b4f 8cbc 2290 47bd cb75 85bd fde2 853c
00000060: 01a5 b93c 6d23 86bc f50b 873d bba1 6ebc
00000070: 60e4 70bc 2613 4cbd 7266 1e3d 7476 9fbd
00000080: c0ee 733d bc6d 57bd 9425 14bd 4c9f 82bd
00000090: f0c8 9dbd f2be bbbc c316 0cbd 3cdd 90bd
000000a0: 73ad a33c 1027 bfbc 7317 913c b049 45bd
000000b0: ebb1 07bb 54f2 8c3d cc6b 8c3d a37c 79bc
-0.028953807 -0.041091762 0.005862147 0.07239493 0.047596745 0.019912919 -0.068745434 -0.068736516
0.047445387 -0.04854834 -0.051022407 0.037117336 0.014085537 -0.06267282 0.008090987 -0.0018758391
0.03887863 -0.080172665 -0.04754084 -0.0070445156 -0.017127654 -0.04872144 -0.06516608 0.016343588
0.022661688 -0.016374314 0.065940775 -0.014564927 -0.014702886 -0.04982295 0.03867192 -0.07786265
0.05955386 -0.052594885 -0.03616865 -0.0637804 -0.077043414 -0.022918198 -0.034201395 -0.07073447
0.019980168 -0.023334056 0.017711377 -0.048165977 -0.0020705413 0.06882158 0.06856498 -0.01522747

exp_avg f4 [32, 191, 2]
00000000: 427c 403d ef39 003d f677 963c 2ca8 adbc
00000010: 5d2b 713c 4a08 0fbc 9483 2dbd 08f4 a8bd
00000020: 74c2 6ebd 03e1 81bd 7520 dfbc c29a 3fbd
00000030: 7598 cfbb 4be7 d6bc a4e0 65bd 0404 84bd
00000040: 0599 45bd a5fa 65bd a545 9bbd 0b99 91bd
00000050: 3452 71bb 2c45 35bc 341a d4bd 7ba0 d5bd
00000060: 2580 b3bc af8b e4bc 713a a4bd 4770 90bd
00000070: 4642 d33b 97b9 9ebc 213e fdbc 4a6c 5fbd
00000080: 2a5a 2dbb 11e6 a7bb b129 3ebd 44c2 7ebd
00000090: 3a1b 73bd 8d8e 3fbd 0cac 53bd f257 86bd
000000a0: d60d 8fbd f548 a8bd 403e 3dbd dc12 0abd
000000b0: 3d28 3dbd ef58 6cbd a958 87bd 69d0 7fbd
000000c0: a3b9 a7bd c267 b7bd e93f 0abd 6996 2cbd
000000d0: 195c b4bd e3ac 93bd 37a0 2bbd 0984 12bd
000000e0: ab50 33bd 77e2 0cbc 5b3d 2cbd dd66 6a3b
000000f0: ceed 82bd b926 8abd b376 abbc d06a dbbc
00000100: 80c4 47bd a108 99bd 2fcd c8bc 3201 72bc
00000110: f213 f7bc e688 babc 652e 65bd dc94 ddbd
00000120: 8f3b bebd f80d e0bd 8354 bebd 907b 95bd
00000130: 793e 98bc 53b6 353c 99fc 88bd 4b18 93bd
00000140: c2c3 89bd 5769 51bd 81b5 f2bc 86e6 5fbc
00000150: 8707 f6bb 0991 e03c 5038 103c 8d6d 283d
00000160: 55ec 08bd 2540 f73b 6323 30bd 103f 5ebd
00000170: a612 f5bc 2b0e 97bd db0f c6bd 9a2a fbbd
00000180: 833c 43bd 9d8f 75bd 67c2 11bd c1e8 f4bc
00000190: d0a9 c1bc 12f6 b0bc 258a 33bd 4f36 9cbc
000001a0: 6398 a0bd 0134 9abd 31ec 86bd 6de2 7ebd
000001b0: c080 a4bd c68b a0bd 88a1 09be aff6 c1bd
000001c0: 0735 35bd 50bd 7fbd bb75 91bd 38e2 46bd
000001d0: dd7a 063c b605 4e3c 3d34 f0bd 6d17 b3bd
000001e0: 2252 9bbd 52ea 85bd 6819 1dbd 0b5b 02bd
000001f0: a87a f83b a9e2 33bc 032f 2d3b d58f 88bb
00000200: b242 d7bc 2bfc 8ebc 1c3b 0c3c 3824 c63c
00000210: d4c5 6ebd d836 8cbd 6704 a4bc a426 0dbd
00000220: 81eb 063c 9eb7 acbc 67e3 3bbd 67af 92bd
00000230: bb74 b5bd 56a8 d5bd 4017 87bd a883 3bbd
00000240: de59 d7bc c9e6 5bbd 96f5 d7bb ca3a d3bc
00000250: d32d 14bd 07c1 66bd d12b 8ebd 7d48 98bd
00000260: 9f1f 7abd 6bd0 ddbc 6283 f8bc ae39 ff3b
00000270: bf93 b1bd 5a0c a4bd feb3 1fbd 3d8f ea3c
00000280: 2339 763c 8253 8d39 ec18 f0bb a7a3 433d
00000290: ed1f 84bc 9299 3cbd eb27 6c3d d626 943d
000002a0: f9e6 bd3c 672c b1bc 386d b9ba cbbe c93c
000002b0: 4547 0c3b ad26 eabb aec4 133c b01b 94ba
000002c0: 0fe2 643c 2796 a43c 8447 5dbb 130c e73b
000002d0: 3a7d 48bd 39ae 97bd e0b5 a5bd be25 5fbd
000002e0: 4e0a 0f3d 5f11 873c cf1e 01bd bf3b 28bd
000002f0: 91cf 323c 5c7e fc3b 2381 21bd 11be bfbc
00000300: 2215 90bd b605 93bd 9d1d 47bc 870f f7ba
00000310: a2e4 dbbc a279 af3a 6b1f 4c3c fdd7 bcbb
00000320: 0abd 163c cb49 343d 3e5d b0bd ea2c 84bc
00000330: 53a2 a1bd 4532 1abd 0017 abbd be19 3cbd
00000340: dd00 f7bc c62d eebc 2383 633b dcea 503b
00000350: da01 e9bb 5ae9 373d 0295 e13c 2099 313d
00000360: 143e eebc c7f4 66bc 54e6 07bd e1ae 9ebc
00000370: e0c4 34bd 61dc 53bc 37fc 3abd de70 dcbc
00000380: d9c8 a3bd 10d7 8abd b489 2fbd fa58 39bd
00000390: 4e05 40bb c6d6 2cbc 652b 613b bff7 043d
000003a0: 3e95 aabc 0a74 b13b 0120 76bd 1e39 bcbd
000003b0: f63d 4dbd c84d 12bd 6e38 bc3c 6323 c0bc
000003c0: 9a15 303d fc5e 08bc 7b5f 22bc 24cd d5bc
000003d0: d08b c0bd 83a6 bfbd 2dc0 113c 8a78 a83c
000003e0: 7d46 eabc 992e c9bc c10c 49bb 80b3 9b3b
000003f0: 1426 9dbd 78d9 6dbd 6972 8fbd 1c24 a0bd
0.0469935 0.03130525 0.018367749 -0.021198355 0.014719811 -0.008730004 -0.04236181 -0.0824967
-0.058290914 -0.06341746 -0.027237156 -0.046778448 -0.006335313 -0.026233336 -0.056122437 -0.064460784
-0.048241634 -0.056147236 -0.07581643 -0.07109269 -0.0036822679 -0.011063855 -0.1035656 -0.10431
-0.02191169 -0.027898638 -0.08018959 -0.07052665 0.0064471094 -0.019375606 -0.030913414 -0.054546632
-0.0026451447 -0.0051238616 -0.04642648 -0.062196985 -0.059352137 -0.046766806 -0.05167775 -0.06559743
-0.06985061 -0.082170404 -0.046201944 -0.033709392 -0.046180952 -0.057702 -0.066087075 -0.062454615
-0.08189704 -0.08955337 -0.033752356 -0.04213563 -0.08806629 -0.0721071 -0.04190084 -0.03577045
-0.043778103 -0.008598915 -0.0420507 0.0035766878 -0.06393014 -0.06745667 -0.020930624 -0.02678433
-0.04877138 -0.07472349 -0.024511902 -0.014770793 -0.030160878 -0.022770356 -0.05595245 -0.10819408
-0.09288704 -0.10940164 -0.09293463 -0.07298958 -0.018584477 0.011090833 -0.06688804 -0.07182368
-0.06726791 -0.05112585 -0.029627563 -0.013665801 -0.0075082215 0.027412908 0.008802488 0.0411201
-0.03342851 0.0075454884 -0.043002497 -0.05425936 -0.029916119 -0.07375749 -0.09670993 -0.12263985
-0.04766513 -0.059951413 -0.035585787 -0.029896142 -0.023640543 -0.02160171 -0.043832917 -0.019068865
-0.078415655 -0.0752945 -0.06588019 -0.062227655 -0.080323696 -0.0783916 -0.13440526 -0.09470879
-0.044240024 -0.0624364 -0.071025334 -0.048555583 0.008208004 0.012574604 -0.11728714 -0.087447025
-0.07584025 -0.06538834 -0.038354307 -0.031825107 0.007582981 -0.010979333 0.0026425726 -0.0041675367
-0.02627692 -0.017454227 0.008559015 0.024187192 -0.058294132 -0.06846398 -0.02002163 -0.03446068
0.008234859 -0.02108365 -0.045871165 -0.071623616 -0.08860155 -0.10432498 -0.065962315 -0.045779854
-0.02628797 -0.05368689 -0.0065905554 -0.025784869 -0.036176514 -0.05633643 -0.06941951 -0.07435701
-0.061065312 -0.02707692 -0.030336086 0.0077888584 -0.086707585 -0.080101684 -0.038990013 0.028632754
0.015028271 0.00026955834 -0.0073271897 0.047763493 -0.016128505 -0.046044894 0.057655256 0.0723397
0.023181425 -0.021627618 -0.001414693 0.02462711 0.0021404785 -0.007145724 0.00901906 -0.0011299755
0.013969912 0.02009113 -0.003376455 0.007051 -0.04894755 -0.07406277 -0.080913305 -0.054479353
0.034921937 0.016487775 -0.031523522 -0.041072603 0.0109137455 0.007705493 -0.039429795 -0.02340606
-0.07035281 -0.07178824 -0.012153056 -0.0018849232 -0.026842419 0.001338769 0.0124586625 -0.0057630525
0.009200344 0.044015687 -0.086115345 -0.016134698 -0.07892289 -0.037645597 -0.08353996 -0.045922987
-0.030151779 -0.02907456 0.0034715615 0.0031878268 -0.0071108164 0.044900276 0.027536873 0.043358922
-0.029082336 -0.014096445 -0.033178642 -0.019370498 -0.044133067 -0.01293096 -0.045650687 -0.026909288
-0.07997293 -0.06779301 -0.042855933 -0.04525087 -0.0029300037 -0.010549253 0.003435814 0.03246283
-0.020823117 0.0054154443 -0.060089115 -0.09190582 -0.05010792 -0.03571871 0.022976127 -0.023454374
0.04298935 -0.008323427 -0.00991046 -0.026098795 -0.09401667 -0.093579315 0.008895916 0.02056529
-0.028598065 -0.024558352 -0.0030677768 0.0047516227 -0.076732785 -0.058068722 -0.07004244 -0.07819387

exp_avg_sq f4 [32, 191, 2]
00000000: aeec 6c3b 4bf5 793b 8161 a53d 9eb8 9d3d
00000010: f019 903d ad51 833d 2448 d33d 673e d23d
00000020: 2b48 b93d d30a ac3d 3b01 173d 81d9 133d
00000030: 4d2b 493d 89fc 423d c3a9 933d 514f 913d
00000040: efc6 503d 7cc3 4c3d 1111 6b3d 68ed 6d3d
00000050: 034f 953d 0b8c 923d 94eb e73d 9d90 d83d
00000060: c24d 463d c32d 483d 79b8 993d 5b9d 963d
00000070: 4813 9d3d 9425 a13d 763d f93d 23ae e63d
00000080: 6a20 703c e7d1 763c 00f3 803d d272 7d3d
00000090: 07c2 853d 4482 893d ed4c 823d 7cce 783d
000000a0: 3a61 0f3d f884 053d c36e a03d baa0 973d
000000b0: 96f3 9e3d e513 9e3d 6829 473d bd08 483d
000000c0: 73f8 cc3d d3de cc3d c60d 1b3d 65c9 213d
000000d0: 16f2 653d 1508 513d 15bf 863d 89ad 863d
000000e0: fac1 7a3d f70b 683d 2931 163d 914e 173d
000000f0: 1ff9 8b3d 7e23 963d 9db0 c23d 56c9 b53d
00000100: 5b8d 863d 9bad 823d 9547 903d 233f 893d
00000110: f402 163d 3009 183d f1fe 853d 8caf 7f3d
00000120: 6985 943d da6c 963d 7f11 a63d 7ab9 a23d
00000130: 5567 a63d fc11 9c3d 1915 873d 0970 863d
00000140: 789d 923d 2fa7 903d 5805 833d 243d 803d
00000150: e153 753d 2ed1 673d b4a3 983d 5082 953d
00000160: 40e3 803d 713e 733d ebc7 8b3d db33 843d
00000170: cdb6 c33d 4e84 c33d cff9 df3d 6966 d23d
00000180: ce4f 0f3d e911 093d 7d81 813d 82fc 823d
00000190: 4822 8b3d c2c9 8b3d 834e 7c3d 991a 6a3d
000001a0: 89e7 d23d 2ba5 c53d a80f 643d ba7b 673d
000001b0: 0a30 4f3d 591a 513d 7e2f 743d 5f3c 623d
000001c0: 61ea 913d 0292 8e3d fea8 7b3d ffc7 683d
000001d0: a857 933d 68a7 8a3d 1de1 a13d 4394 a03d
000001e0: 6317 8c3d 976a 8d3d e9e6 7d3d 7669 7c3d
000001f0: 2b80 193d b945 0f3d ff8b e63d 41eb e13d
00000200: 8485 923d dc29 8f3d 14d4 d13d d5a1 cd3d
00000210: f195 e13d 656b d13d d8b5 8a3d f8f1 833d
00000220: 603e b43d 3486 af3d 83f7 b43d e13f af3d
00000230: 6ccf c13d 1d9d b33d 7745 8e3d bdb2 843d
00000240: bc3b 2c3d 46ec 253d 9ad4 483d 5e73 403d
00000250: 8bb4 b83d de32 b23d 6ac7 9f3d d746 a03d
00000260: c0b0 983d f8b1 8b3d 74ee ae3d 5e24 ad3d
00000270: c973 963d b2d7 9b3d 6861 7b3d 67ea 703d
00000280: db86 793d 1777 6e3d 6282 833d efb0 783d
00000290: ccbe 783d e9d2 743d 35d6 c93d 0872 bb3d
000002a0: 6e04 333d 60b1 2e3d f23e 973d 79ec 983d
000002b0: 48fe 693d 2820 613d f6ac 8c3d 809d 873d
000002c0: 76fa c63d 5421 c43d d800 513d 0389 433d
000002d0: 8b3f 823d c23f 7d3d 5bfb b83d db41 af3d
000002e0: ba01 2c3d 5d3f 323d 2593 233d 62a3 1d3d
000002f0: cd63 443d 4780 2d3d be87 943d 3d95 a43d
00000300: 1e1f c83d 878a cb3d a0c5 ce3d 4a9b cc3d
00000310: 9344 dc3d 8cf6 c93d c659 6f3d e93d 693d
00000320: 6725 ab3d 790f 9d3d cddd 123e 6893 0e3e
00000330: f0bb f03d 039b ec3d bfc1 eb3d 79a2 de3d
00000340: 685a 8c3d 63a6 893d eb11 923d f10d 893d
00000350: 7565 d43d 905b d43d 81de df3d 66d2 e03d
00000360: b186 b03d e7ce af3d 7fe6 a63d 9b5a 983d
00000370: cd0a 543d 4f7d 523d 85e1 6c3d 8551 633d
00000380: 0e01 c03d ce63 a33d 5486 c53d 6394 b13d
00000390: c35d 9d3d 2889 993d 2201 ae3d ba95 993d
000003a0: 1b10 a73d 6a17 a03d 7a75 3e3e 9db0 333e
000003b0: 4859 b83d e1b3 aa3d 93cb ae3d 03ec a73d
000003c0: 95dd b43d 5086 9a3d 579a df3d 3c1c dc3d
000003d0: bc09 963d 7d79 893d 4e81 c83d f2c3 a83d
000003e0: f686 273d 7fed 233d 40ce 973d 9cbb 7d3d
000003f0: b940 973d 722a 893d 50b5 403d 1d83 453d
0.0036151814 0.003814059 0.08075238 0.077012286 0.07036197 0.06412063 0.10316494 0.102658086
0.09046968 0.08400502 0.036866408 0.0360961 0.04911356 0.047604118 0.07210114 0.070952065
0.050970968 0.049991116 0.057389323 0.058087736 0.07290461 0.07155617 0.1132423 0.10574458
0.048414 0.048871767 0.075058885 0.07354232 0.07669693 0.078684956 0.12169926 0.11263683
0.014656166 0.015064693 0.062963486 0.06187708 0.065311484 0.06714299 0.06362329 0.060743794
0.03500483 0.032597512 0.07833626 0.07403703 0.07761304 0.07718638 0.048623472 0.04883646
0.100083254 0.10003438 0.037854932 0.039498705 0.056139074 0.0510331 0.06579415 0.06576068
0.061220147 0.056652036 0.036667977 0.03694016 0.068346255 0.07330988 0.095063426 0.088762924
0.0656993 0.06380769 0.07044903 0.067014955 0.03662391 0.037118137 0.06542767 0.062423274
0.072520085 0.073449805 0.08108806 0.07945533 0.08125178 0.07620618 0.06595821 0.06564338
0.07158941 0.07063138 0.063975036 0.06261662 0.059894446 0.056595974 0.07453099 0.07300246
0.062933445 0.05938572 0.06825241 0.06455203 0.09556351 0.095467195 0.10936319 0.102734394
0.034988217 0.033464346 0.06323526 0.06395818 0.06793648 0.068255916 0.061598312 0.05715427
0.10298068 0.09650644 0.055678993 0.05651448 0.050582923 0.051050518 0.059615605 0.055233356
0.07124782 0.069614425 0.06144046 0.056831356 0.071944535 0.067702115 0.07904265 0.07840779
0.06840398 0.06905096 0.06198779 0.061624013 0.037475746 0.034978602 0.11257171 0.11031199
0.07154372 0.06990406 0.10245529 0.10040633 0.11014927 0.10225562 0.06772965 0.06442636
0.088009596 0.08570519 0.088362716 0.08557106 0.09463391 0.08770201 0.06946843 0.06479404
0.042049155 0.04050853 0.049030878 0.046985023 0.09018811 0.087011084 0.07801707 0.07826012
0.074555874 0.06821054 0.08541575 0.08454202 0.07346303 0.076095 0.06137219 0.058817293
0.060919624 0.05821904 0.06421353 0.060715612 0.060728833 0.059771452 0.0985531 0.09152609
0.043705396 0.042649627 0.07385053 0.074669786 0.057127267 0.054962307 0.06868927 0.066218376
0.097157404 0.09576669 0.051026195 0.047738086 0.06359776 0.061828382 0.09032317 0.08557483
0.041993834 0.04351746 0.03993525 0.038485892 0.04794674 0.042358663 0.07252453 0.080362774
0.0977156 0.09938531 0.10096288 0.099905565 0.10755267 0.09861478 0.058435224 0.056943808
0.08356743 0.07668967 0.14342423 0.13923419 0.11754596 0.11553004 0.115115635 0.10870833
0.06853181 0.06721189 0.07132324 0.06692112 0.10370914 0.10369027 0.10931111 0.1097763
0.0861944 0.08584385 0.081494324 0.074391566 0.051768113 0.051389035 0.05783226 0.055497665
0.09375201 0.079780206 0.09644762 0.08670881 0.07683899 0.074968636 0.0849631 0.07499261
0.08157369 0.07816966 0.18599501 0.17547841 0.09001404 0.083350904 0.085349225 0.081993125
0.08831326 0.07545149 0.1091811 0.10747573 0.073260754 0.06712625 0.09790288 0.082404986
0.040900193 0.040021416 0.07412386 0.061946496 0.07385392 0.06697549 0.047047913 0.048220742

exp_avg f4 [32]
00000000: 73ac 7abd c36f f4bd def0 58be 1eda f4bd
00000010: 74a6 2a3d ad5a 74be dba4 263d 3db3 533c
00000020: 419e fb3c d062 2abd f8f1 063d 26f4 a03d
00000030: a5e6 90be 6d48 a23e 42a8 f6bd 42da a9be
00000040: e5ed 39bc c69c 4b3a 4797 bebd b977 d6bd
00000050: feb8 84be a5b1 f13d 6407 dcba 9e53 29be
00000060: 7b6f b63e a8f7 c6bb 2577 16be dd2e c1bd
00000070: 0554 60be ac74 833e 11d1 a33e 7d1c 293d
-0.061199617 -0.11935379 -0.21185634 -0.11955665 0.04166265 -0.23862715 0.040684562 0.012921152
0.03071511 -0.04159814 0.032945603 0.078590676 -0.28300968 0.3169588 -0.120438114 -0.3317433
-0.011348222 0.00077671965 -0.093061976 -0.10472054 -0.25922388 0.11801461 -0.001678687 -0.16535804
0.35631928 -0.0060720034 -0.14693888 -0.094327666 -0.21907051 0.2567495 0.31995443 0.041286934

exp_avg_sq f4 [32]
00000000: 5240 873f bc6e 983f 93a5 b53f b712 bb3f
00000010: 31a1 013f 3e39 8d3f 5ea5 d33f 792b c53f
00000020: e74c 943f 5e1d ac3e 4154 923f 3a46 1340
00000030: deba c83f f7cd b83f cab9 d63f 615e 9c3f
00000040: f0ad 0740 c17e 943f a1fe f43e 9982 c33f
00000050: 25c0 c43f cc29 193f 83f1 cc3f ba1e a83f
00000060: 78b8 a33f 6d67 913f b90b 543f 66e7 9c3f
00000070: 7d75 3d3f 107f 613f 6526 943f cea1 a53f
1.0566504 1.1908793 1.4191154 1.4615086 0.50636584 1.1033094 1.6534841 1.5403892
1.1585969 0.33616155 1.1431962 2.3011613 1.5682027 1.4437855 1.6775448 1.2216302
2.1199913 1.1601182 0.47850516 1.527423 1.5371138 0.598294 1.6011204 1.3134377
1.279067 1.1359688 0.8283039 1.2258117 0.740074 0.88084507 1.1574217 1.2940004
