saved_CEBRA_models/nitschke_20090812_20090819_20090910/CEBRA_models/temperature_0.0018333333333333335_time_offsets_1_dataset1.pt (torch, 531429 bytes, 31 tensors)

net.0.weight f4 [32, 191, 2]
00000000: af17 fdbb 07e6 18bd f7ef 763d da14 8bbc
00000010: ec17 0cbb a5b8 cf3c 649a dc3c f16f 35bd
00000020: cea4 2b3c b34f 053b 920f 903d 55f6 d0bc
00000030: 6f7b 5dbd ece7 ed3c 4c4c 0d3d 0f15 0e3d
00000040: d3f6 303d 9a63 c0bc 32cc 5fbd db3e e8bb
00000050: 9d64 b5bb e499 74bc 0945 9938 def6 753c
00000060: c5e0 e23c b7b4 1dbd 0138 983b 2737 52bd
00000070: da58 ffbc 6a79 f93b 4bc4 51ba 9550 21bc
00000080: b30c 343d dda1 193b f388 d7bc bc1b b63c
00000090: b730 e63c 14a2 bcbc bc01 0dbc 7c98 093d
000000a0: 3669 97bb bc45 093c d8db 7bbc 4d25 083d
000000b0: 5ec3 03bc 0903 c0bb 338a 00bd 7883 af3b
000000c0: bdb3 193c 5b0b 833d 249f 003c 031f 56bd
000000d0: 04b1 d83a 8b39 383d dfbb f33c 1615 163d
000000e0: edfa 8bbd e8fc 813d 0ae7 8bbb cb7b f73a
000000f0: 0d0a 23bc c3c8 34bc a299 033d d2f2 51bc
00000100: e601 1a3d c90f 433d 81e4 2ebd 60e1 e4bc
00000110: e206 82bc 5c3e a8bc 7df3 55bb 695b 683d
00000120: 00b8 063d 2c46 06bd 46ca 0b3d 2788 353d
00000130: b7ac fc3c 9242 10ba 06bc 9ebd 67a1 e8bc
00000140: 8334 0abc 232d 6f3c 6bf1 02bb 912b ba3c
00000150: d664 8b3d 7f8a 503d 25cc afbc 12a0 78bd
00000160: 9dbc c43c 7b48 ca3c 1717 1f3d 81c9 493d
00000170: 5cf2 ffba 6efa 143d dbe9 bbbc f989 debc
00000180: aa7a 1dbd f5ed b23c 8556 95bc e851 00bb
00000190: 0e3e d5bc a0a4 e33c 7171 14bc 82a9 2abc
000001a0: 65b1 dd3c 04ce 05bb cab0 b23d 7297 053c
000001b0: 991f 75bd c5b6 08bc dca2 0ebd 5b4c 133d
000001c0: 37ea 85bc fb99 98bb 4364 dc38 8ef9 a63c
000001d0: b83a 353d 491d f5ba 17fa 06bd 13f2 b3bd
000001e0: c220 083b 6a9c 783d 365f fa3c 06e5 603c
000001f0: 937d 743a 5126 1abd d1cc 65bc 8e24 ea3c
00000200: cc65 70bd 8d8f 253d b90c 93bc 6949 46bd
00000210: d5a0 193d d1dc bfbc d477 f13c 143c e13c
00000220: 875d c3bb a835 7dbd e657 d2ba def0 72bb
00000230: 08b2 34bd cb57 6f3c 58e0 933c 96c3 b23c
00000240: d9c6 a23c 0279 9d3d 225f 433c 3cf3 933d
00000250: f16f e53b 0ce3 5bbc 0724 c53c 368f 463c
00000260: d567 03bd 44f2 903c 5f77 8d3c e3da 913d
00000270: 342c 69bd cc42 6bbd 76b9 ecbc ab02 d33b
00000280: 2189 463d 2152 e4bc 46d8 153d f3ae 223d
00000290: 7c2c 143c efb9 05bd ea83 42bd 4c24 8ebb
000002a0: 144e a63d 9062 9f3c 8dfa 363b 81f6 2d3d
000002b0: 33e5 7abd bf0c a6bc a4ce cb3c 6bc3 36bd
000002c0: 0167 ce3c 8720 963c b112 64bd 2c6a 993c
000002d0: a2fb 08bc 6393 7f3c f9c4 3d3d b18c f1ba
000002e0: 7496 7c38 f381 0ebd 649d c73d baa9 cc3c
000002f0: 9398 f83c 4256 883d 11eb 9b3c 27fd a2ba
00000300: 0d14 023d 3359 bc3c 1c6f 7d3b 1585 efbc
00000310: df6f 99ba 5f9f 113b e3a4 b03b 7fb4 463d
00000320: 26ee c1bb b0af 6f3b eeb7 f63c 8016 e6bb
00000330: 496b 9abc 0abb d83c 78e2 87bc abb8 32bd
00000340: ccd0 ff3c a926 70bc cd34 b1bc a814 1cbc
00000350: 9ec4 2a3d 08c2 96bb 6e60 99bc cc66 63bc
00000360: 2544 273d 9d28 a13c cc79 463c b340 f63c
00000370: 9c7e f1ba b66f 723b 8e50 22bd d246 863d
00000380: 9118 03bd 5755 3abd 0d05 64bd ade8 3dba
00000390: 87a0 98bd 927c debd 228f 173d 4458 1b3d
000003a0: 0310 733c a4d9 793c 033f 033d bdf4 88bc
000003b0: b649 cfbc d5a1 74bc 8c49 ed3a c1ab 8d3d
000003c0: 1acd 863c c007 66bc f83f a43d 2e71 d7ba
000003d0: 2b9d 41bc 417d e23c 98ed c73c d041 d23b
000003e0: f8da 5b3d f195 ca3a 5ac0 143d 27ac ccbd
000003f0: 0770 973c 4225 3b3b 78bc 173b 09a4 063d
-0.0077237706 -0.037328746 0.060287442 -0.016977716 -0.0021376563 0.0253566 0.026929088 -0.04429621
0.010476304 0.0020341694 0.0703422 -0.025508085 -0.054072794 0.029041253 0.03449659 0.03468805
0.04320414 -0.023484994 -0.054638095 -0.007087571 -0.0055356757 -0.0149292685 7.308467e-05 0.015012471
0.02769507 -0.03850242 0.004645348 -0.05132213 -0.031170297 0.0076133506 -0.0008001967 -0.009845872
0.043957423 0.0023442425 -0.02631042 0.022230022 0.0280994 -0.023026504 -0.008606371 0.033592686
-0.0046206964 0.008378442 -0.015372239 0.033238698 -0.008042185 -0.005859737 -0.031381797 0.0053562485
0.009381232 0.0639865 0.007850442 -0.05227567 0.0016532247 0.044976752 0.02975267 0.036641203
-0.0683497 0.06347066 -0.0042694854 0.0018881498 -0.009951127 -0.011034193 0.032128938 -0.0128142405
0.037599467 0.047622476 -0.042698387 -0.027939498 -0.015872423 -0.020537548 -0.003264635 0.0567278
0.03289032 -0.032781765 0.03412845 0.044319298 0.030844076 -0.0005503084 -0.077507064 -0.028397275
-0.008435371 0.014598164 -0.0019980322 0.022725852 0.06806342 0.05091333 -0.021459648 -0.06069953
0.02401572 0.024692765 0.03884038 0.049264435 -0.0019527185 0.03637164 -0.02293866 -0.0271654
-0.03844706 0.021841982 -0.018229732 -0.001958007 -0.026030567 0.02778846 -0.00906025 -0.01041639
0.027062127 -0.0020416984 0.08725126 0.008153783 -0.059844587 -0.008344357 -0.034823284 0.03596149
-0.016347034 -0.004657028 0.00010509093 0.020382669 0.04424545 -0.0018700744 -0.032953348 -0.08786406
0.0020771478 0.060696043 0.030562978 0.013726478 0.00093265733 -0.037634198 -0.014025883 0.028581884
-0.05869083 0.040420104 -0.017950403 -0.048409853 0.037506897 -0.023420723 0.029476084 0.027494468
-0.005962077 -0.06181875 -0.0016047924 -0.0037069838 -0.044115096 0.014608334 0.018051311 0.021821778
0.019870209 0.07689096 0.011924537 0.07224128 0.00700187 -0.013420831 0.02406503 0.012119105
-0.032081444 0.017693646 0.017268835 0.071218275 -0.05692692 -0.05743675 -0.028897028 0.006439527
0.04847062 -0.027871193 0.036583208 0.039717626 0.009043809 -0.032648023 -0.047489084 -0.004337823
0.08120361 0.019456178 0.0027920336 0.042471413 -0.061253738 -0.02026975 0.024878807 -0.04461996
0.0251956 0.018326057 -0.055681888 0.018727385 -0.008360775 0.015599105 0.046330426 -0.001842877
6.0221602e-05 -0.034791898 0.09746817 0.024983276 0.03034619 0.06657077 0.019032987 -0.0012435064
0.031757403 0.022991752 0.0038670963 -0.029238263 -0.0011706314 0.0022220237 0.00539075 0.04851198
-0.005918282 0.0036573224 0.030117001 -0.007021725 -0.018849986 0.026456375 -0.01658748 -0.043633144
0.031227492 -0.014657655 -0.021631623 -0.009526409 0.041691415 -0.004600767 -0.01872274 -0.013879489
0.040836472 0.019672686 0.012114 0.030060148 -0.0018424573 0.0036992854 -0.039627604 0.06556477
-0.03200585 -0.045491543 -0.05566888 -0.0007244449 -0.07452493 -0.10863604 0.037001736 0.037925974
0.01483536 0.0152496435 0.032042515 -0.016718263 -0.025303703 -0.014931162 0.0018103584 0.06917525
0.016455222 -0.014039934 0.080200136 -0.0016436928 -0.011817257 0.027647616 0.024405286 0.006416537
0.05367562 0.0015456063 0.036316253 -0.09993773 0.018486036 0.0028556143 0.0023153108 0.03287128

net.0.bias f4 [32]
00000000: 7f91 6ebd 0e8c a13c 2c20 7abc 3768 e73c
00000010: 565c 293d 951f 3dbc 8f11 1dbb 4333 153d
00000020: e0f8 edbc 5483 5ebd 47fb 5dbd 93cb 6fbd
00000030: 893a 23bd 1ce6 3a3c 04bb 9e3c ca0c 703d
00000040: f91c 9ebc ef95 25bc d6f2 86bd d868 a13b
00000050: ec26 cbbc 1447 b53c ed27 fe3b e67d 31bb
00000060: dfeb 4fbd a60f af3c 3d22 9e3c 2ef2 dfbc
00000070: 93a7 9a3c ea4b 44bc 1189 3cbd 0139 e9bc
-0.058244225 0.019720104 -0.015266459 0.028247936 0.041347824 -0.011543174 -0.0023966765 0.03642584
-0.029049337 -0.054324463 -0.054194715 -0.058543753 -0.039850745 0.011407401 0.019376285 0.058605947
-0.019300925 -0.010106548 -0.06589286 0.0049258284 -0.024798833 0.02212862 0.0077562244 -0.0027083098
-0.050762054 0.021369766 0.019303435 -0.02733716 0.018878734 -0.01198099 -0.046029154 -0.028469564

net.2.module.0.weight f4 [32, 32, 3]
00000000: ab91 943c f497 bebd 797d e33d 71d1 d7bd
00000010: 752d 4e3d 4a03 d13c 74ac 25bd ffac b03c
00000020: 0261 27bc 373f 42bc cfc1 fabb aaf3 96bd
00000030: 54de 63be 5601 e2bd 5119 0fbd ce66 ef3d
00000040: 7c2e 133e 306f e33c c8fd f83d 8793 b63c
00000050: 7e1e 5f3d 5059 7c3d 0e2f c53d 7377 a4bd
00000060: f3eb bbbc 61f4 053d f927 80bd c87b 923d
00000070: 9ae2 c53d 0e55 18bd 5ca1 213d 58fe 92bd
00000080: 1b84 19bc ed09 36bc 1cdd e0bc 455d 173d
00000090: 36e5 dbbc 1eae b1bd 4258 e83c b5f1 743d
000000a0: c3a8 eabd 5f18 6e3c 6a9c 493d 4f28 b3bc
000000b0: 6424 07be 4d1f 533d fb59 8d3d b450 823d
000000c0: 0032 083e 3085 54bc c67f 563d f4fb c63d
000000d0: 5cb1 9e3d d61a 473d c9e9 48bd 562b ffbd
000000e0: 9056 58bd 3051 f1bd 68f1 05bd bc4f 7f3d
000000f0: 100a 2e3d 7951 9fbd 7a76 cd3d a303 0f3c
00000100: 401c 443d 4494 c5bd be08 de3d fc85 353c
00000110: 181c 8dbd fdb9 b53d adf4 5b3d e729 813d
00000120: 604a 253d ecc6 88bd 826c a63d 2e5c 103c
00000130: 1b34 ba3d a2ed 0cbe 73f0 cabd ec18 8c3d
00000140: 36d2 b43d f831 863d 9283 15bd 3902 74bd
00000150: 8252 ecbd d51f 1a3d 5b64 7f3c beb1 1cbd
00000160: 33a3 8abd 1b70 5f3d e0ce 2bbd 8548 9f3d
00000170: 4745 723d 3c3d 993d 4b28 e3bc 9583 eabd
00000180: a22b d93d 3a01 5cbc 1c38 cc3c d93b 2d3e
00000190: b468 053d b537 d83d 0509 803d 8fc9 7b3d
000001a0: 9bac 83bc 8efc e4bc 8326 88bd ba62 e93d
000001b0: 4b50 30bc bb0d 713d 4bcf 6e3d 0202 553d
000001c0: 0ac4 adbd 4599 24bd 94ea 3b3d 5bf3 c8bd
000001d0: 3c8c 853d 8e03 9bbd 7c51 77bd 51d2 17bc
000001e0: a94a 913d dc92 2d3d e0cb 84bd c81d a8bd
000001f0: e616 103d b544 a53d 4f4a e7bd 5709 d33d
00000200: 5d9f d6bc e87a bd3d 4860 b7bd 65e5 fd3d
00000210: e195 aabd 54db 1fbd df38 74bd 935c 9e3d
00000220: ce79 e83d a433 c5bc 0a26 623d db51 ec3c
00000230: 9d3b c4bc ae55 1a3c 1807 273d cca8 ae3b
00000240: a721 d4bd cec3 8bbc 6764 38bc 5c06 84bd
00000250: 2cb5 313d 9160 7a3d 0399 9f3c 5a23 adbd
00000260: 7a55 b73d 9907 ba3c 8798 573d cd8e 6a3d
00000270: 70ef a3bd fb97 10be 7e08 7cbd 074b 4a3d
00000280: 42d4 af3d 23c0 cb3d 0b41 cc3c 75a3 8bbd
00000290: b40e cd3d 773e a53d 4ce0 3c3d 025c 923d
000002a0: babf 873d d446 83bd 0fa3 9fbd 9c3e f9bb
000002b0: 70e2 bcbd 1f0a a0bd 4383 353d 38f9 68bd
000002c0: 8308 393d 1c28 01be 6942 e13c d93d 4ebd
000002d0: 0785 88bd 212f f23d 347e c93c 2316 8bbd
000002e0: c447 4e3d 784d 89bc 50ac 27bd ea06 58bc
000002f0: a897 81bd 8b5c fd3c 0d23 823b 7739 f43d
00000300: 3cb7 f6bd 3f9e 44bd 8040 e1bd c822 973d
00000310: d25f 9e3d 2213 b23c b2d3 a4bc 6373 25be
00000320: d697 0abe cea3 853d e812 003d fac5 c6bd
00000330: 6d58 cfbc a0c1 253d d226 a1ba 505e 4fbd
00000340: 94cf b43d 7ce9 99bd e2c2 14be e18d 003d
00000350: 934e 0f3d dbb1 4abb 40e0 2e3d fb4e a43d
00000360: cf83 d5bc 3ba1 8ebd 1fb3 4bbe 391b 163c
00000370: 2022 bb3c 609a 8ebd 6563 15bd 46a7 9cbd
00000380: e9af a73c f4ff 37bc c02a e2bd 5f5b 623d
00000390: 9b3b debd 472b f4bd faa6 8fbd 3619 6d3d
000003a0: e4ae ad3c d976 7d3c 4049 f63c 254f 663d
000003b0: 105c 07be 96f7 193e 2cac f23d 2131 6cbc
000003c0: efac aa3d a780 383d 3e01 af3d 816e cfbd
000003d0: 9dc3 173e 33d8 213e 35c3 8c3d cc9f e0bc
000003e0: d46d 8cbd c5cb aabd 7e04 e1bd f5d2 b2bd
000003f0: d4ad f7bd 7a4e 9dbd 8549 c43c 32bc fe3d
0.018135866 -0.093063265 0.111079164 -0.10537995 0.05033632 0.025514264 -0.040447667 0.021566866
-0.010216 -0.011855892 -0.0076524983 -0.07370694 -0.2225278 -0.11035411 -0.034936253 0.1168953
0.14373201 0.02776298 0.1215778 0.022287143 0.05447244 0.061608613 0.096281156 -0.08030596
-0.022939658 0.03270376 -0.06257624 0.07152516 0.096623614 -0.03719049 0.039460525 -0.071774185
-0.009369875 -0.011110765 -0.027449183 0.036954183 -0.026842695 -0.08675788 0.028362397 0.059800822
-0.1145797 0.014532178 0.049221434 -0.021869807 -0.13197476 0.051543523 0.06901928 0.06363049
0.13300323 -0.0129712075 0.052367948 0.09716025 0.07748672 0.048609577 -0.04905108 -0.124594375
-0.052816927 -0.117830634 -0.032700926 0.0623319 0.042490065 -0.077792116 0.10032363 0.008728894
0.047878504 -0.0964742 0.10841511 0.011079308 -0.06890124 0.08873365 0.053700138 0.0630682
0.040354133 -0.06678566 0.08126165 0.00881104 0.090919696 -0.13762525 -0.09909143 0.06840691
0.08829157 0.065524995 -0.03650243 -0.059572432 -0.115391746 0.037628014 0.015587891 -0.038255446
-0.06769409 0.05455027 -0.04194534 0.07777504 0.0591481 0.07482383 -0.027729174 -0.114508785
0.106040254 -0.013428027 0.024929099 0.16917361 0.032570556 0.105575 0.0625172 0.061471518
-0.016073516 -0.027952459 -0.066479705 0.11395784 -0.010761331 0.058850985 0.05830316 0.052003868
-0.08484657 -0.04018523 0.045878008 -0.09812041 0.06520888 -0.075690374 -0.060380444 -0.009266452
0.070943184 0.042376384 -0.064841986 -0.08208805 0.035178088 0.080697455 -0.1129347 0.10304516
-0.026199037 0.09251958 -0.08953911 0.12397269 -0.083293684 -0.039027527 -0.05962455 0.07732501
0.113513574 -0.024072476 0.055212058 0.028847625 -0.023954207 0.009419842 0.04077825 0.0053301807
-0.10357981 -0.01706114 -0.0112544065 -0.064465255 0.04338567 0.06112725 0.019482141 -0.084540084
0.0895185 0.022708701 0.052635696 0.05726509 -0.080046535 -0.14120476 -0.061531536 0.049387958
0.08585407 0.099487565 0.024933359 -0.06818286 0.1001257 0.08068555 0.046112344 0.07146455
0.06628366 -0.06409994 -0.07794773 -0.0076063406 -0.09222877 -0.078144304 0.044314634 -0.0568783
0.045174133 -0.12612957 0.027497487 -0.05035195 -0.06665998 0.118253954 0.024596311 -0.067913316
0.05036141 -0.016760573 -0.040935814 -0.013185242 -0.06327754 0.030927917 0.0039714635 0.11925023
-0.12046668 -0.048002478 -0.109986305 0.07379681 0.0773312 0.021737639 -0.020120475 -0.16157298
-0.13534483 0.06525384 0.03126803 -0.0970573 -0.02531072 0.04046786 -0.0012294895 -0.050627053
0.08828655 -0.07515237 -0.14527467 0.031385306 0.034987044 -0.0030928764 0.04269433 0.08022877
-0.026063828 -0.06964346 -0.19892548 0.009161764 0.02284342 -0.069630384 -0.036471743 -0.076490924
0.020469623 -0.011230458 -0.1104331 0.05526292 -0.108512126 -0.11922317 -0.0701427 0.05788537
0.021201558 0.01547023 0.030064225 0.05622782 -0.13218713 0.15035853 0.118492454 -0.01441601
0.08333766 0.045044567 0.08545159 -0.10128499 0.14820714 0.1580513 0.0687317 -0.027419947
-0.068568856 -0.08339647 -0.10987185 -0.08731643 -0.12093702 -0.07680984 0.023960838 0.12438239

net.2.module.0.bias f4 [32]
00000000: 6263 ce3b b069 d73d 7d56 963d 7a74 2a3d
00000010: c4ed cd3d f8f1 823c 0143 5b3d 60e7 773d
00000020: ee41 f9bb 1005 e9bc 67b9 95bc 90a0 113d
00000030: 721a 60bd 60dd 86bd a73b 84bd 5b69 da3d
00000040: a188 12bd 0ff4 28bb e3c0 893d 2502 763c
00000050: ffc7 933d ae6c 073d c8e0 293d 1fa6 c7bd
00000060: d0dd ecbd 7c28 c73d 98f1 8f3d 2795 8d3d
00000070: f006 98bc f5e8 623d 57af 243d b5de 87bb
0.0062984684 0.10518205 0.07340715 0.041614987 0.10055116 0.01598452 0.053530697 0.06052339
-0.0076067364 -0.028444797 -0.018276883 0.035553515 -0.05471272 -0.06585193 -0.0645669 0.10664626
-0.03577483 -0.0025780236 0.06726243 0.01501516 0.072158806 0.03306263 0.041474134 -0.09748482
-0.11565745 0.09724519 0.07028502 0.06913214 -0.018557996 0.055397946 0.04020628 -0.004146422

net.3.module.0.weight f4 [32, 32, 3]
00000000: 7bd0 963d c219 bfbb 69e9 11bd 817d 183c
00000010: 0a7c b7bc 0536 2d3d d89f 18bc 88b8 4fbd
00000020: fa0e 433d 4635 063d f3cb 413d 5900 debc
00000030: 8ae5 20be f276 b83c 81e8 14bd 0fe9 103d
00000040: 44c5 87bd afc6 10bc cac0 3bbd 9a8b 3d3d
00000050: 01f9 a8bd 5ede 713d f1cc 29bd 16a8 a43c
00000060: ea87 55bd 0f96 a63d e64b 1f3d 21f8 133e
00000070: 5ac2 913d 24de 17bd f9c2 443c a750 86bd
00000080: 1150 073d 2747 5cbc 8e1f 8fbd 1404 453d
00000090: 7849 6abd 8f2a eb3d 4663 d63d c443 093e
000000a0: 02bc 5c3d c07d b3bc 8efa 7f3c 53b6 a5bd
000000b0: d017 45bd e87d ad3d ed8e ed3d 2d0e 29be
000000c0: fe61 973d b561 983d 0cb9 c63c 0329 1c3d
000000d0: a4ad c43d 3a25 9abd 01b0 94bd f803 a03d
000000e0: 1b42 de3d f1f8 a53d a2b6 f43d c325 493d
000000f0: 6caf aabd b100 b73d d94c 203e 3d2f b6bd
00000100: 4695 ad3c 49ee 4e3d cc50 1d3d ea3a 813d
00000110: b612 41bd 2e39 2d3d 9346 0e3d 7fd0 1dbd
00000120: 4896 89bc e65e 26bb 9adf c93c d540 c43d
00000130: a346 afbc 8e3a c7bd 1fc3 cdbb d749 b23d
00000140: 5228 dc3d c89c f1bd 9100 1ebc b8bc 81bb
00000150: 2ae0 803d 1928 983c 2433 ac3d 87ec 0ebe
00000160: 4ed1 a3bd 4350 84bd c119 043c 0752 d3bc
00000170: e2e9 99bd 229c f83d 62ea 3f3d 5e01 5ebd
00000180: f8c3 c9bd 3c9f d33a 1dcc a6bd 8ef9 623d
00000190: e3e3 24bc 5dda a7bd 1e6c 153d 64c8 cebc
000001a0: b153 6abc 68d5 853c 3dbb 22bd fb7a 9abb
000001b0: 7260 9a3d 03a2 47bb 763c 49bd bb87 d6bd
000001c0: 0d68 57bd 38a0 a7bd d2ac c2bd b79c 0ebe
000001d0: 9bc4 a43d 83f9 dabd 51e0 9b3d 5f03 7bbc
000001e0: 6ce4 1f3d f598 10bd 9396 00bd f98e e3ba
000001f0: 206f 0abc 16c7 673d d552 9b3d de21 c53c
00000200: 9383 8bbd 5a6f d73d 0208 913d 2c7a 613c
00000210: a7d0 af3d 5b4d 103c 6672 a93c b5ca 2b3e
00000220: 5ec3 22bc c3cf f73c 7e5a 9f3d 17f3 f4bd
00000230: 130f 313c a95e 9a3d a62d 973d ef13 12bd
00000240: 96e3 14bb bd45 843c 97be 13bd f14b f63d
00000250: eaac 43bc bfe2 ce3d 561b 903d e12c 5e3b
00000260: bddf 29bb 5fb5 92bd 1b5a 6bbd 5ae0 e5bd
00000270: 6073 71bb e7d7 b23c 79f5 ffbb 716d 93bc
00000280: f00e c33d 206e f23d f38c 80bd 0b66 b2bd
00000290: ef52 8ebd 82e8 d4bd ffc1 16bd 3fcf ee3d
000002a0: 1815 eb3d 4df6 173e 735d f43d 9521 1fbe
000002b0: 4971 c9bc 4798 c8bc 17c7 d2bc d056 63bd
000002c0: dc14 3ebd 028b dd3d 57f4 e73d b23a 10bd
000002d0: 6fcc b23d 2990 283e d6bf 5d3d 5ad1 bbbc
000002e0: 022e 8a3d fc64 943d b78f 5ebd 225c febc
000002f0: b216 1d3c fe55 38be 0bfd 32bd 02c6 cd3d
00000300: 5ed4 7c3d 1161 3ebc 6988 a23c 81bd 053e
00000310: 5314 fe3d d596 db3d a8bb e03c ceeb 113d
00000320: 8620 62bd 8dc4 583c 0298 a3bd 197b d13c
00000330: 89e6 513d 9e3d 94bc c5ac 1d3d a24b 02be
00000340: 7da7 20bd a2e6 97bd 7cdc 6e3d 58ff d2bd
00000350: ee53 f5bd 77c9 0c3e e35c c73d b274 19be
00000360: 2ea3 093b 578e 8cbd 1452 903c c18e 97bd
00000370: 65f6 933c 4b09 91bc 0735 07bd f401 7d3d
00000380: 5934 2e3d 791d 77bd 4636 453d 18d8 c8bc
00000390: d871 83bd cb80 013d 45f3 973d b618 c4bd
000003a0: 9e63 cebc 2afc 74bc 2e93 85bd 1e28 8bbd
000003b0: df05 223d e3c7 57bd 2fa1 a0bd c50e c93a
000003c0: dd88 fe3c 70e3 a33d 7a8f c6bc 97ad 08be
000003d0: 9811 44bd 18c2 c13c 2456 933c fea3 f33d
000003e0: b039 dd3d 5535 8b3c 086a 903d 6bf9 b6bc
000003f0: 74f0 c63c 2fcd 85bd 4c3b 903d ed79 c73d
0.07363983 -0.005831928 -0.035622988 0.009307266 -0.022398014 0.042287845 -0.0093154535 -0.050713092
0.047621705 0.03276565 0.04731364 -0.027099775 -0.15712562 0.022517655 -0.036354546 0.035378512
-0.06629422 -0.008836432 -0.045838155 0.046275713 -0.08250619 0.059049957 -0.041455213 0.02009968
-0.05213157 0.0813409 0.03889074 0.14450122 0.07117148 -0.037077084 0.012009376 -0.06558352
0.03303534 -0.013444698 -0.069884405 0.048099592 -0.05719897 0.11482727 0.10468154 0.13404757
0.053890236 -0.021910548 0.015623702 -0.08091416 -0.048118412 0.0847128 0.115995266 -0.16509314
0.073917374 0.07440511 0.02425816 0.03812505 0.09603432 -0.07526632 -0.072601326 0.07813257
0.10852452 0.081041224 0.11948897 0.049108278 -0.0833424 0.08935679 0.15654315 -0.08895729
0.021189343 0.050520215 0.038407132 0.06310065 -0.047136985 0.04229086 0.034735274 -0.038528915
-0.016795292 -0.0025386154 0.024642754 0.09582678 -0.021395987 -0.09727965 -0.0062793638 0.0870549
0.10749878 -0.11797482 -0.00964369 -0.0039592646 0.06292756 0.018573808 0.08408192 -0.13957416
-0.07998906 -0.06460621 0.008062781 -0.02579595 -0.07515313 0.12139155 0.046854384 -0.054200523
-0.09851831 0.0016145478 -0.081444 0.055413775 -0.010064098 -0.08195946 0.03648006 -0.025242038
-0.01430218 0.016337112 -0.039729346 -0.0047143674 0.07537927 -0.0030461557 -0.049129926 -0.10475107
-0.052589465 -0.08184856 -0.09505619 -0.1392697 0.08045312 -0.10692122 0.07611144 -0.015320628
0.0390362 -0.03530212 -0.0313936 -0.0017361335 -0.008449346 0.056586348 0.07584158 0.024064
-0.06812205 0.105192855 0.070816055 0.013762038 0.08584719 0.0088075055 0.020684432 0.16776545
-0.0099342745 0.030250436 0.07780932 -0.11960428 0.010806817 0.07537586 0.073817536 -0.03566354
-0.002271866 0.016146535 -0.036070433 0.120262034 -0.011943081 0.10101842 0.07036464 0.0033901262
-0.0025920712 -0.071635 -0.05745898 -0.11224432 -0.003684245 0.021831466 -0.007811245 -0.017996522
0.095243335 0.11837411 -0.06276884 -0.087108694 -0.06949412 -0.1039591 -0.036806103 0.11660623
0.11478633 0.1484005 0.119318865 -0.15540154 -0.024590151 -0.024486674 -0.025729699 -0.055502713
-0.04640661 0.10817529 0.11325901 -0.035212226 0.08730399 0.16461243 0.054138027 -0.022926975
0.067470565 0.07245824 -0.054336276 -0.031049792 0.0095879305 -0.18001553 -0.04369835 0.100475326
0.061725967 -0.011619822 0.019840436 0.13060571 0.1240622 0.10722128 0.027433231 0.03562527
-0.055206798 0.013230455 -0.079879776 0.025571393 0.051245246 -0.018095788 0.038494844 -0.12724164
-0.03922223 -0.074170366 0.05831574 -0.10302609 -0.11978899 0.13748728 0.097345136 -0.14985922
0.0021001804 -0.06863087 0.017617263 -0.07400275 0.018061826 -0.017704627 -0.033009555 0.06176944
0.04253039 -0.06033084 0.048147462 -0.024517104 -0.06418198 0.031616967 0.07419447 -0.09575026
-0.025193986 -0.014952699 -0.06522213 -0.06794761 0.03955638 -0.05268086 -0.07843243 0.0015339485
0.03107112 0.08002365 -0.024238337 -0.1334747 -0.04786834 0.023652121 0.017985411 0.118965134
0.10802019 0.016993204 0.07051474 -0.022335729 0.024284579 -0.06533276 0.0704256 0.09740052

net.3.module.0.bias f4 [32]
00000000: edc2 3b3d 8817 883c c5e5 2d3b 47dc f73c
00000010: 88a9 cb3c 701a 9f3c 9c01 d03d b9ad 83bd
00000020: d164 bbbc 793d 7abc 3984 9ebd 6237 63bd
00000030: 934b 07bd 9779 32bd 0baa 46bd 5273 813d
00000040: 9825 af3d 92a6 653d 5ba4 25bd e748 98bb
00000050: dcfd d9bd 64ad 28bd 39e1 9dbd 4229 14bc
00000060: 7242 903d bb28 853d bba7 a43c 2de2 863c
00000070: e6e0 9d3d 641f 2b3d efc6 b9bc 3416 4b3d
0.045840193 0.016612783 0.0026534658 0.030256404 0.024861112 0.019421786 0.10156557 -0.06429619
-0.022875221 -0.015273445 -0.07740063 -0.05547274 -0.033031058 -0.04357299 -0.04850201 0.06320824
0.08552092 0.056067057 -0.040439945 -0.0046473625 -0.10644123 -0.041180983 -0.077089734 -0.00904304
0.070439234 0.06501909 0.020099511 0.01646527 0.077089116 0.041777983 -0.022677867 0.04958172

net.4.module.0.weight f4 [32, 32, 3]
00000000: fbc6 d23d 3988 703d ea13 a13d 9d54 033b
00000010: 335e 083d 7cac a1bd 36d9 b03d b4da e93d
00000020: 9bb8 793d d72c 88bc bd31 91bd 1407 903c
00000030: f300 72bd 240e 9b3c 9c27 943d 96ca 45bd
00000040: c68a 433d 8144 053d ec95 d03d bb91 c7bd
00000050: 0171 1b3c 3afe 0cbc f998 2bbc 2dfd 963d
00000060: 768c 583d a732 843d a11e d6bd 8400 293c
00000070: 57d2 d73d c0b6 dc3c c9c2 d33a 8f9b c43d
00000080: 2551 bdbd 8985 4b3d cd2a ea3d fec5 063e
00000090: 6c84 b5bb bf68 b1bd ef75 f43d d493 833c
000000a0: cd96 a13b a74b b3bd 4696 743c e05c a0bc
000000b0: 5d84 f1bc bc4a aa3c 31d6 933d bb10 0dbe
000000c0: e235 0a3e 17a0 26bb f2dc cebd 459a c1bd
000000d0: f0d4 c5bd cb19 b1bc e500 a43c 71ea 9b3d
000000e0: 8123 d7bc 6bcb c73c 81b7 c93d b691 5c3d
000000f0: 4b46 d73d ac9f 7bbc 5f67 51bc 2a17 4e3c
00000100: 5af7 8dbc d797 a8bd 4c83 ff3d 311d bdbd
00000110: 709c 7b3c aadf d93d b491 f13c ac32 51bd
00000120: 76ae ac3c 9bc0 8e3c d2c9 ecbd 1b60 6cbd
00000130: c323 0e3d b854 c23b d3e9 adbd 1da7 343d
00000140: 9e6f 83bd f5b0 dbbd 5945 e73b 023c d53d
00000150: 6f16 e4b9 9ed0 8ebc 7a32 813d 1d0b c3bc
00000160: fdb7 093d 6d48 f73d 9be2 9c3d 4a72 a9bd
00000170: 6efc 4f3d 701d 3abd 8aea 2f3d 44b4 fa3c
00000180: 43ac f7bd 973a c03d 16fc 183d f1e7 e73d
00000190: 97f1 9c3d 4349 433d baec 4ebd e5b4 afbd
000001a0: ce4e 9dbb 4bba c33d 4891 983d 7221 cc3c
000001b0: 7e38 3e3d f3d3 833d 6db2 b8bd fd6b 8bbd
000001c0: 4e39 053d 0bb6 633d 17c1 06bd 1f7b 16be
000001d0: f709 bc3d a1e4 063d ef55 f43d c9fe 593c
000001e0: cc53 313d 34d2 36bd d3b3 01bc 5c4b ecbd
000001f0: 91c1 e33c d87a e9bc bb6c 62bd 7e92 283d
00000200: 93bd 80bd d880 5abd a819 c03c d285 2e3d
00000210: 71c8 133e 6683 1f3d 351c 79bd f1fc e7bb
00000220: e2fa 99bd b4a1 60bc 05c2 a4bd 7f50 8f3d
00000230: f742 963d f74a 2ebd 934b f13d 269a 813b
00000240: fa30 833c 9e4d 873d 9aaf 7a3d 92ce 27bd
00000250: 1dd1 22bd d4bd bdba 4da2 023e bc2a ac3d
00000260: e814 b9bd 04ae ee3c ad81 9a3a 52cf a5bb
00000270: 28d6 be3d 3b4a b33c f946 dd3d 5a67 1b3d
00000280: 983d e23c bea6 c03d 02bc 3d3d 651b e7bd
00000290: 4ffc 9ebd f0fa 603d f6c4 d9bd 2774 bdbd
000002a0: a736 143d 6e2f d53d 9f44 35bd d263 f8bc
000002b0: 7c30 663d 0d81 52bd 924b 123e 2cc0 5f3b
000002c0: cf4a efbb bd87 8d3d 1a61 493d 81cb 06bd
000002d0: d8c2 a0bd bcf9 e53c a20e 033d 130d 0d3d
000002e0: a926 11bd 3823 d33d 5f23 b3bd 87fc b13d
000002f0: 489b 683c 6119 bcbd 2543 a0bc d0ad 0d3e
00000300: a509 383c c0ed 203e 490f ddbd 7aaa 1c3d
00000310: 9eb5 c33d dc31 7d3d fa27 d13c 2627 4d3d
00000320: 77ec 0abd 5756 9dbd 0125 92bd e90c ebbb
00000330: e774 b83b 897a 963d a225 d23d 8ccf 95bd
00000340: 123f d1bc c60c 84bc 1cc7 6bbd 69f0 a23d
00000350: d40c 4e3d 5e00 aebc 0e7a 5dbd f97c d43c
00000360: 7916 e63d 027b 1e3d 9608 4cbd e54f cbbd
00000370: 1bda 5bbd 077b a9bc a758 a53d 72e7 aebc
00000380: 0895 d63d 9ad0 cebd 3a4c 1b3c 8950 023c
00000390: f8d0 c53c 3205 81bd 38ca 5d3d 130b 7cbb
000003a0: a702 963d 1b4d b43c fe59 97bd 8935 463c
000003b0: 703e d6bd 3479 0f3c 88f9 7cbd c6c6 073e
000003c0: 05bb 87bd 7746 99bd 1761 6fbc 1789 c1bd
000003d0: c434 34bd a573 283d 802f 933c 9de5 8a3d
000003e0: d0bb 02bd 7d1e 983d 7062 923d da6a 8abc
000003f0: e140 a3bd c577 8abd c8a5 ba3d 83e0 833d
0.10291859 0.058723662 0.078651264 0.0020039447 0.03329296 -0.07894227 0.0863518 0.114186674
0.06096707 -0.016622944 -0.07089565 0.0175815 -0.059082936 0.018927641 0.072341174 -0.048288904
0.047739767 0.032536034 0.10184845 -0.09744593 0.009487391 -0.008605534 -0.010473483 0.07372508
0.05286833 0.06454974 -0.10455061 0.010315064 0.10538166 0.02694261 0.0016156073 0.09599983
-0.09243993 0.049687896 0.11433945 0.13161466 -0.0055394676 -0.08662557 0.119365565 0.0160617
0.004931307 -0.08754664 0.014928406 -0.019575536 -0.029482061 0.02078759 0.07218588 -0.13775913
0.13497117 -0.002542501 -0.10100736 -0.09453253 -0.09659755 -0.021618744 0.020019958 0.076130755
-0.026262047 0.02438899 0.09849454 0.0538499 0.10511454 -0.015357893 -0.012780993 0.012578765
-0.01732986 -0.08232086 0.12476215 -0.092340834 0.015357122 0.10638364 0.029488422 -0.051073715
0.021079283 0.017425826 -0.11561932 -0.05770884 0.034702074 0.0059305094 -0.08491864 0.044104684
-0.06417774 -0.10727111 0.0070578274 0.10411836 -0.00043504263 -0.01743346 0.06308456 -0.02380901
0.03362273 0.12074361 0.07660409 -0.08273752 0.050777845 -0.04543823 0.042948283 0.030603535
-0.12093403 0.09386175 0.037349783 0.11323536 0.07663267 0.04767729 -0.05051873 -0.08579425
-0.004800654 0.09557017 0.07449585 0.024918292 0.046440594 0.064369105 -0.09018407 -0.068077065
0.032525353 0.05559353 -0.03289899 -0.14695404 0.09181588 0.03293288 0.11930453 0.013305374
0.043292806 -0.04463406 -0.007916409 -0.11537811 0.02780226 -0.02850096 -0.055279475 0.04115533
-0.062861584 -0.05334553 0.023449734 0.04260809 0.14431931 0.03894367 -0.060817916 -0.0070797135
-0.07518555 -0.013710428 -0.08044819 0.06997775 0.07336991 -0.04255196 0.11781993 0.0039551435
0.016014565 0.06606601 0.061202623 -0.040968485 -0.039750207 -0.0014476129 0.12757225 0.084065884
-0.09037191 0.029135711 0.0011787914 -0.005060115 0.09318191 0.021885982 0.108045526 0.03794036
0.02761726 0.094068035 0.046321876 -0.11284522 -0.07762968 0.054926813 -0.106332704 -0.0925067
0.036184933 0.10409437 -0.044254895 -0.030321036 0.056198582 -0.051392604 0.1428664 0.0034141643
-0.007302619 0.06910656 0.04916487 -0.03290892 -0.078496635 0.028073184 0.031996377 0.034436297
-0.03543726 0.10309452 -0.08746981 0.08690744 0.014197178 -0.09184528 -0.019563267 0.13835835
0.011232768 0.15715694 -0.10793931 0.038248517 0.09556125 0.061815128 0.025531758 0.050086163
-0.033916917 -0.07682484 -0.07135964 -0.00717317 0.00562917 0.073475905 0.10261084 -0.07314977
-0.02554277 -0.016119372 -0.057562932 0.07956011 0.050305203 -0.02124041 -0.05407148 0.025938498
0.11234755 0.03869153 -0.049812876 -0.09927348 -0.0536748 -0.020688547 0.0807355 -0.021350596
0.10477644 -0.10098381 0.009478623 0.007953771 0.024147496 -0.06299819 0.05414793 -0.003845875
0.07324725 0.022009423 -0.073902115 0.012097725 -0.10461128 0.008756924 -0.06176141 0.1325942
-0.06627468 -0.07484143 -0.01461055 -0.09449976 -0.043995634 0.041125912 0.017966986 0.067820765
-0.031917393 0.0742769 0.07147682 -0.016896654 -0.07971359 -0.067611255 0.091136515 0.064393066

net.4.module.0.bias f4 [32]
00000000: cb74 90bd 11e8 203c 3f47 9b3d f5f4 2abd
00000010: 6643 0d3d 8f38 e33d c2b3 1ebd a63b aebd
00000020: c838 8f3d e7c1 a4bb 3dac 783c d064 cdbb
00000030: 3c9a 3abc 8533 84bd e5a3 88bd 8aef d33c
00000040: 2521 f8bc 4110 05bd 7fba c13d ade9 9b3d
00000050: 76e4 e53c 30e3 babd 6b8d 8e3d 9b5d 50bc
00000060: 3ca4 2d3d d516 4abd a69a c0bd 9ae2 963d
00000070: c239 bdbd 3987 7abd ca2e ab3d ec9c b43d
-0.070535265 0.009820954 0.075819485 -0.041737515 0.034488104 0.11094772 -0.03874565 -0.08507471
0.06993252 -0.005027998 0.015177784 -0.0062681213 -0.011389311 -0.06455139 -0.066718854 0.025871057
-0.030289242 -0.032486204 0.094593994 0.076129295 0.02806304 -0.09125364 0.06960567 -0.01271763
0.042392954 -0.04933818 -0.09404497 0.073674396 -0.09239532 -0.061164115 0.08358534 0.08818993

net.5.weight f4 [48, 32, 3]
00000000: 9c12 3ebc 4d01 69bd 55cd b23b 6208 da3c
00000010: a8cb 863c 3865 a33d 1a1d 953d d134 ecbd
00000020: 8c13 43bd 17cf 97bd 458d a63c 9c2d a53b
00000030: fdaa 08bd 6bc8 01bd 0494 6c3d 1815 1b3d
00000040: 2562 5abd 7de2 37bd e4c4 f0bd d39f b4bd
00000050: 44d8 823c 24df 02be efff a83d ade1 823d
00000060: e170 fa3c 5f32 0fbd 4cb5 a8bd bed3 483d
00000070: 828e 803d 0678 893c 6b0a 633b 7a0e 2bbd
00000080: aa31 963d a058 2abd a6fb 8c3c e1fe 63bd
00000090: 20fe a6bc bfd2 0bbc dec4 893d 0a2d b0bc
000000a0: a186 63bd 9b72 35bb 4a0e 79bd ee83 5f3d
000000b0: f0c6 6fbc b785 a6bd 9ff8 f63d 9971 6fbd
000000c0: 942f 5dbd 4bb2 403d ced1 d83c 2f95 9f3c
000000d0: 85e7 70bd 06fe feb7 b2a1 a93c d8aa 113b
000000e0: af9f a4bd e408 283d dfb5 d6bd b24c d63d
000000f0: 7c4c cfbd 1e26 a6bc 38a3 53bd b711 b83c
00000100: bfd6 a9bd e511 a0bc bde2 bebc 4894 9abd
00000110: 71e8 a73d 0d43 4c3d be80 603d 9bff 97bd
00000120: 2ed2 cf3c 7c2c 06bd 2710 f5bd 447e c5bd
00000130: e316 7d3d cd9d 373d 0a31 b4bd 4e4a b13d
00000140: a31b 193d 9347 233d fcc5 c8bd df32 5d3d
00000150: bf61 16be bef1 8abc fca7 3c3b 9d31 2bbe
00000160: fc91 013d ce92 fd3d 93e2 353c 1992 e8bd
00000170: f20b 0a3e 9159 f23d b65e 72bd 89bb ed3b
00000180: f1f6 c3bc b1cb 993d dadf 9b3d e3db 153e
00000190: 3634 b6bc a304 363d b3b5 a63d c7a8 c4bd
000001a0: 6adf 463d 05da c33d b420 d63b 5ddb c5bd
000001b0: 7b10 4f3d 5ca0 5fbb 9971 a73d 7ae9 5fbd
000001c0: 6e36 1ebd b6d4 f5bd 8b29 ad3d c4a0 85bc
000001d0: b7e4 ecbb 35b9 75bd a244 6abd 6080 b83d
000001e0: 866c 973b 66ea d73a 35c7 713d d87f 0f3e
000001f0: c5fb 72bd 5037 b4bd 6710 363d cc26 143e
00000200: 2867 f1bc 884f 06bd 8c99 71bd 3b9d 73bd
00000210: 3b6a f8ba 9d4a fa3c 956b 683c 803f 233c
00000220: b316 f8ba c27e 013e 878c b8bd 791a c7bc
00000230: 7df0 d33c 7ec7 29bd a8c7 dd3d f605 11bd
00000240: 3a01 46bd 5d97 193d aeb4 96bc f4e2 28bd
00000250: 12ab d13c b790 343d 44e7 7abd 971a c9bd
00000260: 7fdb a9bc 844d 43bd 4365 28bb 6b79 26bc
00000270: d34c a7bc 1360 d4bc 20e4 a6bc ab00 6c3d
00000280: 10d1 a0bd 9ed0 c43c dba9 02be 1ce5 cb3d
00000290: de0b 25bd 781d abbd c9d7 e93d 7d3a f4bd
000002a0: 0674 1f3d b826 70bd b69c c8bc 11ea a63b
000002b0: eefc ba3c fa0e 88bd ee39 81bd 418f 303d
000002c0: 8f35 f13c 43a7 b53d 0956 82bd 299b 3bbd
000002d0: ac61 fb3d adf2 42bd 616c cd3d b4b9 a73d
000002e0: c76b 433d ccb0 c83c 3ca2 fe3d 4f9e 65bd
000002f0: fdd8 1cbd 1518 713d 3468 a23d a257 54bd
00000300: 0e55 c83d 1ebb 663d 5c48 bfbd fa65 a23d
00000310: 91c6 163d 4b25 b43d b87d 663c 4cb4 1b3d
00000320: c284 99bd ede0 8f3d 18d7 c6bc 6aaa 1abe
00000330: 918a 34bd afc1 153d af58 5b3d 34d9 c63d
00000340: 281e d43c a19b 23bd af8a d93d 410b b0bc
00000350: 890f 9cbd fb98 cd3d f216 53bc 1678 333d
00000360: b4ae 9ebd 8f53 0b3d 9c9c a13d 263e da3d
00000370: 671e 17bd 5d50 81bd 65f9 4e3d e174 d6bd
00000380: 8e38 9f3c 38fd ff3d 9305 d6bd c5b9 253d
00000390: ecd1 bebd 3bd3 79bd 2583 243d 2c54 6f3d
000003a0: 2915 8bbd db40 2bbd 70b6 f1bc 35c3 7dbd
000003b0: 3d1e 593b 9bdf 01be 7a15 60ba 74f1 a6bd
000003c0: 60dc 5cbd 8bc2 4dbb baf5 b33d 5a3b 03be
000003d0: 1390 adbd 7309 8b3d 9f0e 0dbc 758a 123d
000003e0: 4341 d5bb 834c 9e3d 2f09 ecbc efe6 eb3a
000003f0: 88fe 0f3c ecf3 1ebd 4eb4 94bc b84c af3c
-0.0116011165 -0.056886006 0.0054566064 0.026615325 0.016454533 0.0797829 0.07280941 -0.115335114
-0.047626063 -0.07412546 0.020331034 0.0050408375 -0.033366192 -0.031685274 0.057758346 0.037861913
-0.053316254 -0.04489373 -0.11756304 -0.088195466 0.015972264 -0.12780434 0.082519405 0.063907005
0.030571403 -0.034960147 -0.08237705 0.049030058 0.06277181 0.016780864 0.003464366 -0.041761853
0.073336914 -0.041588426 0.01720984 -0.055662993 -0.020384848 -0.0085341325 0.067270026 -0.021505851
-0.055548314 -0.0027686718 -0.060804643 0.054569177 -0.014634833 -0.08130973 0.120591395 -0.058457945
-0.054000452 0.047045033 0.02646723 0.019480316 -0.058814544 -3.0397448e-05 0.020706985 0.0022227075
-0.0803827 0.041024104 -0.10483908 0.10463847 -0.1012201 -0.020281848 -0.05166933 0.022469385
-0.08292913 -0.019539783 -0.023301477 -0.07547814 0.081986316 0.049868632 0.054810278 -0.074218
0.025368776 -0.032757267 -0.119659714 -0.09643224 0.061789405 0.044828225 -0.08798416 0.086567506
0.037379872 0.03986318 -0.098033875 0.054003593 -0.14685725 -0.016960975 0.002878665 -0.16718145
0.031633362 0.123815164 0.011101383 -0.11355991 0.1348112 0.1183349 -0.059172355 0.007255022
-0.023921462 0.07509554 0.07611056 0.14634661 -0.022241693 0.044438016 0.08140125 -0.09602504
0.048552908 0.09563068 0.0065346602 -0.09660981 0.050552826 -0.0034122681 0.08175964 -0.05466602
-0.038626127 -0.12003462 0.08455189 -0.01631201 -0.0072294134 -0.05999108 -0.05719436 0.090088606
0.0046210913 0.0016473054 0.05902787 0.14013612 -0.059322137 -0.087996125 0.044449236 0.14467925
-0.029468134 -0.03279069 -0.058984324 -0.05947612 -0.0018952558 0.030553157 0.014185806 0.00996387
-0.0018927663 0.1264601 -0.090111785 -0.024304615 0.02587151 -0.041450016 0.10829097 -0.035406075
-0.048341013 0.037497867 -0.018396702 -0.041232064 0.025594268 0.044083323 -0.06125571 -0.09819525
-0.020734547 -0.047681347 -0.0025695122 -0.010160784 -0.020422375 -0.025924718 -0.02037245 0.057617825
-0.078523755 0.024025258 -0.12760107 0.099558085 -0.04029452 -0.0835523 0.11418111 -0.11925218
0.038929008 -0.058630675 -0.024488788 0.005093821 0.022825684 -0.066434816 -0.06309877 0.043105368
0.029444484 0.08869793 -0.06364066 -0.04580227 0.12274489 -0.047594715 0.10030437 0.08189717
0.047710206 0.024498366 0.124332875 -0.056059178 -0.038292874 0.058860857 0.079300314 -0.051841386
0.09781848 0.056330793 -0.09339973 0.07929607 0.03681046 0.087961756 0.01406806 0.03801374
-0.07496025 0.07025323 -0.024272487 -0.1510407 -0.04407746 0.036561664 0.053551372 0.09709397
0.025893286 -0.03994334 0.10622155 -0.021489741 -0.076201506 0.10038944 -0.012883889 0.043815695
-0.07748166 0.034015235 0.07891199 0.10656385 -0.03689423 -0.06314156 0.05053081 -0.10471512
0.019436147 0.124994695 -0.10450282 0.040460367 -0.09317383 -0.06099246 0.04016413 0.058429882
-0.06791145 -0.041809898 -0.029505938 -0.061953742 0.0033129596 -0.12682955 -0.0008548122 -0.08151522
-0.053921103 -0.0031396474 0.08787103 -0.1281561 -0.084747456 0.06788912 -0.008609443 0.035776574
-0.006508024 0.07729437 -0.028812973 0.0017997901 0.008788712 -0.03880684 -0.018152382 0.021398887

net.5.bias f4 [48]
00000000: 3017 d9bc 117e 34bd 2c9a 953d f725 9fbb
00000010: 766f d9bc 8a3f 863d 4fe2 553a 7816 b43a
00000020: 1a96 1fbb 4f9e 483d e4e8 c53c 596d 603d
00000030: 1a6c 04bd bc43 1f3d 67e3 fabc 798f 58bc
00000040: ec7f eb3c e5f3 183d 308d adb9 359f b73c
00000050: 2c20 9c3c e148 4a3d 04f3 68bb 4596 bcbc
00000060: a9e0 31ba 2222 8f3d fe1b 703d 1efa 863d
00000070: 58e9 a53c 11eb 0ebd a6fa 2fbc 4d63 143d
00000080: eb2a 3dbc f8b9 943d bda2 273d a213 19bd
00000090: d5c4 87bd d545 d2bc 89eb 303d 41ed c43c
000000a0: 06ed 87bd c49d 283c 12db a93d 760c 12bc
000000b0: 9b32 2dba e9fb cf3c 52fa 8b3d cf32 843d
-0.026500314 -0.04406554 0.073047966 -0.0048568207 -0.026542407 0.06555088 0.0008159028 0.0013739606
-0.0024350942 0.0489791 0.024158902 0.054791782 -0.032329656 0.038882956 -0.030626012 -0.0132178
0.028747521 0.03734197 -0.00033102324 0.022414783 0.01905831 0.04938591 -0.003554524 -0.023020873
-0.0006785491 0.06988932 0.058620445 0.06590675 0.020252869 -0.034892146 -0.010740912 0.036227513
-0.011545877 0.07262033 0.040926684 -0.03737224 -0.066293396 -0.025668064 0.043193374 0.024038913
-0.066370055 0.0102915205 0.082937375 -0.008914104 -0.0006606967 0.025388675 0.06834854 0.064550035

exp_avg f4 [32, 191, 2]
00000000: b709 7bbd 6bf9 59bd 0a1a b1bd 6f09 94bd
00000010: 14ad c6bd 87b1 f1bd 5e67 fcbc 6443 c6bc
00000020: 7f30 01be 1b98 f2bd baf9 a7ba dcb8 49bc
00000030: 384a 8cbd e5dc 7abd 5ae7 9dbd c9c6 3dbd
00000040: 8d43 10bd 3fe3 07bd 2537 89bd 66c4 76bd
00000050: 07b4 55bd c13f 24bd 443e 92bc 5b23 c9bc
00000060: 22ed 23bd 5801 0dbd 15e1 45bd 98d0 4ebd
00000070: 07ab 40bd f869 d9bc ff7d ccbd 5382 f1bd
00000080: 244e f4bc a682 c9bc 451b 41bd 58e4 89bd
00000090: 3883 9abd 7dbd 81bd 3cbe c3bc f120 71bc
000000a0: a402 42bd e3f5 4cbd 9d4e 3ebd 11fc 3abd
000000b0: 18ba 16be ec73 14be 8e22 2b3c 52ce 52bc
000000c0: 3fb2 16be 6121 1cbe 2a74 4cbd bc9e b6bc
000000d0: 3c60 eebd 04f7 05be 9878 3b3d e304 c53c
000000e0: 1402 cebc 041c 44bd f6bb 17bd 58be 9bbc
000000f0: e384 813d df04 9a3d aaa6 a4bd 3146 0abe
00000100: 455b a9bd 1814 44bd 1664 85bd fb85 2dbd
00000110: 22f2 febb 1f4f 1dbd 74be 8cbd 883e dcbd
00000120: cc92 b1bd 05ae cbbd 0b9e ebbc 63b6 8dbc
00000130: ff78 43bc 9788 5c3c 9bfd 843d 1c96 933d
00000140: 748f 1fbc 6fd1 27bd 5340 383d 418e ca3c
00000150: e2fc f8bd 75ea d6bd 149b 3cbd e953 eebc
00000160: 2c1d af3a a8d5 05bc e165 1b3b b7bb 61bb
00000170: c5bf 21bd 4555 72bd d112 a5bc ee22 45bc
00000180: 37f5 86bc d75a 39bc aea8 883c a942 b2bc
00000190: aecc 4f3c 4a30 233c 1874 2c3c 60ea 503c
000001a0: e02d b6bb dad9 4cbc 3906 ecbc 23d4 66bd
000001b0: 5f04 0bbd fc59 5cbc 3a33 3bbd f9f2 8abd
000001c0: fb93 88bd 2ff5 11bd 40d4 b5bd 06c7 c1bd
000001d0: 543c e1bd 2d1a f9bd 291b b5bd 87d8 b1bd
000001e0: d1a1 25bd 8b28 02bd 402d e9bc 8c5c 46bd
000001f0: 3f75 5cbd 5b88 47bd b376 aebd 2161 58bd
00000200: 83a5 d639 fa35 f0bc 5535 03bd 3735 a5bd
00000210: 93d8 d83b b857 503b 1aaa 5abc 8ee8 c3bb
00000220: 31dd f3bd 4efc ebbd 8ba1 38bd df25 18bc
00000230: 6ec8 87bd f355 89bd 9cb6 85bd da44 a8bd
00000240: 0745 57bc a6da c4bc 6cb7 63bc 00a3 f6bc
00000250: 6d31 59bd 14d1 22bd c49d d2bd cda2 ecbd
00000260: 37f1 3dbb e25e 0cbb b98a 2dbd 8267 b4bc
00000270: 2871 9cbd 8bdd 01be d15d 7cbd 6bb9 9ebd
00000280: 5c3b b33c f965 6438 ca28 1bbd 54ec 11bd
00000290: 6f02 61bd 3a4a 01bd fe39 cbbd ec08 aebd
000002a0: 8498 7cbd 2cee 4cbd ab25 0ebd 3ae7 19bd
000002b0: 5a1d 24bd 450a 27bd 810c 86bc 45fa b6bc
000002c0: 238a 69bd 7950 afbd 6d57 c2bc 1ac0 febc
000002d0: 2dcc e0ba 5f69 29bd 74ff 61bd e5d2 87bd
000002e0: c1bf 4cbc 0dcb 12bd 8cd6 16bd 7583 57bd
000002f0: 4b97 27bd 1d8b 41bd d4d1 59bd bd3c 50bd
00000300: d472 d8bd fa2b c1bd ce9e 14bd 67eb 093b
00000310: be53 28bd 6356 193c f5c6 6cbd 4d37 c6bd
00000320: d85b ffbc 525f 69bd 672e a0bd c8e1 2abd
00000330: 1618 64bd 7ee0 1dbd 0f23 80bd ff8e 5cbd
00000340: 6794 5cbd a42d 5abd 6b19 90bc 3dd3 73bd
00000350: 5162 0dbe 56c1 dabd 0f12 acbd 52cd f9bd
00000360: 76a1 adbc f763 5ab9 f2ce 003d 8b02 bfbc
00000370: 61c5 07bd ce30 0bbd 4015 23bd 2c68 7cbd
00000380: 5cfb 4fbd 425a 63bd 84da 20bc 5114 2e3b
00000390: 3f54 c2bc 12fa 35bd 7557 223d 5376 013d
000003a0: 97da 60bd 2b74 68bc 0ef2 a8bd c1f9 e5bd
000003b0: edc4 3abb 8a28 65bc b93b 67bd bc80 4fbd
000003c0: 43e1 30bd 6362 0ebd 99a0 b8bd 5474 b3bd
000003d0: 4d14 853b 1d1f 04bc 7d11 5abd 3a04 8dbd
000003e0: c88a cfbc be61 00bd 876d 583d 1f87 7a3d
000003f0: 32e7 01bd d071 99bc 9fb2 9ebd 7a41 8abd
-0.06128856 -0.05321638 -0.08647545 -0.07228362 -0.09700981 -0.11801439 -0.030811008 -0.024202056
-0.12616156 -0.11845418 -0.0012815513 -0.01231214 -0.068500936 -0.061245818 -0.077101424 -0.046332154
-0.03522067 -0.033175703 -0.06699971 -0.060245894 -0.05217364 -0.040099863 -0.017851956 -0.024552992
-0.04002107 -0.03442511 -0.048310358 -0.0504919 -0.047038104 -0.026539788 -0.09984969 -0.117924355
-0.029822417 -0.02459843 -0.047145147 -0.06733006 -0.07544559 -0.0633497 -0.023894422 -0.0147173265
-0.0473658 -0.050039183 -0.04646169 -0.045650546 -0.14719427 -0.14497346 0.01044525 -0.012866573
-0.14716433 -0.15247108 -0.04991547 -0.022292487 -0.11639449 -0.1308251 0.045769304 0.024050182
-0.025147475 -0.04787828 -0.037044488 -0.019011661 0.06324174 0.0752046 -0.08039601 -0.13503338
-0.082693614 -0.047870725 -0.065132305 -0.0423641 -0.0077803293 -0.038405534 -0.068722636 -0.107541144
-0.086705774 -0.09945301 -0.028761884 -0.017298883 -0.011930703 0.0134603 0.06493684 0.072063655
-0.009738792 -0.040971216 0.04498322 0.024726035 -0.121576086 -0.10493938 -0.04604633 -0.029092746
0.0013360134 -0.008168615 0.0023711848 -0.0034444162 -0.039489526 -0.05916335 -0.020150574 -0.012032254
-0.01647435 -0.011313162 0.016681995 -0.021760302 0.012683077 0.0099602435 0.010525726 0.012751192
-0.005559668 -0.012503112 -0.028811561 -0.056354653 -0.033939715 -0.013449188 -0.04570315 -0.067846246
-0.0666885 -0.035634216 -0.08878374 -0.09461789 -0.10997835 -0.12163196 -0.08843071 -0.086838774
-0.040437523 -0.031776946 -0.02846396 -0.048428103 -0.053822752 -0.048714023 -0.08518734 -0.052827004
0.00040940577 -0.029322613 -0.032033283 -0.080667906 0.0066176145 0.0031790566 -0.013346219 -0.0059786504
-0.11907423 -0.11522733 -0.045075934 -0.009286373 -0.06630026 -0.06705847 -0.065289706 -0.082162574
-0.013139016 -0.024030041 -0.013898712 -0.030107021 -0.05302565 -0.039750174 -0.10283998 -0.11554489
-0.0028982887 -0.002141886 -0.042368624 -0.022022013 -0.0763877 -0.12682168 -0.061612908 -0.077502094
0.02187889 5.4454405e-05 -0.037880696 -0.03562577 -0.05493396 -0.03156493 -0.099231705 -0.084977955
-0.061668888 -0.050031826 -0.03470389 -0.03757403 -0.040067054 -0.04078128 -0.016363384 -0.022336135
-0.057016503 -0.08560271 -0.023723328 -0.03109746 -0.0017150693 -0.041360255 -0.05517526 -0.06632022
-0.01249689 -0.035838176 -0.0368257 -0.0526156 -0.04091577 -0.04725181 -0.053178623 -0.050839175
-0.10568777 -0.09432216 -0.03628426 0.0021044852 -0.041095488 0.009358975 -0.057806928 -0.096785165
-0.031171724 -0.05697567 -0.078213505 -0.041719228 -0.055687033 -0.03854417 -0.06256687 -0.05384731
-0.053852465 -0.053266183 -0.017590245 -0.059527624 -0.13807036 -0.10681407 -0.08401882 -0.12197365
-0.021195155 -0.0002082734 0.03144736 -0.023316642 -0.03314722 -0.03398209 -0.039815187 -0.061622784
-0.050776824 -0.055506 -0.009817723 0.0026562402 -0.023721812 -0.04442794 0.039634187 0.031606983
-0.054895964 -0.014187853 -0.08249293 -0.112292774 -0.0028498725 -0.013986716 -0.05645344 -0.05065988
-0.043183576 -0.034761798 -0.090150066 -0.08762422 0.004061258 -0.008064059 -0.053239334 -0.06885572
-0.02533473 -0.031343214 0.05283883 0.061164018 -0.031714626 -0.018731028 -0.07748913 -0.0675077

exp_avg_sq f4 [32, 191, 2]
00000000: dbca 633b dbbd 653b 8843 313e a12b 353e
00000010: 2f5b e93d 7206 df3d 2bb1 143e 0489 183e
00000020: 1c3a 0f3e 082f 0a3e a151 763d 844a 833d
00000030: 400a c53d bf44 c63d 85cf df3d b440 e03d
00000040: 353f 843d 35bd 8a3d d676 e33d bf87 eb3d
00000050: 07b0 0e3e 0b08 103e b383 553e 9112 4a3e
00000060: eefb bb3d fac0 be3d 3f0a e63d c2cd e33d
00000070: 3a41 123e 6807 123e 4bc7 6a3e 55d0 5f3e
00000080: b42f cf3c 19ec d43c c15d c83d d6f0 d13d
00000090: 2ecc de3d bbe5 ed3d a07b c33d cc9d c43d
000000a0: 206f 203d 2746 1c3d 89ab 1c3e 7a88 163e
000000b0: 7645 df3d 6358 dd3d f371 9b3d 16b4 ac3d
000000c0: 4679 373e 3034 403e 73ad 953d 9afe a33d
000000d0: b500 ae3d c3ac a73d 69aa 143e 91af 153e
000000e0: f6eb 043e 1c6d 053e 84cf 7c3d 5ea3 803d
000000f0: f40e cf3d 663b e53d fa5f 513e f67d 453e
00000100: 26fe be3d 446c c23d 0fb9 e33d c6ee dd3d
00000110: b8b3 673d 0855 703d 5bfa 063e 9020 053e
00000120: 62cb d73d 9e06 e33d 6235 ea3d c9e8 eb3d
00000130: 5623 003e e123 fb3d f25b d33d 612f dd3d
00000140: e8f4 ef3d 647c f43d b997 c93d 7e3e d03d
00000150: 6ff3 f83d 2dd7 f43d 2dd8 ca3d de9d cb3d
00000160: d201 013e b1f1 f53d 08ad c93d 577b c73d
00000170: b995 473e 74d0 4e3e 520f 4a3e 473b 463e
00000180: 3c5f 783d 3cc7 763d 18db d43d 7ee0 db3d
00000190: 0666 263e 9801 2c3e 05c8 d13d 4119 cc3d
000001a0: b1c4 5b3e ece4 593e 8519 963d 67b8 a43d
000001b0: 46ef a83d 0e75 b83d a8a1 d53d d6d5 cd3d
000001c0: ae3e f73d 4367 ff3d df3e 093e 0255 013e
000001d0: cdcc 303e 41d3 293e 89c0 1a3e 541d 253e
000001e0: b665 023e 00b2 0a3e 2e63 ba3d de3a c53d
000001f0: 2956 a93d 53bf aa3d bdac 393e 1fba 433e
00000200: fe48 d53d c69f d53d b500 393e 899b 443e
00000210: a898 433e 98ca 3d3e 10e2 df3d 57fc e93d
00000220: 45a9 283e 9e6d 283e 72fd 303e 09a4 343e
00000230: 2f2c 1b3e dfb0 133e 4e52 b63d 3da6 af3d
00000240: 0081 803d 6088 843d 111f 8f3d 856c 8e3d
00000250: 57c6 0c3e 0280 0c3e 74e2 0b3e 5b2f 133e
00000260: 42cc fd3d e323 f93d 5d24 193e f31d 1c3e
00000270: 7835 233e c8da 2c3e fa25 de3d 1c6f e73d
00000280: 1165 143e 3ea7 0a3e 262b df3d 2708 ee3d
00000290: 9bff d53d 83de dc3d bae7 2c3e ff6c 303e
000002a0: 8a44 883d a06e 8e3d 4c76 053e 8a08 083e
000002b0: d796 073e f29f 0b3e 95b2 f53d d1c0 013e
000002c0: 06e3 1d3e 018e 293e 671d a93d 00f0 aa3d
000002d0: 5d33 c13d 6d58 d23d 7f9c 5a3e 2ba0 533e
000002e0: 7323 883d 1b7b 933d d09f 783d 06d3 803d
000002f0: d854 8f3d 616e 863d d661 fe3d 9c6a 1b3e
00000300: 8609 443e 5014 503e e624 273e 276a 293e
00000310: 4d5d 233e 7a03 203e 7c23 d83d c694 e53d
00000320: 48ec 133e 56ac 0f3e 7ea2 593e c170 643e
00000330: 7e5f 423e b79a 453e 513b 573e bb00 523e
00000340: 310f 143e 60ee 193e b28e fb3d cb19 fd3d
00000350: da9b 3e3e 6cb5 483e 3ca4 563e 6fee 5c3e
00000360: 8072 193e 80ef 223e 5c65 2c3e af7f 253e
00000370: 25a2 c13d 889b cb3d f006 023e cb15 033e
00000380: 54df 5c3e be42 423e a770 553e 8823 4f3e
00000390: ca26 f63d 761c fa3d 305d 493e 41d0 373e
000003a0: b066 253e 4b4e 273e 5163 9b3e d8da 993e
000003b0: 2b82 213e ac69 203e ac58 073e d689 073e
000003c0: 2d56 473e 1936 3b3e ae1e 553e f536 5c3e
000003d0: 7b62 053e 8f68 063e d286 573e 4233 443e
000003e0: 25fb 903d e9fe 963d f048 0b3e 2506 f73d
000003f0: 1b82 1e3e 8135 183e d510 a93d 7a9f b53d
0.0034758362 0.003505579 0.17310917 0.17692424 0.11394345 0.10889901 0.14520709 0.14896017
0.1398701 0.13494503 0.06013644 0.06410697 0.09621096 0.09681081 0.10928253 0.10949841
0.06457368 0.067743696 0.111066505 0.11500501 0.13934337 0.14065568 0.2085102 0.19733645
0.09178911 0.09314151 0.11232423 0.111232296 0.14282694 0.14260638 0.22927587 0.21856816
0.025291301 0.025991486 0.09783507 0.10251014 0.10878788 0.11616083 0.09545064 0.0960041
0.039168477 0.03815284 0.1529981 0.14700499 0.109019205 0.10807874 0.075900935 0.08432786
0.17917356 0.18769908 0.073084734 0.08007546 0.084962286 0.081872486 0.14518131 0.14617755
0.12980637 0.13029903 0.06172134 0.0628116 0.10110274 0.1119297 0.20446768 0.19286332
0.09325819 0.09493306 0.111192815 0.10836558 0.056567878 0.058674842 0.1318144 0.13000703
0.10536839 0.110852465 0.11435963 0.115190096 0.1251348 0.12262703 0.103202716 0.108000524
0.11716634 0.11937788 0.09843392 0.101681694 0.12155806 0.11955104 0.099045135 0.0994222
0.1259835 0.120089896 0.09847456 0.09740322 0.19490708 0.20196706 0.19732407 0.1935855
0.060637698 0.0602486 0.10393351 0.10736178 0.16249856 0.16797483 0.10243229 0.09965754
0.2146175 0.21278733 0.07329086 0.080429845 0.08248763 0.090067014 0.10431224 0.100505516
0.12072502 0.124708675 0.1340289 0.12630084 0.17265625 0.16584493 0.15112509 0.16124469
0.12734112 0.13544464 0.09100948 0.09630369 0.08268387 0.083372734 0.181323 0.19113968
0.10414313 0.10430865 0.18066676 0.19199957 0.19101202 0.18534315 0.1093179 0.11425083
0.16470821 0.16448066 0.17284182 0.176407 0.15153573 0.1442294 0.08902417 0.08576629
0.06274605 0.06471324 0.06988347 0.06954292 0.13747536 0.13720706 0.13660604 0.14373533
0.12392475 0.12165048 0.14955278 0.152458 0.15938365 0.16880333 0.10847087 0.11300489
0.14491679 0.1354036 0.10896902 0.11622649 0.104491435 0.10784628 0.16885272 0.17229079
0.06653698 0.06954694 0.13033408 0.13284507 0.13241135 0.13635233 0.119969524 0.1267121
0.15418634 0.16558076 0.08257561 0.083465576 0.09433625 0.10270772 0.21348761 0.20666568
0.066473864 0.07201215 0.060699284 0.062902495 0.069986045 0.06564022 0.124210045 0.15177387
0.19144258 0.20320249 0.1632267 0.165444 0.1595356 0.15626326 0.10553643 0.11210017
0.14445603 0.14030585 0.21253392 0.22308637 0.1898174 0.192973 0.21018721 0.20508091
0.1445892 0.15032339 0.12283076 0.12358435 0.1861414 0.19600457 0.20961088 0.2157533
0.14985085 0.15911674 0.1683554 0.16161989 0.09454755 0.099417746 0.12697959 0.12801282
0.21569568 0.18970773 0.20843755 0.20228398 0.12019117 0.1221246 0.19664454 0.17950536
0.16152453 0.1633846 0.3034921 0.30049777 0.15772311 0.1566531 0.1321742 0.13236174
0.19466467 0.18282355 0.20812485 0.2150534 0.13025849 0.13125823 0.21047524 0.19160178
0.07079152 0.07372839 0.13602042 0.12061719 0.15479319 0.1486416 0.082551636 0.08868308

exp_avg f4 [32]
00000000: 0aa3 82be 1957 16be 2497 2e3c bc14 31bd
00000010: abbb 4e3e 371f 203e 5b77 2f3d c8c4 013f
00000020: 5868 e13d a935 33be 6d36 83be d408 39bd
00000030: 0b81 08bf 9b1b c2be 945d 8c3e 39c2 a3bd
00000040: 12a8 6abd 0149 27bd 7e34 6e3d 984c 59be
00000050: 0d59 553e daf8 86be 8337 9bbe b99b aebd
00000060: 2e03 cb3d a2be efbc b00e 51be df9d f4bd
00000070: a835 2c3b 2c9a d8be f88b 393d 313b 01be
-0.25515014 -0.14681663 0.010656152 -0.043232664 0.20188777 0.15636908 0.042838436 0.5069089
0.1100623 -0.17500938 -0.2562746 -0.045174435 -0.53321904 -0.37911686 0.27415144 -0.079960294
-0.05728919 -0.040841106 0.05815553 -0.21220624 0.20834751 -0.26361734 -0.3031579 -0.085257955
0.09912716 -0.029265705 -0.20415759 -0.11944174 0.0026277099 -0.42305124 0.0452995 -0.12620236

exp_avg_sq f4 [32]
00000000: 9980 ff3f c2b9 873f 9a36 e93f a8a0 4b40
00000010: 94a4 ba3f 8b91 4f3f dd65 673f 10b0 bf3f
00000020: d56e a93f bafa f93f bee5 e13f 2be4 3c40
00000030: b940 f43f 824b 2040 2546 3a3f 47ed d63f
00000040: 3d3c 563f 6a80 bd3f d65f 3940 7f90 d43f
00000050: 1802 e13f ec46 3840 4556 cd3f 77c4 ee3f
00000060: 0682 d23f 7c08 333f 7a25 1040 2992 cc3f
00000070: fe33 d33f a337 3140 f478 1240 7a47 1240
1.996112 1.0603564 1.8219788 3.1816807 1.4581475 0.81081456 0.90389806 1.4975605
1.3236948 1.9529641 1.7648237 2.9514263 1.9082252 2.5046086 0.7276328 1.6791161
0.83685666 1.4804814 2.8964744 1.6606597 1.7578764 2.8793287 1.6041952 1.8653706
1.644593 0.6993482 2.2522874 1.5982105 1.6500242 2.7690208 2.2886324 2.2856126
