saved_CEBRA_models/nitschke_20090812_20090819_20090910/CEBRA_models/temperature_0.004_time_offsets_2_dataset1.pt (torch, 530645 bytes, 31 tensors)

net.0.weight f4 [32, 191, 2]
0.039679777 0.121307835 0.0016018449 0.00953935 0.03638478 -0.0009991085 0.020571787 5.885436e-06
0.05941632 0.0018311398 0.021889143 0.03281733 0.00025373703 0.0025669355 0.0046244236 0.040438868
0.009363487 -0.058102105 -0.04472264 0.008920043 0.024356363 -0.007911194 -0.004433601 -0.0015131853
-0.023286687 0.027968355 0.043702167 0.025641829 -0.021096505 0.02924782 0.0021796203 -0.03529171
-0.025083639 -0.044117376 0.008122126 -0.08329927 -0.004052373 -0.034224853 0.015476007 -0.049290705
0.009324767 -0.026569298 0.08080486 0.02485036 -0.0054062186 0.0070972145 -0.08003386 -0.04859132
0.009758168 -0.05273936 -0.045838185 0.006719124 -0.0013979862 0.023947237 -0.04586578 0.02530102
-0.053464226 -0.055463783 0.084257506 -0.021477623 0.014938845 0.06712627 -0.08082657 -0.024235675
-0.04598605 -0.051125355 -0.0061719306 0.041448873 0.0063948967 0.014597148 -0.018755859 -0.016545448
-0.010656639 0.0087316055 0.064453 -0.004090819 0.04666617 -0.024806753 0.019098783 -0.049842395
-0.005524252 0.0040182443 -0.06787773 0.0018648162 0.014627834 0.10158091 -0.04116118 0.032874294
0.037868544 -0.024326518 0.009296543 0.006340208 -0.005357986 -0.024226468 -0.00029743442 -0.004179013
0.008630987 0.047144447 -0.03770771 -0.012885461 0.039810035 -0.013064063 -0.009469277 0.03667741
0.027630294 -0.0553963 0.009551078 -0.0155360205 -0.00026897673 0.043164045 -0.005976339 -0.026857516
-0.019212129 0.0127995275 0.06692131 0.0045785694 -0.01972322 -0.053626392 -0.019313786 -0.022677092
-0.019673904 -0.048861403 -0.014801581 0.06230026 0.06040717 0.00978122 0.02072076 -0.01513468
0.03171308 0.00295948 0.008458001 0.012733861 0.027600184 -0.015077576 0.023976106 0.025239354
-0.015616049 -0.028098132 -0.009578685 -4.153696e-05 0.07949571 -0.019312898 0.03785418 0.04600019
-0.0060722465 0.016740952 -0.008798796 0.012095219 -0.022442434 0.035729963 -0.0045463685 0.045483354
0.02526186 0.034220308 -0.02850941 -0.048148606 0.032731947 -0.0003473074 -0.04294436 -0.04895838
0.050820757 0.01963794 -0.009931034 0.008030737 0.01919195 0.045436896 -0.027438127 0.04731474
0.023887133 0.016073184 0.018650256 -0.0061897608 -0.008760927 -0.024081193 0.04886725 -0.03156341
-0.005344426 -0.038269237 -0.057755835 -0.04613083 0.012790037 -0.057252135 -0.00044784017 -0.009955869
-0.012208056 0.01736291 -0.016215434 -0.08538524 -0.010689592 0.08160515 -0.052752234 -0.03875953
0.064225 -0.00043429853 0.0107507715 0.035072446 0.031656735 -0.032702062 0.016143791 -0.0009490278
0.055194408 0.032119915 -0.028102268 -0.014471247 -0.0028679417 0.009432553 -0.00061106693 -0.0021321478
-0.0016973423 -0.022376234 0.053365987 0.0198802 0.0155154755 -0.005592247 0.026096249 0.0132952705
-0.060402684 -0.06533985 0.003035105 -0.01727103 -0.032737985 0.019024475 0.012684507 0.00405973
0.038550958 -0.035466935 0.020949196 0.05162131 0.02263163 0.019114954 0.046856735 0.058798067
-0.029597852 0.00055279094 -0.0005860278 -0.00701618 -0.014188231 0.060489677 -0.037801817 -0.035966013
4.6865913e-05 0.014306618 -0.019036429 -0.013600771 -0.040643346 -0.043869223 0.038074363 -0.01849053
0.02963881 -0.04579574 -0.024072867 0.0312812 -0.020823464 0.02045744 -0.06593009 -0.0033588998
00000000: 4387 223d 3e70 f83d fff4 d13a ef4a 1c3c
00000010: 3508 153d 85f4 82ba 2a86 a83c 837b c536
00000020: 875e 733d db02 f03a dc50 b33c 776b 063d
00000030: 0208 8539 083a 283b 7a88 973b 3aa3 253d
00000040: 5069 193c 79fc 6dbd 162f 37bd 5f25 123c
00000050: ff86 c73c f49d 01bc be47 91bb 1356 c6ba
00000060: b9c3 bebc e41d e53c 0b01 333d d00e d23c
00000070: 94d2 acbc 2099 ef3c f6d7 0e3b 0a8e 10bd
00000080: 347c cdbc 6cb4 34bd aa12 053c cf98 aabd
00000090: c5c9 84bb 5c2f 0cbd 148f 7d3c 0de5 49bd
000000a0: e8c6 183c dba7 d9bc 057d a53d fb92 cb3c
000000b0: a626 b1bb c08f e83b cbe8 a3bd b107 47bd
000000c0: b9e0 1f3c 3a05 58bd d2c0 3bbd 192c dc3b
000000d0: a23c b7ba ff2c c43c c2dd 3bbd 1644 cf3c
000000e0: 4efd 5abd fe2d 63bd 338f ac3d d7f1 afbc
000000f0: 0fc2 743c 7f79 893d 6788 a5bd e589 c6bc
00000100: de5b 3cbd d268 51bd e83d cabb 4bc6 293d
00000110: 488c d13b e028 6f3c e3a5 99bc 528a 87bc
00000120: 2f99 2ebc 020f 0f3c efff 833d 470c 86bb
00000130: 0725 3f3d 8837 cbbc 0d75 9c3c 8a27 4cbd
00000140: c904 b5bb 7aab 833b 7b03 8bbd d96c f43a
00000150: 95a9 6f3c a709 d03d a098 28bd 32a7 063d
00000160: 0c1c 1b3d 6848 c7bc 8750 183c 85c1 cf3b
00000170: 0b92 afbb 9676 c6bc f9f0 9bb9 1af0 88bb
00000180: fc68 0d3c 891a 413d 6673 1abd 8a1d 53bc
00000190: d90f 233d a70a 56bc 0725 1bbc 0d3b 163d
000001a0: ed58 e23c 3be7 62bd 207c 1c3c cb8a 7ebc
000001b0: 7205 8db9 c8cc 303d 2ad5 c3bb 4b04 dcbc
000001c0: c162 9dbc 1cb5 513c 0a0e 893d d307 963b
000001d0: 9792 a1bc 59a7 5bbd f237 9ebc 4fc5 b9bc
000001e0: 2b2b a1bc e522 48bd 5582 72bc 8f2e 7f3d
000001f0: 826d 773d 6941 203c 95be a93c 73f7 77bc
00000200: 93e5 013d d6f3 413b 6d93 0a3c afa1 503c
00000210: c819 e23c f007 77bc 8a69 c43c c3c2 ce3c
00000220: 75da 7fbc 0e2e e6bc ebef 1cbc f937 2eb8
00000230: a6ce a23d 1536 9ebc fc0c 1b3d b26a 3c3d
00000240: b2f9 c6bb 5224 893c d328 10bc 072b 463c
00000250: 32d9 b7bc 9559 123d b4f9 94bb c14c 3a3d
00000260: f6f1 ce3c 982a 0c3d 918c e9bc 7937 45bd
00000270: ef11 063d cf16 b6b9 6de6 2fbd 9588 48bd
00000280: 6d29 503d bfdf a03c c7b5 22bc 5a93 033c
00000290: 7038 9d3c 0a1c 3a3d ecc5 e0bc 1acd 413d
000002a0: f3ae c33c e9ab 833c 6cc8 983c 7ad3 cabb
000002b0: fe89 0fbc ec45 c5bc 0729 483d a248 01bd
000002c0: 4b20 afbb 34c0 1cbd 6291 6cbd aef3 3cbd
000002d0: 4e8d 513c 3781 6abd 17cc eab9 f11d 23bc
000002e0: 4c04 48bc a93c 8e3c 3bd6 84bc 75de aebd
000002f0: 6623 2fbc 9a20 a73d ba12 58bd 50c2 1ebd
00000300: 6688 833d 90b2 e3b9 0124 303c 20a8 0f3d
00000310: 7eaa 013d 99f2 05bd fc3f 843c 2dc8 78ba
00000320: 8813 623d 2c90 033d ba36 e6bc cf18 6dbc
00000330: 14f4 3bbb ff8a 1a3c 0230 20ba 81bb 0bbb
00000340: 5b79 deba 5d4e b7bc 4b96 5a3d cddb a23c
00000350: 9f34 7e3c 2b3f b7bb cdc7 d53c 68d4 593c
00000360: ce68 77bd e6d0 85bd 9de8 463b fa7b 8dbc
00000370: 4418 06bd 37d9 9b3c aed2 4f3c 7c07 853b
00000380: 9ce7 1d3d c745 11bd a69d ab3c de70 533d
00000390: f865 b93c f796 9c3c d9ec 3f3d 3ed6 703d
000003a0: 3277 f2bc 2ce9 103a a99f 19ba fce7 e5bb
000003b0: c175 68bc 06c4 773d 14d6 1abd 1951 13bd
000003c0: e491 4438 4e66 6a3c 49f2 9bbc c5d5 5ebc
000003d0: a379 26bd 37b0 33bd ddf3 1b3d 7479 97bc
000003e0: 17cd f23c 5094 3bbd 7634 c5bc b720 003d
000003f0: f895 aabc 5c96 a73c 5b06 87bd fd20 5cbb

net.0.bias f4 [32]
-0.022652162 -0.006492686 0.03757767 -0.0399523 0.0598601 0.02297932 0.01863137 -0.022827346
0.05030309 0.019343115 -0.004180658 -0.015568779 -0.06582757 0.014200065 -0.045001026 0.035193596
0.008827538 0.04230919 -0.014711447 0.054840058 -0.013557554 0.04044469 -0.0064157746 -0.02278791
-0.010788149 0.021500418 0.0046090772 0.017072393 -0.058474015 -0.006490614 0.016205879 0.011669886
00000000: 0791 b9bc 99c0 d4bb 0beb 193d 06a5 23bd
00000010: dd2f 753d 203f bc3c d1a0 983c 6a00 bbbc
00000020: 9d0a 4e3d 7475 9e3c e7fd 88bb 3114 7fbc
00000030: 9bd0 86bd 64a7 683c ff52 38bd 2927 103d
00000040: 61a1 103c 674c 2d3d 4808 71bc f89f 603d
00000050: 8120 5ebc 55a9 253d 6b3b d2bb b6ad babc
00000060: c7c0 30bc a521 b03c be07 973b 67db 8b3c
00000070: 7382 6fbd 37af d4bb 31c2 843c 0d33 3f3c

net.2.module.0.weight f4 [32, 32, 3]
0.045125064 -0.0882712 -0.096771 0.10190751 -0.046120062 0.047585513 -0.040177744 0.013492901
-0.1096397 0.06322907 -0.10178983 0.062316205 -0.031449325 -0.025078848 -0.07640564 -0.10975121
-0.014380646 -0.028643731 0.08491359 0.05909161 -0.0386679 0.0141053535 0.08152075 -0.01290917
-0.008017179 -0.08806751 -0.04785197 -0.061124537 0.00842351 0.06835702 -0.017529687 -0.09317141
0.056726348 0.06339093 0.007034742 0.057829905 0.0702724 -0.13463436 -0.05928395 -0.1264207
-0.009624333 -0.06335783 0.0137039265 -0.044966403 0.07155242 -0.0031724153 0.023467718 -0.09312416
-0.009001219 -0.11633506 -0.022873597 0.03528507 -0.07058052 -0.10044938 -0.058274712 -0.013879486
0.025422318 0.0491514 0.015382576 0.047487494 0.013574696 0.02410316 -0.05318412 -0.079650275
-0.020564301 -0.044448894 -0.11027787 -0.03976663 0.08156399 -0.021527527 -0.012617071 0.050700307
-0.014943776 -0.07881901 0.044458136 0.0012747577 0.05937905 -0.033239827 0.12023289 0.07924565
0.18061441 0.08398632 0.09742385 0.00061966735 -0.021452354 -0.07717944 -0.05010071 0.103655875
0.04489756 -0.06822194 0.016765635 -0.08884065 0.11694581 -0.056297775 -0.028685195 -0.00873385
0.08787233 0.042862065 -0.09234285 0.077304795 0.021262681 -0.03186935 -0.14254202 -0.02233758
0.06830697 -0.07609312 -0.044328675 0.024020785 0.04187403 -0.0514686 -0.06356546 0.012787965
-0.028599037 0.061993703 -0.021936862 0.05768298 -0.072138585 -0.015124192 0.1415166 0.20869523
-0.023702415 0.07565982 0.025920337 0.06857519 0.018867964 -0.11030136 0.06606967 0.020822769
-0.015211035 -0.14148982 -0.07812364 -0.13077357 -0.14289895 0.034100443 -0.047259208 -0.12848201
-0.06618331 -0.12492257 -0.10096069 0.02949715 0.15414368 -0.11018899 0.041308716 0.10237415
0.15419298 0.0056041353 0.10473517 0.017929351 0.06695554 0.10576053 0.0063276705 -0.072455846
-0.014893461 0.0066771014 0.025286179 0.11152544 0.12734972 0.07982419 -0.009547174 0.080003686
-0.081573606 -0.09894046 -0.1076376 -0.016305666 0.015340203 -0.100102775 -0.0031487744 0.0040399246
-0.041292936 -0.07265044 -0.030573854 -0.20315571 -0.012491437 0.022284495 0.034016177 -0.008887914
0.07702281 -0.119335175 0.027318992 0.08461216 -0.10279159 -0.085476115 -0.07770969 -0.09368455
0.038905066 -0.01862977 0.053048097 -0.02262872 -0.08042573 0.08038141 -0.06387928 -0.11693903
-0.06942765 -0.13129427 0.06530071 -0.06702387 0.056155782 -0.004020206 0.17705017 0.05687074
0.16298671 0.06798374 -0.044815402 -0.0133056445 -0.05733868 0.027505504 -0.059215937 0.026729833
0.051851742 -0.007461508 -0.043245837 -0.08862717 -0.08256598 -0.00087545376 0.0803872 0.056701347
0.09011751 -0.024976583 0.04255194 0.06744571 -0.09697706 0.05470921 -0.17047587 0.04155022
-0.02860907 -0.05056277 0.039151076 -0.08277689 -0.04350561 0.046163857 0.09164222 -0.044548914
-0.04960467 -0.03218304 -0.023651564 0.09468242 -0.033283886 0.016362663 0.013386119 -0.07739571
0.11921921 0.08749992 -0.06092874 0.13565584 -0.053420637 -0.057219286 -0.05580078 -0.106729575
0.044027153 -0.18849865 -0.045142014 0.010222053 0.037932996 0.028679626 0.05655439 0.07135243
00000000: 0fd5 383d 88c7 b4bd e02f c6bd e2b4 d03d
00000010: 64e8 3cbd 07e9 423d 6b91 24bd 5411 5d3c
00000020: c78a e0bd 3e7e 813d 3077 d0bd 473f 7f3d
00000030: 02d1 00bd 2872 cdbc 8f7a 9cbd 3ec5 e0bd
00000040: cd9c 6bbc 42a6 eabc 2de7 ad3d 0b0a 723d
00000050: 3b62 1ebd 241a 673c 5af4 a63d fc80 53bc
00000060: 7c5a 03bc bd5c b4bd 6d00 44bd b95d 7abd
00000070: c302 0a3c c4fe 8b3d 6b9a 8fbc a7d0 bebd
00000080: e359 683d 1bd3 813d b183 e63b 0ddf 6c3d
00000090: faea 8f3d 97dd 09be bad3 72bd 6e74 01be
000000a0: 61af 1dbc c0c1 81bd 6f86 603c b12e 38bd
000000b0: 138a 923d 4ce8 4fbb 5f3f c03c e1b7 bebd
000000c0: d979 13bc 1341 eebd 6961 bbbc 1487 103d
000000d0: 858c 90bd 68b8 cdbd 77b1 6ebd c966 63bc
000000e0: 7742 d03c fa52 493d 3307 7c3c 3f82 423d
000000f0: 6768 5e3c fd73 c53c 98d7 59bd af1f a3bd
00000100: 7776 a8bc 0b10 36bd 5dd9 e1bd 55e2 22bd
00000110: 050b a73d 7f5a b0bc d5b7 4ebc 20ab 4f3d
00000120: bdd6 74bc dc6b a1bd bc19 363d c515 a73a
00000130: 7237 733d 7c26 08bd a93c f63d 8b4b a23d
00000140: fcf2 383e 0501 ac3d 2886 c73d 2c71 223a
00000150: d9bc afbc 4110 9ebd 6736 4dbd 8849 d43d
00000160: 81e6 373d f2b7 8bbd 1658 893c 16f2 b5bd
00000170: 4981 ef3d 7f98 66bd 37fd eabc 6c18 0fbc
00000180: 68f6 b33d 2290 2f3d 401e bdbd fa51 9e3d
00000190: 132f ae3c 6f89 02bd 89f6 11be 4dfd b6bc
000001a0: 86e4 8b3d b6d6 9bbd fc91 35bd 3dc7 c43c
000001b0: 1a84 2b3d bdd0 52bd 9c2e 82bd 9d84 513c
000001c0: 8748 eabc 1ced 7d3d efb4 b3bc fd44 6c3d
000001d0: 65bd 93bd 76cb 77bc bae9 103e 34b4 553e
000001e0: 912b c2bc 89f3 9a3d e356 d43c 2671 8c3d
000001f0: fd90 9a3c aee5 e1bd 894f 873d 8394 aa3c
00000200: b437 79bc b5e2 10be 49ff 9fbd 82e9 05be
00000210: 1a54 12be e8ac 0b3d df92 41bd ca90 03be
00000220: 1d8b 87bd 68d7 ffbd 7ac4 cebd 02a4 f13c
00000230: d7d7 1d3e c4aa e1bd 5433 293d 8aa9 d13d
00000240: c4e4 1d3e e5a2 b73b 657f d63d 93e0 923c
00000250: fc1f 893d fa98 d83d 5958 cf3b bb63 94bd
00000260: b403 74bc 96cb da3b f624 cf3c 7367 e43d
00000270: f767 023e dd7a a33d c06b 1cbc f9d8 a33d
00000280: 1010 a7bd 4ca1 cabd 1a71 dcbd 7693 85bc
00000290: 7a55 7b3c af02 cdbd ab5b 4ebb 5861 843b
000002a0: c822 29bd c1c9 94bd 0576 fabc 0d08 50be
000002b0: e2a8 4cbc f98d b63c 8c54 0b3d 9d9e 11bc
000002c0: 23be 9d3d 0066 f4bd 14cc df3c 2449 ad3d
000002d0: 6684 d2bd 1a0e afbd 4226 9fbd afdd bfbd
000002e0: eb5a 1f3d 769d 98bc f648 593d de5f b9bc
000002f0: 3fb6 a4bd 029f a43d 24d3 82bd bb7d efbd
00000300: 1530 8ebd 0172 06be 61bc 853d d043 89bd
00000310: 9b03 663d efbb 83bb a44c 353e 4bf1 683d
00000320: fde5 263e 0f3b 8b3d 5b90 37bd ebff 59bc
00000330: f7db 6abd 3953 e13c 698c 72bd 86f8 da3c
00000340: 7e62 543d aa7f f4bb 8c22 31bd 2982 b5bd
00000350: 5a18 a9bd b57e 65ba 0ba2 a43d ac3f 683d
00000360: 878f b83d b19b ccbc f14a 2e3d fa20 8a3d
00000370: e99b c6bd c416 603d 3a91 2ebe 9030 2a3d
00000380: 925d eabc e81a 4fbd e15c 203d ee86 a9bd
00000390: f032 32bd 5016 3d3d ebae bb3d ec78 36bd
000003a0: 442e 4bbd 5dd2 03bd edc0 c1bc dbe8 c13d
000003b0: af54 08bd fe0a 863c 7451 5b3c a481 9ebd
000003c0: 3429 f43d 2833 b33d 6a90 79bd 5de9 0a3e
000003d0: 99cf 5abd c55e 6abd 5c8f 64bd 0995 dabd
000003e0: d155 343d ca05 41be d5e6 38bd 667a 273c
000003f0: a15f 1b3d 89f1 ea3c 93a5 673d 3921 923d

net.2.module.0.bias f4 [32]
-0.08039464 -0.018243128 0.07163181 -0.059691157 0.038609702 0.026589245 0.016925737 0.088610746
0.037756447 -0.054110445 0.0074487105 0.05524962 0.035286374 0.06347152 -0.07443516 -0.061825797
-0.021126289 0.015879016 -0.09943812 -0.02832459 -0.053681385 -0.016910741 -0.02370409 0.06502001
0.0036248325 -0.08690513 -0.03914196 0.06986922 -0.042087123 -0.07184908 0.07101592 -0.04571913
00000000: f2a5 a4bd 9d72 95bc b3b3 923d b77e 74bd
00000010: 3525 1e3d b0d1 d93c d8a7 8a3c 8d79 b53d
00000020: 81a6 1a3d eaa2 5dbd 5014 f43b 6d4d 623d
00000030: 7288 103d 5bfd 813d 7671 98bd 0c3d 7dbd
00000040: 0a11 adbc b614 823c 37a6 cbbd f808 e8bc
00000050: 03e1 5bbd 6588 8abc 142f c2bc 3629 853d
00000060: 998e 6d3b 51fb b1bd 5253 20bd 9817 8f3d
00000070: 8c63 2cbd 9c25 93bd cb70 913d fc43 3bbd

net.3.module.0.weight f4 [32, 32, 3]
-0.0071286224 0.057349194 -0.030366892 0.11819341 -0.11130974 0.033578955 0.045485906 0.036617648
0.05148695 0.07931518 -0.100831546 0.09039364 0.0036013622 0.06498649 0.06861717 0.09992299
0.036672894 0.052105665 0.08249787 0.035955492 -0.11483159 0.09842761 0.016437091 -0.057487786
0.053107128 0.043055974 -0.08978241 -0.05486438 -0.03975041 -0.094620526 0.09711742 0.06492433
-0.014497055 -0.09196541 0.044416863 0.014371997 0.017832588 -0.030039093 0.023693569 -0.0023468721
-0.14840584 -0.06188608 -0.010221736 -0.05231543 -0.07603725 -0.1182101 -0.10782233 0.09571282
0.1454063 -0.010056465 -0.14436235 -0.08390016 -0.1452296 -0.15679023 -0.079463355 -0.08298906
-0.065553404 -0.057983767 0.0414584 0.031323712 -0.034979485 -0.030118825 0.032519188 -0.014025118
-0.007246298 0.09597106 -0.058767408 0.043799896 0.057731356 -0.016561018 0.05221481 0.19905467
0.0060329866 -0.05800845 -0.077466436 0.15319732 -0.051976364 0.09783511 -0.09892161 0.026511531
0.023017088 0.035266925 -0.00093070243 0.042702325 -0.10858787 -0.09293743 -0.05820174 0.08931307
-0.05614691 0.08220912 0.13642456 -0.04288666 0.051681917 -0.0070967856 -0.01893271 0.088045135
-0.029734533 -0.11060516 0.07950978 0.11281072 0.1622499 -0.013973851 -0.18812174 -0.029418865
0.090417616 -0.029368764 0.061185133 -0.028684909 -0.018998351 0.119513445 -0.09144158 0.0023607814
-0.002874268 -0.012956775 0.011695551 0.03741031 -0.1495618 -0.10587925 0.12016694 0.18141961
-0.07105588 -0.04576055 -0.0019368298 0.031321317 -0.017794127 -0.12604716 0.0118215885 0.04838849
-0.017463028 -0.069397725 0.046660494 -0.09266796 -0.13008405 -0.06694672 0.016679607 0.008680659
-0.09475241 0.015083814 -0.08638417 0.05444603 0.0002408041 -0.09068584 0.054039154 0.020299336
-0.06040799 -0.050555684 -0.03207141 -0.09232883 -0.022872958 0.112614 0.10448922 -0.06591901
-0.086616054 -0.1138194 0.035716083 0.10088007 -0.057789918 -0.022610355 -0.04180741 -0.023567615
-0.040308055 -0.079913944 -0.00035373803 0.11403817 -0.024423033 -0.12167533 0.124900505 -0.08076355
-0.08982768 -0.064733334 -0.008837679 -0.016071782 0.032904167 0.070071146 -0.03800177 0.1461959
0.054413415 -0.12032156 -0.075963944 0.10194091 0.020575572 0.015448041 -0.023628023 -0.01376231
0.100227796 0.072179005 0.03002315 -0.095957235 -0.01885442 0.08398842 -0.09056558 0.011358161
0.0045810607 0.02378598 -0.13091975 0.010691261 -0.014214608 0.1145797 -0.07219908 -0.039618723
0.004904855 0.12727073 0.11083004 -0.09082777 -0.16614258 -0.07518298 0.033183698 0.034256313
0.023411758 -0.055198338 0.114363216 0.037311215 0.018757816 -0.014620929 -0.044012386 0.03543182
0.08179407 -0.015871298 0.006685239 0.07929825 0.08021573 -0.058151174 -0.11745078 0.013047348
0.13038623 0.07979225 0.10912285 -0.072212525 -0.10323144 0.045704003 0.010136249 0.0637776
0.0024737013 -0.0675114 0.015469818 -0.028668024 -0.13233869 -0.10816838 0.024484042 0.10303725
-0.060352877 0.010271957 -0.15629655 0.047082696 -0.07346721 -0.053482544 -0.15269497 0.022481982
-0.0011042226 -0.20490904 -0.027080871 0.1138769 -0.06984771 0.019564947 0.10711503 0.12798494
00000000: 3897 e9bb fde6 6a3d fdc3 f8bc 630f f23d
00000010: 5cf6 e3bd 168a 093d 6e4f 3a3d 63fc 153d
00000020: fbe3 523d ff6f a23d c580 cebd 4d20 b93d
00000030: d504 6c3b a317 853d 2987 8c3d 6da4 cc3d
00000040: 5136 163d c06c 553d a5f4 a83d 1146 133d
00000050: d32c ebbd 6a94 c93d 14a7 863c 5078 6bbd
00000060: dc86 593d 765b 303d d7df b7bd 79b9 60bd
00000070: 53d1 22bd 68c8 c1bd 7fe5 c63d 0cf7 843d
00000080: 0e85 6dbc 5c58 bcbd 75ee 353d 8678 6b3c
00000090: a615 923c 8b14 f6bc 0419 c23c fbcd 19bb
000000a0: b3f7 17be 427c 7dbd 1179 27bc b448 56bd
000000b0: 6bb9 9bbd 2318 f2bd f4d1 dcbd 1505 c43d
000000c0: 64e5 143e dfc3 24bc b9d3 13be d9d3 abbd
000000d0: 11b7 14be 9e8d 20be afbd a2bd 2bf6 a9bd
000000e0: dd40 86bd 6380 6dbd 49d0 293d 4b4d 003d
000000f0: a646 0fbd c1bb f6bc d732 053d 9cc9 65bc
00000100: 5a72 edbb 7a8c c43d 18b6 70bd 8567 333d
00000110: b777 6c3d f9aa 87bc 32df 553d fdd4 4b3e
00000120: 5cb0 c53b 459a 6dbd b9a6 9ebd c2df 1c3e
00000130: 2be5 54bd c65d c83d 6a97 cabd b62e d93c
00000140: 558e bc3c 0d74 103d 62fa 73ba a2e8 2e3d
00000150: 5163 debd fb55 bebd f364 6ebd c5e9 b63d
00000160: 4dfa 65bd 415d a83d e1b2 0b3e eca9 2fbd
00000170: 6bb0 533d 278c e8bb c518 9bbc 0251 b43d
00000180: d695 f3bc f584 e2bd 06d6 a23d 4f09 e73d
00000190: d624 263e 94f2 64bc fca2 40be d5ff f0bc
000001a0: df2c b93d c396 f0bc 439d 7a3d 9dfc eabc
000001b0: 6ea2 9bbc 77c3 f43d b945 bbbd 57b7 1a3b
000001c0: 375e 3cbb a748 54bc b29e 3f3c 8e3b 193d
000001d0: ba26 19be 38d7 d8bd 161a f63d 10c6 393e
000001e0: bf85 91bd 6a6f 3bbd 39dd fdba c84a 003d
000001f0: fdc4 91bc 8212 01be 56af 413c 0233 463d
00000200: a00e 8fbc 6520 8ebd 131f 3f3d b3c8 bdbd
00000210: c134 05be 5d1b 89bd aca3 883c 5339 0e3c
00000220: 8d0d c2bd 1a22 773c 2fea b0bd cd02 5f3d
00000230: 5c80 7c39 7fb9 b9bd 2958 5d3d cb4a a63c
00000240: 5e6e 77bd 7a13 4fbd 505d 03bd e616 bdbd
00000250: 1260 bbbc 2ba2 e63d 72fe d53d 8c00 87bd
00000260: c263 b1bd 251a e9bd 074b 123d 369a ce3d
00000270: 1fb5 6cbd 5a39 b9bc 3f3e 2bbd df10 c1bc
00000280: 0f1a 25bd eca9 a3bd ea75 b9b9 d88c e93d
00000290: d012 c8bc ea30 f9bd d6cb ff3d 5c67 a5bd
000002a0: 93f7 b7bd e992 84bd eacb 10bc f8a8 83bc
000002b0: 85c6 063d 7681 8f3d bea7 1bbd 61b4 153e
000002c0: 9ae0 5e3d 266b f6bd fc92 9bbd 65c6 d03d
000002d0: 1a8e a83c c819 7d3c 8e8f c1bc 507b 61bc
000002e0: 3b44 cd3d 96d2 933d 1cf3 f53c 3a85 c4bd
000002f0: 9674 9abc 1f02 ac3d 727a b9bd 9517 3a3c
00000300: b91c 963b d1da c23c d40f 06be 662a 2f3c
00000310: 63e4 68bc c3a8 ea3d 1cdd 93bd 3e47 22bd
00000320: e8b8 a03b 4253 023e dcfa e23d e903 babd
00000330: 4821 2abe 89f9 99bd a1eb 073d 5950 0c3d
00000340: 04ca bf3c a717 62bd 4337 ea3d a5d3 183d
00000350: fea9 993c 9f8c 6fbc 5546 34bd f520 113d
00000360: a683 a73d 8604 82bc d90f db3b 1f67 a23d
00000370: 2548 a43d ed2f 6ebd 098a f0bd 8bc4 553c
00000380: f883 053e 1f6a a33d cd7b df3d 29e4 93bd
00000390: 016b d3bd 1f34 3b3d 8212 263c d59d 823d
000003a0: d21d 223b 6b43 8abd 1f75 7d3c 34d9 eabc
000003b0: cb83 07be 6287 ddbd c292 c83c 3205 d33d
000003c0: 9434 77bd b64b 283c 340c 20be c9d9 403d
000003d0: fa75 96bd 8310 5bbd 125c 1cbe 222c b83c
000003e0: 90bb 90ba add3 51be b4d8 ddbc 4b38 e93d
000003f0: 510c 8fbd ab46 a03c 205f db3d 7c0e 033e

net.3.module.0.bias f4 [32]
0.014850233 -0.019961279 0.051304534 -0.07024859 0.044232126 -0.09328028 -0.07052296 -0.029803075
0.02668809 -0.02337464 -0.024407169 -0.07947314 -0.029353878 -0.0068800035 -0.014822944 -0.0018687468
-0.032942098 -0.066154085 -0.08322964 0.033989374 0.069280356 0.08251891 -0.029467903 -0.017651485
0.05577365 -0.08364762 -0.019276762 -0.009234983 0.010644579 0.0043571615 0.0074994154 -0.07969164
00000000: 644e 733c d685 a3bc b424 523d 7ede 8fbd
00000010: bf2c 353d bb09 bfbd 576e 90bd 9425 f4bc
00000020: fba0 da3c 2c7c bfbc 8bf1 c7bc d0c2 a2bd
00000030: 8b77 f0bc a771 e1bb efdb 72bc bdf0 f4ba
00000040: 4bee 06bd cb7b 87bd 4d74 aabd 7138 0b3d
00000050: dce2 8d3d adff a83d ac66 f1bc d999 90bc
00000060: e972 643d 724f abbd 4dea 9dbc 534e 17bc
00000070: 9a66 2e3c 85c6 8e3b a8bd f53b 5f35 a3bd

net.4.module.0.weight f4 [32, 32, 3]
0.13258867 0.058286242 0.06992807 0.17548604 -0.04520088 0.12698631 0.018821463 0.061953295
-0.036514338 -0.02274607 0.09685924 -0.013642343 -0.09010446 -0.038040068 0.002129006 0.039720505
-0.040083297 0.007841631 -0.028073391 0.13463223 -0.005329339 -0.0517993 0.029124597 -0.035668936
0.033570852 0.044066805 -0.098575525 0.034207135 0.04638582 -0.06416379 0.1003896 -0.06770002
0.015460491 0.0027820186 -0.009607638 0.03448834 0.03520549 -0.0072949002 -0.051592927 -0.087896794
-0.09419708 -0.10417512 -0.08638783 -0.081451945 -0.09924356 0.013555444 -0.07997629 0.0109753655
0.0073598553 -0.07257625 0.02343135 -0.07375556 -0.1025602 -0.085180596 0.016296264 -0.044567976
0.10202613 -0.049498595 0.0675348 0.103394315 -0.1248029 0.08137278 0.05522136 -0.043454476
-0.06455051 0.055006403 -0.16828583 -0.08312148 0.020395637 -0.11162438 -0.07434059 0.0022974643
-0.06032364 -0.00036469524 0.14425233 0.12237369 0.0076619145 0.06146883 -0.13126512 0.12453826
0.053686764 -0.10159521 -0.0035847556 0.0017542576 -0.07371502 -0.033294383 -0.074717194 -0.0041539664
0.079315215 -0.13239501 0.021283146 -0.0013427464 -0.0136567345 0.043971587 0.018765535 0.09461477
-0.07448245 0.004450448 -0.105690815 -0.05468839 0.09108927 0.035932608 -0.09060815 0.011365188
-0.03585976 0.019335639 -0.04026505 0.08783888 -0.047720198 0.10350544 0.052569885 0.13944341
-0.09170391 -0.0209611 -0.06926708 0.07631986 -0.11507583 -0.008652662 0.017106747 0.18051645
-0.051949445 0.05101697 -0.011830651 0.19117235 -0.012200162 -0.05876401 -0.011755418 0.07345876
-0.04132874 -0.08777493 0.041890647 -0.08866401 -0.0047254213 -0.0027845805 -0.047609232 -0.0031161415
0.051645774 0.058101084 -0.08247134 0.07919113 0.042069536 0.05263773 -0.08312045 -0.03618742
-0.0731738 -0.09920366 -0.046516374 -0.026572155 0.0720749 0.088927634 0.086706765 0.009988005
-0.029852668 0.019117417 0.05901092 -0.011217941 -0.16534416 -0.033192217 0.07562474 0.044173457
0.027594639 0.15765283 0.085705265 -0.032757964 0.020115953 -0.06545643 0.10423073 -0.11915767
-0.03665797 0.062190086 -0.053091846 -0.028301043 0.07727355 -0.06268026 -0.012904722 0.015775241
-0.0755989 -0.13151279 -0.016115118 0.0075936257 0.15248859 0.11698132 -0.1257433 0.034576535
0.0046935473 -0.0036763395 0.007855783 0.07293771 -0.07734438 0.058062404 -0.01065428 -0.065801665
0.026663857 0.06468569 0.025536682 -0.10238415 -0.035002634 0.030838864 -0.025501737 -0.03787661
0.0318868 -0.024921015 0.04477362 -0.044159926 0.06694708 0.003514624 0.012856441 -0.005638619
0.096155666 -0.0470337 -0.009696485 0.011423925 -0.093189485 0.050919034 0.019712726 0.08664296
0.0065049278 -0.02901356 0.0143221235 -0.04838343 -0.087041035 -0.019719217 0.054373473 -0.04986717
-0.039769527 0.0057932115 0.024029108 -0.037455138 -0.052681286 -0.044965934 0.15979044 -0.04179876
-0.08693966 0.031046676 -0.00385707 -0.009866402 0.04307717 0.014600969 0.09823612 -0.0016753563
0.051876355 -0.0125095 -0.12292199 -0.0075906627 0.060154893 -0.048447292 -0.012513016 0.08746339
0.01827497 0.0010835564 0.018632289 -0.047316957 0.101778954 -0.07753819 -0.06564249 0.091308564
00000000: 53c5 073e 8ebd 6e3d 7336 8f3d 9db2 333e
00000010: 8f24 39bd b308 023e 782f 9a3c bdc2 7d3d
00000020: 0f90 15bd f755 babc 235e c63d 2284 5fbc
00000030: b088 b8bd e7cf 1bbd cb86 0b3b f8b1 223d
00000040: 622e 24bd 2f7a 003c 2bfa e5bc 08dd 093e
00000050: bca1 aebb 812b 54bd b596 ee3c 9719 12bd
00000060: 9781 093d 657f 343d f7e1 c9bd c81c 0c3d
00000070: 0fff 3d3d 4e68 83bd 1099 cd3d 4fa6 8abd
00000080: 004e 7d3c 8752 363b 5b69 1dbc a543 0d3d
00000090: a233 103d 0f0a efbb 1b53 53bd 3c03 b4bd
000000a0: 66ea c0bd c459 d5bd 1aec b0bd 47d0 a6bd
000000b0: 3540 cbbd a717 5e3c 9cca a3bd 05d2 333c
000000c0: f12a f13b dba2 94bd 1af3 bf3c 280d 97bd
000000d0: 150b d2bd 2a73 aebd be7f 853c e98c 36bd
000000e0: 13f3 d03d 0abf 4abd af4f 8a3d 66c0 d33d
000000f0: aa98 ffbd c6a6 a63d cb2f 623d 52fd 31bd
00000100: 0f33 84bd 654e 613d 1f53 2cbe 983b aabd
00000110: c014 a73c 539b e4bd e13f 98bd 0e91 163b
00000120: ec15 77bd 9134 bfb9 e2b6 133e 0f9f fa3d
00000130: cc10 fb3b bdc6 7b3d 5d6a 06be ea0d ff3d
00000140: a7e6 5b3d 2611 d0bd 38ee 6abb 1eef e53a
00000150: e7f7 96bd b15f 08bd 5405 99bd ff1d 88bb
00000160: 0470 a23d 8f92 07be fe59 ae3c 18ff afba
00000170: 7fc0 5fbc 8d1b 343d 2eba 993c 63c5 c13d
00000180: 418a 98bd 10d5 913b 6d74 d8bd ef00 60bd
00000190: 038d ba3d 122e 133d c490 b9bd 0e35 3a3c
000001a0: afe1 12bd c665 9e3c f7ec 24bd dfe4 b33d
000001b0: 4176 43bd a9fa d33d 8553 573d 41ca 0e3e
000001c0: 42cf bbbd 9db6 abbc e6db 8dbd 964d 9c3d
000001d0: e0ac ebbd e5c3 0dbc 7323 8c3c 4ed9 383e
000001e0: f1c8 54bd 2cf7 503d 59d5 41bc afc2 433e
000001f0: 30e3 47bc 88b2 70bd cc99 40bc 8c71 963d
00000200: 5348 29bd 58c3 b3bd 8795 2b3d 7a95 b5bd
00000210: b5d7 9abb 827d 36bb e601 43bd 2e38 4cbb
00000220: 858a 533d 67fb 6d3d bce6 a8bd f62e a23d
00000230: 1b51 2c3d a99a 573d 0e3b aabd 4339 14bd
00000240: 25dc 95bd 4a2b cbbd f487 3ebd d9ad d9bc
00000250: 019c 933d b11f b63d 5193 b13d bba4 233c
00000260: 958d f4bc 219c 9c3c 6fb5 713d 74cb 37bc
00000270: fb4f 29be 90f4 07bd 25e1 9a3d 3aef 343d
00000280: 270e e23c be6f 213e 3e86 af3d 372d 06bd
00000290: 36ca a43c 050e 86bd ec76 d53d f008 f4bd
000002a0: ab26 16bd 08bb 7e3d d676 59bd 97d7 e7bc
000002b0: 9841 9e3d 825e 80bd 546e 53bc 143b 813c
000002c0: 99d3 9abd 4aab 06be da03 84bc f3d3 f83b
000002d0: f825 1c3e e793 ef3d dac2 00be 20a0 0d3d
000002e0: 54cc 993b beee 70bb 8bb5 003c 5e60 953d
000002f0: bb66 9ebd d8d2 6d3d 4a8f 2ebc 06c3 86bd
00000300: 296e da3c ee79 843d 4e32 d13c c8ae d1bd
00000310: ec5e 0fbd c9a1 fc3c 05e9 d0bc 8124 1bbd
00000320: bc9b 023d 2827 ccbc 8b64 373d 0ae1 34bd
00000330: 8d1b 893d 9b55 663b d2a3 523c 2ac4 b8bb
00000340: 43ed c43d 69a6 40bd 01de 1ebc 6a2b 3b3c
00000350: 21da bebd 7a90 503d 957c a13c dd71 b13d
00000360: 4a27 d53b d8ad edbc 57a7 6a3c b42d 46bd
00000370: 9242 b2bd 328a a1bc b8b6 5e3d 8541 4cbd
00000380: 5fe5 22bd fbd4 bd3b b1d8 c43c 8f6a 19bd
00000390: 55c8 57bd 332e 38bd 1ba0 233e 2d35 2bbd
000003a0: 6c0d b2bd 9955 fe3c e6c6 7cbb b0a6 21bc
000003b0: b071 303d e738 6f3c 0530 c93d a197 dbba
000003c0: 4d7c 543d a5f4 4cbc 86be fbbd 18bb f8bb
000003d0: fa64 763d ab70 46bd 6503 4dbc 0120 b33d
000003e0: 64b5 953c 1f06 8e3a bea2 983c 6dcf 41bd
000003f0: 7c71 d03d 58cc 9ebd 926f 86bd fcff ba3d

net.4.module.0.bias f4 [32]
0.0624585 -0.06356424 -0.045085724 -0.05274156 -0.06423772 0.07109781 0.076736666 -0.06311117
-0.08772595 -0.03575997 -0.046188965 -0.06096176 0.027660746 0.028735325 -0.08235135 0.09572009
-0.063478954 -0.03804185 0.02730202 0.0115022715 -0.032671027 -0.051351093 -0.05144337 0.0646914
-0.066102915 -0.07814028 -0.0033231059 -0.08990062 -0.081442446 -0.078246556 0.023699325 -0.05858092
00000000: 7cd4 7f3d f82d 82bd cfab 38bd 8907 58bd
00000010: 118f 83bd bb9b 913d 1d28 9d3d 6e40 81bd
00000020: aaa9 b3bd 0c79 12bd a430 3dbd 0ab3 79bd
00000030: ca98 e23c 5866 eb3c d3a7 a8bd e508 c43d
00000040: 4101 82bd c5d1 1bbd 7ca8 df3c 0674 3c3c
00000050: 0ed2 05bd 8655 52bd 48b6 52bd ed7c 843d
00000060: f760 87bd 0308 a0bd 77c8 59bb d11d b8bd
00000070: 4ccb a6bd bb3f a0bd 1625 c23c 8cf2 6fbd

net.5.weight f4 [48, 32, 3]
0.05235241 -0.05001973 0.00029718934 0.0073537584 0.12200194 -0.06204719 -0.005339957 -0.041883215
0.058993444 -0.083133325 -0.029318154 0.08783327 -0.037106078 -0.030859131 -0.0463072 -0.014917913
0.10304937 -0.06934996 0.0371601 0.017605405 0.043237224 -0.04210581 -0.0835591 0.11333044
-0.10595061 0.07182827 -0.062607475 -0.06012292 0.025111845 0.013828439 0.09154964 0.07941025
-0.053639863 0.06570829 -0.08756498 0.09396883 0.016103871 -0.10581223 0.17246915 -0.16944224
0.0019492034 -0.047219396 -0.13167278 -0.005255043 -0.07930497 0.07490444 0.021099932 -0.02517064
-0.00805734 0.058433387 0.017363565 -0.010210666 0.010701979 0.08575057 -0.16791978 0.13182653
-0.058280494 -0.10153554 0.081574105 0.05985403 0.03593918 0.12214761 -0.041107506 0.07402849
-0.11999003 -0.10313837 -0.106319115 0.08681585 0.062032238 0.073245496 0.028135328 0.022541085
0.07626797 0.026392378 -0.035386797 -0.008978623 0.071273044 -0.015879571 -0.040171094 0.08451336
-0.0746288 0.08487621 -0.08813082 0.0066373637 -0.13998848 -0.03609817 0.06002233 -0.1267373
0.1365318 0.015608451 -0.07486649 0.052027322 0.024692565 0.046953965 -0.11169501 0.052291915
-0.015918007 0.1272605 -0.02119029 -0.10057278 -0.07905755 0.085852526 -0.059679236 -0.059483025
0.050083075 -0.16103002 0.09808793 -0.057646107 0.009630279 -0.09668757 0.07797977 -0.014212786
0.118721455 -0.05192988 -0.028485138 0.006458295 -0.15978317 -0.11128651 0.122948945 0.07908054
0.06841178 -0.04714721 -0.015746523 -0.08212814 -0.020945149 -0.14260921 -0.03234511 0.062340677
0.071291484 0.0556456 -0.0017696792 -0.025532097 0.060575187 -0.09318202 -0.038366415 -0.07430307
-0.0633166 0.044967934 -0.0749321 -0.11027724 0.06167278 0.0517557 0.026552878 -0.11298851
-0.08381919 0.0695545 -0.038926482 0.01017673 0.030610088 0.021855509 0.043811962 0.0095880255
-0.108080365 -0.11967274 0.028018929 -0.022301076 0.07161288 0.0224311 -0.015854048 -0.026359066
0.08013321 -0.15275787 0.0040282514 -0.11740045 0.026189826 0.07177034 -0.056158267 0.045483287
0.07154515 -0.014779027 0.0074295546 -0.0441073 0.00034514148 0.0047716373 0.092381485 -0.06172122
-0.015486858 -0.10042441 -0.09953975 0.053650692 0.013337291 0.006404151 0.054250244 0.030847149
-0.01328703 0.080351874 -0.06793354 0.005841068 -0.08179756 0.062217534 -0.091656245 0.04792914
-0.07388116 0.04570396 0.028887738 0.0032796501 -0.06564016 -0.06621653 -0.062071048 -0.046321943
0.11488459 0.043326635 -0.0839536 0.0015006012 -0.005809677 0.079337426 0.003978532 -0.0025704969
-0.09200858 0.007455613 0.080745384 -0.01958031 0.020549942 0.06828799 0.005171151 0.024245514
-0.08205137 -0.027125532 0.07660656 -0.07277271 0.013408691 -0.0396165 0.10552086 0.060695913
0.027155528 0.04571891 0.047041655 -0.10269428 -0.10753183 0.045536626 0.03256343 0.0116509665
-0.049079943 -0.0017844589 -0.08382715 -0.023685163 0.03137422 -0.041573003 0.076244354 0.075462945
-6.372535e-05 -0.0040006195 0.023733286 -0.076488614 0.021146117 -0.029427957 0.043392267 0.011889141
-0.061735593 0.050554022 -0.07650516 0.09967226 0.0760019 -0.017926292 0.08939448 -0.06730948
00000000: 7b6f 563d 7de1 4cbd 14d0 9b39 ccf7 f03b
00000010: 27dc f93d 3225 7ebd cefa aebb bc8d 2bbd
00000020: 1ca3 713d ce41 aabd a02c f0bc eee1 b33d
00000030: 8bfc 17bd 4acc fcbc 9eac 3dbd 436a 74bc
00000040: 8c0b d33d 5a07 8ebd 3035 183d 3639 903c
00000050: 8419 313d 2477 2cbd 0921 abbd ca19 e83d
00000060: a2fc d8bd b31a 933d 5938 80bd 7343 76bd
00000070: 5bb7 cd3c ad90 623c 617e bb3d d7a1 a23d
00000080: 79b5 5bbd 1192 863d 4555 b3bd bb72 c03d
00000090: 44ec 833c 15b4 d8bd c19b 303e 4482 2dbe
000000a0: 6a7c ff3a 2069 41bd 3bd5 06be 7f32 acbb
000000b0: a56a a2bd 8067 993d c4d9 ac3c a832 cebc
000000c0: ef02 04bc d957 6f3d 093e 8e3c a34a 27bc
000000d0: 5a57 2f3c ff9d af3d 2af3 2bbe 89fd 063e
000000e0: 87b7 6ebd ddf1 cfbd 5310 a73d 8029 753d
000000f0: f634 133d 8728 fa3d 5860 28bd 409c 973d
00000100: 55bd f5bd 363a d3bd d6bd d9bd 82cc b13d
00000110: 8415 7e3d bc01 963d 0f7c e63c 15a8 b83c
00000120: 6232 9c3d d434 d83c bff1 10bd 131b 13bc
00000130: 9af7 913d e015 82bc 728a 24bd 5715 ad3d
00000140: fcd6 98bd 94d3 ad3d ee7d b4bd 3e7e d93b
00000150: 2459 0fbe addb 13bd fad9 753d 6cc7 01be
00000160: fece 0b3e 97ba 7f3c 9a53 99bd 9a1a 553d
00000170: 1048 ca3c cd52 403d 5ac0 e4bd 0c30 563d
00000180: 7b66 82bc 9450 023e 4297 adbc 1af9 cdbd
00000190: ede8 a1bd 73d3 af3d 3772 74bd 79a4 73bd
000001a0: e923 4d3d 0ee5 24be 53e2 c83d 531e 6cbd
000001b0: 51c8 1d3c 2204 c6bd dcb3 9f3d bfdc 68bc
000001c0: 3c24 f33d 6db4 54bd aa59 e9bc 1ba0 d33b
000001d0: 339e 23be 2fea e3bd a8cc fb3d faf4 a13d
000001e0: 7a1b 8c3d 6f1d 41bd dafe 80bc cc32 a8bd
000001f0: 2995 abbc 2608 12be 4e7c 04bd f058 7f3d
00000200: 4501 923d a4ec 633d 95f4 e7ba b028 d1bc
00000210: b01d 783d 37d6 bebd 1a26 1dbd 352c 98bd
00000220: 22ac 81bd 4c30 383d 0076 99bd 09d9 e1bd
00000230: 999c 7c3d c9fd 533d 6c85 d93c 8566 e7bd
00000240: 65a9 abbd 9772 8e3d 6071 1fbd 4dbc 263c
00000250: 02c2 fa3c 530a b33c 2c74 333d 1817 1d3c
00000260: 3d59 ddbd fb16 f5bd f487 e53c bfb0 b6bc
00000270: c6a9 923d 6dc1 b73c 59e0 81bc f8ee d7bc
00000280: e11c a43d 8f6c 1cbe 6cff 833b a66f f0bd
00000290: 0c8c d63c 54fc 923d 3606 66bd af4c 3a3d
000002a0: 4386 923d bb23 72bc 9f73 f33b dba9 34bd
000002b0: 1bf4 b439 655b 9c3b 8132 bd3d 64cf 7cbd
000002c0: 97bc 7dbc 50ab cdbd 7fdb cbbd d4c0 5b3d
000002d0: a784 5a3c ead9 d13b 8135 5e3d 29b3 fc3c
000002e0: d8b1 59bc 868f a43d bd20 8bbd 6e66 bf3b
000002f0: 7b85 a7bd d0d7 7e3d 45b6 bbbd 5951 443d
00000300: 014f 97bd 1334 3b3d faa5 ec3c 66ef 563b
00000310: 596e 86bd 889c 87bd 363e 7ebd 14bc 3dbd
00000320: 9d48 eb3d 4577 313d ddef abbd d2af c43a
00000330: 1a5f bebb a97b a23d 585e 823b c875 28bb
00000340: ff6e bcbd 374e f43b d65d a53d e366 a0bc
00000350: 5a58 a83c 93da 8b3d c272 a93b 879e c63c
00000360: 8c0a a8bd 5d36 debc e6e3 9c3d dc09 95bd
00000370: 20b0 5b3c e944 22bd 521b d83d 479c 783d
00000380: 4575 de3c c043 3b3d c0ae 403d 6151 d2bd
00000390: a639 dcbd 9d84 3a3d 3b61 053d b2e3 3e3c
000003a0: 0d08 49bd 81e4 e9ba 92ad abbd 6307 c2bc
000003b0: 4182 003d 7448 2abd 0026 9c3d 518c 9a3d
000003c0: 49a4 85b8 a117 83bb 4f6c c23c 10a6 9cbd
000003d0: 9f3a ad3c e612 f1bc 17bc 313d acca 423c
000003e0: 76de 7cbd bc11 4f3d bdae 9cbd f820 cc3d
000003f0: e2a6 9b3d 29da 92bc 7414 b73d 8dd9 89bd

net.5.bias f4 [48]
-0.07420565 -0.057219908 -0.04700118 -0.058494687 0.046207406 0.03733458 -0.048788015 -0.032872356
-0.029725894 -0.049793236 0.033196803 0.020489356 -0.028313564 0.02558225 0.025829807 -0.057140294
0.017833108 -0.06400609 0.03481363 0.061051067 0.00032289742 0.060272574 0.048148647 -0.018314475
-0.023379989 0.032643303 -0.054501392 0.068475306 -0.013329952 -0.020266064 -0.07446476 0.0171154
0.04602263 0.013347177 0.008206503 0.058841623 0.07741328 -0.0028137334 0.062849194 -0.07433369
0.004812273 -0.053974338 -0.0039669275 -0.051220175 -0.040183194 0.06992276 -0.0060837762 0.058067355
00000000: 22f9 97bd 6c5f 6abd 4f84 40bd 2098 6fbd
00000010: fa43 3d3d 25ec 183d f1d5 47bd 2aa5 06bd
00000020: b883 f3bc fef3 4bbd 5ff9 073d 4bd9 a73c
00000030: d9f1 e7bc de91 d13c 0899 d33c f10b 6abd
00000040: bd16 923c a015 83bd bd98 0e3d af10 7a3d
00000050: 8f4a a939 60e0 763d 8437 453d 3d08 96bc
00000060: 6487 bfbc fcb4 053d da3c 5fbd c83c 8c3d
00000070: df65 5abc 0405 a6bc fb80 98bd 9835 8c3c
00000080: 3a82 3c3d 1eae 5a3c 9174 063c ea03 713d
00000090: db8a 9e3d 9d66 38bb 14b7 803d 433c 98bd
000000a0: 46b0 9d3b 3214 5dbd 00fd 81bb 3fcc 51bd
000000b0: 2297 24bd aa33 8f3d 6a5a c7bb 09d8 6d3d

exp_avg f4 [32, 191, 2]
0.00813759 0.008677751 0.03775977 0.019112127 0.044558663 0.044749875 0.08720146 0.06932488
0.06475348 0.06266588 0.025758227 0.025741277 0.030374734 0.031978607 0.04340807 0.052729666
0.0762363 0.0459544 0.043432962 0.03701607 0.029326383 0.0074457387 0.07698225 0.051647738
0.056121662 0.04267341 0.056386396 0.062925525 0.045320597 0.07292682 0.06299616 0.047594454
0.031936605 0.03158068 0.037019808 0.021679008 0.0865781 0.08785537 0.084425755 0.04977537
0.038866002 0.024344988 0.009866532 0.0016763572 0.07283135 0.06520193 0.008761823 0.022311443
0.053706985 0.083025955 0.06395701 0.05658289 0.057652123 0.042297892 0.038991027 0.031298343
0.06656156 0.048587013 0.032192063 0.03262869 0.054578386 0.060503937 0.04794447 0.05001454
0.03869019 0.030192813 0.05728028 0.037688512 0.054584317 0.032711852 0.05950923 0.065933324
0.10561294 0.107679576 0.05076831 0.046131562 0.075371325 0.04877974 0.067581035 0.037707835
0.063975655 0.046951093 0.061446622 0.036653675 0.03582575 0.035768155 0.06117485 0.043932468
0.015693868 -0.01086439 0.06752251 0.06534204 0.035944253 0.075124405 0.065845795 0.06510706
0.024883203 0.023183964 0.08062555 0.06198031 0.044397254 0.02729669 0.058042143 0.065356724
0.047459874 0.024997424 0.058023214 0.055618856 0.0074713635 0.011137915 0.043229472 0.027935436
0.04281832 0.02270352 0.04500605 0.019827535 0.083603 0.06478873 0.103678435 0.0658489
0.03991497 0.040012635 0.040835556 0.011554947 0.015497188 0.015723944 0.060691852 0.044161316
0.102220744 0.081632085 0.06748304 0.06526364 0.08484021 0.050604057 0.07715096 0.06447395
0.05243293 0.040351704 0.04738382 0.0427619 0.0414569 0.043695718 0.044468205 0.02700021
0.038735088 0.030865863 0.021024754 0.019202799 0.049918927 0.0429826 0.08720086 0.052859284
0.062225617 0.054490328 0.06706964 0.07202642 0.039936036 0.05515613 0.044023298 0.036933944
0.0460738 0.042705145 0.02733644 0.018696558 0.066011384 0.073635995 0.022348039 0.022899399
0.04062591 0.0121199675 0.08726125 0.07908267 0.028526358 0.013491925 0.028590543 0.027797515
0.07708268 0.054499865 0.04836755 0.031396255 0.026290864 0.015358375 0.0148945255 0.0006539735
0.030953694 0.03157586 0.06136671 0.0569878 0.0628333 0.038706485 0.06763238 0.074986026
0.054032803 0.06217167 0.100185364 0.07870959 0.05662453 0.062348098 0.101209365 0.09593827
0.03921731 0.05533553 0.09423242 0.07439112 0.06067625 0.074402064 0.07087472 0.07840062
0.059845816 0.030995572 0.03766717 0.04652007 0.056849014 0.042642064 0.060650427 0.06485004
0.04034377 0.028791854 0.056887634 0.023745282 0.06262041 0.05018949 0.015735714 0.027921425
0.07329777 0.06429873 0.005249563 -0.025892159 0.057110477 0.080332056 0.0018597343 0.015084083
0.03786995 0.053254493 0.11097534 0.107853934 0.06253067 0.06583027 0.039122727 0.057994347
-0.000902742 -0.004721108 0.048680305 0.06449213 0.057140727 0.030040925 -0.014000084 -0.032100543
0.04457887 0.054834444 -0.014256399 -0.016265221 0.01591394 0.013726142 0.060882423 0.038770374
00000000: 8753 053c 202d 0e3c fda9 1a3d 0991 9c3c
00000010: 2583 363d a54b 373d ae96 b23d 34fa 8d3d
00000020: 799d 843d f856 803d eb02 d33c 5fdf d23c
00000030: 6fd4 f83c 00fc 023d a9cc 313d 10fb 573d
00000040: c721 9c3d ae3a 3c3d c3e6 313d 2a9e 173d
00000050: e23d f03c 62fb f33b dfa8 9d3d 948c 533d
00000060: d4df 653d 50ca 2e3d 6cf5 663d 19df 803d
00000070: 17a2 393d a85a 953d 2104 813d 67f2 423d
00000080: f5cf 023d be5a 013d 15a2 173d 2d98 b13c
00000090: dc4f b13d 84ed b33d 69e7 ac3d 42e1 4b3d
000000a0: f531 1f3d 246f c73c 3ca7 213c 37b9 db3a
000000b0: 9a28 953d 9788 853d c08d 0f3c 7dc6 b63c
000000c0: dbfb 5b3d 8309 aa3d e5fb 823d 76c3 673d
000000d0: a224 6c3d 8e40 2d3d 0eb5 1f3d b132 003d
000000e0: 6d51 883d 2d03 473d d3db 033d a9a5 053d
000000f0: 968d 5f3d fad2 773d 6c61 443d 0cdc 4c3d
00000100: 9b79 1e3d eb56 f73c ba9e 6a3d 455f 1a3d
00000110: ce93 5f3d ddfc 053d f3bf 733d 0d08 873d
00000120: 994b d83d 1c87 dc3d 6ef2 4f3d 73f4 3c3d
00000130: 485c 9a3d 44cd 473d ed67 8a3d 8873 1a3d
00000140: ab05 833d ca4f 403d 74af 7b3d 2a22 163d
00000150: 06be 123d a181 123d 7b92 7a3d 88f2 333d
00000160: 6d90 803c 8e00 32bc 3e49 8a3d 0cd2 853d
00000170: 483a 133d d3da 993d 29da 863d da56 853d
00000180: dcd7 cb3c 4cec bd3c 021f a53d 11df 7d3d
00000190: e5d9 353d 4f9d df3c 99bd 6d3d bfd9 853d
000001a0: 4965 423d 66c7 cc3c c0a9 6d3d 99d0 633d
000001b0: 57d2 f43b cd7b 363c 6311 313d dbd8 e43c
000001c0: 4362 2f3d bbfc b93c 4458 383d 5b6d a23c
000001d0: 0d38 ab3d f4af 843d 5c55 d43d cadb 863d
000001e0: e17d 233d 4ae4 233d 2f43 273d f650 3d3c
000001f0: ebe7 7d3c 80cf 803c 0598 783d 7fe2 343d
00000200: 1c59 d13d b92e a73d 8c34 8a3d f1a8 853d
00000210: b4c0 ad3d 3346 4f3d 5301 9e3d eb0a 843d
00000220: e9c3 563d d447 253d 8915 423d 1a27 2f3d
00000230: b6ce 293d 48fa 323d 4b24 363d 8b2f dd3c
00000240: afa8 1e3d 68da fc3c 1b3c ac3c 304f 9d3c
00000250: ca77 4c3d 860e 303d 5d96 b23d fa82 583d
00000260: 4ae0 7e3d 4031 5f3d cf5b 893d 9682 933d
00000270: f893 233d 65eb 613d c651 343d 0c48 173d
00000280: e2b7 3c3d 97eb 2e3d abf0 df3c 8629 993c
00000290: fa30 873d 78ce 963d 3c13 b73c 8597 bb3c
000002a0: 5b67 263d d492 463c 07b6 b23d 18f6 a13d
000002b0: 1cb0 e93c 3c0d 5d3c b736 ea3c 9db7 e33c
000002c0: 86dd 9d3d 403b 5f3d 0d1d 463d 5c99 003d
000002d0: f05f d73c b2a1 7b3c 2b08 743c 6b6f 2b3a
000002e0: 9a92 fd3c b055 013d a95b 7b3d 0a6c 693d
000002f0: bfae 803d b18a 1e3d d882 8a3d 4692 993d
00000300: 8051 5d3d b9a7 7e3d fc2d cd3d 7e32 a13d
00000310: 20ef 673d b860 7f3d db46 cf3d 497b c43d
00000320: 54a2 203d 82a7 623d edfc c03d 5f5a 983d
00000330: a987 783d 1c60 983d c426 913d 8190 a03d
00000340: e320 753d 6dea fd3c e448 1a3d d48b 3e3d
00000350: 83da 683d 72a9 2e3d 956c 783d 19d0 843d
00000360: 823f 253d e5dc eb3c 0203 693d 7785 c23c
00000370: 213f 803d 7f93 4d3d 2fe8 803c 79bb e43c
00000380: 241d 963d 0daf 833d 8704 ac3b cb1b d4bc
00000390: adec 693d 2285 a43d 54c2 f33a 3b23 773c
000003a0: 851d 1b3d 6221 5a3d 0a47 e33d 86e2 dc3d
000003b0: 1410 803d 05d2 863d 273f 203d 7b8b 6d3d
000003c0: fda5 6cba 86b3 9abb 0065 473d 7314 843d
000003d0: 650c 6a3d 6318 f63c 9c60 65bc dc7b 03bd
000003e0: 5598 363d 159a 603d ac93 69bc a43e 85bc
000003f0: f35d 823c 9de3 603c d95f 793d afcd 1e3d

exp_avg_sq f4 [32, 191, 2]
0.0017807274 0.0018893445 0.050629135 0.052131854 0.04391949 0.041789617 0.055160176 0.056969818
0.053759024 0.05044484 0.021639386 0.023123536 0.029314848 0.029946772 0.038716923 0.039262135
0.02621833 0.027163435 0.02905857 0.031429566 0.04114161 0.04418875 0.06798281 0.06416408
0.026392804 0.02890616 0.042974293 0.043208368 0.043001212 0.047267873 0.071624346 0.06904314
0.008472434 0.008983908 0.03206234 0.034334574 0.035017166 0.03815759 0.036482725 0.038441483
0.019305805 0.018160129 0.050048698 0.04844167 0.0456063 0.04659572 0.021046247 0.025851298
0.0548142 0.060067974 0.022186086 0.025181 0.036303733 0.034084063 0.03835197 0.04086544
0.03622675 0.036176942 0.021282187 0.02275311 0.03754117 0.044361427 0.053696066 0.051270846
0.03242717 0.03506764 0.04113803 0.04028384 0.020765059 0.022115309 0.03846298 0.03806258
0.037154794 0.041661873 0.043296695 0.043994654 0.049045376 0.048401095 0.035714738 0.03783397
0.038772497 0.04189901 0.032656167 0.03552954 0.0357368 0.035960622 0.040249422 0.043031305
0.03974087 0.036813613 0.03913499 0.0383305 0.05958951 0.0609398 0.065648705 0.06499456
0.02169729 0.021878967 0.03532296 0.038183004 0.03964161 0.041829266 0.03893748 0.037199248
0.060434114 0.06176869 0.027542435 0.03252207 0.029010091 0.03330005 0.03533288 0.036847398
0.039563328 0.042559817 0.039734587 0.038805235 0.04748611 0.046768524 0.045775265 0.049666334
0.03564448 0.041068647 0.03368422 0.038847364 0.023595441 0.024978245 0.06324982 0.06953833
0.038308393 0.039448086 0.057781763 0.061905477 0.07031075 0.06887813 0.04065519 0.042023968
0.050658014 0.052624267 0.05418737 0.05413497 0.05636115 0.05538643 0.03785488 0.036567733
0.022128716 0.023727113 0.025074478 0.02602359 0.05365519 0.054828282 0.04164434 0.046101958
0.047358308 0.04724698 0.049308773 0.051911972 0.04734531 0.051459808 0.034844127 0.036935523
0.03942343 0.03687224 0.038638774 0.04224497 0.03660582 0.039223272 0.06462735 0.06502948
0.023965374 0.026130557 0.04484944 0.04638204 0.033446096 0.034750134 0.03817263 0.04155761
0.054710757 0.06453291 0.029855248 0.031782426 0.030954493 0.03645432 0.05410492 0.05268157
0.024675373 0.028349968 0.019620437 0.022712754 0.03194703 0.029661462 0.032792024 0.04594455
0.059784014 0.06438309 0.06573768 0.066960834 0.06645236 0.064377934 0.03470463 0.03814533
0.05408505 0.053672373 0.088681 0.09320786 0.07152949 0.073327385 0.074820265 0.07455544
0.039265305 0.042786315 0.04588854 0.04624757 0.062987864 0.0669893 0.0669951 0.06752913
0.047932927 0.052466292 0.052905694 0.050274514 0.028947333 0.030785004 0.03439807 0.03535755
0.065329716 0.05451718 0.06120746 0.058979224 0.044570785 0.046426702 0.060665164 0.052422512
0.05307675 0.052987352 0.11711901 0.11664362 0.057621848 0.057149325 0.045745887 0.046450153
0.05651162 0.05050888 0.06587482 0.06743339 0.04466249 0.04565319 0.06905008 0.05599147
0.022742173 0.02293777 0.04680985 0.039554164 0.04655726 0.044494547 0.028345494 0.03221193
00000000: 4c67 e93a e2a3 f73a 7f60 4f3d 3688 553d
00000010: ece4 333d 972b 2b3d a3ef 613d 2f59 693d
00000020: 6c32 5c3d 409f 4e3d 1545 b13c 926d bd3c
00000030: b125 f03c ef52 f53c a395 1e3d 55d1 203d
00000040: d3c7 d63c da85 de3c 3d0c ee3c 4abc 003d
00000050: 1b84 283d 43ff 343d 923a 8b3d 7568 833d
00000060: b935 d83c 9ccc ec3c d005 303d 42fb 303d
00000070: 0a22 303d f59b 413d c9af 923d 7d66 8d3d
00000080: f7cf 0a3c 3e31 133c cd53 033d 69a2 0c3d
00000090: 296e 0f3d 224b 1c3d e96e 153d d174 1d3d
000000a0: 3527 9e3c 8dc4 943c ddff 4c3d c66a 463d
000000b0: accd 3a3d 27db 3e3d 2e69 ac3c 1ac6 d33c
000000c0: db84 603d d609 763d 98bf b53c 6248 ce3c
000000d0: 39b3 143d bb9b 0b3d f516 1d3d 8562 273d
000000e0: 8062 143d 462e 143d fb57 ae3c bb64 ba3c
000000f0: c5c4 193d 54b4 353d 68f0 5b3d 6101 523d
00000100: 5ad2 043d 16a3 0f3d 5a80 283d ab00 253d
00000110: 7c1b aa3c 2a2b b53c 5c8b 1d3d 82e7 1b3d
00000120: a02f 183d a4a5 2a3d e057 313d bd33 343d
00000130: cee3 483d 3a40 463d 9e49 123d cbf7 1a3d
00000140: e9cf 1e3d 4c9e 2b3d 79c2 053d 6c87 113d
00000150: c060 123d 724b 133d 94dc 243d 9841 303d
00000160: 53c7 223d dfc9 163d 034c 203d 7100 1d3d
00000170: 2114 743d 039c 793d d472 863d de1b 853d
00000180: 84be b13c 853b b33c cfae 103d c865 1c3d
00000190: 3e5f 223d 2a55 2b3d e87c 1f3d 3d5e 183d
000001a0: c389 773d 2a01 7d3d aca0 e13c dd35 053d
000001b0: 92a6 ed3c a265 083d 36b9 103d 4ced 163d
000001c0: 280d 223d 3453 2e3d bcc0 223d 3df2 1e3d
000001d0: cc80 423d 5a90 3f3d d87e 3b3d ed6e 4b3d
000001e0: f2ff 113d 9937 283d 77f8 093d 6a1e 1f3d
000001f0: 3a4b c13c 2d9f cc3c 1f89 813d 1d6a 8e3d
00000200: 43e9 1c3d 5194 213d 92ac 6c3d 9990 7d3d
00000210: 15ff 8f3d fa0f 8d3d 0e86 263d 5321 2c3d
00000220: c77e 4f3d 8b8c 573d 93f3 5d3d a1bc 5d3d
00000230: f3da 663d e2dc 623d b80d 1b3d 0cc8 153d
00000240: 4847 b53c 5d5f c23c fe68 cd3c 6c2f d53c
00000250: 8bc5 5b3d 9f93 603d 4193 2a3d 68d5 3c3d
00000260: c9fa 413d 0d86 413d fff7 493d a6a1 543d
00000270: 28ed 413d 85c7 523d b7b8 0e3d b449 173d
00000280: 767a 213d 5907 173d b143 1e3d 1009 2d3d
00000290: fcef 153d 95a8 203d 585b 843d 2d2e 853d
000002a0: 0853 c43c c00f d63c 0cb4 373d 18fb 3d3d
000002b0: c6fe 083d 2856 0e3d e75a 1c3d 5038 2a3d
000002c0: 6318 603d d529 843d fe92 f43c 4a2e 023d
000002d0: 4794 fd3c 2051 153d 1f9d 5d3d a1c8 573d
000002e0: 0224 ca3c 313e e83c 0abb a03c 1910 ba3c
000002f0: e4da 023d 98fc f23c ee50 063d 5a30 3c3d
00000300: 15e0 743d 48db 833d 7aa1 863d c322 893d
00000310: 2d18 883d 94d8 833d 7126 0e3d 473e 1c3d
00000320: 4988 5d3d 90d7 5b3d 629e b53d c3e3 be3d
00000330: 0e7e 923d ab2c 963d 5e3b 993d 86b0 983d
00000340: a8d4 203d b440 2f3d 9ff5 3b3d 186e 3d3d
00000350: c8ff 803d b031 893d ba34 893d b64c 8a3d
00000360: 5155 443d e5e6 563d a4b3 583d a6ec 4d3d
00000370: f522 ed3c d530 fc3c fee4 0c3d 14d3 103d
00000380: 96cb 853d 684d 5f3d acb4 7a3d 3394 713d
00000390: db8f 363d ed29 3e3d 097c 783d fdb8 563d
000003a0: 0267 593d 4409 593d 17dc ef3d dae2 ee3d
000003b0: e304 6c3d 6915 6a3d 0a60 3b3d 8442 3e3d
000003c0: ba78 673d 66e2 4e3d 61e9 863d 841a 8a3d
000003d0: 04f0 363d d7fe 3a3d 216a 8d3d 5057 653d
000003e0: cb4d ba3c fde7 bb3c afbb 3f3d 8c03 223d
000003f0: d3b2 3e3d ea3f 363d cf34 e83c a8f0 033d

exp_avg f4 [32]
0.20255335 -0.17365655 0.22886863 -0.1036146 0.012050223 0.048116807 -0.22256592 -0.09930145
-0.055369943 0.01634094 0.0703439 0.041638125 0.052810922 -0.039902892 0.24958377 -0.018976977
-0.117231965 -0.09194425 0.018236667 0.08486161 0.11337446 -0.1953769 0.18906169 0.053985704
0.08244757 0.07087251 0.050114255 0.04792713 0.37494823 0.12920406 -0.21224111 -0.08628798
00000000: 256a 4f3e 06d3 31be 8a5c 6a3e e433 d4bd
00000010: 4c6e 453c 2116 453d 52e8 63be 8f5e cbbd
00000020: 98cb 62bd 6fdd 853c 7610 903d bd8c 2a3d
00000030: 4450 583d 3771 23bd e392 7f3e 9b75 9bbc
00000040: 5017 f0bd 444d bcbd 1065 953c eccb ad3d
00000050: de30 e83d e210 48be 6399 413e 1d20 5d3d
00000060: 46da a83d 9b25 913d 9b44 4d3d 3d4f 443d
00000070: 37f9 bf3e 124e 043e bc55 59be c1b7 b0bd

exp_avg_sq f4 [32]
0.70247567 1.085433 0.8288582 0.97710544 0.3472052 0.9808571 0.46011174 0.29725242
0.6871041 0.45983452 0.8990237 0.705792 0.6629797 1.0686665 0.95063245 0.8994566
0.49729076 0.8689486 0.95216495 0.17342155 0.2939837 0.7067433 0.5961492 1.0145371
0.7676111 0.8273055 0.74645525 0.6716549 1.0167464 0.61698115 0.6862075 0.8072791
00000000: 72d5 333f 78ef 8a3f 0d30 543f 9523 7a3f
00000010: e1c4 b13e 7319 7b3f c493 eb3e 7831 983e
00000020: 0ee6 2f3f 6e6f eb3e 6b26 663f c9ae 343f
00000030: 0ab9 293f 10ca 883f a65c 733f ca42 663f
00000040: e59c fe3e 6a73 5e3f 15c1 733f 6b95 313e
00000050: 0885 963e 21ed 343f 3c9d 183f 5adc 813f
00000060: 2982 443f 4bca 533f b117 3f3f 93f1 2b3f
00000070: bf24 823f 7af2 1d3f 4bab 2f3f d8a9 4e3f
