saved_CEBRA_models/nitschke_20090812_20090819_20090910/CEBRA_models/temperature_0.0001_time_offsets_1_dataset1.pt (torch, 530690 bytes, 31 tensors)

net.0.weight f4 [32, 191, 2]
0.025325028 0.019365368 0.025489483 -0.042504422 0.016232029 -0.012185202 -0.014067293 -0.034600172
0.0573007 -0.017140657 0.040893063 0.032799114 -0.006207082 -0.023712158 -0.024221616 -0.03963969
-0.048424184 0.0025990559 -0.006165619 0.03647297 0.06987917 -0.006166231 -0.019065581 -0.054247964
-0.00096452504 0.077950515 -0.013885969 -0.029723488 -0.034556083 0.030585283 -0.043918148 0.023113485
0.057305586 0.055349234 -0.0071847127 -0.033447616 0.025393957 0.0086193215 0.03645443 0.029927075
-0.02709898 0.027828302 0.0049286736 -0.013091483 -0.04616432 0.014356994 -0.008233247 0.060553223
-0.0047300197 -0.022262767 0.03258592 0.02442957 0.029490603 0.017541312 0.014319382 -0.0441119
-0.08771065 -0.032889463 -0.10793318 -0.05301173 0.021424185 -0.017624803 0.037623417 -0.013635156
-0.009146292 0.0020573556 0.0044507906 0.026917132 -0.050924383 -0.03373878 -0.033177227 0.022951404
-0.003622321 0.012069531 0.007155835 -0.027235907 -0.030418858 -0.018813342 -0.010459676 -0.0057030804
-0.02705611 0.030179983 0.0055032833 0.036174122 -0.013153385 -0.062403206 0.036817838 0.020147381
-0.021668958 -0.023004973 -0.024068365 -0.018324794 0.034231547 0.06905634 -0.0029911355 0.015029618
-0.040872116 -0.056824174 -0.014045136 0.0025139886 0.019062893 -0.06690387 -0.03841625 -0.043869685
-0.040955506 0.012167341 -0.09198774 0.008762208 0.0125015965 0.041447375 0.021712814 0.010034683
-0.0047409264 0.021719925 0.036423422 0.031991795 0.018866017 0.008775201 0.03577453 -0.032662705
0.027133554 0.02092478 0.033815797 0.013279885 -0.021047225 0.050034918 -0.02502947 -0.033960786
0.03457786 -0.020591374 0.013389591 0.023774767 0.0629783 -0.013118956 0.036913097 0.019490693
-0.032208286 -0.004363801 0.0068078334 0.008074284 0.027317168 -0.036902346 -0.032037742 0.031732835
0.016105123 0.024592947 0.0056980043 -0.018343741 0.027245156 -0.04695999 0.008642548 -0.05801185
-0.01983861 0.030130439 -0.018735863 -0.005920426 0.026829617 -0.01578402 0.058353774 0.042959943
0.020281153 -0.06607448 -0.026726505 -0.006981944 0.005066349 -0.010667939 -0.004934032 0.03119428
0.0032567705 0.06930616 0.00261243 -0.011637304 0.02581899 0.042120498 0.019506752 0.007334447
-0.021915793 0.008797636 -0.04514751 0.040879145 -0.02519292 0.038477004 0.04655207 0.02570885
-0.04995673 0.037909176 -0.0028386726 -0.006208259 -0.004761557 0.021994822 -0.024908079 0.09374466
-0.016041407 0.028256077 -0.02419009 -0.021886054 0.05045525 -0.031676125 -0.0023280396 0.028262528
-0.023768805 0.034181837 0.0095450645 -0.012269018 0.023187298 -0.02169872 -0.025158029 0.028462857
-0.008936713 -0.020880738 0.030995429 -0.058710862 -0.011404298 -0.012921035 -0.014127079 0.002299483
-0.0018784661 0.008296746 0.015636161 -0.0122182295 0.02710082 -0.033625722 0.04213341 0.009971192
0.018818462 -0.030591983 -0.009684363 -0.010219003 0.0036412654 0.015515942 0.041816015 -0.03348152
-9.256754e-05 -0.03578253 -0.04360451 0.021860482 0.042094495 0.035194222 0.0048322845 -0.0029364903
-0.032876655 0.018915098 -0.008318805 0.0043133497 0.020108689 -0.041548226 -0.016026473 -0.03771654
0.02800086 0.032638665 -0.005820546 -0.08674643 -0.0031209162 0.024142155 0.0074005206 0.015559389
00000000: 6f76 cf3c 1fa4 9e3c 52cf d03c 1e19 2ebd
00000010: 08f9 843c 71a4 47bc 817a 66bc e9b8 0dbd
00000020: 24b4 6a3d 906a 8cbc 7c7f 273d 5d58 063d
00000030: c764 cbbb 0040 c2bc 696c c6bc 3a5d 22bd
00000040: 7058 46bd ec54 2a3b f608 cabb ae64 153d
00000050: cf1c 8f3d 180e cabb 6c2f 9cbc 1d33 5ebd
00000060: 2ed8 7cba 85a4 9f3d fa81 63bc ac7e f3bc
00000070: ae8a 0dbd fd8d fa3c 84e3 33bd 7e58 bd3c
00000080: 43b9 6a3d e1b5 623d bd6d ebbb 5e00 09bd
00000090: fd06 d03c 0e38 0d3c 3e51 153d a029 f53c
000000a0: aefe ddbc 2ef8 e33c b680 a13b a97d 56bc
000000b0: cc16 3dbd 9939 6b3c bee4 06bc a806 783d
000000c0: 48fe 9abb 6860 b6bc d078 053d 8620 c83c
000000d0: 4796 f13c ccb2 8f3c d79b 6a3c aeae 34bd
000000e0: a4a1 b3bd 1ab7 06bd 120c ddbd d422 59bd
000000f0: c681 af3c e461 90bc 031b 1a3d fd65 5fbc
00000100: 54da 15bc b3d4 063b f0d7 913b 5181 dc3c
00000110: 1696 50bd ad31 0abd d8e4 07bd 9504 bc3c
00000120: 7664 6dbb 48bf 453c 7f7b ea3b d61d dfbc
00000130: f830 f9bc 701e 9abc 105f 2bbc e8e0 babb
00000140: c6a4 ddbc 033c f73c e354 b43b 512b 143d
00000150: 4c81 57bc 819a 7fbd 4dce 163d 1f0c a53c
00000160: 1983 b1bc ed74 bcbc 052b c5bc e11d 96bc
00000170: 6136 0c3d 696d 8d3d ed06 44bb c93e 763c
00000180: 8569 27bd 77c0 68bd 921d 66bc bbc1 243b
00000190: c929 9c3c e504 89bd 5c5a 1dbd b3b0 33bd
000001a0: f6c0 27bd 8759 473c 1164 bcbd 5d8f 0f3c
000001b0: 7fd3 4c3c b9c4 293d 12df b13c 8368 243c
000001c0: c659 9bbb fced b13c ba30 153d d409 033d
000001d0: e88c 9a3c dcc5 0f3c 5088 123d 54c9 05bd
000001e0: 3047 de3c 726a ab3c 6f82 0a3d e093 593c
000001f0: 3b6b acbc 6af1 4c3d 9a0a cdbc 771a 0bbd
00000200: 84a1 0d3d 3eaf a8bc 0460 5b3c 4dc3 c23c
00000210: c4fa 803d e4f0 56bc 3032 173d f2aa 9f3c
00000220: d6ec 03bd 37fe 8ebb 3f14 df3b 004a 043c
00000230: 41c8 df3c ea26 17bd 023a 03bd 4afa 013d
00000240: e4ee 833c 2677 c93c 53b6 ba3b 9d45 96bc
00000250: 3c31 df3c 1e59 40bd 7999 0d3c d59d 6dbd
00000260: 9584 a2bc 1cd4 f63c f47b 99bc 2200 c2bb
00000270: c9c9 db3c 7d4d 81bc 5e04 6f3d c4f6 2f3d
00000280: a924 a63c 0f52 87bd 8bf1 dabc cbc8 e4bb
00000290: 9e03 a63b 94c8 2ebc a9ad a1bb 268b ff3c
000002a0: 8b6f 553b 63f0 8d3d 4d35 2b3b 64aa 3ebc
000002b0: 5982 d33c 8b86 2c3d a0cc 9f3c cd55 f03b
000002c0: c088 b3bc f623 103c 98ec 38bd e470 273d
000002d0: 6261 cebc 109a 1d3d 62ad 3e3d 5e9b d23c
000002e0: 6e9f 4cbd a746 1b3d 0609 3abb a76e cbbb
000002f0: d606 9cbb 7c2e b43c 070c ccbc 33fd bf3d
00000300: 4569 83bc 4a79 e73c 4c2a c6bc 624a b3bc
00000310: 2aaa 4e3d d3be 01bd 0692 18bb d186 e73c
00000320: ccb6 c2bc 4102 0c3d e762 1c3c fe03 49bc
00000330: 4af3 bd3c 84c1 b1bc 3618 cebc f02a e93c
00000340: 4b6b 12bc 150e abbc 20ea fd3c cd7a 70bd
00000350: 18d9 3abc c0b2 53bc 4475 67bc ecb2 163b
00000360: dd36 f6ba 13ef 073c 6817 803c f82e 48bc
00000370: 8a02 de3c 20bb 09bd 1594 2c3d 365e 233c
00000380: 2d29 9a3c 0a9c fabc 2aab 1ebc 9b6d 27bc
00000390: 4ca2 6e3b 9436 7e3c 4547 2b3d eb23 09bd
000003a0: d220 c2b8 b490 12bd a59a 32bd c114 b33c
000003b0: 476b 2c3d d127 103d 2458 9e3b 2272 40bb
000003c0: aca9 06bd d6f3 9a3c 994b 08bc 0057 8d3b
000003d0: faba a43c 792e 2abd f349 83bc a97c 1abd
000003e0: 0f62 e53c 1fb0 053d 47ba bebb 1da8 b1bd
000003f0: 4988 4cbb c5c5 c53c 1180 f23b cfec 7e3c

net.0.bias f4 [32]
0.0027454556 -0.029430337 0.015021639 0.004801043 0.048870668 0.0359103 0.01069031 -0.041459206
0.01971987 -0.050888423 -0.06694684 0.059087776 0.010260458 0.034931336 -0.047133613 0.007544333
0.018672967 -0.034171596 0.07832005 0.01913355 -0.020816987 -0.055566765 0.025176534 0.01799772
-0.03805797 0.041662827 -0.0069995443 -0.055731617 0.0076059145 0.029181536 0.042161584 -0.014379957
00000000: 1aed 333b e417 f1bc 521d 763c 1152 9d3b
00000010: 9c2c 483d ae16 133d 6926 2f3c 21d1 29bd
00000020: 918b a13c 6170 50bd 6d1b 89bd 0606 723d
00000030: 7b1b 283c 2914 0f3d 2d0f 41bd 7436 f73b
00000040: 0df8 983c 84f7 0bbd 4366 a03d f6bd 9c3c
00000050: 6388 aabc fa99 63bd 053f ce3c f46f 933c
00000060: ade2 1bbd a4a6 2a3d 6f5c e5bb d646 64bd
00000070: 093b f93b 1e0e ef3c a0b1 2c3d e999 6bbc

net.2.module.0.weight f4 [32, 32, 3]
-0.048067484 -0.0033873876 -0.028835263 0.096817195 0.101899564 -0.08277578 0.0692162 -0.034971792
0.03811921 -0.02777045 -0.028856598 -0.027660985 0.0017305735 -0.022486107 -0.08913239 0.001359497
0.11039095 0.0150919 0.070251256 0.07925734 0.06473951 -0.10098611 -0.09828318 -0.060572244
0.014613437 -0.03668223 -0.011903372 -0.06636761 -0.008642923 -0.11709789 0.043649297 0.0051075793
0.05545335 -0.10597246 0.053012136 -0.028864477 -0.012848099 -0.0062925564 0.093988456 -0.15386607
0.055087768 -0.07980766 -0.005757894 -0.06119433 -0.050396767 -0.058474734 -0.038936928 0.0062641827
0.064492635 -0.017352358 0.078929044 -0.02720735 0.07122913 -0.077114806 0.091100715 0.04133683
0.18211555 -0.08021716 0.023039423 0.082372494 -0.08317779 0.0008490554 -0.078361385 0.076168194
-0.009096732 -0.124989666 -0.059836935 0.08268691 -0.0114985965 -0.07413339 0.035568718 -0.014754954
0.05693788 -0.009459177 -0.07355655 0.07398128 -0.03368089 -0.013729118 0.08244489 -0.06347162
-0.051536754 0.022837786 0.03792257 0.041379314 0.094148524 0.049018685 0.13667792 0.085332476
-0.012401125 0.02172046 -0.054194655 -0.0144632645 0.12014382 0.080283836 0.044418927 0.0231643
0.089967445 0.0041847704 0.0061582914 0.035568167 0.052179925 -0.05670065 0.008124217 0.027086351
0.065861516 0.07195414 -0.08800939 0.053769503 0.15525937 0.09815576 0.026616393 -0.02736693
-0.098102 0.0100502595 0.054113936 -0.04811642 -0.04159522 0.04000602 -0.0723194 -0.0004825807
0.017863935 -0.09887834 0.07745889 0.113921806 0.0963997 0.009488246 0.096181996 0.05097837
-0.10612578 -0.012381629 -0.1513813 -0.14789575 0.031057717 -0.088728234 -0.08379722 0.08194119
0.074265465 -0.017738275 -0.06874756 -0.060321596 0.070808694 0.050086167 0.022342766 -0.06335036
0.020823551 0.010515849 -0.09360995 -0.11448818 -0.070281535 -0.0695549 0.01114195 -0.090684846
0.0022382836 -0.026497362 0.027722057 0.03653601 0.029965792 0.07284429 -0.0654595 0.028270727
-0.0015575379 -0.032112405 0.017893437 0.06221066 0.052471504 -0.07760081 -0.051853318 -0.010128513
-0.013715584 -0.060123816 -0.03957318 -0.003969217 -0.075120226 -0.008568695 -0.03827701 -0.041003183
-0.022205153 0.035208378 -0.017735913 0.07487084 0.024264844 0.02092461 0.05314414 -0.011931499
0.057474922 -0.06437578 -0.051083963 -0.0009849576 -0.019829966 0.041569345 -0.053245623 0.012995873
0.00943497 0.09689606 -0.06740201 0.009563687 -0.07917686 -0.07425048 0.073541515 0.05404267
-0.06166933 0.0663713 0.11039453 -0.08319388 -0.002997424 -0.112915464 -0.011109489 0.01952662
0.07835107 0.12008059 0.07028056 0.008215292 0.08829756 0.082261086 0.0012771931 0.01982025
-0.023147848 -0.059364006 0.032901872 0.06183311 -0.058346454 -0.04078742 0.061286177 -0.081072636
-0.05498156 0.05960211 0.010082904 0.071821496 -0.011576154 0.104412556 -0.058851436 0.044141676
0.024713391 -0.051524147 0.12228175 -0.047926154 0.009811557 0.103758134 0.02047767 0.044096198
0.07479373 -0.09905929 0.085889384 -0.013109959 0.028912863 0.098426744 -0.107613444 -0.06917174
0.08928354 -0.01876371 0.021259595 -0.09195737 0.041158203 -0.063887514 -0.040318355 -0.08953531
00000000: 69e2 44bd effe 5dbb ee37 ecbc 1848 c63d
00000010: b8b0 d03d 5986 a9bd 39c1 8d3d 953e 0fbd
00000020: e422 1c3d db7e e3bc ac64 ecbc 4a99 e2bc
00000030: 69d4 e23a c934 b8bc 0b8b b6bd 2631 b23a
00000040: a714 e23d 0444 773c e4df 8f3d ac51 a23d
00000050: 2696 843d ced1 cebd b148 c9bd 9a1a 78bd
00000060: 326d 6f3c 1b40 16bd 5c06 43bc beeb 87bd
00000070: 0c9b 0dbc 05d1 efbd 9bc9 323d 7b5d a73b
00000080: 0d23 633d 1708 d9bd 4123 593d 3275 ecbc
00000090: d580 52bc ca31 cebb 057d c03d 118f 1dbe
000000a0: b6a3 613d 3372 a3bd b7ac bcbb e8a6 7abd
000000b0: d76c 4ebd 3483 6fbd 547c 1fbd c643 cd3b
000000c0: b714 843d 8826 8ebc 8da5 a13d f3e1 debc
000000d0: 94e0 913d 5eee 9dbd 0393 ba3d cf50 293d
000000e0: 807c 3a3e e548 a4bd 2cbd bc3c e9b2 a83d
000000f0: 1e59 aabd 2593 5e3a ef7b a0bd 12fe 9b3d
00000100: 760a 15bc 95fa ffbd 9317 75bd c157 a93d
00000110: 9c64 3cbc 3fd3 97bd 81b0 113d c3be 71bc
00000120: b237 693d aafa 1abc d1a4 96bd 7f83 973d
00000130: f9f4 09bd 18f0 60bc ded8 a83d 69fd 81bd
00000140: 3418 53bd 4f16 bb3c b254 1b3d 5b7d 293d
00000150: f1d0 c03d d1c7 483d 4cf5 0b3e cbc2 ae3d
00000160: 172e 4bbc 1bef b13c 37fb 5dbd 54f7 6cbc
00000170: f70d f63d da6b a43d 9ff0 353d 0fc3 bd3c
00000180: da40 b83d 6620 893b 7ecb c93b edaf 113d
00000190: 9eba 553d f13e 68bd 701b 053c 32e4 dd3c
000001a0: 67e2 863d b15c 933d 443e b4bd 693d 5c3d
000001b0: 50fc 1e3e e305 c93d 9f0a da3c 9d30 e0bc
000001c0: b4e9 c8bd d8a9 243c 93a6 5d3d b915 45bd
000001d0: c05f 2abd 5add 233d 321c 94bd e302 fdb9
000001e0: 6357 923c ba80 cabd c4a2 9e3d d64f e93d
000001f0: 356d c53d 9774 1b3c 11fb c43d b2ce 503d
00000200: 7958 d9bd 51dc 4abc b303 1bbe fc71 17be
00000210: c16c fe3c 26b7 b5bd e09d abbd c8d0 a73d
00000220: 7e18 983d dc4f 91bc 85cb 8cbd c713 77bd
00000230: 2604 913d 2727 4d3d 2d08 b73c d5bd 81bd
00000240: 2796 aa3c ab4a 2c3c 93b6 bfbd c778 eabd
00000250: c4ef 8fbd cd72 8ebd ba8c 363c fab8 b9bd
00000260: 2bb0 123b ff10 d9bc 5e19 e33c c9a6 153d
00000270: d27a f53c 632f 953d a10f 86bd 0398 e73c
00000280: 4d26 ccba 4c88 03bd 4295 923c 9bd0 7e3d
00000290: 5cec 563d 2ced 9ebd 2564 54bd 10f2 25bc
000002a0: 54b7 60bc 6444 76bd 7d17 22bd 3510 82bb
000002b0: a2d8 99bd b663 0cbc 5bc8 1cbd f4f2 27bd
000002c0: 95e7 b5bc a936 103d e84a 91bc e255 993d
000002d0: 11c7 c63c 166a ab3c abad 593d 557c 43bc
000002e0: d36a 6b3d 73d7 83bd 6b3d 51bd b119 81ba
000002f0: 7472 a2bc 9e44 2a3d 1518 5abd a4ec 543c
00000300: 2295 1a3c 7171 c63d 110a 8abd 03b1 1c3c
00000310: 7a27 a2bd a310 98bd ef9c 963d d95b 5d3d
00000320: fb98 7cbd aded 873d 8716 e23d 8e61 aabd
00000330: 6e70 44bb 3940 e7bd 9304 36bc 4af6 9f3c
00000340: 8776 a03d d0ec f53d 41ef 8f3d 6f99 063c
00000350: 5ad5 b43d 8078 a83d 7d67 a73a 145e a23c
00000360: 8ea0 bdbc ac27 73bd 1dc4 063d b744 7d3d
00000370: b1fc 6ebd b610 27bd 3707 7b3d 6909 a6bd
00000380: 5834 61bd 5821 743d c432 253c 2617 933d
00000390: e9a9 3dbc 40d6 d53d 340e 71bd e7cd 343d
000003a0: bd73 ca3c fc0a 53bd db6e fa3d 374e 44bd
000003b0: a7c0 203c 257f d43d c9c0 a73c 379e 343d
000003c0: 752d 993d 99df cabd c6e6 af3d 27cb 56bc
000003d0: abda ec3c f693 c93d 7064 dcbd eaa9 8dbd
000003e0: 4ada b63d 5ab6 99bc 9a28 ae3c 2554 bcbd
000003f0: 8195 283d 75d7 82bd dc24 25bd 4a5e b7bd

net.2.module.0.bias f4 [32]
-0.07377763 -0.038989387 -0.022841282 0.022200126 -0.07453314 0.083958544 -0.034879666 -0.07613656
0.070698425 -0.057788752 -0.026301019 0.033851907 0.056433666 0.03085876 -0.0053008706 -0.12432454
-0.033532187 -0.061060164 -0.040849034 -0.03395679 -0.007971333 0.099424645 -0.091354355 0.093172535
-0.06981715 -0.01973515 0.037872862 -0.10391692 -0.102243826 0.06948301 0.09350647 0.029809564
00000000: ba18 97bd 56b3 1fbd a41d bbbc 0add b53c
00000010: d5a4 98bd 75f2 ab3d fbdd 0ebd 7ced 9bbd
00000020: 56ca 903d e6b3 6cbd 3c75 d7bc 4ca8 0a3d
00000030: fd26 673d 83cb fc3c edb2 adbb dd9d febd
00000040: 0c59 09bd 391a 7abd 5151 27bd 4616 0bbd
00000050: 329a 02bc 269f cb3d fe17 bbbd 3ed1 be3d
00000060: 4bfc 8ebd 9cab a1bc 9320 1b3d 65d2 d4bd
00000070: 3665 d1bd 1c4d 8e3d 5280 bf3d 3033 f43c

net.3.module.0.weight f4 [32, 32, 3]
-0.07320345 -0.042183124 -0.020810915 0.012507213 0.03599805 -0.11834597 0.040482696 0.04866334
0.07787379 0.08302514 0.035267133 0.094150566 0.06629649 0.020376317 0.062396493 0.051133778
0.1017764 0.015835999 0.0057446794 -0.07969339 -0.056802016 0.044478934 0.07444207 -0.009034721
-0.030788705 0.07314981 -0.052602563 -0.030727558 0.037723806 0.060512327 0.12775792 -0.031970587
-0.008104662 -0.013749705 -0.028370773 -0.055783223 0.03280336 0.05289904 0.0051847375 -0.04379031
-0.11841125 -0.11650887 0.040788196 0.075406134 -0.040380273 0.1056172 -0.07018552 -0.09096529
-0.061523534 -0.11887811 -0.048868436 -0.06858934 0.04002028 -0.0327972 -0.033029187 0.060857445
-0.05210317 0.10375789 -0.024863048 0.024949055 -0.0044047143 -0.027404668 -0.027564973 0.043832447
-0.10480505 -0.010886766 -0.073762864 -0.04596147 0.050070506 0.089836486 0.0314786 -0.044760577
0.06608179 0.029857183 -0.10698717 0.14664873 -0.025370102 0.027555568 -0.05173267 0.07405158
-0.0738368 -0.023909232 0.06365802 0.07075396 0.0064641414 -0.0149590215 -0.083677225 0.077283144
-0.08538926 -0.038166936 0.08311693 0.047754455 -0.09774161 -0.08032034 -0.02874534 -0.047016226
0.036831204 0.033852156 -0.059375715 0.07459227 0.03792862 -0.10290435 0.06423021 -0.031079149
-0.024362138 -0.10474666 0.0875046 -0.07191798 0.02679236 -0.09488535 0.0085689705 -0.043637052
0.009161345 0.018328132 -0.09198508 0.047185306 -0.10440281 0.0605159 0.08674426 -0.05586892
-0.05864111 -0.095032014 -0.08289585 -0.059701107 0.05244716 -0.11436828 0.009641352 -0.04110541
-0.022668105 -0.05768875 -0.094332725 -0.08947888 -0.055301543 -0.024945598 0.07688762 0.019976916
-0.020878416 0.104204886 -0.007947945 0.024021778 -0.017865483 -0.0027380604 0.07329546 0.096615866
0.040456083 -0.01618 0.012068466 -0.04246905 0.0181376 -0.09101638 0.042358406 0.0053023705
-0.12741596 -0.05423559 -0.010754344 0.050631713 0.030382311 -0.09198738 -0.087328054 0.040030733
-0.09181355 -0.08880752 0.09946172 0.09190903 0.09368295 -0.025776634 -0.079098634 -0.04393966
0.095319234 0.12619609 -0.06285889 0.08978824 -0.020302143 0.008331428 -0.12901407 0.037318416
-0.04497319 0.056296844 -0.00095154875 0.063650064 -0.057840806 0.034059722 0.055014692 0.02711056
-0.13542351 -0.07761397 0.086469 0.11174849 -0.069955476 0.011866652 0.1024701 0.09084604
0.06542096 0.103057034 -0.045240983 -0.018674603 -0.021464707 -0.01695882 -0.06489599 0.038339242
0.07320604 0.054459725 -0.040423047 -0.023397688 -0.015807692 -0.026275866 0.06330352 0.016331617
-0.069242366 -0.11586253 0.10012235 0.07255005 0.05011978 0.10657555 0.022678692 -0.09610801
-0.11193687 0.013684939 -0.07093528 -0.001389367 0.012622427 0.07690247 -0.0047590667 0.07504815
-0.03185236 -0.029369479 0.05926514 -0.069194846 0.035194017 0.0058913943 -0.0676155 -0.081049316
-0.039636735 -0.073396124 0.0410015 0.056348532 -0.060126316 -0.07547584 -0.05475396 -0.09727294
-0.0069446783 0.055970278 -0.010856434 -0.06023746 -0.040793628 -0.03156466 -0.118553944 -0.09090825
-0.058744736 -0.042894647 -0.060040206 -0.008492771 -0.011727069 -0.04289955 -0.00042564387 -0.01501427
00000000: b1eb 95bd 36c8 2cbd a77b aabc 0eeb 4c3c
00000010: b172 133d 5f5f f2bd 2fd1 253d 3653 473d
00000020: 4b7c 9f3d 1609 aa3d 4574 103d 03d2 c03d
00000030: 74c6 873d 3cec a63c 7793 7f3d a771 513d
00000040: 2570 d03d 7fba 813c dd3d bc3b 4a36 a3bd
00000050: 3ba9 68bd 8b2f 363d 1675 983d 5e06 14bc
00000060: 9838 fcbc 91cf 953d c975 57bd 5cb8 fbbc
00000070: 4784 1a3d c6db 773d f9d2 023e 97f3 02bd
00000080: 6bc9 04bc 7146 61bc d369 e8bc f37c 64bd
00000090: d15c 063d aaac 583d bbe4 a93b 785d 33bd
000000a0: 9981 f2bd 349c eebd 8611 273d 886e 9a3d
000000b0: c965 25bd d54d d83d 6dbd 8fbd 034c babd
000000c0: 1a00 7cbd 5e76 f3bd 452a 48bd 9178 8cbd
000000d0: 4eec 233d 5b56 06bd 9d49 07bd a845 793d
000000e0: 226a 55bd 047f d43d 97ad cbbc f661 cc3c
000000f0: 6c55 90bb c17f e0bc f0cf e1bc a789 333d
00000100: 08a4 d6bd 685e 32bc fc10 97bd 1842 3cbd
00000110: bb16 4d3d 31fc b73d b4ef 003d de56 37bd
00000120: e455 873d 0d97 f43c 171c dbbd 162b 163e
00000130: f6d4 cfbc 37bc e13c a3e5 53bd 5ba8 973d
00000140: c037 97bd 4bdd c3bc 235f 823d 74e7 903d
00000150: 26d1 d33b af16 75bc f75e abbd a046 9e3d
00000160: 90e0 aebd ef54 1cbd 3639 aa3d 2d9a 433d
00000170: c12c c8bd fe7e a4bd 597b ebbc 1694 40bd
00000180: 51dc 163d 8fa8 0a3d f333 73bd d5c3 983d
00000190: 0a5b 1b3d 84bf d2bd 218b 833d b399 febc
000001a0: 1b93 c7bc 6b85 d6bd 9d35 b33d bc49 93bd
000001b0: a77b db3c 4053 c2bd de64 0c3c c4bc 32bd
000001c0: 7719 163c e124 963c ac62 bcbd 6145 413d
000001d0: 24d1 d5bd 85df 773d f9a6 b13d cfd6 64bd
000001e0: a931 70bd 25a0 c2bd 4dc5 a9bd 2689 74bd
000001f0: d5d2 563d eb39 eabd c3f6 1d3c 255e 28bd
00000200: 76b2 b9bc 0a4b 6cbd 8431 c1bd b440 b7bd
00000210: df83 62bd b65a ccbc 4277 9d3d a1a6 a33c
00000220: 3609 abbc 5f69 d53d 1938 02bc 52c9 c43c
00000230: a25a 92bc 0871 33bb ee1b 963d 8ade c53d
00000240: 47b5 253d eb8b 84bc d1ba 453c 07f4 2dbd
00000250: 4e95 943c cc66 babd 0280 2d3d 82bf ad3b
00000260: 5479 02be 2326 5ebd fd32 30bc 3363 4f3d
00000270: 53e4 f83c e163 bcbd 0dd9 b2bd 44f7 233d
00000280: be08 bcbd b8e0 b5bd 96b2 cb3d cd3a bc3d
00000290: d9dc bf3d 8529 d3bc 77fe a1bd 13fa 33bd
000002a0: bb36 c33d 8c39 013e 29bc 80bd e6e2 b73d
000002b0: ae50 a6bc 8b80 083c 441c 04be 32db 183d
000002c0: cf35 38bd 8597 663d 5b71 79ba f75a 823d
000002d0: 7bea 6cbd 3582 0b3d 1657 613d f716 de3c
000002e0: 76ac 0abe 13f4 9ebd a916 b13d 64dc e43d
000002f0: d144 8fbd 596c 423c d8db d13d 7d0d ba3d
00000300: 6dfb 853d 910f d33d 9c4e 39bd 7bfb 98bc
00000310: c1d6 afbc 39ed 8abc 30e8 84bd 9c09 1d3d
00000320: 0ced 953d 2911 5f3d a392 25bd 82ac bfbc
00000330: 227f 81bc 7c40 d7bc 47a5 813d e2c9 853c
00000340: f1ce 8dbd 5649 edbd f20c cd3d 1f95 943d
00000350: 664a 4d3d 4844 da3d aac8 b93c 47d4 c4bd
00000360: 283f e5bd cb36 603c 8446 91bd 6c1b b6ba
00000370: 4cce 4e3c 0b7f 9d3d f2f1 9bbb d8b2 993d
00000380: 9f77 02bd 4398 f0bc 01c0 723d 07b6 8dbd
00000390: 9a27 103d 990c c13b ff79 8abd 2ffd a5bd
000003a0: 215a 22bd b550 96bd 30f1 273d b8cd 663d
000003b0: 0347 76bd 1493 9abd b045 60bd 0937 c7bd
000003c0: 2f90 e3bb 1741 653d 2fdf 31bc 8ebb 76bd
000003d0: 3817 27bd f249 01bd 69cc f2bd 1b2e babd
000003e0: 529e 70bd 4cb2 2fbd b8ec 75bd 4325 0bbc
000003f0: e422 40bc 70b7 2fbd f428 dfb9 6afe 75bc

net.3.module.0.bias f4 [32]
-0.022467814 0.008459303 -0.104389116 0.08890117 -0.08898902 0.027887814 0.049920857 -0.046037886
-0.0029251126 -0.10008568 0.015872547 0.10821331 0.047686923 -0.030049117 -0.10585617 0.05850396
0.09208395 -0.07786763 -0.020103099 -0.047467276 -0.08621472 -0.063478224 0.0921857 0.09661598
-0.025241753 -0.087307386 0.05755158 -0.10333559 -0.050095927 0.10713836 0.058178265 0.11280658
00000000: 6c0e b8bc e398 0a3c f6c9 d5bd d111 b63d
00000010: e03f b6bd fc74 e43c d079 4c3d 3992 3cbd
00000020: 3fb3 3fbb b9f9 ccbd 2507 823c f19e dd3d
00000030: 5d53 433d 9129 f6bc 1fcb d8bd d9a1 6f3d
00000040: 8396 bc3d 1079 9fbd 41af a4bc 0c6d 42bd
00000050: 5891 b0bd df00 82bd dbcb bc3d 99de c53d
00000060: cbc7 cebc 37ce b2bd 35bb 6b3d 9ca1 d3bd
00000070: 6331 4dbd 5b6b db3d 554c 6e3d 2307 e73d

net.4.module.0.weight f4 [32, 32, 3]
-0.036985435 -0.0136242835 0.095000386 0.08844568 -0.08251998 -0.09665248 0.005364919 -0.02252196
0.008310583 0.001109714 -0.047136858 -0.086909935 -0.00041669508 0.03153824 -0.057185065 -0.021508677
-0.038530137 0.12379549 0.016321534 0.058639225 0.0025537633 -0.05466867 -0.007378586 -0.07459086
-0.09644366 -0.07728951 -0.01791626 -0.046139035 0.04662697 -0.020327393 0.06949165 -0.009539853
-0.045073558 0.008705364 -0.07939451 -0.08566549 0.03787026 -0.06321725 -0.07009557 -0.10845124
0.059937082 0.08972051 0.060362704 0.061799943 0.024818545 0.05063275 -0.039215233 -0.037555113
0.07735038 -0.0017317605 0.022161309 -0.040650807 -0.0426172 0.034420494 -0.11671871 0.023901783
-0.037779182 0.06692183 -0.08180402 -0.08136747 0.010029617 0.058183853 0.043927483 0.037215486
0.083841056 -0.056987926 -0.10043467 0.010304989 -0.004454326 0.06819246 -0.031539068 0.0044510304
0.021545293 -0.09701135 -0.007276304 0.018558508 -0.04696807 0.014646912 -0.0038997447 -0.03160509
-0.0886563 0.01836626 -0.023149822 0.051473677 -0.004638765 -0.058539137 -0.04149721 -0.06378212
0.10833269 0.0013729681 -0.042862296 -0.0926341 -0.093328334 -0.023098698 0.034850154 -0.09955781
0.09469001 0.05194825 0.0075797886 -0.06765347 -0.042997517 0.07932964 -0.065913126 -0.036637284
-0.07198718 0.07743986 0.00019461277 -0.037606142 0.12809928 0.10774505 -0.056363497 0.055983692
0.05971712 -0.012859017 -0.10904995 0.07752218 -0.06739538 0.038670212 0.0013370762 -0.08782197
0.05321178 -0.07647795 -0.052792568 0.013127825 0.09208677 0.049926184 -0.014720062 -0.097686596
0.006002948 0.024197353 0.029667672 -0.034436233 0.096971974 -0.062820785 0.07081286 -0.057504803
-0.010738454 -0.007223519 0.029832557 0.005122879 -0.02590951 -0.0081806285 -0.058394976 0.095294505
0.038093746 0.09357603 -0.061055683 0.07703163 0.08263007 -0.07463905 0.09221678 -0.12549065
-0.0671716 -0.024341855 0.04020471 0.09756688 0.05463608 0.016531838 0.0017139871 0.070982866
0.08532557 0.023837952 0.08019094 0.10223365 -0.00062573625 0.05342298 -0.0359867 0.0006451458
0.005061523 -0.046785787 -0.052438654 -0.011644446 -0.005313587 -0.054462433 0.08216473 -0.029171128
-0.038165607 0.051343143 -0.022189977 -0.020297773 -0.053986635 0.012839833 -0.07041423 -0.055630047
0.06205789 0.04751065 0.025184982 -0.05731535 0.023178177 0.065791965 0.08656536 0.014089026
-0.035732422 0.036114108 -0.062050074 0.07671685 -0.012452415 0.053360537 -0.039175168 -0.05418075
-0.049239464 0.032690354 -0.083951205 -0.11861348 -0.09791191 -0.03346124 0.06402347 0.0017270778
-0.017024523 0.05802416 0.12696992 0.08510152 0.11331099 0.085250154 -0.07526382 0.0666406
0.0857722 0.028188592 -0.0846164 -0.06371857 -0.07243739 -0.009943557 0.004807456 -0.053778917
-0.038552012 0.091202125 -0.0045770095 0.044386532 -0.065970056 -0.0263804 -0.08730815 0.036959376
0.013680451 -0.07546732 0.05721944 0.04630484 -0.07431867 0.0984855 -0.04870121 0.014938573
0.018615391 -0.054078087 -0.07239545 0.103337884 0.12027652 -0.07555469 0.019953959 -0.015743658
-0.020176318 -0.036596388 0.09401776 -0.057855427 0.101983204 -0.032465547 0.11582744 0.100795
00000000: 0a7e 17bd 6338 5fbc 908f c23d 0223 b53d
00000010: 3c00 a9bd bcf1 c5bd 34cc af3b f97f b8bc
00000020: 1d29 083c d373 913a 9412 41bd d6fd b1bd
00000030: de77 dab9 3e2e 013d e33a 6abd f732 b0bc
00000040: c7d1 1dbd 7d88 fd3d bdb4 853c af2f 703d
00000050: 0a5d 273b 41ec 5fbd 11c8 f1bb 18c3 98bd
00000060: 4184 c5bd f649 9ebd 1fc5 92bc 49fc 3cbd
00000070: ecfb 3e3d a285 a6bc a351 8e3d 0b4d 1cbc
00000080: 0d9f 38bd f1a0 0e3c 9799 a2bd 6371 afbd
00000090: d91d 1b3d 0c78 81bd 448e 8fbd af1b debd
000000a0: 9680 753d 63bf b73d e23e 773d f021 7d3d
000000b0: 4350 cb3c 4964 4f3d 27a0 20bd 64d3 19bd
000000c0: e069 9e3d 3dfc e2ba a28b b53c 7681 26bd
000000d0: 608f 2ebd 81fc 0c3d 380a efbd accd c33c
000000e0: 58be 1abd 500e 893d de88 a7bd fda3 a6bd
000000f0: 4353 243c 3152 6e3d 4eed 333d 446f 183d
00000100: dcb4 ab3d 2c6c 69bd b1b0 cdbd 42d6 283c
00000110: 98f5 91bb 7da8 8b3d 1c2f 01bd f3d9 913b
00000120: c17f b03c e3ad c6bd 106e eebb 0308 983c
00000130: 9761 40bd 9af9 6f3c dc92 7fbb 5774 01bd
00000140: 6f91 b5bd d774 963c b2a4 bdbc 10d6 523d
00000150: c800 98bb bcc6 6fbd faf8 29bd 33a0 82bd
00000160: 88dd dd3d 2af5 b33a 6090 2fbd f2b6 bdbd
00000170: ed22 bfbd 7b39 bdbc 09bf 0e3d f7e4 cbbd
00000180: d6ec c13d b0c7 543d e05f f83b e78d 8abd
00000190: 2a1e 30bd 9477 a23d 76fd 86bd fa10 16bd
000001a0: 046e 93bd ca98 9e3d f810 4c39 e608 1abd
000001b0: 752c 033e 70a9 dc3d 69dd 66bd 284f 653d
000001c0: f099 743d a0ae 52bc 9555 dfbd f3c3 9e3d
000001d0: 9706 8abd a864 1e3d d540 af3a 01dc b3bd
000001e0: 98f4 593d 79a0 9cbd 053d 58bd 1716 573c
000001f0: fd97 bc3d 667f 4c3d 6a2c 71bc e90f c8bd
00000200: 61b4 c43b 8739 c63c 9e09 f33c 020d 0dbd
00000210: 3e99 c63d 2fa8 80bd 5506 913d 288a 6bbd
00000220: 57f0 2fbc 45b3 ecbb 6863 f43c d3dd a73b
00000230: 2e40 d4bc 0b08 06bc 922f 6fbd c429 c33d
00000240: 3008 1c3d caa4 bf3d 8615 7abd c2c2 9d3d
00000250: f439 a93d 5cdc 98bd 27dc bc3d 9f80 00be
00000260: 4491 89bd 9268 c7bc b2ad 243d 25d1 c73d
00000270: 15ca 5f3d c76d 873c dda7 e03a 775f 913d
00000280: 2cbf ae3d cf47 c33c 263b a43d e05f d13d
00000290: 7308 24ba 0ed2 5a3d ca66 13bd 001f 293a
000002a0: 22db a53b 74a2 3fbd eac9 56bd 59c8 3ebc
000002b0: 991d aebb 0014 5fbd fb45 a83d 4af8 eebc
000002c0: 8a53 1cbd 304d 523d c1c7 b5bc 8447 a6bc
000002d0: 1721 5dbd 2a5e 523c 5635 90bd 55dc 63bd
000002e0: 6a30 7e3d 879a 423d bc50 ce3c 80c3 6abd
000002f0: 29e0 bd3c f0bd 863d 2e49 b13d a8d5 663c
00000300: 295c 12bd 63ec 133d 3828 7ebd b91d 9d3d
00000310: 3705 4cbc 9490 5a3d 2476 20bd a2ec 5dbd
00000320: 52af 49bd 52e6 053d 9cee abbd a0eb f2bd
00000330: 0a86 c8bd a70e 09bd bd1e 833d 1d5f e23a
00000340: 0377 8bbc beaa 6d3d 6704 023e b549 ae3d
00000350: 980f e83d a297 ae3d eb23 9abd de7a 883d
00000360: 56a9 af3d c3eb e63c 5d4b adbd e27e 82bd
00000370: 0e5a 94bd 4dea 22bc dd87 9d3b 4847 5cbd
00000380: b7e8 1dbd 2ec8 ba3d bdfa 95bb a7ce 353d
00000390: 4f1b 87bd b51b d8bc 9ece b2bd b762 173d
000003a0: f823 603c 9c8e 9abd ee5e 6a3d 25aa 3d3d
000003b0: 6334 98bd c4b2 c93d ec7a 47bd ebc0 743c
000003c0: 4e7f 983c fc80 5dbd 1144 94bd d0a2 d33d
000003d0: 8953 f63d 6bbc 9abd 7c76 a33c d8f8 80bc
000003e0: ce48 a5bc 18e6 15bd 628c c03d d0f9 6cbd
000003f0: 92dc d03d 98fa 04bd f036 ed3d 9c6d ce3d

net.4.module.0.bias f4 [32]
-0.03893322 -0.07512688 0.033248972 0.048974536 -0.09092931 -0.06501413 -0.041884035 -0.036257897
0.063089706 0.030960647 -0.08349016 0.017947504 0.053467058 0.038067132 0.0012089969 -0.04438155
0.008231099 0.0636884 0.11316214 0.03390652 -0.10150059 -0.040979393 -0.05724508 -0.08864756
0.036930207 0.08062736 0.057314135 0.018932506 -0.04381721 -0.08764887 -0.030845577 0.024090959
00000000: 7178 1fbd 1fdc 99bd 1330 083d 8699 483d
00000010: 2539 babd 2126 85bd 988e 2bbd 2983 14bd
00000020: 2d35 813d 2fa1 fd3c e4fc aabd a506 933c
00000030: 4600 5b3d 48ec 1b3d 3477 9e3a 6ec9 35bd
00000040: bbdb 063c 106f 823d 8dc1 e73d 90e1 0a3d
00000050: 8bdf cfbd 02da 27bd d179 6abd da8c b5bd
00000060: 2144 173d f51f a53d 3ac2 6a3d 5818 9b3c
00000070: ad79 33bd 4081 b3bd ddaf fcbc 675a c53c

net.5.weight f4 [48, 32, 3]
0.07151302 -0.058863394 0.03925784 -0.0014542396 0.12192397 -0.06833694 0.0756853 0.0041899313
-0.104698285 0.07266727 -0.057731967 -0.01046712 -0.112210825 0.005153557 0.07794167 0.049890872
-0.0097631635 0.07847232 -0.012835658 0.08921577 -0.040856574 0.0954965 -0.08971376 -0.07733714
-0.090697445 -0.0036824995 -0.081067026 0.08549908 0.045944434 -0.10776653 -0.0015748638 -0.0076143136
0.029122788 -0.012697712 0.028367262 -0.05457435 -0.07511932 0.087942205 0.0533933 0.0041449373
-0.04475328 -0.0020401345 -0.09202144 0.09650213 -0.056085415 0.013985882 0.07264602 0.111626536
0.055730496 0.024556072 0.068834685 0.092036046 0.059768166 -0.02701245 -0.09284302 0.015445289
-0.040368207 0.092329726 -0.048177928 0.079141095 0.056445528 0.00047178136 -0.01920117 -0.07916379
0.1083418 -0.06735961 0.02774694 -0.042632718 -0.007921705 0.02688401 -0.056908753 0.06417127
-0.031341705 0.053168762 0.023348581 0.108270854 0.0010126798 -0.077928714 -0.00018012447 -0.00038126955
0.04678887 0.023517905 -0.011758069 -0.06972936 -0.13747358 0.015817504 -0.0079333065 -0.09584442
0.038821366 0.05799658 0.046938274 0.009791265 -0.05043497 -0.024770986 0.02985372 0.048109237
0.021096122 -0.03908035 -0.05830044 -0.10380747 -0.0043281815 0.036629755 0.050655663 -0.07474365
0.04311575 0.09991802 0.049844544 0.030672614 0.040453188 -0.048142996 0.041728158 -0.054011907
-0.043196123 0.11117309 0.09104031 -0.033485517 -0.0010422434 -0.027913593 -0.014147032 -0.042898197
-0.09324323 -0.012259467 0.059744567 -0.07053853 0.0048081875 -0.01535431 -0.13933969 0.081192985
0.053661115 0.0024484552 0.044147853 -0.039665785 0.08532966 -0.02353814 -0.010087266 0.06781985
0.0758105 0.10272104 -0.021813814 -0.114204645 -0.08319317 0.038743187 -0.0010356633 -0.02637874
0.07471002 0.041934498 0.07736549 0.058364145 -0.07275968 0.073280804 0.094439864 0.08102289
0.039159086 0.038083795 0.055427395 -0.02174276 -0.060279444 -0.0075088125 0.029450813 -0.031491607
-0.049130246 -0.08223423 -0.08618127 0.09385775 0.051161427 -0.038736552 0.10146224 -0.08713678
-0.02151599 -0.039056346 -0.1161936 0.07247422 0.09362362 -0.09002772 0.059182443 0.063838854
0.028463965 -0.08293831 0.015516302 -0.02395382 -0.083459005 -0.051829964 -0.10540343 0.007017046
-0.04483352 -0.03558454 -0.028633002 0.018483728 -0.045369867 -0.057015225 0.05688823 0.06859282
-0.09709312 -0.0090507055 -0.025003286 -0.114029095 0.03938934 0.05913098 0.023894522 -0.0032560958
0.044321343 0.062081315 -0.02468686 -0.06732099 -0.036998764 -0.018152121 -0.039872207 0.0390694
-0.023053471 0.06587697 0.0024568976 -0.06281887 0.025723465 -0.1062959 0.07288947 -0.099990964
-0.12314872 0.035149388 -0.119313166 0.091713294 0.018236881 -0.007414666 -0.06854106 -0.05273368
0.01586843 -0.03947547 -0.050232165 -0.089965396 0.03477362 0.040072326 0.06851177 -0.0800726
0.11888014 -0.022262389 -0.10898673 0.06828065 -0.021405395 -0.13268743 0.04307807 -0.12543437
-0.053131644 0.07330259 0.1605775 0.0460857 -0.05175657 -0.051615443 0.026499787 -0.026790157
0.06435515 -0.007935521 -0.036571402 0.013158941 -0.10947726 -0.032771695 0.0680455 0.03778719
00000000: 6b75 923d be1a 71bd d4cc 203d 2f9c beba
00000010: 46b3 f93d 3df4 8bbd e500 9b3d b14b 893b
00000020: 0e6c d6bd 94d2 943d 5b78 6cbd 497e 2bbc
00000030: cace e5bd 2bdf a83b e29f 9f3d 5f5a 4c3d
00000040: adf5 1fbc 19b6 a03d a74c 52bc c2b6 b63d
00000050: 3959 27bd ab93 c33d d9bb b7bd ef62 9ebd
00000060: 95bf b9bd 1756 71bb 7806 a6bd 241a af3d
00000070: 3b30 3c3d b3b4 dcbd a96b ceba 7e81 f9bb
00000080: ea92 ee3c 100a 50bc 7662 e83c 5b89 5fbd
00000090: 28d8 99bd 0b1b b43d efb2 5a3d 41d2 873b
000000a0: 374f 37bd c7b3 05bb bd75 bcbd e9a2 c53d
000000b0: d2b9 65bd 0a25 653c 70c7 943d 749c e43d
000000c0: a945 643d d129 c93c 33f9 8c3d 657d bc3d
000000d0: 77cf 743d 3749 ddbc 7b24 bebd 3d0e 7d3c
000000e0: 2259 25bd 5e17 bd3d 3856 45bd ba14 a23d
000000f0: 6d33 673d 6c59 f739 c64b 9dbc a020 a2bd
00000100: 4ee2 dd3d d6f3 89bd 8d4d e33c a59f 2ebd
00000110: 0aca 01bc db3b dc3c 2719 69bd 3a6c 833d
00000120: 2960 00bd 7dc7 593d 8645 bf3c 1cbd dd3d
00000130: e5bb 843a 1799 9fbd cbdf 3cb9 22e5 c7b9
00000140: b0a5 3f3d 9fa8 c03c eaa4 40bc 44ce 8ebd
00000150: e0c5 0cbe b693 813c b3fa 01bc 144a c4bd
00000160: 2703 1f3d d28d 6d3d 5942 403d 8b6b 203c
00000170: e694 4ebd 86ec cabc ca8f f43c 310e 453d
00000180: c6d1 ac3c b812 20bd 71cc 6ebd 0399 d4bd
00000190: 6bd3 8dbb 1509 163d 507c 4f3d 3313 99bd
000001a0: 249a 303d d2a1 cc3d cb29 4c3d 2245 fb3c
000001b0: 3eb2 253d 9731 45bd 25eb 2a3d 973b 5dbd
000001c0: 6bee 30bd b8ae e33d 5873 ba3d 1c28 09bd
000001d0: e39b 88ba 0cab e4bc f4c8 67bc 05b6 2fbd
000001e0: 4ef6 bebd eedb 48bc b8b6 743d 8176 90bd
000001f0: 008e 9d3b a590 7bbc 10af 0ebe 8248 a63d
00000200: c2cb 5b3d 4376 203b 61d4 343d 9778 22bd
00000210: 51c1 ae3d 0fd3 c0bc 0f45 25bc 22e5 8a3d
00000220: 8942 9b3d 695f d23d e2b2 b2bc 20e4 e9bd
00000230: 2e61 aabd 2db1 1e3d 18bf 87ba 3a18 d8bc
00000240: 9101 993d 82c3 2b3d cc71 9e3d 3e0f 6f3d
00000250: 0703 95bd 3f14 963d b069 c13d 54ef a53d
00000260: 4765 203d c1fd 1b3d d607 633d df1d b2bc
00000270: 94e7 76bd 7c0c f6bb d542 f13c 58fd 00bd
00000280: cc3c 49bd 6c6a a8bd ce7f b0bd 7e38 c03d
00000290: a58e 513d 38aa 1ebd 6fcb cf3d c574 b2bd
000002a0: 4d42 b0bc 8cf9 1fbd e9f6 edbd 5d6d 943d
000002b0: bebd bf3d 7460 b8bd 4a69 723d f2bd 823d
000002c0: 432d e93c 90db a9bd 1638 7e3c cd3a c4bc
000002d0: 8eec aabd a84b 54bd c1dd d7bd 40ef e53b
000002e0: 5aa3 37bd 18c1 11bd c28f eabc 306b 973c
000002f0: c1d5 39bd cc88 69bd a203 693d 647a 8c3d
00000300: c2d8 c6bd 6949 14bc b1d3 ccbc 1688 e9bd
00000310: b756 213d 5433 723d 72be c33c 3964 55bb
00000320: 4c8a 353d fa48 7e3d 193c cabc 96df 89bd
00000330: 048c 17bd c2b3 94bc 0a51 23bd 3c07 203d
00000340: a2da bcbc 81ea 863d e703 213b 2ea7 80bd
00000350: 04ba d23c aab1 d9bd 1347 953d 10c8 ccbd
00000360: 6535 fcbd cef8 0f3d 765a f4bd 2ed4 bb3d
00000370: 8365 953c baf6 f2bb 415f 8cbd 45ff 57bd
00000380: 82fe 813c 08b1 21bd 3ec0 4dbd c73f b8bd
00000390: c96e 0e3d e122 243d e64f 8c3d 1afd a3bd
000003a0: 6e77 f33d 9d5f b6bc 6f34 dfbd bad6 8b3d
000003b0: 5e5a afbc 37df 07be a172 303d de71 00be
000003c0: 91a0 59bd ab1f 963d 6e6e 243e 5cc4 3c3d
000003d0: b2fe 53bd b76a 53bd 1516 d93c 0877 dbbc
000003e0: a2cc 833d fd03 02bc e5cb 15bd 9998 573c
000003f0: 9d35 e0bd 9d3b 06bd 705b 8b3d bec6 1a3d

net.5.bias f4 [48]
-0.019079775 -0.0012752572 0.006939535 -0.036895994 -0.017304715 0.018534828 0.08299691 -0.064684674
0.04145298 0.060004693 0.017671669 0.022320658 0.047418248 -0.013134396 -0.08763847 -0.067415565
0.031636048 0.089538455 0.08340206 0.09725573 -0.053087916 0.025346112 -0.0616581 -0.08245516
0.04301408 0.030529888 0.0012860523 -0.028409246 -0.042851556 -0.094440386 -0.04585272 -0.075506054
0.042671327 -0.03129967 0.03588914 0.057516135 -0.04440012 -0.087743595 0.05532216 0.002588808
0.0035159742 0.07025609 -0.08864105 -0.028322244 0.023610204 0.035032712 -0.08529589 -0.004482806
00000000: 304d 9cbc 8826 a7ba 0a65 e33b 4120 17bd
00000010: 9ec2 8dbc 5ad6 973c 49fa a93d 6679 84bd
00000020: 9aca 293d 7bc7 753d 2dc4 903c d0d9 b63c
00000030: a339 423d a631 57bc cc7b b3bd 2c11 8abd
00000040: cd94 013d f05f b73d b3ce aa3d 032e c73d
00000050: b772 59bd a6a2 cf3c 348d 7cbd 40de a8bd
00000060: 882f 303d d119 fa3c c190 a83a 82ba e8bc
00000070: 1d85 2fbd f669 c1bd 10d0 3bbd eba2 9abd
00000080: 21c8 2e3d 1534 00bd 7e00 133d 0a96 6b3d
00000090: e6dc 35bd eab2 b3bd 7d99 623d fea8 293b
000000a0: 426c 663b 6de2 8f3d 7089 b5bd 0d04 e8bc
000000b0: 306a c13c 767e 0f3d 9daf aebd 81e4 92bb

exp_avg f4 [32, 191, 2]
-0.005218132 -0.0070947367 -0.0034467978 0.005777101 0.011356807 0.0204692 -0.02585794 -0.014896523
-0.02918269 -0.018613549 -0.009276599 -0.015358938 -0.011755913 -0.025702251 -0.002778878 -0.0016973665
0.018103544 0.022719402 0.005942382 1.834575e-05 -0.01738863 -0.009148127 -0.029761 -0.014468505
-0.024233857 -0.018708067 -0.0046608266 0.0072379867 0.00915899 0.0120123075 -0.0040664324 0.002082957
-0.009420037 -0.0004167475 0.016825471 0.028996022 -0.0069441358 -0.016669426 0.0072010667 0.0053555937
-0.011021948 0.0043918784 -0.015526778 -0.028036965 0.0073005115 0.0076428703 0.017014384 0.017224865
0.014625088 0.00035819516 0.004562065 0.006490806 0.0105169 0.019863961 0.021110145 0.014838003
0.018865408 0.00602581 0.0043861717 -0.0030792821 -0.0027936392 -0.01321815 -0.02604745 -0.019812899
-0.00043671162 -0.010344986 -0.0058020516 -0.009728805 0.012282106 0.018178051 -0.00010983462 0.012055745
-0.01391389 6.25997e-05 -0.0084328735 -0.0070250058 -0.0022612226 -0.005351944 0.004724289 -0.012689023
0.00014827552 0.0025899105 -0.011753324 -0.014547606 -0.024368064 -0.026938034 -0.0035697352 -0.0040221126
0.0280736 0.039650988 -0.015076982 -0.0034565907 -0.036823295 -0.030971982 0.0020719606 0.0077617667
0.005865364 0.022804901 -0.033673838 -0.021430137 0.0047420464 0.0046898792 -0.029316364 -0.013550351
0.00024792238 -0.008538554 -0.030378457 -0.04146772 0.010076249 -0.0026172686 -0.042920053 -0.04208229
0.025493072 0.023852887 -0.023765432 -0.0138227185 -0.0057370714 -0.028166441 -0.0013776337 0.014021611
0.014761055 -0.004230583 -0.032945633 -0.032844055 -0.024598334 -0.007003393 -0.029447976 -0.0103630265
0.008778137 0.008425396 8.964161e-05 -0.0064490233 -0.014371647 -0.022093669 0.0051391954 0.014686164
-0.0007449263 0.0009506669 -0.022958497 -0.010359134 -0.019515408 0.002135361 -0.001414359 -0.0008742722
-0.004053439 0.0072368914 -0.021103434 -0.007250995 -0.0057459273 -0.008385596 0.017892003 0.018079355
-0.01652665 0.0039036323 -0.020247424 -0.018366562 -0.017485848 -0.0049726027 -0.052650414 -0.050979234
-0.020570422 -0.029473672 -0.023730945 -0.008286234 -0.05043534 -0.05243086 -0.016998345 -0.006396648
-0.004959907 -0.0085146 -0.00856204 0.0037618782 -0.03671152 -0.025484907 -0.044218656 -0.038899057
-0.011453636 -0.010572825 0.00087957166 -0.016453307 -0.019029217 -0.02459717 -0.018472502 -0.022476032
-0.0062993546 -0.023490906 0.02314568 0.014160686 0.014403493 0.027598215 -0.029396346 -0.03500276
-0.023696126 -0.00850641 -0.005499016 -0.009938442 -0.06864269 -0.03778218 -0.0059984825 -0.01263798
-0.022112215 -0.009706634 -0.05198042 -0.031653035 -0.0047770427 -0.016803352 -0.014967302 -0.010592312
0.006173994 0.013866895 -0.013374013 -0.02653306 -0.016839786 -0.044273544 -0.016132174 -0.0131779695
0.0012111459 -0.0027704563 -0.03600273 -0.032078806 -0.02485738 -0.022102976 -0.012367889 -0.017578071
-0.004192085 -0.024398545 -0.016314039 -0.024185292 -0.022842716 -0.036631808 -0.022861902 -0.01701358
-0.020854294 -0.011649509 0.02229096 0.019916138 0.008913742 0.0039847014 -0.0009401342 -0.013570742
-0.0090884175 -0.005863623 -0.043918297 -0.030657768 -0.04447149 -0.013068886 -0.0047131865 9.480233e-05
-0.003810321 -0.00028632992 -0.00817299 0.010020806 -0.012569503 -0.021454057 -0.018046446 -0.029019654
00000000: ddfc aabb f77a e8bb ace3 61bb d64d bd3b
00000010: e711 3a3c 06af a73c 08d4 d3bc 8c10 74bc
00000020: 8910 efbc 717b 98bc e0fc 17bc 0ea4 7bbc
00000030: df9b 40bc 878d d2bc d61d 36bb 2b7a deba
00000040: e24d 943c 0a1e ba3c 50b8 c23b 33e5 9937
00000050: 9a72 8ebc 07e2 15bc 57cd f3bc 4f0d 6dbc
00000060: 1586 c6bc a941 99bc d9b9 98bb a22c ed3b
00000070: 970f 163c 45cf 443c b53f 85bb 3882 083b
00000080: 8056 1abc e77e dab9 92d5 893c 1189 ed3c
00000090: a28b e3bb 528e 88bc edf6 eb3b fa7d af3b
000000a0: 6795 34bc bfe9 8f3b 0764 7ebc c7ad e5bc
000000b0: 2139 ef3b 0b71 fa3b c061 8b3c 291b 8d3c
000000c0: 119e 6f3c 24cc bb39 607d 953b d4b0 d43b
000000d0: 134f 2c3c bfb9 a23c 2fef ac3c 181b 733c
000000e0: a18b 9a3c 2874 c53b e0b9 8f3b c8cd 49bb
000000f0: 7d15 37bb f090 58bc 7661 d5bc a94e a2bc
00000100: 71f6 e4b9 047e 29bc 231f bebb 9165 1fbc
00000110: e33a 493c 23ea 943c 0357 e6b8 7685 453c
00000120: 16f7 63bc f547 8338 092a 0abc 0532 e6bb
00000130: 0531 14bb 5c5f afbb 35ce 9a3b 9fe5 4fbc
00000140: 687a 1b39 7dbb 293b 0491 40bc 1559 6ebc
00000150: 899f c7bc 27ad dcbc 38f2 69bb edcb 83bb
00000160: 9bfa e53c 1369 223d 7205 77bc f887 62bb
00000170: 06d4 16bd f4b8 fdbc bbc9 073b 6b56 fe3b
00000180: 3d32 c03b 58d1 ba3c 94ed 09bd 418e afbc
00000190: 2b63 9b3b 8fad 993b df28 f0bc 4b02 5ebc
000001a0: 94fb 8139 4be5 0bbc 3edc f8bc 0eda 29bd
000001b0: da16 253c 7b86 2bbb f0cc 2fbd 7b5e 2cbd
000001c0: d9d6 d03c 2167 c33c b9af c2bc af78 62bc
000001d0: 0bfe bbbb 4fbd e6bc b791 b4ba e6ba 653c
000001e0: 5ad8 713c b4a0 8abb 00f2 06bd 7d87 06bd
000001f0: 7282 c9bc b87c e5bb e23c f1bc afc9 29bc
00000200: 2dd2 0f3c ac0a 0a3c f9fd bb38 5452 d3bb
00000210: 0e77 6bbc c8fd b4bc b266 a83b 3d9e 703c
00000220: 2847 43ba 2d36 793a 7513 bcbc 5bb9 29bc
00000230: c7de 9fbc 6af1 0b3b 0362 b9ba 6a2f 65ba
00000240: b6d2 84bb 7223 ed3b 1ce1 acbc c199 edbb
00000250: 5548 bcbb bd63 09bc 4092 923c 281b 943c
00000260: e662 87bc 15d4 7f3b eddd a5bc 7975 96bc
00000270: 7b3e 8fbc 37f1 a2bb f6a7 57bd 9acf 50bd
00000280: 4d83 a8bc c572 f1bc 6667 c2bc fcc2 07bc
00000290: 4995 4ebd bec1 56bd 1d40 8bbc f99a d1bb
000002a0: b786 a2bb d280 0bbc cc47 0cbc d889 763b
000002b0: d25e 16bd b9c5 d0bc 9f1e 35bd 9e54 1fbd
000002c0: 08a8 3bbc a439 2dbc 0e93 663a 16c9 86bc
000002d0: 29e3 9bbc 0180 c9bc a553 97bc a81f b8bc
000002e0: d16a cebb 0070 c0bc 029c bd3c 3902 683c
000002f0: a1fc 6b3c a715 e23c 9bd0 f0bc 0e5f 0fbd
00000300: 611e c2bc 785e 0bbc 1731 b4bb d9d4 22bc
00000310: 8a94 8cbd 7dc1 1abd eb8e c4bb 880f 4fbc
00000320: ad24 b5bc 9308 1fbc 6ce9 54bd 9da6 01bd
00000330: bd88 9cbb 2fa7 89bc 6a39 75bc 608b 2dbc
00000340: 374f ca3b f931 633c ad1e 5bbc dc5b d9bc
00000350: 97f3 89bc 2d58 35bd 9f27 84bc 69e8 57bc
00000360: 50bf 9e3a 8b90 35bb 9977 13bd 1165 03bd
00000370: b4a1 cbbc 4d11 b5bc b0a2 4abc e3ff 8fbc
00000380: c25d 89bb 75df c7bc 05a5 85bc 3c20 c6bc
00000390: a620 bbbc 3c0b 16bd e248 bbbc 1060 8bbc
000003a0: a0d6 aabc 95dd 3ebc 889b b63c 2b27 a33c
000003b0: f20a 123c 1992 823b 5773 76ba d157 5ebc
000003c0: 96e7 14bc a323 c0bb ace3 33bd 0026 fbbc
000003d0: bd27 36bd e11e 56bc 1371 9abb 9dd0 c638
000003e0: 94b6 79bb 8d1e 96b9 01e8 05bc 4f2e 243c
000003f0: 51f0 4dbc 6bc0 afbc 24d6 93bc a0ba edbc

exp_avg_sq f4 [32, 191, 2]
0.00086997927 0.0008432532 0.025977883 0.02810636 0.034603212 0.029619059 0.047517505 0.056809716
0.0681189 0.063652776 0.009392308 0.01231382 0.01311002 0.015633162 0.029683346 0.03097748
0.019097727 0.022971636 0.024658078 0.030786976 0.017521882 0.021302931 0.055268623 0.049948238
0.010319027 0.013601977 0.03642704 0.03990673 0.016573075 0.022046326 0.07289625 0.071947426
0.004895269 0.006093367 0.02133068 0.02634803 0.025112772 0.035126258 0.024788493 0.030491902
0.018123504 0.014546651 0.03419352 0.03258312 0.03325816 0.04370155 0.009179063 0.01512331
0.031709857 0.04373643 0.011522265 0.016654313 0.024647297 0.019537112 0.016928136 0.021996956
0.015266021 0.015819866 0.007559134 0.008403845 0.015778115 0.025017349 0.038203493 0.033386394
0.015415019 0.020874782 0.038529925 0.0356952 0.013595601 0.018258868 0.031558745 0.035266574
0.020991454 0.03197751 0.03160872 0.036363427 0.036988173 0.03629021 0.02318524 0.025915923
0.023276014 0.029147591 0.020898664 0.026378043 0.017707951 0.017903076 0.022100488 0.027876662
0.01705408 0.015819348 0.035344195 0.034450483 0.0355291 0.039973944 0.06729754 0.065438084
0.011092164 0.01185131 0.021538518 0.028842317 0.017108297 0.019636692 0.030795127 0.027133059
0.029144116 0.033070218 0.01074119 0.0152368145 0.011978583 0.016666034 0.016034411 0.016128222
0.019670641 0.024396244 0.021911213 0.020269388 0.027145436 0.025502592 0.024928898 0.030744234
0.018601334 0.02566493 0.018859386 0.01674438 0.010862957 0.011390294 0.030534348 0.043891534
0.030516474 0.035314005 0.03695879 0.04431009 0.04855897 0.045017816 0.026138313 0.027183179
0.029143224 0.030156957 0.031738285 0.030350808 0.051747993 0.04534938 0.03448304 0.03404249
0.013962373 0.018178493 0.017255139 0.019117402 0.032601442 0.034084577 0.021555392 0.027967997
0.025094083 0.024588369 0.020423593 0.024154106 0.020945884 0.026796646 0.016229551 0.017597245
0.02254376 0.020061567 0.015296901 0.017670954 0.016170854 0.020047657 0.026802089 0.027481128
0.010570295 0.011755571 0.019048654 0.022010684 0.015434455 0.01752457 0.016711215 0.020974405
0.020708257 0.02546181 0.013034827 0.014574093 0.01949561 0.017116874 0.023347836 0.023022389
0.012433481 0.012017395 0.015584273 0.011896186 0.016427819 0.012840665 0.033549096 0.02071352
0.032391295 0.036895342 0.037676603 0.039610095 0.053402137 0.045048565 0.0142464535 0.017837191
0.024185425 0.023007814 0.046834137 0.05624894 0.048838202 0.0530877 0.066635124 0.060122546
0.017041255 0.021675343 0.030677376 0.024700947 0.03672149 0.044640634 0.049671814 0.054366216
0.018806042 0.022705989 0.024707437 0.019457454 0.013303821 0.01603765 0.021765454 0.0208053
0.045371898 0.02554155 0.045031708 0.03387261 0.025376158 0.02829834 0.033157017 0.021284759
0.036770884 0.03254428 0.10735775 0.1046228 0.055934507 0.049143273 0.032395232 0.036079135
0.03447269 0.02292923 0.042548172 0.043366432 0.025602283 0.023271795 0.035284698 0.020924289
0.014111186 0.014219572 0.031569578 0.015705334 0.022982366 0.018187035 0.011628197 0.014303854
00000000: 520f 643a c40d 5d3a 92cf d43c 4f3f e63c
00000010: 19bc 0d3d aba3 f23c b7a1 423d 4eb1 683d
00000020: ec81 8b3d 635c 823d 32e2 193c e8bf 493c
00000030: 69cb 563c 1e11 803c 7d2a f33c 7cc4 fd3c
00000040: d672 9c3c 032f bc3c bdff c93c f834 fc3c
00000050: 0d8a 8f3c 7c83 ae3c 5a61 623d 8696 4c3d
00000060: 2311 293c d4da 5e3c 8534 153d 3d75 233d
00000070: 42c4 873c 7f9a b43c a14a 953d 2c59 933d
00000080: 7e68 a03b deaa c73b aebd ae3c d3d7 d73c
00000090: 4db9 cd3c 8de0 0f3d 3d11 cb3c 27ca f93c
000000a0: be77 943c 1455 6e3c 810e 0c3d e175 053d
000000b0: b539 083d 6600 333d c863 163c c2c7 773c
000000c0: 32e2 013d f924 333d e2c7 3c3c a06e 883c
000000d0: 21e9 c93c 4b0c a03c e0ac 8a3c f632 b43c
000000e0: 551e 7a3c aa98 813c 9db2 f73b 48b0 093c
000000f0: 1b41 813c 2ff1 cc3c 447b 1c3d 2cc0 083d
00000100: 478f 7c3c 9701 ab3c 8ed1 1d3d 2135 123d
00000110: 15c0 5e3c 9f93 953c be43 013d af73 103d
00000120: 45f6 ab3c d9fa 023d 2578 013d d1f1 143d
00000130: e980 173d 0ba5 143d f9ee bd3c a14d d43c
00000140: 57ad be3c eec6 ee3c ad33 ab3c c416 d83c
00000150: 4410 913c 79a9 923c 150c b53c 995d e43c
00000160: ffb4 8b3c 9497 813c 13c5 103d f31b 0d3d
00000170: f686 113d b8bb 233d 4bd3 893d 6704 863d
00000180: e8bb 353c ff2b 423c 8c71 b03c b946 ec3c
00000190: b326 8c3c 21dd a03c 1046 fc3c 2646 de3c
000001a0: a4bf ee3c a374 073d d1fb 2f3c d5a3 793c
000001b0: d241 443c 3587 883c 995a 833c 551f 843c
000001c0: 5324 a13c a2da c73c 257f b33c fd0b a63c
000001d0: 1b60 de3c d0ea d03c b037 cc3c 55db fb3c
000001e0: d361 983c 423f d23c 007f 9a3c 832b 893c
000001f0: 8bfa 313c 5b9e 3a3c 2b23 fa3c 9cc7 333d
00000200: affd f93c 6ba5 103d 1a62 173d 7f7e 353d
00000210: c5e5 463d 9a64 383d 0420 d63c 42af de3c
00000220: c5bd ee3c b90b f73c 0100 023d 42a2 f83c
00000230: b4f5 533d 45c0 393d 173e 0d3d 2370 0b3d
00000240: 70c2 643c 10eb 943c a65a 8d3c 199c 9c3c
00000250: 1789 053d 459c 0b3d ef94 b03c 241d e53c
00000260: 1b92 cd3c 8c6d c93c 614f a73c d5de c53c
00000270: b496 ab3c a484 db3c d6f3 843c 1928 903c
00000280: b1ad b83c 2858 a43c da9f 7a3c adc2 903c
00000290: bd78 843c fc3a a43c 0e90 db3c 1a20 e13c
000002a0: 082f 2d3c 709a 403c ec0b 9c3c c04f b43c
000002b0: cce0 7c3c b08f 8f3c f5e5 883c 84d2 ab3c
000002c0: 5da4 a93c 4995 d03c 0790 553c 2dc8 6e3c
000002d0: 42b5 9f3c b038 8c3c f643 bf3c 7399 bc3c
000002e0: cdb5 4b3c 9ce4 443c 2e55 7f3c 38e8 423c
000002f0: a293 863c a761 523c c76a 093d 66af a93c
00000300: bcac 043d 921f 173d c852 1a3d 323e 223d
00000310: 33bc 5a3d d884 383d f569 693c 4d1f 923c
00000320: 8320 c63c e27a bc3c 27d5 3f3d 4a65 663d
00000330: 910a 483d 7d72 593d ff77 883d 0f43 763d
00000340: 1a9a 8b3c 7d90 b13c 1f4f fb3c a459 ca3c
00000350: 4669 163d 19d9 363d ac74 4b3d 1caf 5e3d
00000360: 210f 9a3c e901 ba3c 4067 ca3c 3d65 9f3c
00000370: 45f8 593c 6461 833c 774d b23c e06f aa3c
00000380: e2d7 393d 833c d13c 2b73 383d 02be 0a3d
00000390: a9e1 cf3c ecd1 e73c a7cf 073d 605d ae3c
000003a0: 119d 163d 274d 053d 61de db3d 7b44 d63d
000003b0: 951b 653d 754a 493d ddb0 043d b7c7 133d
000003c0: 3c33 0d3d 15d6 bb3c fe46 2e3d 00a1 313d
000003d0: e1bb d13c 7ea4 be3c b086 103d 6a69 ab3c
000003e0: 9b32 673c 35f9 683c 1a4f 013d 79a8 803c
000003f0: 8445 bc3c fafc 943c 3184 3e3c b65a 6a3c

exp_avg f4 [32]
-0.09965694 -0.10244579 -0.17268443 -0.058758453 -0.1230768 -0.27271318 -0.09056827 0.036614724
0.025713282 -0.019815862 -0.007571199 0.10009014 0.06384234 0.03899977 -0.014828192 -0.16685264
0.029178267 0.03744999 0.0013324019 -0.047630202 -0.084368475 0.004540366 -0.11772398 -0.039972067
0.12032326 -0.0014633315 -0.07107021 -0.06443181 -0.10780745 0.113850236 -0.026255485 0.074300624
00000000: f018 ccbd 19cf d1bd 30d4 30be b4ac 70bd
00000010: b00f fcbd 10a1 8bbe db7b b9bd 52f9 153d
00000020: a9a4 d23c e054 a2bc d217 f8bb 0ffc cc3d
00000030: c6bf 823d 39be 1f3d f2f1 72bc 6bdb 2abe
00000040: 4307 ef3c 2965 193d fda3 ae3a e317 43bd
00000050: 61c9 acbd 5ac7 943b 4519 f1bd c0b9 23bd
00000060: 0b6c f63d 42cd bfba 428d 91bd d3f4 83bd
00000070: 27ca dcbd 502a e93d be15 d7bc ed2a 983d
